log/train_1_1k/models/140_critic.pt (torch_old, 251025 bytes, 5 tensors)

fc1.weight f4 [300, 6]
000000 d6 6e 82 be f5 e0 53 3e a4 c9 4b 3f 1c 7d e4 bd
       -0.25475186 0.20691283 0.79604554 -0.11156675
000010 2b 51 fd be 74 b8 f4 3e c3 6e ab 3e 53 7f 62 3e
       -0.4947599 0.47796977 0.33482942 0.22118883
000020 81 97 47 bf 41 13 f2 be b3 80 4a 3f 8a d4 5c bf
       -0.7796555 -0.47280315 0.7910263 -0.8626181
000030 a5 ab e4 3d e8 6f 4c 3e d6 2e 39 3c d2 90 94 3e
       0.11165551 0.19964564 0.01130267 0.2901674
000040 6f 0a 83 3e 49 fb af be eb b7 2f be 94 81 4b be
       0.25593898 -0.34371403 -0.17160003 -0.19873649
000050 32 85 4e ba 68 be d1 bf fb e7 c2 3e bc b0 92 bf
       -0.0007878124 -1.6386232 0.38067612 -1.1460185
000060 02 c4 f1 3e 2c d8 4e be 2a 2b 44 bf 34 e9 16 3d
       0.47219855 -0.2019965 -0.76628363 0.036843494
000070 39 76 3c 3f a6 01 21 be e8 cf cb bd 7e d5 42 3e
       0.73617893 -0.15723285 -0.09951764 0.19026753
000080 49 e5 e4 be 46 d9 d2 be 2d 77 28 be 5a 15 0e be
       -0.4470618 -0.4118139 -0.16451712 -0.13875332
000090 c5 7d b2 be 2d 07 9e 3e aa c2 f1 be d3 b0 3f c0
       -0.3486158 0.3086485 -0.4721883 -2.9951675
0000a0 95 07 98 3e 1f 66 6c bf ad 81 6d 3e be 45 19 3e
       0.29693285 -0.92343324 0.23193999 0.14968011
0000b0 6b 94 10 3f 30 b6 d1 bf 2a 1e b0 3f dd 12 ae bf
       0.5647647 -1.6383724 1.3759205 -1.3599507
0000c0 c1 d4 01 be 6c ad 03 3f 51 24 2f be 06 1f cd bf
       -0.12678815 0.51436496 -0.17103697 -1.6025093
0000d0 3c f0 68 3e f0 7d 8e bf 45 2d 40 be c7 cb ce 3c
       0.22747892 -1.1132183 -0.18767269 0.025243653
0000e0 16 2a 8e 3f ce 94 91 3f 21 81 a1 3f 4c 11 28 3f
       1.1106594 1.1373537 1.2617532 0.6565139
0000f0 59 66 26 bc a3 c1 fe 3e c1 9e 88 3d 4f 53 0e be
       -0.0101562375 0.49757108 0.06670905 -0.13898967
000100 8c 43 2b bc bd a3 96 3d bb dc 7e 3e 71 f9 90 be
       -0.010453116 0.07355449 0.2488889 -0.2831531
000110 b2 1c 4e 3f 0a 34 fb be d3 eb 32 be 39 6b 2a 3e
       0.80512536 -0.4906314 -0.17472772 0.16642465
000120 60 7f fb be d0 63 97 3e 74 5d b2 3f a6 89 a1 bf
       -0.49120617 0.29568338 1.393477 -1.2620132
000130 ef de be 3f 23 ec bf bf 45 ce 22 be 6c 1f 8d 3e
       1.4911784 -1.4993938 -0.15898998 0.27563035
000140 9f 12 b6 bf 23 7c ea 3e 3b 4f da 3f 76 ad d6 bf
       -1.4224433 0.45797834 1.7055429 -1.6771686
000150 10 4b 40 bd c3 15 fe 3e 56 56 a6 bd c5 c8 21 bf
       -0.046946585 0.49625978 -0.08121936 -0.63196975
000160 3c dd 08 bf 97 54 c2 3f cc a4 64 be b6 28 b7 3c
       -0.53462577 1.5182065 -0.2232849 0.02235828
000170 16 af 93 3e 4c 58 ad be 62 bd 95 3e d1 1d 31 bd
       0.28844517 -0.33856428 0.2924605 -0.043241326
000180 46 46 68 3e f8 5e 87 be 3c 92 21 3d 85 58 93 3e
       0.22683057 -0.26439643 0.0394461 0.28778473
000190 79 7d 68 3e 68 3d c2 3c bc 18 3e 3c c0 5d a4 bd
       0.22704114 0.023710921 0.011602577 -0.08025694
0001a0 e9 cf 6c bf 31 6b 8e bf 32 d3 01 c0 ca 56 6a bf
       -0.92504746 -1.1126462 -2.0285153 -0.9153868
0001b0 16 eb 43 3b 7b 93 80 bd 1b 7d c9 be 0b c5 10 3d
       0.002989476 -0.0627813 -0.3935326 0.035344165
0001c0 5f c9 f9 bf 0e 2f 50 3e 13 04 8d 3e 24 73 0a 3e
       -1.9514579 0.2033045 0.2754217 0.13520485
0001d0 29 2a 1a 3f ce ba 43 c0 e4 aa 06 3f a8 9f e1 bf
       0.6022058 -3.0582767 0.5260451 -1.7626848
0001e0 63 98 45 3c 9f 7d 77 bd 2c 74 7f 3f 02 ca a8 bf
       0.012060258 -0.060422536 0.9978664 -1.3186648
0001f0 ed b6 09 3f bf 0a b7 be 9c 00 ce bd e2 a8 70 3d
       0.5379475 -0.35750386 -0.1005871 0.05875481
000200 65 28 72 bf e9 23 8e bf e7 23 91 be fa 51 3f be
       -0.9459289 -1.1104709 -0.28347704 -0.18683615
000210 ae bf 1f be be 0f 3a be 3c 07 e6 be 4c 4b 2b be
       -0.15600464 -0.18170068 -0.44927394 -0.16727942
000220 bf fb 19 3f b8 83 a6 bf 27 36 06 3e 6b 2a 84 3e
       0.6014976 -1.3008947 0.13106595 0.25813612
000230 85 bb 89 bf 1d 87 d9 3f 23 46 97 bf a5 89 e9 3e
       -1.0760351 1.6994358 -1.1818279 0.45612827
000240 51 db c3 3e 3a cc d9 3d 86 df 30 3e 9a 11 87 be
       0.38253263 0.10634656 0.17272767 -0.26380616
000250 a8 16 f5 3e c5 33 a5 3d 1e d2 31 3d b8 8a 79 bd
       0.47868848 0.08066515 0.043413274 -0.060923308
000260 6e 26 ae 3e b0 78 2e bf 03 d9 47 3f 2f 6e 5a bf
       0.34013695 -0.68152905 0.7806551 -0.85324377
000270 1b fb 08 be bc be aa be 4e d9 db 3e 1f 19 46 be
       -0.13377039 -0.33348644 0.42939228 -0.1934552
000280 9c 08 a9 3e 3c 39 db be b0 f4 4e bd 6a 5e c4 3e
       0.3301438 -0.42817104 -0.05052632 0.38353282
000290 27 32 4d be a2 46 37 bc 77 d1 2e bf ea 19 08 bf
       -0.20038663 -0.011186274 -0.6828837 -0.5316454
0002a0 ff a9 c5 be 2c 3d 74 3e d0 42 41 c0 f8 bd cf be
       -0.3860626 0.2385146 -3.019703 -0.40574622
0002b0 af f5 b3 bf f0 67 a3 be 15 3d d0 be ab c2 b7 3e
       -1.4059352 -0.31915236 -0.40671602 0.35890707
0002c0 3c 21 2a bf 8c 07 0b bf e9 d8 fb 3e 97 6c 96 bf
       -0.6645696 -0.5430839 0.49188927 -1.1751889
0002d0 fe ef 35 3b 85 49 88 3d 52 fa bf bf da bb 06 c0
       0.0027761455 0.06654648 -1.4998267 -2.1052155
0002e0 5e 6f 69 bf 15 df fe bf af 92 75 3d e9 f1 a4 bd
       -0.9118556 -1.9911829 0.05995434 -0.08053953
0002f0 61 24 b0 bd be a3 ce 3e 4f bb e9 bf c9 a1 b8 be
       -0.08600689 0.403593 -1.8260287 -0.36060932
000300 46 96 11 be 77 dc 10 3f e8 0a c9 3e 37 20 79 c0
       -0.14217481 0.565864 0.39266133 -3.8925912
000310 2b 9f bb 3e c1 6b 99 bf 73 89 86 be a6 75 be 3e
       0.36644873 -1.1986009 -0.2627674 0.37199134
000320 9a 72 ce 3d 06 a2 7d bf d7 04 90 be 2a 5c c0 bf
       0.10080452 -0.99075353 -0.28128693 -1.5028126
000330 c9 25 d7 3b 2c b1 26 bd 94 97 21 bf 5d 97 0c 3e
       0.0065657836 -0.040696308 -0.63121915 0.13729616
000340 6c 25 02 c0 8b 62 ab 3e cb 4d 8c be 92 2d 00 3d
       -2.033534 0.3347362 -0.274031 0.03129346
000350 07 22 19 3f 12 79 ff be 86 d9 2c 3e ee 01 03 be
       0.59817547 -0.49897057 0.16879854 -0.12793705
000360 fb 92 b5 3c 8f c3 01 be 64 4a ae 3e 8f fd 57 3f
       0.022164812 -0.12672256 0.3404113 0.84371275
000370 fa 7f 4f bf 7c 00 24 3f 41 ad f7 bc 28 48 2d 3e
       -0.8105465 0.6406324 -0.030233981 0.16922057
000380 7f 55 fe bd 35 4b 8c be 21 56 a6 3f ed a4 fb be
       -0.12418651 -0.27401128 1.2995034 -0.49149266
000390 52 4d 38 3e 2f 1e 0a bd 74 39 68 bf 93 3a 06 be
       0.17998245 -0.03372019 -0.90712667 -0.13108282
0003a0 65 67 d0 bf 74 29 9b be bf d6 0c 3e b2 49 3b bd
       -1.6281554 -0.30305064 0.13753794 -0.04572458
0003b0 97 ee bc be e5 f5 31 3e 04 14 53 3e 7c 18 05 bf
       -0.3690078 0.17378958 0.20613104 -0.51990485
0003c0 36 a1 d2 3b b9 eb e8 3e 38 90 b6 bf 7d 02 04 3f
       0.0064279092 0.45492342 -1.4262762 0.51566297
0003d0 87 e9 e0 be 12 96 94 3f be d2 67 bd a1 a3 0e be
       -0.43928167 1.1608298 -0.056597464 -0.13929607
0003e0 0b 34 27 3f 24 b2 5d bf 1e c0 06 3e dc d8 7d bd
       0.65313786 -0.86599946 0.13159224 -0.06197439
0003f0 24 0a 6c 3d 89 f4 92 bd bc 8e 1a 3e 4b 59 91 bf
       0.05762686 -0.07175548 0.15093511 -1.1355375

fc1.bias f4 [300]
000000 ae 60 2d be 3a 1e f1 bf ac 8e 7e 3e f8 cc 00 c0
       -0.16931412 -1.883735 0.24859113 -2.0125103
000010 3d 86 30 c0 09 ae 5c 40 b6 83 0d 3f 22 4f e3 bf
       -2.7581933 3.4481223 0.552791 -1.7758524
000020 d3 e0 e0 be df fa 55 40 46 63 46 c0 7f b8 3c 40
       -0.43921527 3.343437 -3.0998092 2.9487607
000030 7a ef f5 3f 45 12 5a 40 01 f5 49 3f 9f 29 43 40
       1.9213707 3.407365 0.7888947 3.0494153
000040 fe 8d 1f 40 96 cf 04 c0 c3 80 35 c0 fc c9 3e 3c
       2.4930415 -2.07517 -2.835984 0.0116448365
000050 43 b9 5a 40 a1 2b 6d 40 9c bc e4 bf b9 e7 4f c0
       3.4175575 3.705788 -1.7870059 -3.2485182
000060 7b f9 9a 3f af ec 11 40 f1 8e 21 40 8a bc 6b 40
       1.2107385 2.280071 2.5243495 3.6833825
000070 83 20 45 3f c6 bb 1c bf 4d 6d 8a 40 a6 41 05 c0
       0.77002734 -0.6122402 4.3258424 -2.0821319
000080 e5 cd 2e bf 2b 2f 61 bf 9a 9f 46 c0 41 d9 50 40
       -0.6828292 -0.879626 -3.1034913 3.2632601
000090 44 de 81 c0 2d 1c a3 3f 82 36 f4 bf 5d 3a e9 3f
       -4.058382 1.2742974 -1.9079134 1.8220936
0000a0 69 7a c1 3f 11 19 37 40 af af f8 bc 6e 92 e6 3f
       1.5115482 2.860905 -0.03035721 1.8013437
0000b0 28 55 82 bf 53 9e 47 40 1e 5b 3c be 5b 41 73 bf
       -1.0182238 3.1190383 -0.18394133 -0.950216
0000c0 0d 37 33 40 4f b1 fc bf 6d c6 e5 3f c9 70 33 40
       2.800235 -1.974161 1.795118 2.8037589
0000d0 b9 73 01 bf 33 5d 0b 40 4f 36 8c c0 a9 91 97 bf
       -0.50567204 2.1775634 -4.3816295 -1.1841327
0000e0 aa c0 d8 3f aa fd b9 3f 31 63 af 3e da 0e 83 c0
       1.6933796 1.4530537 0.34255365 -4.095563
0000f0 3d 5a a6 bf eb ad 18 40 af f8 9b bf 82 47 cf 3f
       -1.2996289 2.385615 -1.2185267 1.6193697
000100 e5 91 70 40 6a 1d 08 40 e5 6e 35 c0 b9 ee 15 3f
       3.7589047 2.1267953 -2.8348935 0.58567387
000110 6c 8a 5c 40 41 fe 3d 40 e3 11 db 3f 41 3a 07 40
       3.4459486 2.9686434 1.7114834 2.1129305
000120 83 c2 32 40 59 87 b3 bf 62 51 e7 bf 7c 78 43 bd
       2.793122 -1.402568 -1.8071711 -0.047722325
000130 ce 3a 19 40 21 c9 d0 3f 6b cb d0 3f 1d b2 70 c0
       2.3942142 1.631138 1.6312078 -3.7608712
000140 83 05 7c 3d ac 32 b3 3f 6a 60 e7 3f f3 bb 3f 40
       0.061528694 1.3999839 1.8076298 2.9958465
000150 92 54 2a 40 e9 85 07 40 03 20 b4 bf d4 c5 32 3e
       2.6614118 2.1175482 -1.4072269 0.17458278
000160 2f 9c 15 40 23 09 d6 bf 89 66 00 c0 c4 ee 24 40
       2.3376577 -1.6721538 -2.0062582 2.577073
000170 fd 33 09 3d 53 9b 18 40 bb fe 36 40 f9 11 1d 40
       0.033496846 2.3844802 2.8592975 2.454222
000180 0a 40 63 40 7a 8b ab 3f e4 07 d9 3f 9a 63 2c 40
       3.5507836 1.340194 1.6955533 2.6935792
000190 7f 71 41 3e 72 e1 6b c0 cb 94 c8 3e 7a 6b 48 3f
       0.18890952 -3.685635 0.3917602 0.78288996
0001a0 95 3a 08 bf e5 ad 67 3f a1 53 0f c0 98 49 43 40
       -0.5321439 0.90499717 -2.2394793 3.0513668
0001b0 76 44 68 3f a9 bc 46 40 90 f9 30 40 a4 89 89 40
       0.90729463 3.105265 2.765232 4.298052
0001c0 cc aa 37 40 4e e3 43 40 be 65 20 bf f4 a9 27 40
       2.8697996 3.0607486 -0.62655246 2.619748
0001d0 b9 8c 8b 3f f4 1f 17 c0 65 25 a3 3f d0 20 1c 40
       1.090232 -2.3613253 1.2745787 2.4395027
0001e0 57 7e ac 3e 98 f5 25 40 48 54 12 c0 b6 f5 12 bf
       0.3369014 2.5931149 -2.2863941 -0.57406175
0001f0 2e 4e 19 40 0f 45 1f 40 4b 6e 6f 40 78 da 19 40
       2.3953967 2.48859 3.7411067 2.4039593
000200 89 b4 1c 40 b1 f8 37 40 15 dc d1 bf 5f d9 99 3e
       2.448519 2.874554 -1.6395289 0.30048653
000210 f1 57 2f 40 40 b8 b0 3e c9 4c a0 40 2a be fe 3e
       2.7397425 0.34515572 5.009373 0.4975446
000220 b0 28 de bf 20 20 53 40 90 13 fd bf 53 02 31 40
       -1.7356167 3.2988358 -1.9771595 2.7657669
000230 2b 10 2e c0 50 37 26 c0 9a 32 39 40 a6 a0 e0 bf
       -2.7197368 -2.597126 2.8937135 -1.7549026
000240 08 76 6a c0 52 85 2a 40 cd bb 1e 40 0f 2b 2a 40
       -3.663454 2.6643872 2.4802125 2.658878
000250 d2 f8 54 40 1e 70 63 3f a7 43 24 c0 ec 4e 2f 40
       3.3276868 0.8884295 -2.5666292 2.739192
000260 fd fc 3f 40 b6 1e a9 3f ba 55 0d bf 2b 1e 80 40
       2.9998162 1.3212497 -0.55208933 4.0036826
000270 de e6 92 3f 99 5b 7c c0 d7 98 28 40 82 be 72 40
       1.1476705 -3.9430907 2.6343286 3.7928777
000280 ac 37 85 3f 2a 55 33 40 04 d6 52 40 34 ff 2c 40
       1.0407615 2.802073 3.2943125 2.7030764
000290 6b e6 48 40 47 4e 0f c0 20 e3 3e 40 1b 41 bd 3f
       3.1390636 -2.2391527 2.9826126 1.4785494
0002a0 65 08 1a 40 38 44 3a c0 54 bd 45 bf 54 6a 2d c0
       2.4067624 -2.9104137 -0.77242017 -2.7096148
0002b0 8a f6 4d c0 0b ae 71 40 c2 23 81 bf 4f cf 1a 40
       -3.2181726 3.7762477 -1.0089037 2.418903
0002c0 f6 7d 10 c0 40 eb 83 40 39 5b 65 40 1e 7e db bf
       -2.257688 4.122467 3.5836928 -1.7147863
0002d0 44 ad b7 3f 78 80 5d 40 05 54 ef bf bf 46 51 40
       1.4349751 3.460966 -1.8697516 3.269943
0002e0 6d c2 24 40 f0 7e cb 3f 0b 24 03 40 a4 47 cd 3f
       2.5743668 1.5898113 2.049075 1.6037488
0002f0 8b 89 44 40 d6 db e6 bf 3e b8 d4 3f 8e b7 24 40
       3.070895 -1.8035839 1.6618726 2.5737033
000300 6e 67 67 bd db 53 d1 3f 4a cb 59 40 25 18 56 3f
       -0.056495123 1.6353716 3.4030328 0.8363059
000310 2f 27 68 40 9d f6 31 40 d3 73 9a 3f f7 a8 4e 40
       3.6273916 2.780677 1.2066597 3.2290628
000320 3d 59 bd 3f b5 89 a3 40 66 c0 30 bf 9e f9 20 c0
       1.4792858 5.11056 -0.69043577 -2.5152354
000330 40 dc 25 40 b4 af a6 bf e5 c1 f8 3c 11 e8 da 3f
       2.591568 -1.302237 0.030365894 1.7102071
000340 81 e5 16 3d 97 2b 31 40 45 e4 9b bf 2a cb 35 bf
       0.036839966 2.7682855 -1.2179037 -0.7101313
000350 69 ae 29 c0 d3 3a a8 bf d4 7f 09 c0 43 51 7b c0
       -2.6512702 -1.3142952 -2.148427 -3.9268348
000360 de 94 39 40 46 de 0c 40 ad 56 dc bf ba f6 fe 3f
       2.8997111 2.2010665 -1.7213951 1.9919045
000370 dd 3a 63 40 fd 6d 15 c0 1a 12 27 40 8f 67 2a 3f
       3.5504677 -2.3348382 2.6104798 0.6656427
000380 f7 50 92 40 7b a9 65 c0 50 0c c4 bf 31 b9 de bf
       4.5723834 -3.5884693 -1.5316257 -1.7400266
000390 04 95 42 40 fe 1f 06 c0 80 df ec bf 7a 2b 3d 40
       3.0403452 -2.0957026 -1.8505707 2.9557786
0003a0 9b ef b9 3e 0b d2 05 c0 38 b6 07 c0 6a 78 f1 bf
       0.36315617 -2.090945 -2.1204967 -1.8864872
0003b0 3e 57 5d 40 bc ec f0 bf 64 76 32 40 cf 95 46 bf
       3.4584498 -1.8822246 2.788476 -0.7757234
0003c0 9d d3 37 40 a3 64 c9 bf 28 bc 46 40 88 82 9e bc
       2.8722908 -1.5733837 3.1052341 -0.019349352
0003d0 9b 66 37 40 c3 61 45 c0 0d de 54 c0 a3 8f 27 3f
       2.8656375 -3.084092 -3.326053 0.6545355
0003e0 57 07 3c 40 6f 11 04 40 3a c8 5b c0 cc 52 d4 3f
       2.937948 2.063564 -3.4340959 1.6587768
0003f0 31 e6 47 40 f6 f7 0d bf 94 28 8a bf 4e bd 92 3f
       3.1234248 -0.55456483 -1.0793633 1.1464021

fc2.weight f4 [200, 300]
000000 70 57 44 bd b0 17 7e bc b0 59 2e 3b da a8 3c bd
       -0.04793495 -0.015508577 0.002660375 -0.046059467
000010 7c 93 30 3d 52 ac 0b bd 06 1f 25 bd cb 76 9f bc
       0.043109402 -0.034099884 -0.04031279 -0.019465825
000020 48 cd 9b bc b8 e1 ac bb 6c 67 6c bd 4f 09 2e bd
       -0.019018784 -0.005275931 -0.05771582 -0.042489346
000030 a0 a8 b5 bc 79 47 14 3d 17 ad 51 bd 9b 62 32 bd
       -0.022175133 0.036200974 -0.051190462 -0.04355107
000040 e6 b0 bf bb 84 ee 29 3d da 13 07 3d c0 fc 5f bc
       -0.0058499454 0.04148723 0.032977916 -0.0136711
000050 fe 7d 87 3b 48 07 4b bd a7 e6 68 bd cc 4c c5 3c
       0.0041348925 -0.04956749 -0.056860592 0.024084471
000060 dc 09 2a bd 19 4e 72 bd 0f 8b 6f ba f0 c7 09 3d
       -0.04151331 -0.05915651 -0.0009137848 0.03363794
000070 fa 8a 0c 3c 00 30 15 3a a8 3b 69 bc 86 b9 40 bd
       0.0085780565 0.00056910515 -0.014235415 -0.04705193
000080 ff b1 37 bd 24 40 c9 bc 84 bc 41 3d 97 10 79 bd
       -0.044847485 -0.024566717 0.047298923 -0.060806837
000090 9e e8 d5 bc 12 ed ec bc ff 50 a4 3b 1e d4 5b bd
       -0.026111897 -0.028921638 0.0050145383 -0.053669088
0000a0 b3 c9 67 bd 53 7f 28 bd 72 24 60 bd 70 41 62 3c
       -0.05658884 -0.04113705 -0.054722257 0.013809547
0000b0 5c d1 75 bc a4 52 18 3c c0 aa 64 3d e0 db 63 bd
       -0.015003528 0.009297047 0.055826902 -0.05562961
0000c0 70 24 cc 3c 98 24 12 bd a0 09 5a bb ca 67 fe 3c
       0.024919719 -0.03567943 -0.0033269897 0.03105535
0000d0 00 f0 0a b8 2f 5a 9a bd 18 44 52 3c c8 30 47 bd
       -3.312528e-05 -0.075367324 0.012833618 -0.048630506
0000e0 4b 1c 32 bd 72 72 14 bd b8 f9 c8 3c 9b 8f 30 bd
       -0.043484014 -0.036241956 0.024533138 -0.043105703
0000f0 5b 5f 1f bd 9b 5c b3 39 68 28 35 bc 7d 18 a3 3c
       -0.038909297 0.00034210537 -0.011056997 0.019909138
000100 ff 29 c0 bc 67 16 a4 b7 f0 5e c4 3c 9e 68 78 bd
       -0.023457525 -1.9560755e-05 0.023971051 -0.060646646
000110 f1 b6 93 bd 0e 2e 06 bd 51 a1 94 3c 65 1e f8 3b
       -0.07212628 -0.032758765 0.018143328 0.0075719827
000120 c0 1a 2f bc e6 a6 42 bd e3 02 6b bd 7c a7 a0 bc
       -0.01068753 -0.047522448 -0.0573758 -0.019611113
000130 38 14 fb bb 8e 68 5c bd 62 ac a7 ba e8 5d 5e 3c
       -0.0076623224 -0.05381065 -0.0012792463 0.013572194
000140 35 9c ab bb e2 89 14 bd 17 f1 08 3d 05 d6 06 3d
       -0.005237127 -0.036264308 0.033433046 0.03291895
000150 4f 6a c1 3c 0c 7a e1 3c 75 11 48 bd c3 c4 d9 3c
       0.023610262 0.027524017 -0.048844773 0.026583081
000160 ce e3 f7 bc 7c 8b 33 bc c9 28 35 bd b2 cb c3 bb
       -0.030259993 -0.010958549 -0.04422835 -0.00597521
000170 50 ac a8 3c d8 34 71 bd 07 87 40 bd a8 c4 2a 3c
       0.020589978 -0.058888286 -0.047003772 0.010422863
000180 59 98 00 bd 71 f7 68 bd 80 96 f1 bb 73 e9 15 bc
       -0.03139529 -0.056876604 -0.0073726773 -0.009149897
000190 7d 36 e5 3c c0 2d fa 3c 46 ec e4 ba 74 49 db 3c
       0.027980084 0.030539393 -0.0017465435 0.026768424
0001a0 a3 f2 0b bd 50 e6 28 bc f0 b3 0e 3d de 6f 35 bd
       -0.034166943 -0.010308817 0.03483957 -0.044296138
0001b0 70 ae 8b bc 3b 2d 0c bd 30 c7 f2 3c 59 15 81 bd
       -0.017050952 -0.034222823 0.029635996 -0.063029
0001c0 ca 0a 95 bd 9f 0a 08 bc 88 2b 5a 3d e9 1b 43 bd
       -0.072774485 -0.0083033135 0.05326417 -0.04763404
0001d0 b3 13 0d 3d 6d 2f 49 bd 22 b4 8b bb cb 83 eb bc
       0.034442615 -0.049117494 -0.004263417 -0.028749367
0001e0 7d 2f 18 bd 60 c9 1b bc 84 ae f0 3c ca 60 b1 bb
       -0.037154663 -0.009508461 0.02938009 -0.0054131495
0001f0 ff 55 1c 3c 18 e7 df 3c 2d 62 6e 3c 51 c3 80 bd
       0.009541987 0.027331874 0.014549774 -0.06287254
000200 a4 db 16 bd 2c 61 a0 bd 70 cc da bb a6 d6 e5 bc
       -0.03683056 -0.07831034 -0.006677203 -0.028056454
000210 23 87 28 bd 4e dc 6a 3d e4 ff 8e 3a 68 a3 93 3c
       -0.0411445 0.057339005 0.0010910002 0.018022254
000220 9e 1b 01 3d c1 da 00 bd 20 e1 99 ba 09 dc 4c bd
       0.03152048 -0.03145862 -0.0011740066 -0.05001453
000230 30 54 1b bd a0 f5 5a bd 8d f5 84 bd 04 d0 d0 3c
       -0.037922084 -0.053456903 -0.064921476 0.025489815
000240 40 05 25 3d 2c 84 da 3c e9 c7 7b bc a6 e5 86 bd
       0.04028821 0.026674353 -0.0153674865 -0.06586771
000250 a9 de 80 bc 85 ef f7 3c f6 e7 a6 bc a2 ec 0c 3d
       -0.015731173 0.030265579 -0.02037428 0.034405358
000260 fb 07 0d bd 9e f6 ee bc 3a b0 2f bd dc 97 a0 bd
       -0.03443144 -0.02917033 -0.042892672 -0.07841465
000270 6d 31 51 bd 22 67 32 3d 31 9e 39 bd 02 c7 1e bd
       -0.051072527 0.043555386 -0.04531688 -0.038764007
000280 1a d5 b4 bc ac 4b 59 bd 3b 1e 6b bd 01 ef 89 bd
       -0.022074271 -0.053050682 -0.057401877 -0.067350395
000290 65 5c 51 bc 20 4e 06 bc da ee c3 bc 44 0e 3e bd
       -0.012778376 -0.008197337 -0.023917604 -0.046400324
0002a0 c2 a1 1f 3c ed 4d 20 bd d4 e2 58 bd 8d e6 63 3d
       0.009743156 -0.039136816 -0.052950695 0.055639792
0002b0 c5 27 4d bd b0 c6 cb bc 85 97 06 3d f0 55 00 3d
       -0.050086755 -0.024875015 0.032859344 0.031331956
0002c0 50 d6 4b bd 13 0f 04 3d 07 44 66 bb 55 73 f7 bc
       -0.04976493 0.03224094 -0.0035135762 -0.030206362
0002d0 94 b9 8e 3c 54 07 20 bd 6e b9 48 3d 61 5e df bc
       0.017422475 -0.03906949 0.049004965 -0.027266683
0002e0 7e 0d ac bb f4 21 17 bd f6 43 4a 3c 59 98 80 bd
       -0.005250632 -0.036897615 0.012345305 -0.06279058
0002f0 dd 10 77 bc e2 88 d9 bc 83 bc 4e bc 0a c3 82 3c
       -0.015079704 -0.026554529 -0.012618187 0.015962142
000300 b0 7c 6a 3d 9a 2b fa bc a4 0a 46 bd d8 11 86 3c
       0.057247818 -0.030538369 -0.04834999 0.01636593
000310 3f af cb 3b b5 09 e4 ba 50 51 10 3d d2 35 31 bd
       0.0062159593 -0.0017397912 0.035233796 -0.043264218
000320 b8 e5 00 3c 16 6f 10 bd 2a 62 27 bd b4 16 25 bc
       0.007867269 -0.03526219 -0.0408651 -0.010076214
000330 f9 1e 02 3d 5f 1c 10 bd ce 1f 1d 3d 0c 6e 15 bd
       0.03176782 -0.035183307 0.03836041 -0.036481902
000340 30 8e 15 bb 70 f0 9b bc 3b 1b e7 bc bc b7 ff 3c
       -0.0022820346 -0.019035548 -0.028211227 0.031215541
000350 a0 b9 f2 ba 68 ed 5b 3c 10 3c 60 bb 14 14 f4 bc
       -0.0018518455 0.013423301 -0.0034215488 -0.02979473
000360 91 2d 26 bd 0a cb d7 bc 60 de 6a bd c0 55 e7 3c
       -0.0405708 -0.026341934 -0.05734098 0.028239131
000370 b2 03 9e bd 01 ef 09 3c d9 b6 69 3c 6e 3c 2d bd
       -0.077155486 0.008418799 0.014264786 -0.04229396
000380 30 61 67 bd b8 97 cc bb 20 9e 3d 3c b8 6c 8b bb
       -0.05648917 -0.006243672 0.0115733445 -0.0042549036
000390 6c 69 2b 3b 84 34 bc 3c 10 38 65 3c 47 b7 ad bc
       0.0026155366 0.02297426 0.013990417 -0.021205558
0003a0 43 f3 ea bc 42 b4 43 bd 76 1e 4a bd 40 b9 f4 3a
       -0.02868045 -0.04777933 -0.049345456 0.0018670931
0003b0 51 a7 93 bd c8 b3 53 bc d0 f1 11 bd a2 a7 af bc
       -0.072096474 -0.012921281 -0.035631 -0.021442238
0003c0 d5 8f be bb a5 7a 3d bd b6 f6 98 bc 2d 85 46 bd
       -0.005815486 -0.04625954 -0.018672328 -0.04846685
0003d0 41 7a 14 3d 62 63 3a 3d f0 2d b8 3c 98 ca 4b bd
       0.036249403 0.045504935 0.022482842 -0.049753755
0003e0 0c 47 d0 bc e0 5a d5 3b 94 15 2a 3d 13 00 e3 3c
       -0.025424503 0.0065110773 0.041524485 0.027709996
0003f0 f2 c1 0a bd 42 42 32 3d fa ab a0 bc 38 ef f2 3c
       -0.033876367 0.04352022 -0.019613255 0.029655084

fc2.bias f4 [200]
000000 01 3f a7 3c de 47 4a 3e 6a 0c d3 bf e3 02 fe 3f
       0.020415785 0.19753978 -1.6488163 1.9844631
000010 74 60 17 bd d5 84 c7 bd 20 a8 95 3f 9b 7e 9f bd
       -0.03695722 -0.097421326 1.1691933 -0.0778782
000020 42 d0 30 bd f8 13 c8 3e bc d7 16 bd 02 a0 ba bd
       -0.04316736 0.39077735 -0.036826834 -0.0911255
000030 da 20 83 bf d2 4d 74 bd 45 19 c8 bd 67 e3 41 3d
       -1.02444 -0.059644528 -0.09770445 0.04733601
000040 6d b4 d0 bc 7a 24 8c bd 23 de c6 3d f0 ce 92 3f
       -0.025476659 -0.06842895 0.09710338 1.1469402
000050 af 17 ed 3f 58 39 88 3f 00 06 ff 3e 18 6f dd bd
       1.8522853 1.06425 0.49809265 -0.10812205
000060 a3 46 d5 3e 5c 6f 8e 3b 29 03 a9 be fc a5 75 3f
       0.41655454 0.004346771 -0.33010224 0.959564
000070 bb 22 3c bd 30 1b de 3f cd 54 69 3f 23 b1 e2 3f
       -0.04593156 1.7352047 0.9114502 1.7710308
000080 24 a2 0e 3d ca ea be 3f 0e f6 2b bd 31 6b 57 3a
       0.034822598 1.4915402 -0.041982703 0.0008217572
000090 ef 98 61 3f 5a 15 65 bf 59 f7 02 bf f3 55 ac 3f
       0.88123983 -0.89485705 -0.5115867 1.346373
0000a0 94 38 e4 3c f6 ae 86 bd 3a 32 48 3f a9 6e 4c bd
       0.02785901 -0.0657634 0.7820164 -0.04991022
0000b0 9f 4f ae 3c c4 3a 8d bc c3 08 b2 be 24 99 6c be
       0.0212782 -0.017239936 -0.3477231 -0.23105294
0000c0 df 38 6c 3f ee 1a 02 3d f7 54 c0 bd a2 40 37 3e
       0.9227428 0.031763963 -0.09391206 0.17895749
0000d0 7b cb e1 bc 4c c0 96 bd c7 e4 b7 3c 49 71 00 bd
       -0.027562847 -0.073608965 0.022447957 -0.031358037
0000e0 8d 07 c9 3c 1e 5c d3 3c 56 f0 fd 3e 1f ce 31 3f
       0.024539733 0.02580076 0.49597424 0.6945514
0000f0 97 0a 7a bd 64 ee 04 bf 37 f9 e4 be 4a a5 30 bd
       -0.061045256 -0.51926255 -0.44721386 -0.043126382
000100 a8 a9 04 40 ad 66 bf 3c 8f 28 2e b8 1f ea 02 3f
       2.072855 0.02336439 -4.1522606e-05 0.5113849
000110 ec 6a 59 bd 60 c9 1d 3e c4 31 30 bf a1 e8 d6 3e
       -0.053080484 0.1540885 -0.68825936 0.41974357
000120 76 82 f0 3f 4d 1c 75 3f 06 c5 78 3d d8 d8 55 3d
       1.8789814 0.9574631 0.06073477 0.05220875
000130 a5 63 8e bb db 54 4f bd af 0a 86 3f 9d ad de 3f
       -0.0043453746 -0.050618034 1.047201 1.7396733
000140 92 21 28 bf b9 6a ef bf 05 f2 c1 3e 41 80 93 bc
       -0.65676224 -1.8704444 0.3787996 -0.018005492
000150 34 ed b6 3e 3d 82 bf bf 0d 22 00 40 35 57 ea 3f
       0.35727847 -1.496162 2.0020783 1.8307863
000160 d3 7f 4f 3f 39 c1 81 3d 90 5a 09 bf 85 bb 8d bf
       0.8105442 0.063356824 -0.5365381 -1.1072851
000170 b6 ef e4 3f 67 09 3b bf c3 8c 7f 3b 97 aa d7 3e
       1.7885654 -0.7306122 0.0038993813 0.42122337
000180 e6 e1 12 40 a6 35 a4 3b ae 34 99 3e bb 7c 02 bb
       2.2950377 0.005011278 0.29923004 -0.001991077
000190 79 81 43 bd 16 60 6f bd fe eb 66 3c 92 2d a9 3f
       -0.047730897 -0.058441244 0.014094351 1.3217032
0001a0 a4 ba c7 3f 3b b7 58 bd 77 a9 2e 3f 06 48 10 bd
       1.5603833 -0.052909117 0.6822733 -0.035224937
0001b0 e4 0a 83 3f ee f1 49 3d ce 69 1a 3e 54 ed 0f 3f
       1.0237699 0.049302988 0.15079424 0.5622151
0001c0 4a 38 1f 3d 60 b3 77 3f 60 b6 20 be 04 b7 e4 bf
       0.03887204 0.9675808 -0.1569457 -1.7868352
0001d0 c6 df bf bd dd e6 8c 3f 3f 54 37 bd a3 72 d5 3f
       -0.09368853 1.1007954 -0.044758078 1.6675609
0001e0 ec e5 84 3c 2a b8 43 bd 0d 2b f1 3f 00 7d 90 3f
       0.016222917 -0.047783054 1.8841263 1.1288147
0001f0 2b 43 55 3e f0 78 df 3e bf f1 86 3f a2 ba b1 bd
       0.20826404 0.43646955 1.0542525 -0.086781755
000200 5c 7c da 3e 5d fd dd 3f 45 cc b3 3f 20 e9 42 3c
       0.42673004 1.7342945 1.4046713 0.011896402
000210 39 a1 ea 3c e6 00 01 40 52 e6 aa 3f 6f ce de 3f
       0.02864133 2.0156798 1.3351538 1.7406749
000220 f7 ca 0d 40 71 c6 02 40 47 07 cb 3a aa be e9 bd
       2.215513 2.043362 0.001548984 -0.114133194
000230 f0 68 4b bd 35 1f 2b bd c3 d0 d7 be 15 5e 04 40
       -0.049660623 -0.04177781 -0.4215146 2.0682423
000240 40 86 12 bd 12 f3 b0 3c 0f 02 71 3c a9 eb 7d 3f
       -0.035772562 0.02160028 0.014709963 0.99187714
000250 f1 51 56 bd 33 12 c8 be 2b 5d 76 3c b8 83 08 bd
       -0.05232424 -0.39076385 0.015036861 -0.03332874
000260 7a a5 e4 3f b1 40 05 40 42 63 99 3e 08 37 15 3f
       1.7863 2.0820735 0.2995854 0.58287096
000270 77 f4 d3 3c e2 00 96 3f a1 e2 97 bf ce 80 0f bd
       0.025873406 1.171902 -1.1866037 -0.035034947
000280 6c 06 8c 3f f3 45 dc 3f 9e 82 10 bd 54 67 d2 be
       1.093946 1.7208847 -0.035280816 -0.41094458
000290 91 e2 80 bd b3 0b 89 3f ad 9e 2e 3f 9b a5 03 3d
       -0.06293214 1.0706695 0.6821087 0.032140356
0002a0 1a 7d 57 bf 5b 00 eb 3f 31 f2 80 bd fa 69 a7 bd
       -0.84175265 1.8359483 -0.06296194 -0.0817451
0002b0 c2 1f 8f 3f cb 00 6c 3c 0f 6d 2d bc 70 7c e0 3f
       1.1181567 0.014404486 -0.010585084 1.7537975
0002c0 4d 88 b8 3f 28 1e 84 3f 9f f5 8b 3e 70 76 9a 3e
       1.4416596 1.0321703 0.27335832 0.30168486
0002d0 ea 45 15 3d 12 c7 15 c0 35 46 0f bc 83 77 a8 3e
       0.03644363 -2.3402753 -0.008744766 0.3290368
0002e0 1d 1e 7a be 23 e8 3b bd fe 50 24 3c a7 57 fa bf
       -0.2442555 -0.04587568 0.010029076 -1.9557999
0002f0 b7 7d 63 3f 6b 2e 08 be c8 c6 ea 3f 6f a1 c9 3e
       0.888637 -0.13298957 1.8341913 0.39380977
000300 cc 61 7f bd 36 98 b6 3f 2d 53 81 3f 57 88 11 bd
       -0.062349126 1.4265201 1.0103508 -0.035530414
000310 ee 59 82 3f b3 06 91 be 5a 07 9d 3e 78 b0 a0 be
       1.0183694 -0.28325424 0.3066967 -0.31384635

fc3.weight f4 [1, 200]
000000 d9 7c ba 3c 98 04 fb 3c 4d bc c8 3d 33 58 46 be
       0.02276461 0.030641839 0.098015405 -0.19369583
000010 a1 03 02 bd 01 7d 80 bc 3b 0e 7f be 1e d9 d3 bc
       -0.031741742 -0.015684607 -0.24907772 -0.025860365
000020 33 32 76 bd ae c9 af bf 71 52 fd bc bb 99 bd ba
       -0.060106467 -1.3733423 -0.0309231 -0.0014465371
000030 4d fd a6 3e b5 c9 b5 bc 9e bc 3f bc b8 07 56 3c
       0.32615128 -0.022190908 -0.011702685 0.013063364
000040 67 50 53 3b 95 03 6f bb 9e 68 88 bf db 3e 1b bd
       0.0032243968 -0.003647064 -1.0656927 -0.03790174
000050 64 69 7e be 8b 56 00 be d4 e0 3b bf 70 e1 39 be
       -0.24844891 -0.12533014 -0.73389935 -0.18152404
000060 fe 62 dc bf 4a 54 8c 3b b5 f3 24 3f bd 6d 40 3f
       -1.721771 0.004282509 0.6443437 0.7516745
000070 df 7f a4 bc 30 74 fb bd 29 c2 f0 3d e5 8d 60 be
       -0.020080505 -0.122780204 0.11755783 -0.21929128
000080 12 dd a8 bc 26 ee 92 be ed 7a c8 3b 13 60 28 bb
       -0.020613227 -0.28697318 0.0061181695 -0.002569203
000090 e6 c3 33 bf 3e 55 cd 3e bb 1b 7d be f9 67 55 bd
       -0.7022079 0.40104097 -0.2471761 -0.05210111
0000a0 d9 87 31 3d 73 4c 7e 3c 06 99 ba 3e d9 2e 72 ba
       0.043342445 0.015521157 0.36444873 -0.0009238548
0000b0 05 55 5c 3c 6d 96 0e bb 33 32 f6 3c f4 a5 64 b8
       0.013448005 -0.0021757141 0.030053234 -5.4513992e-05
0000c0 2d 08 d9 3e bb ee 7f bf 65 3e 8f b6 e5 5b 86 bf
       0.4238905 -0.9997365 -4.268996e-06 -1.0496794
0000d0 ca 60 b1 3c 30 f4 d5 3a 26 19 90 bb e4 99 03 bc
       0.021652598 0.0016323384 -0.004397529 -0.008032296
0000e0 1e 40 66 bc 4d f3 3f bd a6 73 9b bf 42 b9 b4 bf
       -0.014053373 -0.04686289 -1.2144668 -1.4119036
0000f0 24 ba d1 3c 4b 7d 91 3e 62 92 97 3e ac 50 d1 3c
       0.025601454 0.28415903 0.2960387 0.025551163
000100 c8 f9 0a bf 62 50 0c 3b 4c 28 77 3d 68 39 33 bf
       -0.54287386 0.0021410217 0.060341164 -0.7000947
000110 d9 b6 e9 3c 39 be 11 40 d8 20 65 3e 13 5d 3e bf
       0.028529571 2.2772353 0.2237581 -0.7436077
000120 b9 af 38 be 1f f4 39 3f cf 0c 2a 3d 49 49 15 3c
       -0.18035783 0.72638124 0.04151612 0.009111711
000130 06 87 37 bc e3 0b 8d bc de 2c c4 be 1d f5 6e bd
       -0.011201626 -0.017217582 -0.3831548 -0.058339227
000140 7c 22 00 3d 5f 7d b5 3f 22 a3 95 3d c2 b4 ea 3a
       0.031282887 1.4178885 0.07306506 0.0017906653
000150 b8 a3 8c 3e 23 a3 c1 3d 9c 69 2a be 08 22 ae 3f
       0.27468657 0.09454944 -0.1664185 1.3604136
000160 ea ec 8a bc d4 c7 18 be 55 00 9a b9 31 74 81 3d
       -0.016958673 -0.14919978 -0.00029373416 0.0632099
000170 e5 77 77 be f7 07 49 3e 54 7e 21 3b c7 4d 28 3e
       -0.2416683 0.19631945 0.0024641948 0.1643592
000180 3d 30 f1 be 51 a3 e9 3c ac 9e 09 bf 61 13 3a bd
       -0.47107115 0.028520258 -0.5375774 -0.045428637
000190 79 a8 27 bd ef f6 c1 bb 7d 97 f8 3b 98 35 e4 be
       -0.040932152 -0.0059193294 0.007586418 -0.4457214
0001a0 e1 91 50 be 1f d3 54 3d a9 57 57 be fe d3 23 bc
       -0.20368148 0.051959153 -0.21029533 -0.009999273
0001b0 12 4e 17 be a5 6a 5b bb 90 00 c3 3a 56 d3 50 3f
       -0.14775875 -0.0033480313 0.0014877487 0.81572473
0001c0 34 80 3e 3d 25 3c b0 3e c1 70 d6 be f4 40 90 3f
       0.046508983 0.34420887 -0.418829 1.1269822
0001d0 6a d1 c4 bc 3c 09 4e bf 45 4b 23 bd 2e 12 91 bd
       -0.024025638 -0.8048284 -0.039866704 -0.070835456
0001e0 89 5f 73 3c 04 dc 85 3b e9 84 7e 3f 83 82 1b bf
       0.01485432 0.004085066 0.99421555 -0.6074602
0001f0 6f b8 ab 3d 58 d8 74 be 04 45 18 be 83 55 bc bb
       0.08384787 -0.23910654 -0.14870077 -0.0057474985
000200 5d dd ed 3c fd e1 09 be 6f 2e 9b be 7c 13 ab bc
       0.029036218 -0.13465114 -0.30308864 -0.020883314
000210 78 a3 af 3c ec 93 0f be 9a b5 08 be 57 2d 85 bd
       0.021440253 -0.14021271 -0.13350525 -0.065027885
000220 db cc 10 bf 2b ea a4 be 5f 75 54 3c 79 e0 01 3b
       -0.56562585 -0.32209906 0.012967437 0.0019817634
000230 33 f8 c6 bc cd ff 64 bd 62 45 15 bb bb ff 2f be
       -0.024288272 -0.055908013 -0.002277695 -0.17187397
000240 4a 6b 01 3b a6 4d 70 3d af 81 25 3d 1f f0 7f 3f
       0.0019747787 0.0586678 0.04040688 0.9997577
000250 f3 b1 62 bd b1 f1 55 bf 8a 84 02 3d 1f 38 12 bd
       -0.055345487 -0.83571917 0.03186468 -0.035698052
000260 1d 42 91 bd 0b ca bb 3e d0 bf 57 3e 4f 9f cc bf
       -0.07092688 0.36677584 0.21069264 -1.5986117
000270 5d ca 22 bc c5 52 23 be 4d 1b 3b 3e 5f c0 f9 3c
       -0.0099359425 -0.15949543 0.18272133 0.030487237
000280 77 e9 48 be bd 30 27 be 86 93 5c 3d 9c bb 8f 3e
       -0.1962031 -0.16327186 0.053851627 0.28072822
000290 65 c6 06 3d 71 f5 42 bc 39 6f 35 be 77 c7 f0 3c
       0.032904048 -0.011899338 -0.1771821 0.029391987
0002a0 08 17 bb 3e 34 94 e1 bd be b4 23 bc fe 6c 91 bc
       0.3654101 -0.11014596 -0.009991823 -0.017752167
0002b0 e1 ee 83 bd fe 07 54 3c 84 0c 6c 3c 5c f3 da be
       -0.06442047 0.012941359 0.014407281 -0.42763793
0002c0 ae 77 35 3f 27 c6 8a 3f a4 1f 1a bf 18 20 9b 3e
       0.7088574 1.0841721 -0.6020453 0.30297923
0002d0 74 f2 9a 3d 44 54 f8 3f ab f5 3c 3c 41 03 13 bb
       0.075657755 1.9400716 0.011533181 -0.002243236
0002e0 5a d2 a7 3e 02 4f 16 3d 25 9c 0f 3d 1b b5 d2 3e
       0.32777673 0.03669644 0.03506102 0.41153798
0002f0 5f d9 1d 3f 95 32 28 3c 1b cb 1f be fd 95 91 bf
       0.61659807 0.010265966 -0.15604822 -1.1373898
000300 96 c0 db 3c 53 fe 69 be 95 aa 97 be 3c 2c 05 3d
       0.02682523 -0.22850923 -0.2962233 0.03251289
000310 c6 06 4a 3f de 71 12 3f 41 19 91 bf e7 c8 c1 3e
       0.78916585 0.57205 -1.1335832 0.3784859
