log/train_1_1k/models/160_actor.pt (torch_old, 249426 bytes, 6 tensors)

fc1.weight f4 [300, 4]
0.43155754 -0.014699483 -0.45741335 -0.7347734 -0.29071003 0.02553684 0.8975632 -0.11175592
-0.06611973 0.110471375 -0.72564846 -0.4529559 -0.28721 -0.2359368 -0.52419597 0.6222362
-0.27339825 0.2566686 -0.3872496 0.30734876 -0.21695901 0.17569707 0.4081198 0.37767953
-0.23746733 -0.5626851 0.15470977 -0.45826793 0.32982054 0.16085912 0.5587676 -0.61613643
0.28600043 -0.032404725 -0.9585223 0.06244486 -0.20584244 0.38756958 0.24365672 0.77312154
-0.1212472 -0.1296543 -0.15656547 -0.10042339 0.3136387 -0.225585 0.71204174 0.40014535
-0.42309403 -0.2531768 0.47235855 0.028513042 -0.20689607 -0.264727 0.59175414 0.2892738
0.3019432 0.2923027 -0.047606893 0.24569005 0.1898189 -0.13571642 0.735101 -0.2972021
-0.18647945 0.15936215 0.4018239 0.6335492 0.20390667 0.18990278 0.23489143 0.84739894
-0.23580644 -0.21779642 -0.6514702 0.007966954 -0.29199672 -0.49893802 -0.33319584 0.45018417
0.25425318 0.45164984 0.06583059 -0.5460724 0.103960544 -0.24984385 -0.117769964 -0.64576364
-0.25948504 -0.44548446 -0.8607583 0.2978264 0.327076 -0.53421926 -0.14366336 0.10827685
0.48937112 -0.23564442 0.8517169 -0.3238479 -0.0069813216 0.060282968 -0.75627977 -0.6061576
0.16033995 -0.12971553 -0.64969933 0.23291278 -0.047024835 0.1536686 -0.2719782 0.6754874
0.36662874 0.3555475 0.33777842 0.034779225 -0.34831485 -0.30043808 -0.63675326 0.40703493
-0.34422013 0.28304565 0.8688118 0.06832829 0.014370541 -0.22805886 -0.7988578 0.30382082
0.3593557 -0.010441192 -0.25276086 -0.76270473 -0.24602102 -0.05383249 0.28105766 -0.13978828
0.055577964 0.29636493 0.35628712 0.30628216 -0.24305803 -0.45423257 0.20731834 -0.28571492
-0.019837886 -0.362101 -0.03467463 -0.4380917 -0.2533768 -0.3695491 0.4843905 0.45313716
0.22087948 -0.2732023 0.053317696 0.25527543 -0.33759263 0.26391366 0.71464175 0.2365264
0.004227844 0.36960104 -0.62371755 -0.4925432 -0.24574454 -0.070723526 -0.299542 0.18908277
0.14522591 -0.45262614 -0.20367227 -0.27577078 0.29330704 -0.46707168 0.15035772 -0.1685355
0.14812697 0.47938684 -0.29336557 -0.055480633 -0.1085723 0.087630875 -0.32497054 0.9166801
-0.34893236 0.41006276 0.21918759 0.8659348 0.22988278 -0.48285028 -0.40484172 -0.25967693
0.26541322 -0.0068918695 -0.25058618 0.26561782 -0.047287285 0.24751152 0.1691878 0.19071972
-0.18051074 -0.48185143 0.2294599 -0.012783924 -0.013694052 -0.42726043 -0.030802973 0.27519107
0.121180095 0.14455849 -0.74291617 0.0039023776 0.5021373 -0.014408881 -0.37630588 -0.27150986
-0.27227592 -0.31529722 -0.28361198 -0.27424964 -0.20072916 -0.0102258995 -0.8236616 -0.085839644
0.41786024 -0.20850532 0.77665246 0.38624853 0.20019938 0.1300328 -0.23641405 0.21285759
0.1295334 0.4616888 -0.50059277 -0.14775135 0.2665924 0.30232134 0.24752684 -0.47866166
0.052971873 -0.47016245 -0.25063214 0.14893305 0.03015049 0.19172662 -0.22028951 -0.75124156
-0.19151805 -0.4015033 -0.26545832 0.019849414 -0.1875049 0.017643636 0.4998576 -0.32235426
00000000: 1cf5 dc3e 1ad6 70bc 1532 eabe 1c1a 3cbf
00000010: f2d7 94be a332 d13c b4c6 653f 4ae0 e4bd
00000020: c869 87bd d13e e23d 19c4 39bf d6e9 e7be
00000030: 300d 93be 6b99 71be b531 06bf df4a 1f3f
00000040: dbfa 8bbe 116a 833e 9445 c6be d15c 9d3e
00000050: 812a 5ebe efe9 333e 14f5 d03e 365f c13e
00000060: a32a 73be 210c 10bf 3d6c 1e3e 18a2 eabe
00000070: 3dde a83e 41b8 243e 650b 0f3f 1ebb 1dbf
00000080: a66e 923e d1ba 04bd b861 75bf 2ec6 7f3d
00000090: 5cc8 52be 856f c63e 2681 793e 4beb 453f
000000a0: 7450 f8bd 19c4 04be b352 20be c7aa cdbd
000000b0: 4095 a03e c1ff 66be 5e48 363f dadf cc3e
000000c0: c89f d8be 64a0 81be fbd8 f13e 2f94 e93c
000000d0: 90dc 53be 4c8a 87be 337d 173f b21b 943e
000000e0: 4d98 9a3e b3a8 953e 72ff 42bd 2c96 7b3e
000000f0: e35f 423e 3ff9 0abe 942f 3c3f e02a 98be
00000100: 78f4 3ebe d52f 233e ddbb cd3e 4830 223f
00000110: e9cc 503e e075 423e 6187 703e 23ef 583f
00000120: 3e77 71be 0606 5fbe c0c6 26bf d487 023c
00000130: 9880 95be ce74 ffbe a598 aabe 8a7e e63e
00000140: 792d 823e a63e e73e 30d2 863d 67cb 0bbf
00000150: 44e9 d43d 11d7 7fbe 6131 f1bd c450 25bf
00000160: 39db 84be 8a16 e4be a85a 5cbf b47c 983e
00000170: 8176 a73e 98c2 08bf 7d1c 13be 41c0 dd3d
00000180: da8e fa3e c54c 71be 1e0a 5a3f 64cf a5be
00000190: 92c3 e4bb 46eb 763d 8d9b 41bf 252d 1bbf
000001a0: 2830 243e 26d4 04be b252 26bf b080 6e3e
000001b0: 1d9d 40bd 4d5b 1d3e ba40 8bbe beec 2c3f
000001c0: c3b6 bb3e 520a b63e 4bf1 ac3e a974 0e3d
000001d0: 5356 b2be 05d3 99be 4302 23bf e266 d03e
000001e0: 9f3d b0be 5ceb 903e 736a 5e3f b4ef 8b3d
000001f0: 6b72 6b3c 4388 69be f281 4cbf 678e 9b3e
00000200: 78fd b73e 8911 2bbc df69 81be 9e40 43bf
00000210: efec 7bbe 757f 5cbd cae6 8f3e a924 0fbe
00000220: b8a5 633d 25bd 973e 446b b63e 04d1 9c3e
00000230: 34e4 78be 2c91 e8be 424b 543e 3a49 92be
00000240: 1083 a2bc 4d65 b9be fc06 0ebd 8e4d e0be
00000250: 9bba 81be 8a35 bdbe 0802 f83e 9801 e83e
00000260: 3b2e 623e 2ce1 8bbe a863 5a3d 76b3 823e
00000270: f1d8 acbe b11f 873e c3f2 363f fa33 723e
00000280: ba89 8a3b 593c bd3e f4ab 1fbf 9f2e fcbe
00000290: 75a4 7bbe 7fd7 90bd 925d 99be ea9e 413e
000002a0: 1ab6 143e 9dbe e7be 778f 50be d431 8dbe
000002b0: 572c 963e 0524 efbe 60f7 193e 9294 2cbe
000002c0: 99ae 173e 3172 f53e 0334 96be a93f 63bd
000002d0: 275b debd d177 b33d 8a62 a6be 8cab 6a3f
000002e0: 43a7 b2be bff3 d13e b672 603e e7ad 5d3f
000002f0: 6466 6b3e 2738 f7be 6a47 cfbe 60f4 84be
00000300: 3ee4 873e 31d5 e1bb d54c 80be 0fff 873e
00000310: 50b0 41bd a973 7d3e 913f 2d3e 084c 433e
00000320: cfd7 38be 3bb5 f6be 89f7 6a3e aa73 51bc
00000330: 045d 60bc e1c1 dabe 8456 fcbc d8e5 8c3e
00000340: 452d f83d 2407 143e c12f 3ebf 08bf 7f3b
00000350: 128c 003f 3a13 6cbc 2aab c0be 5703 8bbe
00000360: c067 8bbe a36e a1be 9735 91be 736a 8cbe
00000370: f28b 4dbe 888a 27bc 7ddb 52bf b2cc afbd
00000380: c7f1 d53e 6b82 55be b2d2 463f 5ec2 c53e
00000390: 1101 4d3e 5127 053e 8616 72be 57f7 593e
000003a0: 67a4 043e 7962 ec3e d926 00bf 214c 17be
000003b0: cd7e 883e ddc9 9a3e ad77 7d3e 2413 f5be
000003c0: 09f9 583d 22b9 f0be db52 80be e881 183e
000003d0: 29fe f63c fc53 443e 9393 61be 5e51 40bf
000003e0: 4f1d 44be d791 cdbe 27ea 87be 3d9b a23c
000003f0: 4901 40be 6389 903c 56ed ff3e 9e0b a5be

fc1.bias f4 [300]
0.3344146 -0.6973017 -0.14097297 -0.19354638 -0.19706768 0.22928867 -0.33080244 -0.055211537
0.22246508 -0.58779407 0.7487803 -0.9662221 -0.5903571 0.33594507 -0.17278308 0.008067303
-0.73740923 0.5935707 0.24373288 -0.41097167 -0.29195148 0.24771188 0.019864611 0.33366528
-0.5173233 0.19059883 0.50910664 -0.30156758 -0.81487393 -0.32164532 0.33335894 0.50883293
-0.035115216 -0.5969709 0.42536914 0.6178168 -0.28684077 0.64141124 0.238416 0.0454703
0.058603726 -0.5168884 0.5727044 -0.52720976 0.22401302 -0.023170134 0.24984337 0.074338734
-0.06216756 -0.5941499 0.36255944 -0.2462596 -0.6959315 0.4628351 0.5882669 0.54717815
0.65914685 -1.0132849 -0.45965853 -0.6787914 0.37279135 0.048509035 -0.06353198 -0.7617264
-0.4408546 -0.10217711 0.43262848 -0.30445188 0.4045934 0.02738242 -0.4803509 -0.21928194
0.31348085 -0.6892472 0.3163608 -0.42035514 0.14606135 0.5203793 -0.38569483 -0.5482428
0.7652393 -0.739737 0.3848729 0.05374589 -0.015302999 0.29726914 -0.8252666 0.3552583
-0.05457833 0.28025973 -0.20527348 -0.29483074 0.7551666 0.7130033 0.7741494 0.014373725
0.09471602 0.33376932 -0.20062731 -0.8796749 0.52332824 0.55392694 0.018258689 0.36237195
0.10560637 -0.121683314 -0.009610551 -0.66819525 -0.087794214 -0.0901822 0.07156286 -0.048966326
0.34129503 -0.82351124 0.12492547 -0.5885738 0.69429725 -0.16417056 -0.46547255 -0.5968901
0.6928516 0.76445967 0.48116627 -0.11866139 -0.17322668 -0.36086303 0.10301933 0.0474841
0.48539114 0.10251892 -0.17870964 -0.46360388 0.21917465 0.15941186 -0.16931373 -0.35016242
-0.396583 -0.5534386 0.8247364 0.41096085 -0.46875763 -0.8928424 -0.590977 -0.03617296
-0.20079003 0.5968294 0.9946222 0.6224778 0.6832014 0.33045697 -0.53880614 0.43748468
0.6569995 0.1758048 -0.58221895 -0.33355606 -0.09925421 0.4156265 0.64066416 0.44711334
-0.07533581 0.17092034 0.37254637 -0.37228942 0.04020697 0.5015121 0.05265475 0.33805656
-0.017111864 0.65471876 0.76403725 -0.119342916 0.035687912 -0.2947288 -0.41738218 -0.16975124
0.45014498 0.26732078 0.41346088 -0.5332817 -0.70453167 0.036868952 0.5937635 0.33515078
0.5673944 0.243931 -0.38555494 0.7345629 -0.45282483 0.31826985 -0.31091976 -0.87398356
-0.41191763 0.81675816 -0.41376424 -0.680713 -0.018940045 -0.2938286 0.33942303 -0.010922672
0.51351583 0.6391017 -0.71961135 0.3287398 0.5044441 0.2108899 0.015213822 0.80570483
-0.13612285 -0.2594613 -0.09164344 -0.75052994 -0.5189688 -0.14582047 0.0062396717 0.26271817
0.6365389 -0.28980973 0.1287132 -0.020546403 0.6644337 -0.2517962 0.69754654 -0.23640038
0.18277445 -0.30642387 -0.24482487 0.25154808 -0.79232496 0.42995197 0.28055567 0.16341303
-0.43486163 -0.87277424 -1.1062171 0.5415628 -0.25230044 -0.40183753 -0.0032410515 -0.47867933
0.3776493 -0.47531235 0.31225407 -0.4725094 -0.34770805 0.35588115 -0.26194626 -0.54806346
-0.067299515 0.41581687 -0.7088146 0.5897964 0.25160432 0.24029547 0.5779873 0.5164362
00000000: 6438 ab3e 5d82 32bf 385b 10be 0631 46be
00000010: 1ccc 49be a6ca 6a3e f05e a9be 7e25 62bd
00000020: e3cd 633e ac79 16bf 11b0 3f3f 555a 77bf
00000030: a521 17bf fe00 ac3e 0cee 30be b92c 043c
00000040: dac6 3cbf 40f4 173f 1d95 793e e16a d2be
00000050: aa7a 95be 2fa8 7d3e 1cbb a23c 2dd6 aa3e
00000060: 4d6f 04bf 572c 433e d054 023f 1167 9abe
00000070: 949b 50bf b2ae a4be 06ae aa3e e042 023f
00000080: f9d4 0fbd 16d3 18bf fcc9 d93e 3e29 1e3f
00000090: cbdc 92be 8733 243f 5323 743e 113f 3a3d
000000a0: 760a 703d cc52 04bf c19c 123f 38f7 06bf
000000b0: ab63 653e 4bcf bdbc f1d6 7f3e e83e 983d
000000c0: 69a3 7ebd 351a 18bf 64a1 b93e 7a2b 7cbe
000000d0: 9128 32bf b9f8 ec3e a998 163f de13 0c3f
000000e0: d9bd 283f 52b3 81bf 5d58 ebbe 46c5 2dbf
000000f0: 82de be3e 69b1 463d 0e1d 82bd 8000 43bf
00000100: b2b7 e1be 3c42 d1bd 7b81 dd3e 1ee1 9bbe
00000110: de26 cf3e 1951 e03c 8ef0 f5be 728b 60be
00000120: 9080 a03e 8172 30bf 0bfa a13e ca38 d7be
00000130: 1b91 153e 9437 053f cb79 c5be a459 0cbf
00000140: b9e6 433f 675f 3dbf 100e c53e a624 5c3d
00000150: 6eb9 7abc a933 983e ac44 53bf 6ae4 b53e
00000160: 878d 5fbd 347e 8f3e 3633 52be 0ef4 96be
00000170: 9952 413f 6287 363f a82e 463f c67f 6b3c
00000180: 79fa c13d d0e3 aa3e 3f71 4dbe 6032 61bf
00000190: d7f8 053f 28ce 0d3f 3f93 953c d188 b93e
000001a0: 2748 d83d 1a35 f9bd 9375 1dbc d80e 2bbf
000001b0: 74cd b3bd 72b1 b8bd 8c8f 923d ea90 48bd
000001c0: 39be ae3e a2d1 52bf edd8 ff3d c6ac 16bf
000001d0: 77bd 313f 541c 28be 6b52 eebe cacd 18bf
000001e0: b95e 313f a1b3 433f 6d5b f63e be04 f3bd
000001f0: 5662 31be 0ac3 b8be ccfb d23d b07e 423d
00000200: 3085 f83e 71f5 d13d a9ff 36be 7d5d edbe
00000210: 526f 603e dd3c 233e 9460 2dbe 7d48 b3be
00000220: ed0c cbbe 27ae 0dbf ed21 533f 7669 d23e
00000230: 0001 f0be 5291 64bf 454a 17bf 192a 14bd
00000240: e79b 4dbe d0c9 183f 8f9f 7e3f b55a 1f3f
00000250: 49e6 2e3f a831 a93e 33ef 09bf fefd df3e
00000260: 1f31 283f 2c06 343e 4d0c 15bf dcc7 aabe
00000270: cb45 cbbd ffcc d43e 9102 243f 0aec e43e
00000280: a949 9abd be05 2f3e 66be be3e b89c bebe
00000290: 10b0 243d 1963 003f 82ac 573d c015 ad3e
000002a0: 2e2e 8cbc a69b 273f f297 433f 0f6a f4bd
000002b0: 7d2d 123d b1e6 96be 1eb3 d5be 45d3 2dbe
000002c0: 6779 e63e 45de 883e 25b1 d33e 2685 08bf
000002d0: 305c 34bf e603 173d e200 183f e298 ab3e
000002e0: c240 113f 0cc9 793e 7567 c5be 500c 3c3f
000002f0: a8d8 e7be 44f4 a23e e030 9fbe 63bd 5fbf
00000300: dee6 d2be 1017 513f e8d8 d3be 3543 2ebf
00000310: 2728 9bbc b470 96be dbc8 ad3e 02f5 32bc
00000320: c675 033f 2b9c 233f 7338 38bf 9550 a83e
00000330: 4023 013f 86f3 573e 6543 793c ac42 4e3f
00000340: ca63 0bbe 1dd8 84be 8eaf bbbd bb22 40bf
00000350: 24db 04bf f651 15be 2976 cc3b ff82 863e
00000360: 37f4 223f f161 94be 65cd 033e ee50 a8bc
00000370: 5418 2a3f 6eeb 80be 6992 323f f112 72be
00000380: 3a29 3b3e 97e3 9cbe 5fb3 7abe e9ca 803e
00000390: cfd5 4abf aa22 dc3e fea4 8f3e bf55 273e
000003a0: 2fa6 debe 226e 5fbf 8698 8dbf dca3 0a3f
000003b0: 862d 81be a6bd cdbe d267 54bb 7515 f5be
000003c0: 405b c13e 245c f3be c4df 9f3e c1ec f1be
000003d0: ca06 b2be 0e36 b63e d21d 86be e34d 0cbf
000003e0: 54d4 89bd f3e5 d43e e074 35bf e6fc 163f
000003f0: 48d2 803e 0410 763e faf6 133f 2a35 043f

fc2.weight f4 [200, 300]
0.013861517 0.015018235 0.024338566 0.046284825 0.01197929 -0.051810145 0.02374757 0.01283053
0.02697983 -0.028814562 0.035961166 -0.014067343 0.052268356 -0.03908615 -0.012878961 0.04857282
-0.006708636 -0.01354114 -0.03333708 0.0059887245 -0.037042905 -0.0075868843 0.022360412 0.054265138
0.0063435524 -0.03409616 -0.040701184 0.018493509 0.022189045 -0.050547425 -0.024644045 -0.031195052
-0.0028227589 0.028836912 -0.010474254 0.008443773 -0.03778696 0.017872691 -0.04487729 -0.013556041
-0.04568941 0.053590853 -0.044847485 -0.003368288 -0.044273786 -0.03710996 0.04885967 0.038715575
0.01591185 -0.04953769 -0.047657423 -0.035222434 -0.009284009 -0.028697213 0.009503573 -0.02536676
0.049407296 0.029945198 0.033745974 0.03714721 0.04826104 -0.05262599 0.004388977 -0.05514432
0.041763365 0.041656725 -0.03494926 -0.048908107 -0.049753755 -0.05678347 -5.4419408e-05 0.038469702
-0.0044212784 -0.031036725 0.05020521 0.0044147586 -0.0137665225 0.05101292 0.051486034 -0.015201066
-0.0023624466 0.020603914 -0.02434043 0.040254142 -0.027155615 -0.0042582946 -0.03243466 0.017310714
0.049502507 0.007999698 0.044102415 -0.030178035 -0.02919082 0.047408186 0.014606585 -0.012634019
-0.012853814 0.03430882 -0.036454298 -0.04818539 -0.018428318 0.005989358 -0.021740144 0.017450416
-0.030079344 -0.043707535 0.011740869 -0.029095825 -0.0350871 0.04112587 -0.011045709 0.007837646
0.0046778605 -0.009069802 0.020732438 -0.06062802 -0.04862498 -0.0025636181 -0.03308287 0.04071608
-0.02769696 -0.042716593 -0.017172879 0.004868784 -0.03460653 -0.020968998 0.011941106 -0.046400953
-0.023418408 -0.052994803 -0.018305382 -0.026979832 -0.052823436 -0.044020463 -0.0029897005 -0.0032053045
0.01548204 0.05292029 0.0081207715 0.053698886 0.025592143 -0.021850042 0.009243029 -0.009213228
0.023038423 -0.020647682 -0.03853304 -0.0557234 -0.05146756 0.009862367 -0.060270388 4.4935074e-05
-0.007726119 -0.032416034 -0.027004046 0.047715366 0.055673316 -0.008217631 -0.039525874 -0.034010477
-0.0029948228 0.05340495 -0.022880098 -0.03313541 0.05016111 -0.045745295 -0.034051456 -0.031065414
0.037054077 0.043271665 -0.03995441 -0.028501634 -0.028678587 0.013229141 0.020270497 -0.049913947
0.0458496 0.026266428 0.0048906705 -0.0546396 -0.0015683093 -0.032360964 -0.040898927 -0.0037776094
-0.04810716 0.013150909 0.027460508 -0.052778732 0.05076332 0.0041670236 -0.026122127 0.0029040175
0.025580965 -0.04905712 0.018320281 -0.021972977 0.028781032 0.028639467 0.022675201 -0.024846457
-0.0006572021 0.04435574 -0.03854049 -0.017510023 0.0116350055 -0.03969162 -0.057184834 -0.05388392
-0.010414649 -0.048490867 0.019097013 0.044422794 -0.05691758 -0.017126312 -0.027333738 -0.0024155327
-0.05480904 -0.04188584 -0.028201742 -0.008453258 -0.038369123 -0.049247112 -0.0034239353 -0.032986008
0.051828768 -0.060248036 -0.021617208 0.02316136 -0.05590429 0.033488926 -0.012877098 0.024394445
-0.004185185 -0.04833813 0.018545665 0.010348525 0.012775131 0.022506393 0.041002933 -0.017972551
-0.014422182 0.0072117746 0.014074793 0.0048464984 0.015753523 0.0538479 0.016675545 -0.0400567
-0.044871263 0.034863576 -0.006256473 -0.024979325 0.031834878 0.04597626 -0.052383848 0.023924299
00000000: 6b1b 633c 0b0f 763c ac61 c73c 2895 3d3d
00000010: c944 443c e036 54bd 448a c23c 2537 523c
00000020: ce04 dd3c 840c ecbc 044c 133d b77a 66bc
00000030: 5817 563d cc18 20bd 4702 53bc 4bf4 463d
00000040: 1ed4 dbbb a8db 5dbc 768c 08bd 103d c43b
00000050: 4dba 17bd 669b f8bb 2f2d b73c 1f45 5e3d
00000060: 93dd cf3b 6aa8 0bbd 49b6 26bd b37f 973c
00000070: cdc5 b53c d10a 4fbd 4fe2 c9bc c48c ffbc
00000080: 09fe 38bb 633b ec3c 359c 2bbc c057 0a3c
00000090: 80c6 1abd c069 923c 40d1 37bd 281a 5ebc
000000a0: d224 3bbd 1582 5b3d ffb1 37bd 7fbe 5cbb
000000b0: 6e58 35bd 9d00 18bd 1421 483d 3994 1e3d
000000c0: 9159 823c 08e8 4abd 6e34 43bd 6645 10bd
000000d0: f51b 18bc 6b16 ebbc e0b4 1b3c f4cd cfbc
000000e0: 4e5f 4a3d a24f f53c 3839 0a3d ac27 183d
000000f0: 5ead 453d 5a8e 57bd 68d1 8f3b 03df 61bd
00000100: 1010 2b3d 3ea0 2a3d f526 0fbd de53 48bd
00000110: 98ca 4bbd c995 68bd 6540 64b8 6892 1d3d
00000120: 5fe0 90bb bb40 febc faa3 4d3d aea9 903b
00000130: fb8c 61bc ecf2 503d 05e3 523d e40d 79bc
00000140: 47d3 1abb 8ac9 a83c 9565 c7bc 87e1 243d
00000150: 7475 debc 2a89 8bbb 35da 04bd 33cf 8d3c
00000160: 24c3 4a3d 2a11 033c bca4 343d ed37 f7bc
00000170: 9621 efbc 162f 423d 7550 6f3c ebfe 4ebc
00000180: ce98 52bc 6887 0c3d 1a51 15bd 0b5e 45bd
00000190: fcf6 96bc 6042 c43b 6318 b2bc 2df4 8e3c
000001a0: f568 f6bc ac06 33bd c65c 403c 5e5a eebc
000001b0: 7eb7 0fbd 9a73 283d 10f9 34bc 7869 003c
000001c0: bd48 993b 8299 14bc 13d7 a93c 1655 78bd
000001d0: fd2a 47bd 6002 28bb e781 07bd e8c5 263d
000001e0: bce4 e2bc 98f7 2ebd 23ae 8cbc 528a 9f3b
000001f0: 94bf 0dbd 2dc7 abbc a1a4 433c ed0e 3ebd
00000200: f6d7 bfbc 1411 59bd 2bf5 95bc cf04 ddbc
00000210: 635d 58bd cd4e 34bd daee 43bb 1610 52bb
00000220: 62a8 7d3c f2c2 583d fc0c 053c 5df3 5b3d
00000230: 9da6 d13c dcfe b2bc 1370 173c 14f3 16bc
00000240: 13bb bc3c 5425 a9bc d2d4 1dbd 383e 64bd
00000250: a6cf 52bd c495 213c 15de 76bd ab78 3c38
00000260: 622b fdbb adc6 04bd 9737 ddbc 3071 433d
00000270: b409 643d 3ea3 06bc e2e5 21bd 924e 0bbd
00000280: ca44 44bb 26bf 5a3d 0b6f bbbc ffb8 07bd
00000290: bc75 4d3d 6b5f 3bbd 8a79 0bbd e57c febc
000002a0: 04c6 173d a13d 313d 3ca7 23bd 427c e9bc
000002b0: 5bef eabc 0abf 583c 500e a63c 9172 4cbd
000002c0: cacc 3b3d b12c d73c eb41 a03b c6cd 5fbd
000002d0: ba8f cdba ee8c 04bd a285 27bd c591 77bb
000002e0: 030c 45bd e976 573c dcf4 e03c 832e 58bd
000002f0: 33ed 4f3d 878b 883b 12fe d5bc 5451 3e3b
00000300: 2c8f d13c 1ef0 48bd 6a14 963c ac00 b4bc
00000310: 33c6 eb3c 519d ea3c 58c1 b93c cc8a cbbc
00000320: 1648 2cba 5dae 353d a2dc 1dbd 2e71 8fbc
00000330: c0a0 3e3c ae93 22bd a53a 6abd 63b5 5cbd
00000340: 34a2 2abc 5c9e 46bd 5771 9c3c adf4 353d
00000350: 6922 69bd 7b4c 8cbc 01eb dfbc ea4d 1ebb
00000360: 727f 60bd 7d90 2bbd 5707 e7bc 897f 0abc
00000370: f128 1dbd 57b7 49bd 1a64 60bb 561c 07bd
00000380: 674a 543d a5c6 76bd 9216 b1bc e4bc bd3c
00000390: e6fb 64bd af2b 093d 77fa 52bc dcd6 c73c
000003a0: e023 89bb 34fe 45bd 14ed 973c dc8c 293c
000003b0: c84e 513c 545f b83c b1f2 273d 2c3b 93bc
000003c0: 044b 6cbc c050 ec3b f699 663c 60cf 9e3b
000003d0: 880d 813c 9e8f 5c3d 279b 883c 7f12 24bd
000003e0: eeca 37bd 1ccd 0e3d 1903 cdbb 71a1 ccbc
000003f0: 4a65 023d 9a51 3c3d 7290 56bd e4fc c33c

fc2.bias f4 [200]
-0.001407072 0.023602812 -0.08867134 0.10897293 0.028917005 0.029700844 -0.11835137 0.035824712
0.20543928 0.14844741 0.2487392 -0.06974206 0.009189248 0.1597531 0.07171962 0.055450395
0.0121711455 0.03940104 0.0059700874 -0.040164735 9.826198e-05 0.007193395 0.14856605 -0.041153323
-0.05771853 0.09579326 -0.24770974 -0.06133574 0.13464142 0.21586308 -0.009530032 0.113650315
-0.0015992761 0.060650114 -0.06671709 -0.08464772 0.016612213 0.011606805 0.2993576 -0.0027183215
0.1251137 0.13700685 -0.019210638 -0.022757161 -0.0208597 -0.013790139 -0.27933654 0.090718314
0.045488242 0.1692985 -0.032151535 0.18600953 -0.041785456 -0.07228118 -0.0062111462 0.14318444
0.018419003 -0.019612975 0.049978796 0.08458814 0.0153293 -0.052450903 0.23457578 -0.008671191
-0.025099996 0.16309111 -0.015090879 0.11005677 0.1130277 0.04906829 0.29307944 -0.01386612
0.046747405 0.31942132 0.1454645 0.054954324 -0.0071491566 -0.15220074 -0.016438987 -0.020434614
-0.11769534 0.051882718 0.050110143 0.21604249 0.13334292 -0.044225354 -0.0021664007 -0.09538141
0.24117644 0.012235408 0.038838513 0.2630331 -0.042779922 -0.033220705 0.16994749 -0.00082996464
0.19790925 -0.15414706 -0.033243056 0.17382623 0.31849012 0.040406883 0.006092092 0.06734563
-0.013877351 0.026249664 -0.25170633 0.03769391 0.08996442 0.00022598053 -0.15044384 -0.17008834
-0.09599616 -0.0006065608 0.030627294 0.023548085 0.018303517 0.29145736 -0.022870785 -0.019732185
-0.05136683 0.11722769 0.005484862 -0.04153566 -0.051586624 -0.0034316187 -0.029695604 -0.027069205
0.33330896 0.026445244 -0.04546217 0.046419576 -0.100818135 0.029483257 0.015577036 0.21661502
-0.0466133 0.01793126 -0.03921105 0.114950866 0.035261173 0.033934645 -0.034681037 -0.0472019
-0.011515487 0.16296919 -0.007647421 0.053656727 0.08209454 0.08445521 -0.337086 0.062152624
-0.025299704 -0.024865702 0.026605213 0.22513846 0.124682344 0.18527424 -0.00020265987 -0.24842413
0.07244632 -0.14961778 0.059198763 0.11175976 -0.06830521 0.020311475 -0.042321708 -0.00095147995
0.017375909 0.022658437 0.034353204 -0.099329196 0.03246446 -0.022986269 0.12993641 -0.0036642193
-0.07160473 0.2202241 0.042649534 0.1746262 0.14395188 0.044557787 -0.021261437 -0.13447596
0.2701397 0.2834554 0.13599423 0.11653576 -0.2319647 -0.06589286 -0.09920563 -0.10315637
-0.050878808 0.13618498 0.014821723 0.009758057 0.01042955 0.08557384 -0.11222051 0.0085231075
00000000: 806d b8ba af5a c13c 5299 b5bd 332d df3d
00000010: 5be3 ec3c 2f4f f33c 3462 f2bd efbc 123d
00000020: ad5e 523e 9902 183e 7db5 7e3e edd4 8ebd
00000030: 808e 163c 5196 233e bce1 923d f41f 633d
00000040: 7c69 473c fc62 213d b9a0 c33b c783 24bd
00000050: 0012 ce38 92b6 eb3b b321 183e 6390 28bd
00000060: 446a 6cbd 422f c43d 9fa7 7dbe 2f3b 7bbd
00000070: 71df 093e 360b 5d3e da23 1cbc 7fc1 e83d
00000080: cd9e d1ba 416c 783d f8a2 88bd c95b adbd
00000090: 5616 883c 782a 3e3c 6645 993e de25 32bb
000000a0: ce1d 003e 864b 0c3e a15f 9dbc 3a6d babc
000000b0: f6e1 aabc 09f0 61bc 3305 8fbe 86ca b93d
000000c0: e151 3a3d 965c 2d3e 54b1 03bd 4879 3e3e
000000d0: 3a27 2bbd 2808 94bd df86 cbbb f19e 123e
000000e0: 73e3 963c 64ab a0bc 91b6 4c3d 8c3c ad3d
000000f0: bf27 7b3c c2d6 56bd a234 703e 9c11 0ebc
00000100: 829e cdbc 5b01 273e bc3f 77bc 7265 e13d
00000110: 117b e73d d5fb 483d 820e 963e b92e 63bc
00000120: 357a 3f3d 318b a33e a5f4 143e c917 613d
00000130: 7943 eabb 83da 1bbe 0eab 86bc 7e66 a7bc
00000140: 410a f1bd f982 543d 4b40 4d3d 3e3a 5d3e
00000150: 0c8b 083e a525 35bd 2cfa 0dbb 5457 c3bd
00000160: f5f6 763e 0577 483c 2215 1f3d 46ac 863e
00000170: 003a 2fbd 6f12 08bd b706 2e3e fc91 59ba
00000180: b9a8 4a3e bad8 1dbe df29 08bd 81ff 313e
00000190: 2311 a33e b081 253d 2ca0 c73b 81ec 893d
000001a0: d45d 63bc 8909 d73c a7df 80be ee64 1a3d
000001b0: 443f b83d 30f5 6c39 f30d 1abe a32b 2ebe
000001c0: a299 c4bd 9b01 1fba 17e6 fa3c eae7 c03c
000001d0: 42f1 953c e639 953e 835b bbbc 64a5 a1bc
000001e0: 0666 52bd 1215 f03d 5bba b33b 4c21 2abd
000001f0: 7f4c 53bd 02e5 60bb 3244 f3bc 3dc0 ddbc
00000200: 79a7 aa3e b2a3 d83c 8a36 3abd 7422 3e3d
00000210: bd79 cebd df86 f13c d336 7f3c 54d0 5d3e
00000220: 96ed 3ebd 94e4 923c c49b 20bd 5c6b eb3d
00000230: 056e 103d 0eff 0a3d b40d 0ebd c856 41bd
00000240: 74ab 3cbc 65e1 263e 3897 fabb 28c7 5b3d
00000250: 2f21 a83d daf6 ac3d 8996 acbe c093 7e3d
00000260: 5341 cfbc 28b3 cbbc 2df3 d93c b28a 663e
00000270: 7559 ff3d 88b8 3d3e 1881 54b9 e562 7ebe
00000280: bc5e 943d 6735 19be 677a 723d 4de2 e43d
00000290: 9ae3 8bbd 4064 a63c 8759 2dbd bd6c 79ba
000002a0: ec57 8e3c 309e b93c f2b5 0c3d 1b6d cbbd
000002b0: 74f9 043d b34d bcbc 0d0e 053e 6623 70bb
000002c0: 80a5 92bd 6d82 613e 47b1 2e3d 36d1 323e
000002d0: 1f68 133e 3a82 363d 772c aebc 11b4 09be
000002e0: c04f 8a3e 1121 913e 1242 0b3e 4daa ee3d
000002f0: 2888 6dbe d6f2 86bd 522c cbbd a643 d3bd
00000300: 4c66 50bd 1374 0b3e d0d6 723c 42e0 1f3c
00000310: b4e0 2a3c 5641 af3d ded3 e5bd 81a4 0b3c

fc3.weight f4 [2, 200]
0.018188033 -0.021028602 -0.06252659 0.02625485 0.023893388 -0.0018095108 -0.0042880177 0.034476146
-0.60230976 0.049884696 -0.15938108 -0.06518224 -0.04820664 0.0051039867 0.10878089 0.06171507
0.014368163 0.057454027 -0.010465872 0.045406286 -0.053554207 -0.03011284 0.041098632 0.086827435
0.04592783 0.008580355 -0.10914729 -0.18618755 0.01883575 0.054717842 0.06739093 -0.0114020845
-0.060885064 0.1058162 -0.0038057824 -0.05225815 -0.06653826 -0.031277716 -0.16859417 -0.022842657
0.002209961 0.10146677 0.043253038 0.06619554 -0.070108324 0.12965122 -0.104675286 0.0054635527
0.008216699 0.066439025 0.042697966 0.05379659 -0.060463734 -0.07593662 -0.033298984 0.07796353
-0.038845964 0.031596456 0.04176507 -0.1404517 -0.01593979 -0.04228445 0.14979523 0.027536768
-0.0328368 -0.13931872 0.016545158 0.029188575 0.13641526 0.0010270874 0.10801684 -0.09253784
0.05946571 -0.121736676 0.040927477 -0.058225174 0.060885064 -0.043847684 0.065666534 -0.02775491
-0.029664163 -0.033388715 0.03464046 0.030817151 0.08151 0.032475635 0.038380295 -0.036325425
-0.41465807 -0.010943647 -0.0045209303 -0.17359723 0.006088833 0.044296134 0.13761033 0.0197564
0.023239434 -0.16779669 -0.00037231552 0.13561627 -0.08862563 0.011943549 0.062308144 0.04565935
0.049966097 -0.04573784 -0.06791455 -0.016540471 -0.2592974 0.09635194 -0.05967176 -0.06503209
-0.062347375 -0.027086003 0.083198145 -0.019907843 -0.007145174 0.046360325 -0.03629038 -0.010830023
0.044758078 0.054833785 -0.022637948 0.055453524 0.062192656 0.013544864 -0.039412215 -0.061327983
-0.1586206 -0.012698281 0.050074138 -0.032900322 -0.0582658 -0.05063293 0.032114275 -0.074308135
0.06352819 -0.047414243 0.04927691 -0.067561045 -0.041693106 0.03709568 -0.044787876 -0.053803194
0.008599477 -0.18874593 0.031507045 0.04646089 0.01701488 0.061735783 -0.14898403 -0.048271786
0.008292137 -0.03480397 0.051238224 -0.14625275 0.007888382 -0.21467875 -0.061380535 -0.074812345
0.015394571 -0.07026234 0.111031406 -0.16927867 -0.07235971 0.0030816696 0.066478655 -0.04657
0.051940527 -0.0032271906 0.061034076 0.1108412 -0.06117564 0.027039435 0.039881162 0.016584273
-0.012324817 0.008354699 0.033347365 -0.14693572 -0.029522115 -0.065401256 0.06068017 -0.06087061
-0.21631111 -0.22371513 -0.013546651 0.04123783 -0.05800019 -0.010417161 -0.031631213 -0.038975302
-0.0010459468 0.04153631 -0.06373681 0.023522716 0.04083157 0.042576984 -0.03709356 0.04818166
0.048744187 0.018355671 -0.13276361 -0.27464685 0.003482609 -0.24215445 -0.0072972393 0.031309605
0.035690602 -0.06672454 -0.035772562 -0.028043415 0.049161423 -0.016493004 -0.18256393 -0.13169071
0.030928688 -0.03808972 0.05259991 0.03580981 0.033493727 -0.0048929993 -0.019056037 -0.037679937
0.042072106 -0.116726026 -0.02559028 0.0143104205 0.016785443 -0.11594371 -0.013376293 -0.015936067
0.032259565 -0.034155767 -0.115496665 -0.027207078 0.0060981456 -0.063549146 -0.028374972 -0.12845711
-0.11329126 -0.17049384 0.014159544 0.054034166 -0.046796955 -0.055714298 -0.059368856 -0.09628882
0.02579331 -0.23890595 -0.0016962513 -0.09635588 -0.05177289 -0.036729973 -0.15657598 -0.14934883
00000000: 12ff 943c 2d44 acbc f10d 80bd 6914 d73c
00000010: 11bc c33c 1b2d edba 8082 8cbb dc36 0d3d
00000020: f930 1abf e553 4c3d cb34 23be 447e 85bd
00000030: 5374 45bd 583f a73b 84c8 de3d f1c8 7c3d
00000040: 7268 6b3c ea54 6b3d 0c79 2bbc f1fb 393d
00000050: a85b 5bbd 34af f6bc 0a57 283d 95d2 b13d
00000060: d21e 3c3d 9e94 0c3c 9d88 dfbd f3a7 3ebe
00000070: 6e4d 9a3c d11f 603d 4204 8a3d cfcf 3abc
00000080: 9e62 79bd 2ab6 d83d 6f6a 79bb a40c 56bd
00000090: 3645 88bd 101d 00bd f3a3 2cbe 8620 bbbc
000000a0: fed4 103b cfcd cf3d 192a 313d 8791 873d
000000b0: f494 8fbd 4ac3 043e ff5f d6bd 9a07 b33b
000000c0: 559f 063c 2f11 883d 10e4 2e3d d059 5c3d
000000d0: d2a8 77bd a984 9bbd 8464 08bd 58ab 9f3d
000000e0: f21c 1fbd 496b 013d da11 2b3d 92d2 0fbe
000000f0: 2a94 82bc 7632 2dbd ec63 193e ca94 e13c
00000100: e17f 06bd 91a9 0ebe b689 873c e11c ef3c
00000110: 71b0 0b3e 569f 863a ef37 dd3d 7b84 bdbd
00000120: 5192 733d 1451 f9bd 92a3 273d 857d 6ebd
00000130: 9e62 793d a199 33bd 2d7c 863d 445e e3bc
00000140: 4202 f3bc 9bc2 08bd 28e3 0d3d 4074 fc3c
00000150: b7ee a63d 2c05 053d a834 1d3d f8c9 14bd
00000160: 104e d4be fb4c 33bc 5024 94bb 79c3 31be
00000170: d584 c73b dd6f 353d b9e9 0c3e 2cd8 a13c
00000180: a060 be3c e5d2 2bbe 5833 c3b9 fede 0a3e
00000190: 5b81 b5bd e0ae 433c d336 7f3d 4c05 3b3d
000001a0: 40a9 4c3d 9a57 3bbd c916 8bbd e27f 87bc
000001b0: a1c2 84be 2a54 c53d 606a 74bd 8b2f 85bd
000001c0: f65f 7fbd 77e3 ddbc ca63 aa3d c615 a3bc
000001d0: 1022 eabb 53e4 3d3d 39a5 14bd 6970 31bc
000001e0: 3f54 373d 6499 603d 3873 b9bc 3c23 633d
000001f0: babd 7e3d 47eb 5d3c b46e 21bd 0d33 7bbd
00000200: 706d 22be 730c 50bc 8a1a 4d3d 7dc2 06bd
00000210: 1fa8 6ebd 7a64 4fbd 428a 033d dd2e 98bd
00000220: 111b 823d 7035 42bd 96d6 493d 725d 8abd
00000230: 64c6 2abd a4f1 173d 7e73 37bd bd60 5cbd
00000240: d2e4 0c3c 9d46 41be 880d 013d c64d 3e3d
00000250: ca62 8b3c a9de 7c3d 458f 18be a3b8 45bd
00000260: bedb 073c 9c8e 0ebd 2cdf 513d 48c3 15be
00000270: 463e 013c bfd4 5bbe 286a 7bbd 3737 99bd
00000280: 8339 7c3c b4e5 8fbd 6f64 e33d 6357 2dbe
00000290: 5431 94bd d6f5 493b f625 883d 2fc0 3ebd
000002a0: 97bf 543d 467f 53bb defe 793d b600 e33d
000002b0: 4f93 7abd ce81 dd3c 6e5a 233d bedb 873c
000002c0: 07ee 49bc 26e2 083c 3f97 083d 5176 16be
000002d0: 5dd8 f1bc 18f1 85bd c58b 783d 7653 79bd
000002e0: a980 5dbe 9415 65be c6f2 5dbc 00e9 283d
000002f0: 9b91 6dbd bdac 2abc bb8f 01bd 91a4 1fbd
00000300: 2718 89ba fa21 2a3d 7288 82bd b6b2 c03c
00000310: 013f 273d 3465 2e3d 6bef 17bd 225a 453d
00000320: fca7 473d a25e 963c 2ff3 07be 839e 8cbe
00000330: 7c3c 643b 56f7 77be ae1d efbb 803e 003d
00000340: 4f30 123d e0a6 88bd 4086 12bd 4ebb e5bc
00000350: 7d5d 493d 561c 87bc 0af2 3abe eed9 06be
00000360: 295e fd3c f703 1cbd 0173 573d 4fad 123d
00000370: b830 093d 7455 a0bb 681b 9cbc 4756 1abd
00000380: cd53 2c3d 0e0e efbd b5a2 d1bc 4176 6a3c
00000390: a081 893c e573 edbd 3d28 5bbc 5b8c 82bc
000003a0: 9b22 043d ebe6 0bbd 8489 ecbd 61e1 debc
000003b0: f4d2 c73b 0e26 82bd a172 e8bc 438a 03be
000003c0: 4005 e8bd f095 2ebe 6ffd 673c ee52 5d3d
000003d0: 2aae 3fbd ad34 64bd c22c 73bd 1333 c5bd
000003e0: 7e4c d33c c3a3 74be c054 deba 3b56 c5bd
000003f0: cf0f 54bd 2b72 16bd 7455 20be e6ee 18be

fc3.bias f4 [2]
0.1370278 -0.08835386
00000000: 0451 0c3e def2 b4bd
