log/train_1_1k/models/20_actor.pt (torch_old, 249426 bytes, 6 tensors)

fc1.weight f4 [300, 4]
0	0x3ea43cf6	0.3207776
1	0xbe1eeba9	-0.15519585
2	0xbec68aa0	-0.38777637
3	0xbee625da	-0.44950753
4	0xbeb60e54	-0.35557806
5	0x3de4ae4c	0.11166057
6	0x3f0aad0c	0.541703
7	0xbe585265	-0.21125181
8	0xbdf5f475	-0.12009517
9	0x3ddbfce7	0.10741597
10	0xbf0269f7	-0.5094294
11	0xbe990cea	-0.29892665
12	0xbecc33a4	-0.3988315
13	0xbe1ae611	-0.15126826
14	0xbd9427df	-0.07234167
15	0x3f095fb5	0.5366166
16	0xbec70875	-0.3887364
17	0x3ecdf515	0.40226045
18	0xbe6fb500	-0.2340889
19	0x3bcfb9f5	0.0063393065
20	0xbe5777ba	-0.21041766
21	0x3e8cd1e3	0.2750388
22	0x3e066ee2	0.13128236
23	0x3e24ecb4	0.1610592
24	0xbea0c99c	-0.31403816
25	0xbeefa68c	-0.46806753
26	0x3e83eccd	0.25766602
27	0xbeae05d5	-0.33988824
28	0x3eca264a	0.39482337
29	0x3e67cd33	0.22636871
30	0x3e891128	0.26770902
31	0xbf329278	-0.69754744
32	0x3e54b342	0.20771506
33	0xbdabcb6d	-0.0838841
34	0xbf127c21	-0.57220656
35	0x3ead15d8	0.33805728
36	0xbe72fc67	-0.23729096
37	0x3eb78d43	0.35849962
38	0x3ebb85ed	0.36625615
39	0x3f1bf5f1	0.6092215
40	0xbe355abb	-0.17710392
41	0xbdbecd2a	-0.09316476
42	0xbeb85ea3	-0.36009702
43	0x3d1ebd79	0.038754914
44	0x3eaf94ac	0.34293115
45	0xbe41aead	-0.1891429
46	0x3ecf7b30	0.40523672
47	0x3d0b0d5f	0.0339483
48	0xbefc88f2	-0.4932323
49	0xbe156ced	-0.14592333
50	0x3ef9d6ba	0.48796636
51	0xbb00be97	-0.001964485
52	0xbe71c94a	-0.23611942
53	0xbe94b891	-0.29047063
54	0x3ee9804b	0.45605692
55	0x3e93ff35	0.28905645
56	0x3ec1c3af	0.37844607
57	0x3ed2b9bf	0.41157338
58	0x3dd365b6	0.10322134
59	0x3daba371	0.08380783
60	0x3e3a54d2	0.18196419
61	0xbe2f9f39	-0.17150582
62	0x3f1294d5	0.5725835
63	0xbe082ad2	-0.13297585
64	0xbe456dec	-0.19280213
65	0x3e676a3e	0.22599122
66	0x3eb52eb6	0.353872
67	0x3e8c103c	0.27356136
68	0x3e857314	0.2606436
69	0x3e3a576a	0.18197408
70	0x3eb4bcc9	0.35300282
71	0x3f0ec2f3	0.5576622
72	0xbea63593	-0.3246275
73	0xbe3de771	-0.18545319
74	0xbec1292d	-0.37726727
75	0x3d077294	0.033068255
76	0xbeae9873	-0.34100685
77	0xbed4212c	-0.41431558
78	0xbdce80f2	-0.10083188
79	0x3ee1eb47	0.44124815
80	0x3e91ba91	0.2846265
81	0x3eeb978b	0.46014056
82	0x3d749f05	0.059721965
83	0xbf27e37d	-0.65581495
84	0x3dece6e8	0.11567479
85	0xbe7cbe5a	-0.24681988
86	0x3d978ae8	0.07399541
87	0xbe95fbcb	-0.29293665
88	0xbea36b1c	-0.31917655
89	0xbeb75740	-0.35808754
90	0xbeebe342	-0.4607182
91	0x3ea98dbf	0.33115956
92	0x3ebe3aec	0.3715433
93	0xbef595f2	-0.47965962
94	0xbc86adae	-0.016440239
95	0x3e33c5e7	0.17555963
96	0x3ef8cd80	0.48594284
97	0xbe8eca42	-0.27888685
98	0x3ecaec7a	0.39633542
99	0xbf27cfdd	-0.6555155
100	0x3ddc3ffb	0.10754391
101	0x3d8791aa	0.0661958
102	0xbf08aca0	-0.53388405
103	0xbe8cbb30	-0.27486563
104	0x3e2ce4ab	0.16884105
105	0xbe0330c5	-0.12811573
106	0xbe8a99ac	-0.27070367
107	0x3e2df1d5	0.16986783
108	0xbd439d6f	-0.047757562
109	0x3e197064	0.1498428
110	0xbd04e011	-0.03244025
111	0x3f184b47	0.59489864
112	0x3ea056d2	0.3131624
113	0x3edfa40f	0.43679854
114	0x3ee1ebb2	0.44125134
115	0xbd10714d	-0.035264302
116	0xbedd1e6b	-0.4318727
117	0xbe40fac9	-0.18845667
118	0xbec99c06	-0.3937685
119	0x3ec07251	0.37587216
120	0xbebc5a15	-0.36787477
121	0x3ea4a0af	0.32153842
122	0x3f0043f1	0.5010367
123	0xbc814901	-0.015781881
124	0xbdaad8bb	-0.08342119
125	0xbe701dd7	-0.23448883
126	0xbe3c71c8	-0.18402779
127	0x3ec34c30	0.38144064
128	0x3e8d5bc5	0.27609077
129	0x3d19f2eb	0.03758518
130	0xbeae6b5c	-0.34066284
131	0xbf3314dc	-0.69953704
132	0xbe90cd9a	-0.28281862
133	0xbce6e861	-0.028186979
134	0x3e8f3122	0.27967173
135	0xbe8dddb5	-0.27708212
136	0x3d27e2ac	0.040987656
137	0x3ea452e3	0.32094488
138	0x3dedf17c	0.11618325
139	0x3eca008f	0.3945355
140	0xbe815ed0	-0.2526765
141	0xbefa4cf3	-0.48886833
142	0x3dfa146c	0.122109264
143	0xbe91c5e1	-0.28471282
144	0x3cb949ee	0.02261826
145	0xbea815d2	-0.32829148
146	0x3cf77b2c	0.0302101
147	0xbe17f85b	-0.14840834
148	0xbe8700cb	-0.26367792
149	0xbed67d25	-0.41892353
150	0x3eaf797a	0.34272367
151	0x3ee91cfa	0.4552992
152	0x3e685451	0.22688414
153	0xbe89abec	-0.26888978
154	0x3daf87f7	0.08570855
155	0x3e919020	0.2843027
156	0xbecdbd68	-0.40183568
157	0x3ea3a50f	0.31961867
158	0x3e82a4ad	0.25516263
159	0x3d60acc0	0.054852247
160	0x3d882748	0.06648117
161	0x3ebac2ef	0.36476848
162	0xbf07bd2d	-0.53023034
163	0xbee99266	-0.45619506
164	0xbed3b8f3	-0.41352043
165	0x3d600c7c	0.054699406
166	0xbe86afb8	-0.26305938
167	0x3da1469a	0.07874794
168	0x3e51a590	0.20473313
169	0xbeca4dce	-0.39512485
170	0xbd5e0593	-0.054204535
171	0xbbe464e5	-0.0069700354
172	0x3ead4423	0.33841047
173	0xbed11045	-0.40832725
174	0x3dbbab8b	0.091635786
175	0xbe8374f5	-0.2567517
176	0x3e91f96a	0.285106
177	0x3ecd03e4	0.4004203
178	0xbe620308	-0.22071469
179	0xbde44157	-0.11145275
180	0xbdca8f4f	-0.09890615
181	0x3e1bb705	0.15206535
182	0xbeb19176	-0.3468129
183	0x3f2bf778	0.6717448
184	0xbeaf6ade	-0.3426122
185	0x3ed833c6	0.42227
186	0x3cec0ed6	0.028815668
187	0x3f4bd20b	0.79617375
188	0x3e8e695e	0.27814764
189	0xbed875db	-0.42277417
190	0xbe5b86df	-0.21438168
191	0xbd73bbdd	-0.059505332
192	0x3e29da8a	0.16587272
193	0x3d8a2635	0.06745569
194	0x3e063648	0.13106644
195	0x3ecf1374	0.4044453
196	0xbd6118ed	-0.05495541
197	0x3e81cce7	0.2535164
198	0x3e941948	0.28925538
199	0x3d59e94b	0.053201
200	0xbe807a6e	-0.25093406
201	0xbeed00a4	-0.4628955
202	0x3e62dcc3	0.22154526
203	0x3d975651	0.073895104
204	0xbb201a0c	-0.0024429588
205	0xbecaa00c	-0.3957523
206	0xbda6685d	-0.081253745
207	0x3ef84514	0.48490202
208	0x3e244e14	0.1604541
209	0x3e0705b7	0.13185774
210	0xbed52aa6	-0.416341
211	0x3c21777a	0.009855146
212	0x3eec27b6	0.46124047
213	0xbc220756	-0.009889444
214	0xbe7dfd31	-0.24803616
215	0xbeb925b8	-0.3616159
216	0xbeac2294	-0.3362013
217	0xbe9b478f	-0.30328032
218	0xbeca2337	-0.39479992
219	0xbdc13a51	-0.09434951
220	0xbe762b60	-0.24039984
221	0xbc457d0f	-0.012053742
222	0xbf06d516	-0.52668893
223	0xbe267d77	-0.16258799
224	0x3ed054ae	0.40689605
225	0xbe42948c	-0.19001979
226	0x3dea5e7f	0.11443805
227	0x3e045732	0.12923887
228	0x3e4fa757	0.20278679
229	0x3e007c9f	0.12547539
230	0xbde8e768	-0.11372262
231	0x3eb6f85d	0.3573636
232	0x3e38ae72	0.18035296
233	0x3eef5b45	0.4674932
234	0xbda809f4	-0.082050234
235	0xbd64c136	-0.055848323
236	0x3e9264d4	0.2859255
237	0x3ea0861d	0.3135232
238	0xbbd14161	-0.0063859676
239	0xbef233b1	-0.47305062
240	0xbd259971	-0.040429536
241	0xbed78f31	-0.42101434
242	0x3de94c23	0.11391475
243	0x3e8aaa34	0.2708298
244	0x3d80cf70	0.062895656
245	0x3e4703f0	0.19435096
246	0xbe2e4dbe	-0.17021844
247	0xbeca0ac4	-0.3946134
248	0xbe510437	-0.20411764
249	0xbec2378e	-0.3793301
250	0xbdfad893	-0.122483395
251	0x3e33e5de	0.17568156
252	0xbe8f278f	-0.27959868
253	0x3db07bf5	0.08617393
254	0x3e9244cf	0.28568122
255	0xbedf1dfc	-0.43577564

fc1.bias f4 [300]
0	0xbccb4be2	-0.024816457
1	0xbeaf1ffc	-0.3420409
2	0xbe6c1854	-0.23056155
3	0xbe1fa9f4	-0.15592176
4	0x3e3e7ba1	0.18601848
5	0x3eec540f	0.46157882
6	0xbedc338f	-0.43008086
7	0xbe962349	-0.29323795
8	0x3dd0b7b4	0.101912886
9	0xbe9dc655	-0.30815378
10	0x3edae521	0.42752936
11	0xbede8150	-0.43458033
12	0xbed0da2d	-0.40791455
13	0x3eae4ace	0.34041446
14	0xbe2dadc2	-0.16960815
15	0xbd3f3245	-0.0466788
16	0xbe67bb97	-0.22630154
17	0x3eddc088	0.43310952
18	0x3e515826	0.20443782
19	0xbec3f172	-0.38270146
20	0xbeab143c	-0.33413875
21	0xbd637c9a	-0.05553875
22	0xbd38f240	-0.045152903
23	0x3e9b35c4	0.30314457
24	0xbc902feb	-0.017600974
25	0xbe01fa82	-0.12693217
26	0x3e970ebb	0.29503426
27	0xbdc58abf	-0.09645604
28	0xbee0278c	-0.43780172
29	0xbe925b98	-0.28585505
30	0x3edf6577	0.436321
31	0x3eb85e4a	0.36009437
32	0xbe56124e	-0.2090542
33	0xbed93a5f	-0.42427346
34	0x3ee0238a	0.43777114
35	0x3f1065d6	0.5640539
36	0xbef149cc	-0.47126615
37	0x3f1e76c9	0.619
38	0x3e6424da	0.22279683
39	0x3e01377c	0.12618822
40	0xbd26739d	-0.0406376
41	0xbe6e58f3	-0.23276119
42	0x3ea95abd	0.3307704
43	0xbee18ff7	-0.4405515
44	0x3d189b8f	0.037257727
45	0x3e60fe0a	0.21971908
46	0x3eb74830	0.35797262
47	0xbdc1197e	-0.094286904
48	0xbc06a02f	-0.008216902
49	0xbe9a4a10	-0.3013463
50	0x3e633cb0	0.22191119
51	0xbecaa7b7	-0.3958108
52	0xbe90d473	-0.28287086
53	0xbda9a49f	-0.08283352
54	0x3eb94294	0.36183608
55	0x3e92f5b7	0.2870309
56	0x3e96c19e	0.29444593
57	0xbf22261b	-0.63339394
58	0xbee4edc0	-0.4471264
59	0xbee48df1	-0.44639543
60	0x3e849ebe	0.2590236
61	0xbe3db01b	-0.1852421
62	0xbe46e5eb	-0.19423644
63	0xbee4e517	-0.44706032
64	0xbefae2fb	-0.49001297
65	0xbe92958a	-0.28629714
66	0x3e9b5526	0.303384
67	0xbdb62d46	-0.08895354
68	0x3ed3b46a	0.41348583
69	0xbdff51ca	-0.12466772
70	0xbede0b30	-0.4336791
71	0xbe60d2b9	-0.21955384
72	0x3e0a188e	0.1348593
73	0xbeb3aeb0	-0.35094213
74	0x3e891eec	0.26781404
75	0xbe039689	-0.12850393
76	0xbd000715	-0.031256754
77	0x3d9141a1	0.07092596
78	0xbeca4405	-0.3950502
79	0xbef4e880	-0.47833633
80	0x3ef96108	0.4870684
81	0xbed07326	-0.4071285
82	0x3e57419d	0.21021123
83	0x3e6bb39f	0.23017739
84	0xbe7c85fe	-0.24660489
85	0xbe03442d	-0.12818976
86	0xbf0d8bec	-0.5529163
87	0x3e9042a9	0.28175858
88	0xbe7d3288	-0.24726307
89	0xbda0b662	-0.07847287
90	0xbe200654	-0.15627414
91	0xbe3c4ad7	-0.18387924
92	0x3ef8af27	0.4857113
93	0x3f17cef2	0.5930015
94	0x3eec8916	0.46198338
95	0xbd85e73a	-0.065382436
96	0x3e56fc11	0.20994593
97	0x3ea3f348	0.32021546
98	0xbe4656bd	-0.19369026
99	0xbf043a2b	-0.5165126
100	0x3ea449c6	0.32087535
101	0x3f08e795	0.53478366
102	0xbe921126	-0.28528708
103	0x3e15c3d7	0.14625488
104	0x3e21e26d	0.15809031
105	0x3e1f8e6a	0.1558167
106	0xbd330f3a	-0.043715693
107	0xbea37ae3	-0.31929693
108	0xbe47201b	-0.19445841
109	0xbe501868	-0.2032181
110	0x3e023d7a	0.12718764
111	0x3e044612	0.12917355
112	0x3e257d1e	0.1616101
113	0xbee7b472	-0.45254856
114	0x3e57e105	0.21081932
115	0xbebf5a87	-0.37373754
116	0x3deb134b	0.11478289
117	0xbe54c806	-0.20779428
118	0xbea8d7a4	-0.3297702
119	0xbe3292d8	-0.17438829
120	0x3ea98d4a	0.33115608
121	0x3f078a9c	0.52945876
122	0xbd0c65d2	-0.03427679
123	0xbec3b179	-0.38221338
124	0xbe4e7447	-0.20161544
125	0x3e1bee81	0.15227701
126	0x3c99273f	0.018695472
127	0xbe0cdc8d	-0.13756008
128	0x3ed675ca	0.4188674
129	0xbe980bb7	-0.29696438
130	0xbe69e7b9	-0.22842301
131	0xbee10b19	-0.4395378
132	0x3db1124b	0.08646067
133	0x3d8068b5	0.06269971
134	0xbdb29861	-0.0872047
135	0xbe8e4543	-0.27787217
136	0xbc00842c	-0.007844012
137	0xbe00aae7	-0.12565194
138	0x3f1c7deb	0.61129636
139	0x3eb8e529	0.36112335
140	0xbecd5b05	-0.40108505
141	0xbe6f6a29	-0.2338034
142	0xbebb579d	-0.3659028
143	0xbc1fcf54	-0.009754021
144	0x3d20796f	0.039178308
145	0x3f071a90	0.52774906
146	0x3f04673f	0.5172004
147	0x3ec17bca	0.37789756
148	0x3ef2b0a3	0.47400388
149	0xbdd58888	-0.10426432
150	0xbef453d7	-0.47720215
151	0x3e8335f7	0.2562711
152	0x3eafd5f8	0.34342933
153	0xbdc456e6	-0.09586887
154	0xbebd52b7	-0.3697717
155	0xbe6df4bd	-0.23237891
156	0xbe1b21ed	-0.1514966
157	0x3c6b67db	0.014368023
158	0x3f09bdf9	0.538055
159	0x3d8c793a	0.0685906
160	0x3cc6fbf9	0.024290072
161	0x3e421250	0.18952298
162	0x3e0c4a7b	0.13700287
163	0xbe8a7922	-0.27045542
164	0xbdafbf2e	-0.085813865
165	0x3f0e0195	0.55471164
166	0x3dc02eb0	0.09383905
167	0x3e9e0cca	0.30869132
168	0xbd873267	-0.0660141
169	0x3ebccfb2	0.3687721
170	0x3f0b3b81	0.5438767
171	0xbecbda39	-0.39814928
172	0x3e6ddbf6	0.2322844
173	0x3d2a46f2	0.041571565
174	0xbe43a15d	-0.19104524
175	0xbdebbc72	-0.115105525
176	0x3edd494b	0.4321998
177	0x3daa1683	0.08305075
178	0x3d5d5110	0.054032385
179	0xbefa1845	-0.4884664
180	0xbee01f80	-0.43774033
181	0x3db803b0	0.08985078
182	0x3f0df925	0.5545829
183	0x3e4f4a86	0.20243272
184	0x3f15176a	0.5823885
185	0xbcbdb09e	-0.023155507
186	0xbea66c89	-0.3250468
187	0x3edac8ea	0.4273141
188	0xbe1299de	-0.14316508
189	0x3ea25c1c	0.317109
190	0xbe9b89ad	-0.30378476
191	0xbf0b979d	-0.5452822
192	0xbef267c2	-0.47344786
193	0x3ee8433c	0.45363796
194	0xbe90cd85	-0.282818
195	0xbeaee1fe	-0.34156793
196	0xbd95abd0	-0.07308161
197	0xbe98a12b	-0.2981046
198	0x3ef8fa31	0.4862838
199	0x3d896081	0.0670786
200	0x3eb75740	0.35808754
201	0x3edbd6cf	0.42937323
202	0xbeac9b61	-0.33712295
203	0x3edfd3c3	0.4371625
204	0x3e7df5b9	0.24800767
205	0x3e9f778f	0.31145903
206	0xbd6c0648	-0.057623178
207	0x3f0d8cdc	0.5529306
208	0xbe341583	-0.17586331
209	0x3db39111	0.087679036
210	0xbec120ae	-0.37720245
211	0xbedf877c	-0.43658054
212	0xbeced6b1	-0.40398172
213	0x3e69bb48	0.22825348
214	0xbec0c3ac	-0.37649286
215	0x3df2176f	0.11820876
216	0x3f133fa1	0.57518965
217	0xbec7f17d	-0.39051428
218	0x3e607a21	0.21921588
219	0xbdc91623	-0.09818675
220	0x3f01e2ba	0.5073658
221	0xbe948598	-0.29008174
222	0x3efee957	0.497874
223	0xbe9be091	-0.30444768
224	0x3c5eb753	0.013593513
225	0xbea29131	-0.31751397
226	0xbda2c57a	-0.07947822
227	0x3d90635a	0.070502
228	0xbeb84b13	-0.35994777
229	0x3ebaa4dd	0.36453906
230	0x3dde0951	0.10841621
231	0x3e85e6a1	0.26152518
232	0xbe978d3e	-0.29599947
233	0xbed6a78d	-0.41924706
234	0xbefef2c6	-0.49794596
235	0x3ed3eed4	0.4139315
236	0xbe5da6ba	-0.21645632
237	0xbeaa6bc5	-0.33285347
238	0xbd89b78c	-0.06724462
239	0xbed282db	-0.4111546
240	0x3e3cfbbd	0.18455406
241	0xbebdc9b5	-0.37067953
242	0x3d407877	0.046989884
243	0xbec5e26f	-0.38649318
244	0xbd91e142	-0.07123043
245	0x3e7e99d4	0.24863368
246	0x3d0757a4	0.033042565
247	0xbede03eb	-0.43362364
248	0xbdcc86a0	-0.09986615
249	0x3c8f252b	0.017473778
250	0xbef4d4b4	-0.4781853
251	0x3ef708e7	0.4824898
252	0xbd7f781b	-0.0623704
253	0x3e366e76	0.17815575
254	0x3ec1e0dc	0.37866867
255	0x3ef07c48	0.4696982

fc2.weight f4 [200, 300]
0	0x3c634610	0.013871685
1	0x3c763b1d	0.015028742
2	0x3cc77e69	0.02435227
3	0x3d3d9528	0.046284825
4	0x3c448073	0.011993515
5	0xbd54298a	-0.051797427
6	0x3cc28a44	0.02374757
7	0x3c526abf	0.012842833
8	0x3cdd1a8d	0.0269902
9	0xbcebf046	-0.028801095
10	0x3d134c04	0.035961166
11	0xbc664bd8	-0.0140561685
12	0x3d561758	0.052268356
13	0xbd2018cc	-0.03908615
14	0xbc52cce6	-0.012866234
15	0x3d46fad1	0.04857904
16	0xbbdb5c92	-0.006694385
17	0xbc5da69d	-0.013528493
18	0xbd088c76	-0.03333708
19	0x3bc43d10	0.0059887245
20	0xbd17ae56	-0.037031494
21	0xbbf86d04	-0.007581355
22	0x3cb72d2f	0.022360412
23	0x3d5e495a	0.054269172
24	0x3bd04f29	0.006357093
25	0xbd0b9d04	-0.03408529
26	0xbd26b080	-0.040695667
27	0x3c979b53	0.018506682
28	0x3cb5dfc0	0.022201419
29	0xbd4f0ad1	-0.050547425
30	0xbcc9c4f7	-0.024630053
31	0xbcff8cc4	-0.031195052
32	0xbb38379c	-0.0028109318
33	0x3cec3b63	0.028836912
34	0xbc2b64aa	-0.010461012
35	0x3c0a57c0	0.008443773
36	0xbd1ac680	-0.03778696
37	0x3c9269c0	0.017872691
38	0xbd37cc4b	-0.044872563
39	0xbc5ddd10	-0.013541475
40	0xbd3b188d	-0.04567771
41	0x3d5b8b6c	0.05359976
42	0xbd37ae56	-0.044843994
43	0xbb5c6712	-0.003363077
44	0xbd354c74	-0.044262365
45	0xbd17f349	-0.03709725
46	0x3d482e89	0.048872504
47	0x3d1e99a9	0.03872076
48	0x3c82724a	0.015923638
49	0xbd4adb64	-0.049525633
50	0xbd43346e	-0.047657423
51	0xbd104566	-0.035222434
52	0xbc17e730	-0.009271428
53	0xbceb00ac	-0.028686844
54	0x3c1bb4e0	0.009503573
55	0xbccfba19	-0.025357293
56	0x3d4a68fa	0.04941652
57	0x3cf568bd	0.02995717
58	0x3d0a4565	0.033757586
59	0x3d183371	0.037158433
60	0x3d45ad5e	0.04826104
61	0xbd578238	-0.05261442
62	0x3b8fd168	0.004388977
63	0xbd61d585	-0.05513527
64	0x3d2b1010	0.041763365
65	0x3d2aa03e	0.041656725
66	0xbd0f1d62	-0.03494013
67	0xbd4853de	-0.048908107
68	0xbd4bbd1a	-0.04974089
69	0xbd6895c9	-0.05678347
70	0xb84d9653	-4.901581e-05
71	0x3d1d92e5	0.038470168
72	0xbb9081ad	-0.00440999
73	0xbcfe245b	-0.031023195
74	0x3d4da3fa	0.05020521
75	0x3b9122fa	0.0044292184
76	0xbc617570	-0.013760909
77	0x3d50fee0	0.051024318
78	0x3d52ef17	0.051497545
79	0xbc790de4	-0.015201066
80	0xbb1a35d3	-0.0023530617
81	0x3ca8e63b	0.020617595
82	0xbcc76595	-0.02434043
83	0x3d24ee45	0.040266294
84	0xbcde7574	-0.027155615
85	0xbb8b2896	-0.0042467816
86	0xbd04cc7d	-0.032421578
87	0x3c8de396	0.017320435
88	0x3d4ac324	0.049502507
89	0x3c034735	0.008012583
90	0x3d34a61c	0.044103727
91	0xbcf72233	-0.030167675
92	0xbcef0aed	-0.029180015
93	0x3d422f16	0.047408186
94	0x3c6f85d6	0.014619311
95	0xbc4ecb84	-0.012621764
96	0xbc52689d	-0.012842325
97	0x3d0c8768	0.03430882
98	0xbd154b6d	-0.036448885
99	0xbd4551a2	-0.048173554
100	0xbc96f37c	-0.01842665
101	0x3bc44260	0.005989358
102	0xbcb1fe2a	-0.02172764
103	0x3c8ef42d	0.017450416
104	0xbcf668f5	-0.030079344
105	0xbd32f940	-0.043694735
106	0x3c408828	0.011751212
107	0xbcee3ef4	-0.029082753
108	0xbd0facb9	-0.03507683
109	0x3d287e4a	0.041136064
110	0xbc34f910	-0.011045709
111	0x3c00a233	0.007851171
112	0x3b99ab04	0.004689576
113	0xbc146289	-0.009056696
114	0x3ca9f235	0.020745376
115	0xbd784bda	-0.060619213
116	0xbd471f50	-0.048613846
117	0xbb280260	-0.0025636181
118	0xbd0781e7	-0.03308287
119	0x3d26d0f8	0.040726632
120	0xbce2cbb6	-0.027685028
121	0xbd2eeb87	-0.042705085
122	0xbc8c994e	-0.017162945
123	0x3b9fe48d	0.0048795403
124	0xbd0db63a	-0.034597613
125	0xbcabac61	-0.02095622
126	0x3c43db85	0.011954193
127	0xbd3e055c	-0.04639183
128	0xbcbfc09f	-0.023407279
129	0xbd59056b	-0.052983683
130	0xbc95e8ff	-0.018299578
131	0xbcdd04cf	-0.026979832
132	0xbd58502e	-0.05281084
133	0xbd34456a	-0.04401151
134	0xbb42fce2	-0.002975278
135	0xbb51607c	-0.0031948378
136	0x3c7dddd0	0.015494779
137	0x3d58cdd9	0.052930687
138	0x3c0547dd	0.008134809
139	0x3d5bf8dc	0.053704128
140	0x3cd1a69d	0.025592143
141	0xbcb2e517	-0.021837754
142	0x3c17ad3d	0.009257612
143	0xbc16bab7	-0.00919979
144	0x3cbcd3b6	0.02305017
145	0xbca92554	-0.020647682
146	0xbd1dcb66	-0.038524054
147	0xbd643e38	-0.0557234
148	0xbd52cfa6	-0.05146756
149	0x3c21ca1b	0.009874846
150	0xbd76d2f3	-0.06025977
151	0x38731e0d	5.79637e-05
152	0xbbfd0bfd	-0.0077223764
153	0xbd04c23c	-0.0324118
154	0xbcdd1cc4	-0.026991256
155	0x3d437130	0.047715366
156	0x3d640f56	0.055678688
157	0xbc066d9d	-0.008204845
158	0xbd21e5e2	-0.039525874
159	0xbd0b4301	-0.033999447
160	0xbb438226	-0.0029832213
161	0x3d5abf26	0.05340495
162	0xbcbb5544	-0.022867806
163	0xbd07b8ff	-0.03313541
164	0x3d4d75bc	0.05016111
165	0xbd3b52ad	-0.045733143
166	0xbd0b6c0d	-0.034038592
167	0xbcfe7ce5	-0.031065414
168	0x3d17d322	0.037066586
169	0x3d314941	0.04328275
170	0xbd23a73c	-0.03995441
171	0xbce9627f	-0.02848935
172	0xbcead73c	-0.028667085
173	0x3c58f3f8	0.01324176
174	0x3ca627a2	0.02028257
175	0xbd4c6730	-0.049903095
176	0x3d3bd902	0.04586125
177	0x3cd74a0d	0.026280427
178	0x3ba097eb	0.0049009225
179	0xbd5fcdc6	-0.0546396
180	0xbacbd58e	-0.0015551315
181	0xbd048cee	-0.032360964
182	0xbd2785a2	-0.040898927
183	0xbb7791c5	-0.0037776094
184	0xbd450c03	-0.04810716
185	0x3c57a2a5	0.013161336
186	0x3ce0f4dc	0.027460508
187	0xbd582e83	-0.052778732
188	0x3d4ff6f0	0.050772607
189	0x3b88fa5a	0.004180235
190	0xbcd5fe12	-0.026122127
191	0x3b3f0286	0.0029145791
192	0x3cd1a3cd	0.025590802
193	0xbd48e516	-0.0490466
194	0x3c962fa7	0.01833327
195	0xbcb3e616	-0.0219603
196	0x3cebc633	0.028781032
197	0x3ceab185	0.028649101
198	0x3cb9d65d	0.022685224
199	0xbccb8acc	-0.024846457
200	0xba2986d1	-0.00064669276
201	0x3d35ae5d	0.04435574
202	0xbd1dd0cb	-0.0385292
203	0xbc8f5c8d	-0.017500186
204	0x3c3ea0c0	0.0116350055
205	0xbd2289f2	-0.039682336
206	0xbd6a3aa5	-0.057184834
207	0xbd5cb563	-0.05388392
208	0xbc2a8d1a	-0.010409618
209	0xbd46917d	-0.048478592
210	0x3c9c87b9	0.019107686
211	0x3d3601c7	0.04443529
212	0xbd691795	-0.056907255
213	0xbc8c3120	-0.017113268
214	0xbcdfd697	-0.027324004
215	0xbb1d78a2	-0.0024028202
216	0xbd6075f6	-0.054799996
217	0xbd2b907d	-0.04188584
218	0xbce6fe2d	-0.028197372
219	0xbc0a57b2	-0.00844376
220	0xbd1d1cc4	-0.03835751
221	0xbd49b384	-0.049243465
222	0xbb5f8049	-0.0034103564
223	0xbd0712cf	-0.03297692
224	0x3d545664	0.0518402
225	0xbd76bc63	-0.060238253
226	0xbcb0f93d	-0.021603221
227	0x3cbdd708	0.023173824
228	0xbd64efc3	-0.055892717
229	0x3d093574	0.033498242
230	0xbc52c2e2	-0.0128638465
231	0x3cc7f1c9	0.024407284
232	0xbb8923e0	-0.004185185
233	0xbd45f244	-0.048326746
234	0x3c9808cf	0.018558888
235	0x3c298cdc	0.010348525
236	0x3c514ec8	0.012775131
237	0x3cb85f54	0.022506393
238	0x3d27f70f	0.041007098
239	0xbc933b2c	-0.017972551
240	0xbc6c4b04	-0.014422182
241	0x3bec50c0	0.0072117746
242	0x3c66cefd	0.014087436
243	0x3b9ecf60	0.0048464984
244	0x3c8128fe	0.015766617
245	0x3d5c98c8	0.05385664
246	0x3c88b708	0.016688839
247	0xbd240906	-0.040047668
248	0xbd37caee	-0.044871263
249	0x3d0ed945	0.034875173
250	0xbbcc8830	-0.0062418208
251	0xbccc954c	-0.024973534
252	0x3d027104	0.03184606
253	0x3d3c5cdd	0.045987
254	0xbd568285	-0.052370567
255	0x3cc3fce4	0.023924299

fc2.bias f4 [200]
0	0xbab6585e	-0.0013911834
1	0x3ccdaa93	0.02510575
2	0xbbbefb51	-0.005828299
3	0x3cf88922	0.030338828
4	0x3ced014b	0.02893128
5	0x3dfe42de	0.12415098
6	0xbc6e41a4	-0.014542017
7	0x3d12d0de	0.035843723
8	0x3cbdf6c7	0.023188962
9	0x3d6f8ab5	0.05848189
10	0x3e1ed351	0.15510298
11	0xbb9063e3	-0.0044064387
12	0x3cddcbb2	0.027074669
13	0x3d6dc922	0.058053143
14	0xbdab4dea	-0.0836447
15	0xbcc9e6a4	-0.02464611
16	0x3c48aae0	0.012247771
17	0x3d355484	0.044270054
18	0x3bcd90fc	0.006273387
19	0xbd247041	-0.040146116
20	0x38ce1200	9.826198e-05
21	0x3beef7c6	0.0072927205
22	0x3ddf8e4b	0.10915812
23	0x3d375d7d	0.04476689
24	0xbd6c6189	-0.057710204
25	0x3c9fcd4e	0.019507077
26	0xbd9a9ba0	-0.07549214
27	0xbd39d138	-0.045365542
28	0x3d4b2e23	0.049604546
29	0x3d0968dd	0.03354727
30	0x3d69d070	0.057083547
31	0x3d4c64f5	0.049900968
32	0xbac43a43	-0.0014970977
33	0x3cbd9993	0.023144519
34	0x3d6975e2	0.056997187
35	0xba793bfc	-0.00095075346
36	0x3c88be57	0.016692324
37	0x3c3e2a78	0.011606805
38	0x3d4e54a2	0.05037368
39	0x3da22e5d	0.07918999
40	0x3d3ff09b	0.04686032
41	0x3dbe201d	0.09283469
42	0xbc9d3876	-0.019191962
43	0xbcba44f5	-0.02273796
44	0xbcaae1f6	-0.0208597
45	0x3b82c67b	0.003990946
46	0xbdd1b63a	-0.10239835
47	0x3c7ac8b9	0.015306645
48	0x3d3a63d2	0.045505352
49	0x3d6159b9	0.055017207
50	0xbcfc32d4	-0.030785955
51	0x3ad0b313	0.0015922509
52	0x3d0abe69	0.033872996
53	0x3b8571d6	0.004072408
54	0x3d8bf004	0.06832889
55	0x3c9d73e1	0.019220294
56	0x3c991042	0.01868451
57	0xbc86ca4e	-0.016453888
58	0xbccf86fc	-0.02533292
59	0xbd0d301a	-0.0344697
60	0x3c7c7957	0.015409789
61	0xbd45038e	-0.048099093
62	0x3ccae34d	0.024766589
63	0xbc071cad	-0.008246583
64	0x3d6900f5	0.05688568
65	0x3b5b13ef	0.003342863
66	0xbc9a87e1	-0.01886362
67	0x3ced1441	0.028940322
68	0xbd3af20a	-0.045640983
69	0x3d55de8c	0.05221419
70	0x3d5288e3	0.051400077
71	0x3d93e09e	0.07220577
72	0x3d3f7f41	0.04675222
73	0x3da6176c	0.08109936
74	0x3d849778	0.06474203
75	0x3d51ac4d	0.05118971
76	0xbc50637f	-0.012719034
77	0xbd370b0b	-0.044688266
78	0xbc868f26	-0.01642568
79	0x3d6b7cf8	0.057492226
80	0xbabcf719	-0.0014416903
81	0x3dc63591	0.09678186
82	0xbce61174	-0.028084494
83	0x3d0724a1	0.032993916
84	0x3dc1f294	0.09470096
85	0xbd34f456	-0.04417833
86	0xbb0d330e	-0.0021545324
87	0xbc80174e	-0.015636113
88	0x3d0bc48b	0.034122985
89	0x3c4a1121	0.012333185
90	0x3d1f72f7	0.038928
91	0x3dcf4253	0.10120072
92	0xbd2c1886	-0.042015575
93	0xbd078bc2	-0.033092268
94	0x3b62ef78	0.0034627598
95	0xba59850a	-0.00082977174
96	0x3da64883	0.08119299
97	0xbca76ad5	-0.020436684
98	0x3c8be1e6	0.01707549
99	0xbd065e40	-0.032804728
100	0x3d484216	0.04889115
101	0x3d2581b0	0.040406883
102	0x3bc82a42	0.006108553
103	0xbc4d551a	-0.012532497
104	0xbc62844c	-0.013825487
105	0x3cd75079	0.02628349
106	0xbd8f82c4	-0.070073634
107	0x3d1a64ee	0.03769391
108	0xbc6589f6	-0.014009943
109	0x3b087b3d	0.002082541
110	0xbd75c6fb	-0.060004216
111	0xb8d6bc98	-0.000102394435
112	0xbc82df61	-0.015975656
113	0x3aa842d2	0.0012837297
114	0xbdb37a38	-0.08763546
115	0x3d21004d	0.039306927
116	0x3c95f694	0.018306054
117	0x3da24d14	0.07924858
118	0xbcb18378	-0.021669134
119	0xbca49b50	-0.02009359
120	0xbd522f56	-0.051314674
121	0x3d214595	0.039373
122	0x3bb70b30	0.0055860505
123	0xbd2a0e94	-0.04151781
124	0xbd46774c	-0.048453614
125	0xb926c35e	-0.00015903774
126	0xbcf30725	-0.029666493
127	0x3d638154	0.05554326
128	0x3dc33c37	0.095329694
129	0x3cd8da17	0.02647118
130	0xbd3a224b	-0.04544286
131	0x3d4e355f	0.050343867
132	0x3c5ecc7b	0.013598557
133	0x3d07fad5	0.033198196
134	0x3c7f833c	0.015595254
135	0x3bb9dd7b	0.0056721545
136	0xbd3edf1f	-0.046599504
137	0x3c92e494	0.01793126
138	0xbd2092ac	-0.039202377
139	0x3c81b611	0.015833886
140	0x3da94015	0.08264176
141	0xbd42d77e	-0.04756879
142	0xbd0422a4	-0.0322596
143	0xbd40f9f9	-0.047113393
144	0xbc3c7038	-0.011501364
145	0x3dba9fe6	0.091125295
146	0xbbe0fa27	-0.006865758
147	0xbcd45dcc	-0.025923632
148	0x3ab9a710	0.0014164168
149	0x3b9db20b	0.004812484
150	0xbdd5b8a9	-0.10435612
151	0x3db53ced	0.08849511
152	0xbccf0c7d	-0.02527451
153	0xbccaf58d	-0.02477529
154	0xbcc91dc1	-0.02455032
155	0x3dcc9596	0.09989469
156	0x3d41e387	0.047336128
157	0x3db4371c	0.08799574
158	0xb8eb1303	-0.000112092144
159	0xbcc2a06b	-0.023758134
160	0xbbe567a4	-0.0070008803
161	0xbd216671	-0.039404336
162	0x3c33438e	0.010941399
163	0x3d1f6fd8	0.038925022
164	0x3c6f4c15	0.014605542
165	0x3cb8178f	0.022472171
166	0xbd2d47d3	-0.042304825
167	0x3daff438	0.08591503
168	0x3c8e70f1	0.017387839
169	0x3cba4fff	0.022743223
170	0x3d0cb5f2	0.034353204
171	0x3b52c829	0.0032162762
172	0x3d055713	0.032553744
173	0xbcbc4db3	-0.022986269
174	0x3d52dafb	0.051478367
175	0xbbb28414	-0.005447874
176	0xbd60abc9	-0.054851327
177	0x3da9a0b2	0.08282603
178	0x3d2eb147	0.042649534
179	0xba9df621	-0.0012051502
180	0xbb96e82a	-0.004605313
181	0x3cc3ed47	0.023916854
182	0xbcae0931	-0.021244617
183	0xbd156acc	-0.036478803
184	0x3dc3b6b0	0.09556329
185	0x3d634f4b	0.05549554
186	0x3b92df72	0.004482203
187	0x3d0f680c	0.035011336
188	0xbd59f088	-0.053207904
189	0x3cd4a1e9	0.025956111
190	0xbc99956f	-0.018748013
191	0x3b4a68e3	0.0030885271
192	0xbd505050	-0.050857842
193	0x3d68b0aa	0.056809105
194	0x3c747010	0.014919296
195	0x3c53c97e	0.012926457
196	0x3c5f8188	0.0136417225
197	0x3baa7518	0.005201947
198	0xbd11fbc9	-0.03564051
199	0x3c0be0d0	0.008537486

fc3.weight f4 [2, 200]
0	0x3c94ff12	0.018188033
1	0xbcb03bbe	-0.021512862
2	0xbda242dd	-0.079229094
3	0x3d0ee7fe	0.034889214
4	0x3cc3bc11	0.023893388
5	0xbc506713	-0.012719887
6	0xbd2021c3	-0.039094698
7	0x3d0d36dc	0.034476146
8	0xbd8088b9	-0.06276078
9	0x3d88d7c2	0.066817775
10	0xbcacd8f7	-0.02109955
11	0xbd64fb91	-0.055903975
12	0xbd1999be	-0.037500136
13	0xbd29344f	-0.04130965
14	0x3c27b5ad	0.010236186
15	0x3d9033f5	0.0704116
16	0x3c6b929b	0.014378215
17	0x3d7ae16f	0.061250146
18	0xbc2d788a	-0.010587821
19	0x3d39fbf1	0.045406286
20	0xbd5b5ba8	-0.053554207
21	0xbcf74872	-0.030185912
22	0x3d1faf0b	0.038985293
23	0xbd0ffdf0	-0.035154283
24	0x3d3c1ed2	0.04592783
25	0x3cc60ebf	0.024176953
26	0xbd5ea247	-0.05435398
27	0xbd9874b1	-0.07444132
28	0x3d1cfffb	0.03833006
29	0x3c7fc8e9	0.015611866
30	0xbbaa1570	-0.005190544
31	0xbcc79b09	-0.024365919
32	0xbd79ba6a	-0.060968794
33	0x3c92754f	0.017878203
34	0xbc2db4d6	-0.010602197
35	0xbd91debf	-0.071225636
36	0xbd8847c5	-0.06654314
37	0xbd001d10	-0.031277716
38	0xbcb73bb7	-0.022367341
39	0xbbcf7165	-0.0063306564
40	0x3cd1f69c	0.025630288
41	0x3d898e73	0.06716623
42	0x3d31351e	0.043263547
43	0x3d879187	0.06619554
44	0xbd8f94f4	-0.070108324
45	0x3d74aae8	0.0597333
46	0xbd317133	-0.043320846
47	0x3cb8301c	0.022483878
48	0x3c069f55	0.008216699
49	0x3c9fd24c	0.019509457
50	0x3d2e9c98	0.04262981
51	0x3c84228b	0.016129753
52	0xbda723a5	-0.081610955
53	0xbd69b32a	-0.05705563
54	0xbd5ba38f	-0.05362278
55	0x3c92f54c	0.017939232
56	0xbd30ad19	-0.04313383
57	0x3d06baad	0.03289287
58	0x3d42c431	0.047550384
59	0xbd21ab5e	-0.03947007
60	0xbc82a1fb	-0.015946379
61	0xbd3a81b2	-0.045533843
62	0x3d50b7e4	0.05095662
63	0x3ce41a2f	0.027844517
64	0xbd6119ea	-0.054956354
65	0xbd3320fa	-0.04373262
66	0x3c8f9fc2	0.017532233
67	0x3d627914	0.05529125
68	0x3d23cdd9	0.039991233
69	0xbb0b4b60	-0.0021254644
70	0x3be45c6d	0.006969026
71	0xbd945f28	-0.07244712
72	0x3d739251	0.05946571
73	0xbba395f6	-0.004992242
74	0x3d5059c4	0.050866857
75	0xbd6de893	-0.05808313
76	0x3d8220a6	0.063538834
77	0xbd59c4b1	-0.053166095
78	0x3d867c2d	0.065666534
79	0xbd48ce60	-0.04902494
80	0xbd296b6b	-0.041362207
81	0xbc668b54	-0.014071304
82	0x3d728251	0.05920631
83	0x3c5bcec9	0.013416001
84	0x3d9beca7	0.07613497
85	0x3d058054	0.032593086
86	0x3d1d3ec0	0.03838992
87	0xbd587743	-0.05284811
88	0xbcb4ef7c	-0.022086851
89	0xbc33a564	-0.010964725
90	0xbb945a3b	-0.004527358
91	0xbdb7bced	-0.089715816
92	0x3bc3b73f	0.0059727724
93	0x3d35a2fb	0.044344883
94	0x3d18a4ae	0.037266426
95	0x3ca1d82c	0.0197564
96	0x3c312030	0.010810897
97	0xbd7b07b1	-0.061286632
98	0xbc9d08cf	-0.01916924
99	0x3d01a127	0.031647827
100	0x3c623d58	0.013808571
101	0x3c43aee0	0.011943549
102	0x3d7f36d3	0.062308144
103	0x3d6d7cc5	0.057980318
104	0x3d4d06e9	0.05005542
105	0xbd3b8325	-0.045779366
106	0xbc3b3e75	-0.011428465
107	0xbc877fe2	-0.016540471
108	0xbc6cf998	-0.014463805
109	0x3cdc777e	0.026912447
110	0xbb60fc37	-0.003433002
111	0xbcea987f	-0.028637169
112	0xbd9ceefd	-0.07662771
113	0xbce63805	-0.028102884
114	0x3d901ff2	0.07037343
115	0xbcc8ee12	-0.024527583
116	0xbbea2210	-0.007145174
117	0x3c56df51	0.013114766
118	0xbd16e966	-0.03684368
119	0xbc33398a	-0.010939011
120	0x3d372d2e	0.04472082
121	0x3d81f6a1	0.06345869
122	0xbcb99930	-0.022656053
123	0x3d63233c	0.055453524
124	0x3d834fab	0.0641168
125	0x3c851224	0.016244002
126	0xbd217bfe	-0.03942489
127	0xbdaf230e	-0.08551608
128	0xbc693867	-0.014234639
129	0xbc5016db	-0.012700762
130	0x3d4d1a8a	0.050074138
131	0xbd077450	-0.03306991
132	0xbda32da4	-0.0796769
133	0xbd53c97e	-0.05170583
134	0x3d038a42	0.032114275
135	0x3c002058	0.007820211
136	0x3d821b11	0.06352819
137	0xbd423570	-0.047414243
138	0x3d49d696	0.04927691
139	0x3c52a8c2	0.012857618
140	0xbcf7f97f	-0.030270336
141	0x3d863bbe	0.06554364
142	0xbd37737e	-0.044787876
143	0xbd5c6b16	-0.053813063
144	0x3c0d37aa	0.008619228
145	0xbceae1a8	-0.028672054
146	0x3d0376ba	0.03209565
147	0x3d61e2f4	0.05514808
148	0x3d1ab0c1	0.037766222
149	0x3d9705cd	0.07374153
150	0xbcc27858	-0.023739025
151	0xbd36dc76	-0.04464384
152	0x3c07fc16	0.008299848
153	0xbd0e9fcb	-0.03482036
154	0x3d4806c3	0.048834573
155	0xbd048837	-0.032356467
156	0x3cf7006b	0.030151566
157	0xbd0c1614	-0.034200743
158	0xbd7b8101	-0.061402325
159	0xbd283003	-0.041061413
160	0x3cfab1d8	0.03060238
161	0xbcf41f51	-0.02980009
162	0x3d785ab7	0.060633387
163	0xbca32495	-0.019914905
164	0xbda6b265	-0.08139495
165	0x3bbd3813	0.005774507
166	0x3d882b3b	0.066488706
167	0xbcc3711d	-0.023857648
168	0x3d54cdb8	0.051954
169	0xbb53ca1a	-0.0032316507
170	0x3d79fede	0.061034076
171	0x3d99a2e7	0.07501774
172	0xbd7aa6c0	-0.06119418
173	0x3cdd81ce	0.027039435
174	0x3d5c5b33	0.05379791
175	0x3ca2f555	0.019892374
176	0xbd7480ab	-0.05969302
177	0x3d0026a2	0.031286843
178	0x3d08973f	0.033347365
179	0x3cdd1989	0.026989715
180	0xb98a0a32	-0.00026329007
181	0xbce95fcb	-0.02848806
182	0x3d78a2e0	0.060702205
183	0xbd50e13c	-0.05099605
184	0xbd1de90b	-0.038552325
185	0xbc3f2738	-0.011667065
186	0x3cbcf967	0.023068143
187	0x3d559de8	0.052152544
188	0xbd16247a	-0.03665588
189	0xbce32559	-0.02772777
190	0xbd4d9727	-0.05019298
191	0xbd03f84e	-0.032219224
192	0xba8cb929	-0.0010736334
193	0x3d74c2e1	0.059756164
194	0xbd8291b7	-0.06375449
195	0x3cdaa754	0.026691116
196	0x3d33358b	0.043752234
197	0x3d5f96ff	0.05458736
198	0xbd706bb3	-0.05869646
199	0x3d455a22	0.04818166
200	0x3d47b2ff	0.04875469
201	0x3c96a9fa	0.018391598
202	0xbdd4b68f	-0.10386383
203	0xbe11d466	-0.1424118
204	0x3b65506f	0.003499057
205	0xbe0fff7a	-0.140623
206	0xbbb40312	-0.00549353
207	0x3d0051c4	0.031327978
208	0x3d42349e	0.04741346
209	0xbcfa914f	-0.030586867
210	0xbc176f89	-0.009242901
211	0xbce588e9	-0.028019385
212	0x3d548556	0.05188497
213	0xbc8604e3	-0.016359752
214	0xbd31e0c2	-0.043427236
215	0xbd47bf9d	-0.04876672
216	0x3cfdd312	0.030984435
217	0xbd1c03f7	-0.03808972
218	0x3d578950	0.052621186
219	0x3d12bf99	0.035827253
220	0x3d0930b8	0.033493727
221	0xbb9f261a	-0.004856837
222	0xbbacf48f	-0.005278177
223	0xbd19df20	-0.037566304
224	0x3d2c5c4d	0.042080212
225	0xbd806ecd	-0.062711336
226	0xbcd162e1	-0.025559844
227	0x3c72c9d0	0.014818624
228	0x3d4cd58f	0.050008353
229	0xbd6d46b5	-0.05792876
230	0xbc57f8f6	-0.0131819155
231	0xbc780816	-0.015138647
232	0x3d046f7f	0.032332893
233	0x3baa63b4	0.005199874
234	0xbdc276a8	-0.09495288
235	0xbbd1268b	-0.0063827685
236	0x3bc8f909	0.006133203
237	0xbd82260e	-0.063549146
238	0xbc913634	-0.017726041
239	0xbdbe8c74	-0.09304133
240	0xbd68942b	-0.05678193
241	0xbd8f6d9e	-0.0700333
242	0x3c6823b7	0.014168671
243	0x3d5d620b	0.05404858
244	0xbd3fae2a	-0.046796955
245	0x3d448f02	0.047987945
246	0xbd7318c5	-0.059349794
247	0xbcd18f08	-0.025580898
248	0x3cd3767b	0.025813332
249	0xbde70409	-0.112800665
250	0xbac2b495	-0.0014854843
251	0xbd60c019	-0.0548707
252	0xbd1796d4	-0.037009075
253	0xbd15a4d9	-0.036534164
254	0xbe0ad39e	-0.13557288
255	0x3cd8dda0	0.026472867

fc3.bias f4 [2]
0	0x3d67619e	0.05648958
1	0xbd22dbce	-0.039760403
