log/train_1_1k/models/220_actor.pt (torch_old, 249426 bytes, 6 tensors)

fc1.weight f4 [300, 4]
0	0x3ed20299	0.41017607
1	0x3cb91c10	0.022596389
2	0xbf1507a0	-0.5821476
3	0xbeff7f23	-0.49901685
4	0xbe91006b	-0.2832063
5	0x3c89372e	0.016749945
6	0x3f800b36	1.0003421
7	0xbb6424be	-0.003481194
8	0xbce2bbac	-0.02767738
9	0x3de43c7a	0.111443475
10	0xbf9ea613	-1.2394432
11	0xbea7996a	-0.32734233
12	0xbe949e8e	-0.29027218
13	0xbe310803	-0.17288212
14	0xbedf7ac5	-0.43648353
15	0x3f23fb84	0.6405566
16	0xbe93edc3	-0.28892335
17	0x3e7672d4	0.24067241
18	0xbed982f5	-0.42482725
19	0x3e92840c	0.2861637
20	0xbe596ebc	-0.21233648
21	0x3e3bf1e7	0.18353997
22	0x3e5fa230	0.21839213
23	0x3f03c2b4	0.5146897
24	0xbe3c8f49	-0.18414034
25	0xbf02352d	-0.5086239
26	0x3e908425	0.28225818
27	0xbf02969d	-0.5101107
28	0x3ea4c32a	0.32180148
29	0x3e302bbb	0.17204182
30	0x3f03b94e	0.5145463
31	0xbf054acd	-0.5206726
32	0x3e894c6b	0.26816115
33	0xbd2fdb25	-0.042933602
34	0xbf7f095a	-0.99623644
35	0x3e8a0af6	0.26961488
36	0xbe87217e	-0.2639274
37	0x3e99c6a4	0.30034363
38	0x3ea62d2c	0.32456338
39	0x3f2a9af2	0.6664268
40	0xbe16a326	-0.14710674
41	0xbdea0dc8	-0.1142841
42	0xbe502c96	-0.20329508
43	0xbe131429	-0.14363159
44	0x3e9d610b	0.307381
45	0xbe672a03	-0.2257462
46	0x3f276043	0.6538126
47	0x3e950cff	0.29111478
48	0xbecec97d	-0.40388098
49	0xbe7bbb83	-0.24583249
50	0x3f082641	0.5318337
51	0x3df16ce6	0.11788349
52	0xbe4145d3	-0.18874292
53	0xbe8ac9a1	-0.27106956
54	0x3f440fb6	0.76586473
55	0x3e9bc8c0	0.30426598
56	0x3eaf7b4b	0.34273753
57	0x3e80eedb	0.25182232
58	0xbdabe821	-0.083938845
59	0x3e853320	0.26015568
60	0x3e5b58fa	0.2142066
61	0xbdd09ff0	-0.10186756
62	0x3f50281c	0.813112
63	0xbeb3a6fd	-0.3508834
64	0xbe43ed20	-0.19133425
65	0x3e282b42	0.16422752
66	0x3ee1d38f	0.4410672
67	0x3f14e922	0.5816823
68	0x3e758844	0.23977762
69	0x3e240472	0.16017321
70	0x3e703cfb	0.23460762
71	0x3f4a1dc7	0.78951687
72	0xbe5dde09	-0.21666731
73	0xbe8a66ee	-0.27031654
74	0xbf5ed3c8	-0.870419
75	0x3d598941	0.05310941
76	0xbe86105c	-0.26184356
77	0xbf02e816	-0.51135385
78	0xbedfdb11	-0.43721822
79	0x3ef55d27	0.47922632
80	0x3e734586	0.2375699
81	0x3eeccb17	0.46248695
82	0x3df378b2	0.11888255
83	0xbf2385d5	-0.63876086
84	0x3e75365f	0.23946522
85	0xbdcc167e	-0.099652275
86	0xbe5b2e4e	-0.21404383
87	0xbf2d956b	-0.6780612
88	0xbe7d215f	-0.24719761
89	0xbee8ceb2	-0.45470196
90	0xbf8acd62	-1.0843928
91	0x3ec48d90	0.38389254
92	0x3ecf005a	0.40429956
93	0xbee7f36c	-0.45302904
94	0xbe83fd3d	-0.25779143
95	0x3e237db7	0.15965925
96	0x3ef4481b	0.47711262
97	0xbe8284db	-0.25491986
98	0x3f739170	0.95143795
99	0xbf002d6c	-0.5006931
100	0x3c59fc8e	0.013304843
101	0x3d12f5f8	0.035879105
102	0xbf81f2af	-1.0152186
103	0xbf02a8db	-0.51038903
104	0x3e2f7042	0.17132667
105	0xbdf8b4d2	-0.12143864
106	0xbf347e43	-0.7050516
107	0x3e359b97	0.17735134
108	0xbd1b2f3e	-0.03788685
109	0x3e2d9941	0.16952993
110	0xbe3556eb	-0.17708938
111	0x3f1f444e	0.622136
112	0x3eb00b0b	0.34383425
113	0x3ebb5b3c	0.36593044
114	0x3e9f4ecb	0.31114802
115	0x3c88ebff	0.016714094
116	0xbeae0a05	-0.3399202
117	0xbe9dc602	-0.3081513
118	0xbf265f6e	-0.64989364
119	0x3eb85db8	0.36009002
120	0xbea8dc86	-0.32980746
121	0x3e7c66a0	0.24648523
122	0x3f743a62	0.95401585
123	0x3cff3cdf	0.031156955
124	0x3cdc3898	0.026882455
125	0xbe41ce75	-0.18926413
126	0xbf61a533	-0.881427
127	0x3e970be0	0.29501247
128	0x3eabc777	0.33550617
129	0x3d3cc75f	0.046088573
130	0xbea52b76	-0.3225972
131	0xbf006d3e	-0.5016669
132	0xbe74350b	-0.2384836
133	0xbd3cd0a8	-0.046097428
134	0x3e06e2a4	0.13172394
135	0xbd386e35	-0.045026977
136	0x3d606a50	0.054788888
137	0x3e8deb8f	0.2771878
138	0x3eccf2b1	0.4002891
139	0x3e8de841	0.27716258
140	0xbe68e7a0	-0.22744608
141	0xbee48e6e	-0.44639915
142	0x3eb23594	0.34806502
143	0xbe85a425	-0.26101795
144	0xbcf0b90d	-0.029385114
145	0xbeb7e0e6	-0.3591377
146	0xbdd3a3b4	-0.10333958
147	0xbee772dc	-0.45204818
148	0xbe7a91c7	-0.24469672
149	0xbebaa258	-0.36451983
150	0x3f1723c5	0.59038955
151	0x3f0c6cf9	0.5485378
152	0x3e7d7faf	0.24755739
153	0xbe67773b	-0.22604077
154	0x3c7f5964	0.015585277
155	0x3e786be9	0.24259914
156	0xbe9d524c	-0.3072685
157	0x3e93168d	0.28728142
158	0x3f502794	0.8131039
159	0x3e96aefc	0.29430377
160	0x3d3a6bd0	0.045512974
161	0x3ebf3001	0.37341312
162	0xbf3162c0	-0.69291306
163	0xbf026680	-0.5093765
164	0xbe74efd1	-0.23919608
165	0xbd90b363	-0.07065465
166	0xbe596063	-0.21228175
167	0x3e32ebe5	0.17472799
168	0x3e0eb102	0.1393471
169	0xbed6b943	-0.41938218
170	0xbe4fcebd	-0.20293708
171	0xbe9e0689	-0.3086436
172	0x3eb172c2	0.34657866
173	0xbece4bc5	-0.40292183
174	0x3db6be00	0.089229584
175	0xbd2d2f2b	-0.04228131
176	0x3dafa2cf	0.08575975
177	0x3f0147e4	0.5050032
178	0xbea5537f	-0.32290265
179	0xbe101e5f	-0.14074086
180	0xbdf50f8c	-0.11965856
181	0x3db0eea2	0.086392656
182	0xbeeb3651	-0.45939878
183	0x3f80c44c	1.0059905
184	0xbeca285a	-0.3948391
185	0x3eb51636	0.35368508
186	0x3e6dfd71	0.23241211
187	0x3f6c2953	0.92250556
188	0x3eb90d7c	0.361431
189	0xbeb09f8b	-0.34496722
190	0xbf13f656	-0.57797754
191	0xbe0d775c	-0.13815063
192	0x3e6f4fbe	0.23370263
193	0x3d95c021	0.07312036
194	0xbe8dc36e	-0.27688164
195	0x3f214b38	0.630054
196	0xbd6123b8	-0.054965705
197	0x3e7e937d	0.2486095
198	0x3eb458e3	0.35224065
199	0x3db9aacd	0.09065781
200	0xbe2b046e	-0.16700909
201	0xbefe482f	-0.49664447
202	0x3e96f395	0.29482713
203	0x3c808b49	0.015691416
204	0xbc8964a2	-0.016771618
205	0xbecd4ec7	-0.40099165
206	0xbd89efb8	-0.06735176
207	0x3ea71495	0.3263289
208	0x3e1c4c1f	0.15263413
209	0x3dfad685	0.122479476
210	0xbf4eed61	-0.8083096
211	0xbbefac5a	-0.007314247
212	0x3ef7dc97	0.48410484
213	0x3cd5432e	0.02603301
214	0xbee3d551	-0.44498685
215	0xbe867221	-0.26258948
216	0xbe85d8eb	-0.26142058
217	0xbe9d2684	-0.30693448
218	0xbe53a937	-0.20670019
219	0xbeb8d53a	-0.3610018
220	0xbe568beb	-0.20951812
221	0xbaa90b83	-0.0012897108
222	0xbf62d04d	-0.8859909
223	0xbdcc37e2	-0.09971596
224	0x3ed773e7	0.42080614
225	0xbe28ddc7	-0.16490851
226	0x3f563868	0.8367982
227	0x3ee93743	0.45549974
228	0x3e22a6e6	0.15883979
229	0x3e59a86b	0.21255653
230	0xbeda9c2e	-0.4269728
231	0x3e4e7647	0.20162307
232	0x3dafbadb	0.08580562
233	0x3ef33cda	0.47507364
234	0xbf05d22e	-0.52273834
235	0xbe6a5e9d	-0.22887655
236	0x3e6f20e7	0.23352395
237	0x3ea5c926	0.32380027
238	0x3ea4be3e	0.32176393
239	0xbf015168	-0.5051484
240	0x3e036c10	0.12834191
241	0xbed68b76	-0.41903275
242	0xbde6109a	-0.11233635
243	0x3dee1ce9	0.11626608
244	0x3cf6eff4	0.030143715
245	0x3e2e4310	0.1701777
246	0xbe9a1353	-0.30092868
247	0xbf390492	-0.722726
248	0xbe2b6551	-0.16737868
249	0xbecf91cd	-0.40540925
250	0xbebd7911	-0.3700643
251	0xbd299bfd	-0.041408528
252	0xbe2df11a	-0.16986504
253	0x3b5d65f4	0.0033782693
254	0x3f4c3eba	0.79783213
255	0xbe9796e5	-0.2960731

fc1.bias f4 [300]
0	0x3e01d68f	0.12679504
1	0xbf49f32d	-0.7888668
2	0xbd41d943	-0.047326338
3	0xbdf2917c	-0.11844155
4	0xbea53ed0	-0.32274485
5	0xbd03e2a6	-0.03219857
6	0xbe95f613	-0.29289302
7	0xbde45009	-0.11148078
8	0x3d7f80d0	0.062378705
9	0xbf1b53cb	-0.6067473
10	0x3f55aa7e	0.83463275
11	0xbf647873	-0.8924629
12	0xbf1a10a5	-0.6018165
13	0x3ef7d154	0.48401892
14	0xbe6e4c0f	-0.23271202
15	0x3c8c9f79	0.017165886
16	0xbf576fd8	-0.84155035
17	0x3f16612f	0.5874204
18	0x3dc2b2bf	0.09506749
19	0xbf1cf631	-0.6131316
20	0xbe81abcf	-0.25326392
21	0x3e76efc5	0.24114902
22	0xbe48c71e	-0.19607207
23	0x3e94fbbb	0.29098305
24	0xbebd476f	-0.36968562
25	0x3e75c9f8	0.24002826
26	0x3f017229	0.5056482
27	0xbeba97c4	-0.36443913
28	0xbf551ab6	-0.8324388
29	0xbec96241	-0.39332774
30	0x3e93604f	0.28784415
31	0x3f275b25	0.6537345
32	0xbe79b6f6	-0.243862
33	0xbf565e77	-0.8373789
34	0x3f09a9e0	0.53774834
35	0x3f42ff36	0.7617067
36	0xbee47af5	-0.4462506
37	0x3f39dbed	0.72601205
38	0x3e60e84a	0.21963611
39	0x3b1072d5	0.0022041101
40	0x3d158232	0.036501117
41	0xbecb0fa6	-0.39660376
42	0x3f3a7ce8	0.7284684
43	0xbf1b387a	-0.6063305
44	0x3e72788b	0.23678796
45	0xbe87b6d5	-0.26506677
46	0x3e1686c0	0.1469984
47	0xbdbda6d3	-0.09260335
48	0xbec6c79a	-0.3882416
49	0xbf233f84	-0.6376879
50	0x3f02780a	0.50964415
51	0xbeddb626	-0.4330303
52	0xbf3f1ee4	-0.7465651
53	0x3ed5d461	0.41763595
54	0x3f56a8d6	0.83851373
55	0x3f044dcc	0.5168121
56	0x3f21b398	0.63164663
57	0xbf7fcbde	-0.9992045
58	0xbedb18a0	-0.42792225
59	0xbf2886ab	-0.65830487
60	0x3f0977f0	0.53698635
61	0x3dde4e8e	0.10854827
62	0xbe32704c	-0.1742565
63	0xbf3552d8	-0.70829535
64	0xbe4c25cc	-0.19936293
65	0xbea6e534	-0.32596743
66	0x3eaf7c76	0.34274644
67	0xbed5ad1b	-0.41733631
68	0x3ef73c61	0.48288253
69	0xbdd9c626	-0.10633497
70	0xbf4563f7	-0.7710566
71	0xbec4c033	-0.38427886
72	0x3e21ac15	0.157883
73	0xbf4e13dc	-0.80499053
74	0x3ee0728b	0.4383739
75	0xbf0eb4b9	-0.5574451
76	0x3e2a7cac	0.16649121
77	0x3f2bb461	0.6707211
78	0xbec68fca	-0.38781577
79	0xbf3d6b4c	-0.7399185
80	0x3f530efc	0.8244474
81	0xbf697d4d	-0.9120682
82	0x3e77a2ff	0.24183272
83	0x3d73b3af	0.05949753
84	0xbd44285e	-0.04789006
85	0x3e82984a	0.25506812
86	0xbf77b7b0	-0.9676466
87	0x3e9843ad	0.29739133
88	0xbe8b5698	-0.27214503
89	0x3ece94eb	0.4034799
90	0xbeaabbf3	-0.3334652
91	0xbf0ff9f1	-0.56240755
92	0x3f51f7c8	0.8201871
93	0x3f6d8905	0.927872
94	0x3f47bfc8	0.7802701
95	0xbd7ec1ad	-0.062196422
96	0x3b16f6c1	0.002303526
97	0x3ee57076	0.44812363
98	0xbe4634f3	-0.19356136
99	0xbf608c74	-0.87714314
100	0x3f343ac1	0.7040215
101	0x3f5e034a	0.8672377
102	0x3e012f73	0.12615757
103	0x3f0585a0	0.5215702
104	0x3e91e0b8	0.2849176
105	0xbe38f80b	-0.18063371
106	0xbd64b84c	-0.05583982
107	0xbf364c3b	-0.7121007
108	0xbe39a07a	-0.18127623
109	0xbe9df016	-0.30847234
110	0x3e585ed4	0.21129924
111	0xbe3211e1	-0.17389633
112	0x3e5f9a9b	0.21836321
113	0xbf5fc5b3	-0.8741104
114	0x3de9eb41	0.11421824
115	0xbf58a4f1	-0.8462668
116	0x3f5f08a7	0.8712258
117	0xbe9ce9e0	-0.30647182
118	0xbf3a0211	-0.72659403
119	0xbf1724ab	-0.59040326
120	0x3f3edbcd	0.7455414
121	0x3f5fcaa1	0.8741856
122	0x3ee7d01c	0.45275962
123	0xbeb2f9e2	-0.3495627
124	0xbe939d72	-0.2883106
125	0xbe7ce44a	-0.2469646
126	0x3e2dd303	0.16975026
127	0x3ac0adba	0.0014700212
128	0x3f287a5f	0.65811723
129	0x3ebe23c3	0.3713666
130	0xbe410d4f	-0.18852733
131	0xbf05fbcb	-0.5233733
132	0x3e44cef9	0.19219579
133	0x3eb52fa7	0.35387918
134	0xbef654a5	-0.48111454
135	0xbf257085	-0.64624816
136	0xbeac3ed9	-0.336417
137	0xbed50896	-0.41608113
138	0x3f56167f	0.83628076
139	0x3ecace8f	0.39610717
140	0xbe772b4e	-0.24137613
141	0xbf71b446	-0.944157
142	0xbf36a90f	-0.7135171
143	0x3bff2952	0.007786908
144	0xbe7281e3	-0.2368236
145	0x3f425d97	0.75924057
146	0x3f5290b2	0.8225204
147	0x3f676def	0.9040212
148	0x3f11f12e	0.57008636
149	0x3ec462df	0.38356683
150	0xbf383174	-0.7195046
151	0x3ec06f18	0.37584758
152	0x3f751357	0.95732635
153	0x3dd5ee72	0.104458705
154	0xbf207a93	-0.62687033
155	0xbf07c862	-0.53040135
156	0xbdf57bf0	-0.1198653
157	0x3f07715f	0.52907366
158	0x3f535e49	0.8256574
159	0x3f0e5aba	0.5560719
160	0x3e08246b	0.13295142
161	0x3e9031a7	0.28162882
162	0x3ec83e16	0.39109868
163	0xbe86ca47	-0.263262
164	0xbe2fe380	-0.17176628
165	0x3f132b37	0.57487816
166	0xbe1a94aa	-0.15095773
167	0x3f0bff38	0.5468631
168	0xbddd4691	-0.10804475
169	0x3f32ae44	0.6979716
170	0x3f7d326a	0.9890505
171	0xbd5873b8	-0.052844733
172	0x3e0cd24f	0.13752101
173	0xbe8ebea1	-0.27879813
174	0xbf1e70d7	-0.6189093
175	0xbe1858cc	-0.14877623
176	0x3f019b54	0.50627637
177	0x3e25bfb9	0.16186418
178	0x3e9fb144	0.3118993
179	0xbeaa1811	-0.33221486
180	0xbf394541	-0.723713
181	0xbd58a1e8	-0.05288878
182	0x3f560d36	0.8361391
183	0x3ef87328	0.48525357
184	0x3f433e9a	0.762674
185	0x3e5f7ca2	0.21824887
186	0xbef4137f	-0.47671124
187	0x3f3e0273	0.7422249
188	0xbe97f75b	-0.29680905
189	0x3ecdd580	0.4020195
190	0xbf078557	-0.52937835
191	0xbf8a327a	-1.0796654
192	0xbf054289	-0.5205465
193	0x3f66dec5	0.9018367
194	0xbeeb3615	-0.459397
195	0xbf2f8980	-0.68569183
196	0xbe10e1bd	-0.14148612
197	0xbeba961c	-0.3644265
198	0x3eb5dc68	0.3551972
199	0x3ca239b3	0.019802904
200	0x3f102b8d	0.56316453
201	0x3f61b108	0.88160753
202	0xbf3acf7d	-0.7297285
203	0x3e986ed3	0.29772052
204	0x3f43a953	0.76430243
205	0x3eb37a48	0.3505423
206	0xbe7e355e	-0.24825045
207	0x3f717a71	0.94327456
208	0xbe15de46	-0.14635572
209	0xbedc068e	-0.4297375
210	0xbe10e99c	-0.14151615
211	0xbf3b5c30	-0.7318754
212	0xbf470e8f	-0.7775659
213	0xbe573d39	-0.21019448
214	0xbe61591f	-0.22006653
215	0x3e935cde	0.2878179
216	0x3f3abe08	0.72946215
217	0xbee3b499	-0.44473723
218	0x3e8903d4	0.26760733
219	0xbe077952	-0.13229874
220	0x3f36b0b8	0.713634
221	0xbec2f4c8	-0.38077378
222	0x3f62c441	0.8858071
223	0xbef594a0	-0.47964954
224	0x3e5ee23c	0.21765989
225	0xbeeb5afb	-0.4596785
226	0xbee74110	-0.45166826
227	0x3e813e11	0.25242665
228	0xbf52de06	-0.8237003
229	0x3f0b2dae	0.54366577
230	0x3d6cf177	0.057847466
231	0x3dd7a042	0.105286136
232	0xbee300de	-0.443366
233	0xbf60969f	-0.8772983
234	0xbf81090b	-1.0080885
235	0x3f3652aa	0.71219885
236	0xbec9bdb4	-0.39402544
237	0xbf03dd38	-0.5150943
238	0xbd238cc5	-0.03992917
239	0xbf2632ea	-0.6492144
240	0x3e89d5d7	0.2692096
241	0xbf025ba1	-0.50921065
242	0x3ea2c922	0.31794077
243	0xbf169e87	-0.58835644
244	0xbed15d91	-0.40891698
245	0x3e96bd2c	0.29441202
246	0xbea878b5	-0.32904592
247	0xbf34d890	-0.7064295
248	0xbe13b6a2	-0.14425138
249	0x3f041ce5	0.5160659
250	0xbf4a60a0	-0.7905369
251	0x3f13a16d	0.5766819
252	0x3e3ae96e	0.18253109
253	0x3e9f2203	0.31080636
254	0x3f090eae	0.53538024
255	0x3f39cdfb	0.72579926

fc2.weight f4 [200, 300]
0	0x3c8778be	0.016537067
1	0x3c4bb452	0.012433128
2	0x3d2ba58e	0.041905932
3	0x3d74bee6	0.059752367
4	0xbc3d1c33	-0.011542368
5	0xbd99904b	-0.07498225
6	0x3d0ba06c	0.034088537
7	0x3c8279c8	0.01592721
8	0x3d1306e9	0.035895262
9	0xbd84bbf4	-0.06481162
10	0x3d0bf351	0.03416759
11	0x3c3bcece	0.01146288
12	0x3d878269	0.06616671
13	0xbcef3bb2	-0.02920327
14	0xbc7041be	-0.014664112
15	0x3d849800	0.06474304
16	0xbc8000fa	-0.015625466
17	0xbc611af1	-0.0137393335
18	0xbccdcbe0	-0.02512163
19	0x3c9e3667	0.01931305
20	0xbd18a9ea	-0.037271418
21	0x3ad90c9b	0.0016559543
22	0x3d093c7d	0.03350495
23	0x3da26841	0.07930041
24	0x3cca4896	0.024692815
25	0xbcde19f8	-0.027111992
26	0xbcdf5305	-0.027261266
27	0xbc2e25dd	-0.0106291445
28	0x3c96bed0	0.018401533
29	0xbd1ccb11	-0.038279597
30	0xbd561f2e	-0.05227583
31	0xbcbd745e	-0.023126777
32	0xbaae5240	-0.0013299659
33	0x3cfad0e0	0.030617177
34	0xbc3fb249	-0.011700221
35	0x3c808809	0.015689867
36	0xbcda9e05	-0.026686678
37	0x3ce120ac	0.0274814
38	0xbcad8bdc	-0.021184854
39	0xbd54e2de	-0.05197417
40	0xbd3ebbb5	-0.04656573
41	0x3d935850	0.07194579
42	0xbc12581a	-0.008932138
43	0x3cb9c5b8	0.022677287
44	0xbd3e9b72	-0.046534963
45	0xbd30c8a1	-0.043160085
46	0x3cbb1f2c	0.022842012
47	0x3d7b3ade	0.061335437
48	0x3c2eb49c	0.010663178
49	0xbdacf5a5	-0.084452905
50	0xbd1c794e	-0.038201623
51	0xbcac4c23	-0.021032399
52	0xbc90638f	-0.017625598
53	0xbcd332d2	-0.025781069
54	0x3c60abc3	0.013712826
55	0xbd4a4d4f	-0.049390133
56	0x3d8322ae	0.06403099
57	0x3c9eea7a	0.019398917
58	0x3ce338d8	0.027737066
59	0x3d1090f9	0.035294507
60	0x3da806a1	0.08204389
61	0xbd39dc8e	-0.045376353
62	0x3c784940	0.015154183
63	0xbd6d0247	-0.0578635
64	0x3d60a97d	0.054849137
65	0x3d60765e	0.054800384
66	0xbc877e3f	-0.016539691
67	0xbd15dd9b	-0.036588293
68	0xbdb4eb38	-0.08833927
69	0xbd2be67e	-0.04196786
70	0x3c8afe40	0.016966939
71	0x3d04c21d	0.032411683
72	0xbd3af41e	-0.045642965
73	0xbd490c74	-0.04908414
74	0x3d7050e8	0.05867091
75	0xbb662d49	-0.0035122207
76	0x3bc5f467	0.006041098
77	0x3d724534	0.05914803
78	0x3d412be7	0.04716101
79	0xbad92837	-0.0016567771
80	0x3c416464	0.01180372
81	0x3b3b8daa	0.0028618374
82	0xbc4d559d	-0.012532619
83	0x3ce3d5f2	0.027811978
84	0xbcaf8819	-0.021427201
85	0xbb05f8fa	-0.002044259
86	0xbd03ab51	-0.032145802
87	0x3cc817fa	0.024425495
88	0x3d8784b9	0.06617112
89	0x3c496bc2	0.012293758
90	0x3d5037f7	0.050834622
91	0xbbae8e66	-0.005327034
92	0xbc9ed2ed	-0.019387687
93	0x3d3a5ebf	0.045500513
94	0x3c8d13b8	0.017221317
95	0xbc519fcf	-0.012794449
96	0xbd0c4d90	-0.034253657
97	0x3d2a6155	0.04159673
98	0xbc4dddbd	-0.012565074
99	0xbd7cb5aa	-0.061696686
100	0xbcc3d10b	-0.02390339
101	0x3c59cb5a	0.013293112
102	0xbc774ed1	-0.015094475
103	0x3ce51b08	0.027966991
104	0xbc8fee62	-0.017569724
105	0xbd93a827	-0.07209807
106	0x3bb5acec	0.0055442955
107	0xbd0218a8	-0.031761795
108	0xbca023a7	-0.01954825
109	0x3d2cd222	0.042192586
110	0xbb54f3cf	-0.0032493954
111	0xbcf38b04	-0.029729374
112	0xbd388f22	-0.045058377
113	0xbc9bd346	-0.019021641
114	0x3c801bcc	0.015638255
115	0xbd81e290	-0.063420415
116	0xbcf9419c	-0.030426793
117	0x3bc4ce8b	0.006006067
118	0xbd13c171	-0.036073152
119	0x3c9bdc4c	0.019025944
120	0xbcc92b13	-0.024556672
121	0xbcfd7780	-0.030940771
122	0xbc5f311f	-0.013622551
123	0x3bbe1e65	0.005801963
124	0xbd5ede78	-0.05441138
125	0xba8736ce	-0.0010316016
126	0x3c565639	0.0130820805
127	0xbd2d8145	-0.04235961
128	0xbd0c0ae2	-0.034190066
129	0xbd94209a	-0.07232781
130	0x3c24c802	0.010057451
131	0xbc637175	-0.013882031
132	0xbd4a8856	-0.049446426
133	0xbd528e09	-0.051404987
134	0xbc3c9ec9	-0.011512467
135	0xbc072b42	-0.00825006
136	0x3c19115f	0.0093425205
137	0x3d7dbc0f	0.061946925
138	0xbcfe6a1d	-0.031056458
139	0x3d8cfb10	0.06883824
140	0x3d1e54bb	0.038655024
141	0xbd4a8f95	-0.049453337
142	0x3a967cb2	0.0011481254
143	0xbc34c558	-0.011033379
144	0x3c7a19b7	0.01526492
145	0xbccefcbe	-0.025267001
146	0xbd04d2c5	-0.032427568
147	0xbd5bf44e	-0.053699784
148	0xbd247dd5	-0.040159065
149	0x3c88e454	0.016710438
150	0xbd8004eb	-0.06250938
151	0xb9adbc71	-0.0003313753
152	0xbb9bc0c1	-0.0047532027
153	0xbc84ef34	-0.016227342
154	0xbd2bffca	-0.041991986
155	0x3d8a1324	0.06741932
156	0x3da9ac44	0.0828481
157	0xba53a311	-0.000807331
158	0xbd0a632a	-0.033785976
159	0xbcf19714	-0.029490985
160	0xbcaac73d	-0.020846957
161	0x3d8330e2	0.06405808
162	0xbcab92ff	-0.020944117
163	0xbcbf6bba	-0.023366798
164	0x3d84136d	0.06449018
165	0xbd1095e6	-0.035299204
166	0xbd8b578e	-0.06803809
167	0xbc86b4f8	-0.016443714
168	0x3d04442c	0.032291576
169	0x3d44732b	0.047961395
170	0xbd101d52	-0.035184212
171	0xbccd8a05	-0.025090227
172	0xbc637e68	-0.013885118
173	0x3c47d57d	0.012196896
174	0x3c9ad9d1	0.018902691
175	0xbd3ed647	-0.04659107
176	0x3d383a3d	0.044977415
177	0xbb8ace01	-0.0042359834
178	0x3c304e84	0.010760907
179	0xbd269060	-0.04066503
180	0xbbd4ef08	-0.0064982213
181	0xbc9ee040	-0.01939404
182	0xbd0cbb51	-0.034358326
183	0x3c280032	0.010253953
184	0xbd2260d6	-0.03964313
185	0x3ca1b35f	0.019738851
186	0x3d26b227	0.040697243
187	0xbd70d94e	-0.058800988
188	0x3d866877	0.06562894
189	0x3b623b5d	0.0034520247
190	0xbc72cc66	-0.01481924
191	0x3d3e0d41	0.04639936
192	0x3ca390e9	0.01996656
193	0xbd1bd265	-0.038042445
194	0x3baddff5	0.005306239
195	0xbcf21c25	-0.029554436
196	0x3d237f25	0.039916176
197	0x3d1b4723	0.037909638
198	0x3cfb0e17	0.030646367
199	0xbc757bd0	-0.0149831325
200	0x3c1ba6de	0.009500233
201	0x3d94d415	0.07267014
202	0xbd4e81dc	-0.050416812
203	0xbc23f851	-0.010007934
204	0x3c52a4dd	0.012856689
205	0xbd438ab2	-0.047739692
206	0xbd3d736b	-0.04625265
207	0xbd3c7ab5	-0.04601546
208	0x3cfd0462	0.030885879
209	0xbe1a1d44	-0.15050226
210	0x3d19eec3	0.037581217
211	0x3d00d08e	0.031448893
212	0xbd744aa0	-0.05964148
213	0xbd46abdf	-0.048503753
214	0xbcd7e577	-0.026354535
215	0xbb3e0da0	-0.002899982
216	0xbd4bbf2a	-0.049742855
217	0xbcf4398c	-0.029812597
218	0xbcf2ebdd	-0.029653484
219	0xbc6e6e62	-0.0145526845
220	0xbd01ea2c	-0.031717464
221	0xbcc42c52	-0.023946915
222	0x3c717e40	0.014739573
223	0xbd0d15b3	-0.034444522
224	0x3d5e1a1f	0.05422413
225	0xbd656fc0	-0.056014776
226	0xbd2070ee	-0.0391702
227	0x3cd18e9f	0.025580702
228	0xbd99c612	-0.07508482
229	0x3cf37c60	0.029722393
230	0x3bb810a8	0.00561722
231	0x3c418080	0.011810422
232	0x3c1a724d	0.0094266655
233	0xbd705fa1	-0.05868495
234	0xbd50500b	-0.050857585
235	0x3c9c12a6	0.019051861
236	0x3cf6681a	0.030078936
237	0x3d1b811f	0.037964936
238	0x3d8bf67d	0.06834123
239	0xbb9b7873	-0.0047445833
240	0xbb918342	-0.004440696
241	0x3cc04c16	0.02347378
242	0x3c838603	0.016055113
243	0x3c8f9611	0.017527612
244	0xbc86a9c8	-0.01643838
245	0x3d7d5ec9	0.061857972
246	0xbc2a3579	-0.010388725
247	0xbd07ded2	-0.033171482
248	0xbd15ca72	-0.03657002
249	0x3d2872e2	0.041125186
250	0xbcbac9f6	-0.02280138
251	0xb7f5bf57	-2.9295375e-05
252	0x3d04c4eb	0.032414358
253	0x3d4a61c3	0.04940964
254	0xbda91374	-0.082556635
255	0x3cf60278	0.030030474

fc2.bias f4 [200]
0	0xbcdab871	-0.026699277
1	0x3cc0be6e	0.023528304
2	0xbcce28f4	-0.025166012
3	0x3cd40d19	0.025885152
4	0x3cece35b	0.028917005
5	0x3d27a245	0.040926237
6	0xbdf34fea	-0.11880477
7	0x3d12bcef	0.035824712
8	0x3ebb4d76	0.36582536
9	0x3d8618e9	0.0654772
10	0x3ef26e08	0.47349572
11	0xbd8ed4ed	-0.06974206
12	0x3d96d385	0.07364563
13	0x3e1e6b6b	0.15470664
14	0x3e13f701	0.14449693
15	0xbcd948be	-0.026523944
16	0x3c47697c	0.0121711455
17	0x3d2162fc	0.03940104
18	0x3b373116	0.0027952841
19	0xbd2483c7	-0.040164735
20	0x38ce1200	9.826198e-05
21	0x3bebb692	0.007193395
22	0x3db2abdc	0.08724186
23	0xbd0101d1	-0.031495873
24	0xbd6d682d	-0.057960678
25	0x3e40496e	0.18778011
26	0xbe678d97	-0.22612606
27	0x3e092b8a	0.13395515
28	0x3d632e6e	0.0554642
29	0x3de2258f	0.1104232
30	0xbad2113c	-0.0016026865
31	0x3e02e48d	0.12782498
32	0xbad19ecd	-0.0015992761
33	0x3e5bc162	0.21460488
34	0xbd88a2f8	-0.06671709
35	0xbc1a2ac4	-0.00940961
36	0x3c881656	0.016612213
37	0x3c3e2a78	0.011606805
38	0x3efdb0e3	0.49549016
39	0x3dfd49d0	0.12367594
40	0x3eda44e1	0.42630675
41	0x3de3afe7	0.11117535
42	0xbc9d5fa1	-0.019210638
43	0xbcba6d3a	-0.022757161
44	0xbcaae1f6	-0.0208597
45	0xbd9b9c8b	-0.075982176
46	0xbe658708	-0.22414792
47	0x3ecd1ebd	0.40062514
48	0x3d3a51e1	0.045488242
49	0x3e935201	0.28773502
50	0xbd03b154	-0.032151535
51	0x3d4c4ad4	0.04987605
52	0xbc469ea1	-0.012122781
53	0x3e9bb20c	0.30409276
54	0x3d6777c4	0.0565107
55	0x3d651101	0.05592442
56	0x3c96e373	0.018419003
57	0xbca0ab64	-0.019612975
58	0xbccca3cf	-0.024980454
59	0x3eace469	0.33768013
60	0x3c7b27bf	0.0153293
61	0xbd56d6c2	-0.052450903
62	0x3e8319ac	0.25605524
63	0xbc0e119c	-0.008671191
64	0x3d2337fe	0.03984832
65	0x3eb18776	0.3467366
66	0xbc773fbc	-0.015090879
67	0x3cd45899	0.025921153
68	0x3dc59b75	0.09648792
69	0x3d48fbd5	0.04906829
70	0x3ed25e15	0.41087404
71	0x3d8fb4e2	0.070169225
72	0x3d3f7a35	0.046747405
73	0x3e8aa698	0.27080226
74	0x3d805b26	0.06267385
75	0x3e8cfb04	0.2753526
76	0xbbea4379	-0.0071491566
77	0xbdfebe14	-0.12438598
78	0xbc86ab0e	-0.016438987
79	0x3c9cde87	0.019149078
80	0xbe01ffa3	-0.12695174
81	0x3ce8b88d	0.028408313
82	0xbd0bd3d1	-0.03413755
83	0x3dd61f77	0.1045522
84	0x3e021427	0.12703
85	0xbd3525a5	-0.044225354
86	0xbb0dfa2c	-0.0021664007
87	0xbd913172	-0.07089509
88	0x3e652f63	0.22381358
89	0x3c487705	0.012235408
90	0x3d1218df	0.03566825
91	0x3ef3e740	0.47637367
92	0xbd2f3a00	-0.042779922
93	0xbd08126f	-0.033220705
94	0x3e7bd404	0.24592596
95	0xba5991fc	-0.00082996464
96	0x3e9657a1	0.2936373
97	0xbe1e4dea	-0.1545941
98	0xbd0829df	-0.033243056
99	0x3e7a3386	0.24433717
100	0x3e98f05b	0.29870877
101	0x3d2581b0	0.040406883
102	0x3bc7a02c	0.006092092
103	0xbc76a9d7	-0.015055141
104	0xbc635dd4	-0.013877351
105	0x3cd70989	0.026249664
106	0xbe472872	-0.19449022
107	0x3d1a64ee	0.03769391
108	0x3e83f05e	0.25769323
109	0xbd8d5a50	-0.06901991
110	0xbdf798c0	-0.120896816
111	0xbe0adcd4	-0.13560802
112	0xbde11ea3	-0.109921716
113	0xba1f019b	-0.0006065608
114	0xbd928620	-0.071544886
115	0x3e1c3f47	0.15258513
116	0x3c95f142	0.018303517
117	0x3e2e7137	0.17035376
118	0xbcbb5b83	-0.022870785
119	0xbca1a564	-0.019732185
120	0xbd526606	-0.05136683
121	0x3d0f5dea	0.035001673
122	0x3bb3ba5b	0.005484862
123	0xbd2a4474	-0.04156919
124	0xbd534c7f	-0.051586624
125	0xbb60e502	-0.0034316187
126	0xbcf34432	-0.029695604
127	0x3d3ba372	0.04581017
128	0x3edd2fb2	0.4320045
129	0x3cd8a3b2	0.026445244
130	0xbd3a368a	-0.04546217
131	0x3d3e2274	0.046419576
132	0xbcd69900	-0.026196003
133	0x3cf186df	0.029483257
134	0x3c7f36d3	0.015577036
135	0x3e1519a4	0.14560562
136	0xbd3eed96	-0.0466133
137	0x3c92e494	0.01793126
138	0xbd209bc4	-0.03921105
139	0xbc35e011	-0.011100785
140	0x3dc6c200	0.09704971
141	0xbd44d9ea	-0.04805938
142	0xbd0e0db4	-0.034681037
143	0xbd4156c8	-0.0472019
144	0xbc3cab74	-0.011515487
145	0x3e53da26	0.20688686
146	0xbbfa9738	-0.007647421
147	0xbcead853	-0.028667605
148	0x3c28a669	0.0102935815
149	0x3b3758b0	0.0027976446
150	0xbecfcc15	-0.4058539
151	0x3e0f202c	0.13977116
152	0xbccf4153	-0.025299704
153	0xbccbb328	-0.024865702
154	0xbd8ada2b	-0.067798935
155	0x3f1434e3	0.578932
156	0x3e7fa048	0.24963486
157	0x3e188ea3	0.14898162
158	0xb9548118	-0.00020265987
159	0xbe18adaf	-0.14910005
160	0xbc51d97f	-0.012808203
161	0xbe04f43a	-0.1298379
162	0x3c06ed2a	0.008235255
163	0x3dce71ac	0.10080275
164	0x3b8e5908	0.0043441094
165	0x3ca66440	0.020311475
166	0xbd2d5987	-0.042321708
167	0xba4d31fa	-0.00078275765
168	0x3c8e57ec	0.017375909
169	0x3cb796a6	0.022410702
170	0x3d0cb5f2	0.034353204
171	0xbb6da5ef	-0.0036262234
172	0x3d04f974	0.03246446
173	0xbcbc4db3	-0.022986269
174	0x3d3a6905	0.04551031
175	0xbb702366	-0.0036642193
176	0xbd92a580	-0.07160473
177	0x3e1248f5	0.14285643
178	0x3d2eb147	0.042649534
179	0x3dc3308c	0.09530744
180	0x3de051ce	0.10953103
181	0x3e73fb26	0.23826274
182	0xbcae2c77	-0.021261437
183	0xbdb1fef9	-0.0869121
184	0x3f22ad25	0.6354545
185	0x3ea44b0c	0.32088506
186	0x3ea3d603	0.31999215
187	0x3d0abc7a	0.03387115
188	0xbe32e502	-0.17470172
189	0xbd4fdf16	-0.05074986
190	0xbd987511	-0.07444204
191	0xbd8086fb	-0.062757455
192	0xbd50664c	-0.050878808
193	0x3d5971f4	0.05308719
194	0x3c72d6d0	0.014821723
195	0x3c1fe042	0.009758057
196	0x3c2ae0b4	0.01042955
197	0x3b4a04b0	0.0030825548
198	0xbdac3026	-0.08407621
199	0x3c0ba481	0.0085231075

fc3.weight f4 [2, 200]
0	0x3ca7c008	0.02047731
1	0xbcac2105	-0.021011839
2	0xbd4c6701	-0.04990292
3	0x3ca46872	0.020069335
4	0x3cc3bc11	0.023893388
5	0x3c7bcad4	0.015368182
6	0xbb8c0a12	-0.0042736614
7	0x3d0d36dc	0.034476146
8	0xbf9d8e26	-1.2309005
9	0x3d20b65f	0.039236423
10	0xbec5f3e8	-0.38662648
11	0xbd857e44	-0.06518224
12	0xbd3500b9	-0.044190142
13	0x3c9ff1bc	0.019524448
14	0x3de29d8a	0.110652044
15	0x3d6ac88a	0.057320155
16	0x3c6b6872	0.014368163
17	0x3d6b54ea	0.057454027
18	0xbbeedf2d	-0.007289788
19	0x3d39fbf1	0.045406286
20	0xbd5b5ba8	-0.053554207
21	0xbcf6af34	-0.03011284
22	0x3d29b3b9	0.041431163
23	0x3da6f4c8	0.08152157
24	0x3d2c24ed	0.042027403
25	0xbc7379d9	-0.014860594
26	0xbe003fc4	-0.12524325
27	0xbe80f013	-0.25183162
28	0x3b9c60da	0.004772288
29	0x3c9ae4f2	0.018907998
30	0x3d81197d	0.0630369
31	0xbd594a5d	-0.053049434
32	0xbd79629e	-0.060885064
33	0x3e55bc81	0.2087269
34	0xbb796a6f	-0.0038057824
35	0xbd25ea27	-0.04050651
36	0xbd884536	-0.06653826
37	0xbd001d10	-0.031277716
38	0xbe7779d9	-0.24167575
39	0xbd55e598	-0.05222091
40	0xbd93a819	-0.072097965
41	0x3de4f33b	0.11179205
42	0x3d312a19	0.043253038
43	0x3d879187	0.06619554
44	0xbd8f94f4	-0.070108324
45	0x3e080c88	0.1328603
46	0xbdc2a17a	-0.095034555
47	0xbd9f62ea	-0.07782538
48	0x3c069f55	0.008216699
49	0x3e417769	0.18893208
50	0x3d2ee410	0.042697966
51	0x3d3f8fc0	0.04676795
52	0xbd52fa34	-0.051508144
53	0xbe39a704	-0.18130118
54	0xbca70c23	-0.02039153
55	0x3d9288e5	0.07155017
56	0xbd1f1cf2	-0.038845964
57	0x3d016b49	0.031596456
58	0x3d49094a	0.049081124
59	0xbeae27ba	-0.34014684
60	0xbc82942a	-0.01593979
61	0xbd2d3276	-0.04228445
62	0x3e256b42	0.16154197
63	0x3ce194ca	0.027536768
64	0xbcf9e275	-0.030503491
65	0xbe507232	-0.20356062
66	0x3c8789b6	0.016545158
67	0x3bfcd15e	0.007715388
68	0x3e02f276	0.12787804
69	0x3a869f56	0.0010270874
70	0x3e19eacc	0.15030974
71	0xbd9d0ffb	-0.07669064
72	0x3d739251	0.05946571
73	0xbdcd31a4	-0.10019234
74	0x3d19ce30	0.03755015
75	0xbdd8abef	-0.10579669
76	0x3d79629e	0.060885064
77	0xbd578e83	-0.052626144
78	0x3d867c2d	0.065666534
79	0xbc4744f1	-0.012162433
80	0xbd73bbd7	-0.05950531
81	0xbd8eaee3	-0.06966951
82	0x3cac8fac	0.021064602
83	0x3cdcd72c	0.02695807
84	0x3d94dcf3	0.07268705
85	0x3d05052c	0.032475635
86	0x3d1d34a8	0.038380295
87	0xbcf280c3	-0.029602414
88	0xbf86f2cb	-1.0542845
89	0xbc334cfb	-0.010943647
90	0xbab233ba	-0.0013595738
91	0xbe4ee356	-0.2020391
92	0x3bc784d5	0.006088833
93	0x3d356fdd	0.044296134
94	0x3e0913d1	0.13386466
95	0x3ca1d82c	0.0197564
96	0x3d4dce65	0.05024566
97	0xbe2bd2e4	-0.16779667
98	0xb9c33358	-0.00037231552
99	0x3e0e1a4f	0.13877223
100	0xbd86e30b	-0.06586274
101	0x3c43aee0	0.011943549
102	0x3d7f36d3	0.062308144
103	0x3d1c8d7f	0.03822088
104	0x3d4ca940	0.049966097
105	0xbd3b579a	-0.04573784
106	0xbd7fa350	-0.062411606
107	0xbc877fe2	-0.016540471
108	0xbec514b3	-0.38492355
109	0x3dc98429	0.09839661
110	0xbd7a9f41	-0.061187033
111	0xbd9c0ee6	-0.07620029
112	0xbd9f06f4	-0.07764998
113	0xbcdde377	-0.027086003
114	0x3dadb9de	0.08482717
115	0xbd40a301	-0.047030453
116	0xbbea2210	-0.007145174
117	0x3d2e6afe	0.042582504
118	0xbd14a539	-0.03629038
119	0xbc317069	-0.010830023
120	0x3d37543f	0.044758078
121	0x3d465958	0.04842505
122	0xbcb97338	-0.022637948
123	0x3d6303fb	0.055423718
124	0x3d7ebdba	0.062192656
125	0x3c5deb47	0.013544864
126	0xbd216eb4	-0.039412215
127	0xbd7d400a	-0.06182865
128	0xbe3755fa	-0.17903891
129	0xbc500c73	-0.012698281
130	0x3d4d1a8a	0.050074138
131	0xbd06c27d	-0.032900322
132	0xbd499aee	-0.049220018
133	0xbd4f647a	-0.05063293
134	0x3d038a42	0.032114275
135	0xbd9c4c5d	-0.07631753
136	0x3d821b11	0.06352819
137	0xbd423570	-0.047414243
138	0x3d49d696	0.04927691
139	0xbdce441c	-0.100715846
140	0xbd18349c	-0.037159547
141	0x3cae6f34	0.02129326
142	0xbd37737e	-0.044787876
143	0xbd5c60bd	-0.053803194
144	0x3c0ce4d2	0.008599477
145	0xbea63fba	-0.32470495
146	0x3d010d88	0.031507045
147	0x3d2a2dce	0.04154759
148	0xbc8daac8	-0.017293349
149	0x3d573e10	0.05254942
150	0xbe1eaa71	-0.15494706
151	0xbd30ce6b	-0.043165606
152	0x3c07dbbe	0.008292137
153	0xbd0e8e9c	-0.03480397
154	0x3d4b8680	0.049688816
155	0xbe86c9d8	-0.2632587
156	0xbc0af63e	-0.00848156
157	0xbe7de5cc	-0.24794692
158	0xbd7b6a28	-0.061380535
159	0xbda07843	-0.07835438
160	0x3ae1eada	0.0017236129
161	0xbd9aa859	-0.07551641
162	0x3de00539	0.10938496
163	0xbe4ee87d	-0.20205875
164	0xbd80330b	-0.06259736
165	0x3b49f5d6	0.0030816696
166	0x3d8825f6	0.066478655
167	0xbd14b4d9	-0.036305282
168	0x3d54bf97	0.051940527
169	0x38f56714	0.0001170171
170	0x3d79fede	0.061034076
171	0x3e002d2a	0.12517229
172	0xbd7a934f	-0.06117564
173	0x3cdd81ce	0.027039435
174	0x3ce25cd3	0.027632153
175	0x3c87dbbe	0.016584273
176	0xbc49ee07	-0.012324817
177	0x3c230429	0.009949722
178	0x3d08973f	0.033347365
179	0xbdb69761	-0.08915592
180	0xbcd29838	-0.02570735
181	0xbda0ab64	-0.0784519
182	0x3d788bc5	0.06068017
183	0xbd5c7b04	-0.053828254
184	0xbec1b444	-0.37832844
185	0xbe79ff8a	-0.24413887
186	0xbcbc1a24	-0.022961684
187	0x3d139ed3	0.03604014
188	0xbd5c3ec8	-0.05377081
189	0xbc3b681d	-0.011438397
190	0xbcbe8829	-0.023258286
191	0xbd083a6f	-0.03325885
192	0xba891827	-0.0010459468
193	0x3cffb399	0.031213569
194	0xbd828872	-0.06373681
195	0x3cc0b2b6	0.023522716
196	0x3d273f01	0.04083157
197	0x3d0df665	0.03465881
198	0xbce79532	-0.028269384
199	0x3d455a22	0.04818166
200	0x3d47a7fc	0.048744187
201	0x3c965ea2	0.018355671
202	0xbe07f32f	-0.13276361
203	0xbe8c9e83	-0.27464685
204	0x3b643c7c	0.003482609
205	0xbe77f756	-0.24215445
206	0xbbef1dae	-0.0072972393
207	0x3d003e80	0.031309605
208	0x3d12304f	0.035690602
209	0xbd88a6e0	-0.06672454
210	0xbd128640	-0.035772562
211	0xbce5bb4e	-0.028043415
212	0x3d495d7d	0.049161423
213	0xbc871c56	-0.016493004
214	0xbe3af20a	-0.18256393
215	0xbe06d9ee	-0.13169071
216	0x3cfd5e29	0.030928688
217	0xbd1c03f7	-0.03808972
218	0x3d577301	0.05259991
219	0x3d12ad4f	0.03580981
220	0x3d0930b8	0.033493727
221	0xbba05574	-0.0048929993
222	0xbc9c1b68	-0.019056037
223	0xbd1a5647	-0.037679937
224	0x3d2c53cd	0.042072106
225	0xbdef0e0e	-0.116726026
226	0xbcd1a2b5	-0.02559028
227	0x3c6a7641	0.0143104205
228	0x3c8981a0	0.016785443
229	0xbded73e5	-0.11594371
230	0xbc5b283d	-0.013376293
231	0xbc828c5b	-0.015936067
232	0x3d04229b	0.032259565
233	0xbd0be6eb	-0.034155767
234	0xbdec8984	-0.115496665
235	0xbcdee161	-0.027207078
236	0x3bc7d2f4	0.0060981456
237	0xbd82260e	-0.063549146
238	0xbce872a1	-0.028374972
239	0xbe038a43	-0.12845711
240	0xbde80540	-0.11329126
241	0xbe2e95f0	-0.17049384
242	0x3c67fd6f	0.014159544
243	0x3d5d52ee	0.054034166
244	0xbd3fae2a	-0.046796955
245	0xbd6434ad	-0.055714298
246	0xbd732cc2	-0.059368856
247	0xbdc53313	-0.09628882
248	0x3cd34c7e	0.02579331
249	0xbe74a3c3	-0.23890595
250	0xbade54c0	-0.0016962513
251	0xbdc5563b	-0.09635588
252	0xbd540fcf	-0.05177289
253	0xbd16722b	-0.036729973
254	0xbe205574	-0.15657598
255	0xbe18eee6	-0.14934883

fc3.bias f4 [2]
0	0x3d65b9f0	0.056085527
1	0xbdb4f2de	-0.08835386
