log/train_1_1k/models/280_actor.pt (torch_old, 249426 bytes, 6 tensors)

fc1.weight f4 [300, 4]
0.3402909 -0.08542556 -0.7573093 -0.54361975 -0.27503964 0.052751757 1.0584639 0.012668062
0.055348646 0.087579064 -1.3292867 -0.34824145 -0.26580796 -0.16399108 -0.3857971 0.5929995
-0.27099654 0.26750734 -0.60865206 0.19558492 -0.18589155 0.20600308 0.27514818 0.5736264
-0.2170634 -0.4876262 0.26196414 -0.60295045 0.3327789 0.15473452 0.33355492 -0.48742095
0.27195048 -0.081069335 -1.1836102 0.3048337 -0.26541957 0.31985602 0.2655336 0.55160743
-0.12513831 -0.10799013 -0.27091926 -0.14202793 0.31068203 -0.19851583 0.89026695 0.22410125
-0.37844628 -0.23850949 0.52342254 0.14057074 -0.183632 -0.2721588 0.7533412 0.34674597
0.33473942 0.26380214 -0.074908495 0.18107885 0.22034045 -0.06168596 1.2033622 -0.87169087
-0.18208614 0.19552425 0.42577776 0.45867825 0.21848555 0.17380011 0.2273986 0.725572
-0.19103138 -0.2802221 -0.98585814 0.09811002 -0.22239235 -0.52133256 -0.41882324 0.4827157
0.25128618 0.4625404 0.13528128 -0.69349074 0.24624552 -0.0642089 -0.12009705 -0.7428254
-0.25134125 -0.44576198 -1.0269778 0.40465522 0.38574365 -0.45329598 -0.34126878 0.22598822
0.54302174 -0.14648198 1.1754303 -0.6007679 0.029687202 0.0830423 -0.99547553 -0.4640836
0.15934546 -0.11035964 -0.625202 0.08103862 -0.049766045 0.1969735 -0.2892935 0.5384748
0.34142706 0.3682758 0.37118727 -0.05211943 -0.33747837 -0.298317 -0.75570905 0.34372807
-0.31253037 0.23881708 1.1161809 0.095742114 0.046017356 -0.20832707 -0.8161114 0.47401318
0.33193946 0.038625628 -0.42982548 -0.41250783 -0.23209372 -0.018896038 0.2034441 -0.09580783
0.038883712 0.31415895 0.36341286 0.26385164 -0.19452718 -0.4453874 0.32400972 -0.18845972
-0.010855818 -0.35004506 -0.051601432 -0.4757248 -0.24085797 -0.35785848 0.6283834 0.6050771
0.2290725 -0.22427306 0.15802744 0.21927275 -0.29233053 0.33897775 0.8325335 0.2797692
0.058903076 0.39676583 -0.7174146 -0.63077295 -0.22872959 -0.06329914 -0.1742073 0.1981976
0.14779805 -0.40875897 -0.053569242 -0.29295114 0.34028864 -0.4085301 -0.02074824 -5.2362684e-05
0.0450917 0.51942086 -0.38261166 -0.27274838 -0.122955926 0.096691824 -0.5261087 0.9097348
-0.4163996 0.3163121 0.27461612 0.89095354 0.3002865 -0.36786193 -0.4975086 -0.26516503
0.24161156 0.04568058 -0.61856693 0.7426298 -0.0633213 0.2619726 0.21604912 0.0069465586
-0.09280445 -0.50574154 0.54529023 0.2571345 -0.031185295 -0.39203438 -0.041039925 0.3134676
0.16290908 0.13368881 -0.93600565 -0.08964286 0.43888977 -0.07314692 -0.5500677 -0.32065904
-0.25689057 -0.29407507 -0.2974672 -0.277715 -0.20684452 -0.029741233 -0.95622015 -0.09710066
0.37578067 -0.21620849 0.98469913 0.4014845 0.17388606 0.19348976 -0.5029483 0.35357758
0.11562438 0.49767444 -0.38389742 -0.24003142 0.31954068 0.24503092 0.273013 -0.37412745
0.11305751 -0.43317515 0.03672779 0.27402246 0.05042817 0.18549976 -0.3729612 -0.7257635
-0.12962963 -0.4032201 -0.42284203 -0.03998093 -0.1589163 0.019439148 0.91807276 -0.29478598
00000000: 9c3a ae3e 99f3 aebd 06df 41bf aa2a 0bbf
00000010: ffd1 8cbe 3a12 583d bf7b 873f b48d 4f3c
00000020: 43b5 623d a75c b33d 1126 aabf b44c b2be
00000030: fb17 88be 47ed 27be 3387 c5be d1ce 173f
00000040: 0fc0 8abe b9f6 883e 9fd0 1bbf 6a47 483e
00000050: 5b5a 3ebe 79f2 523e 39e0 8c3e 2ed9 123f
00000060: de45 5ebe 24aa f9be 2a20 863e f65a 1abf
00000070: ff61 aa3e ba72 1e3e b6c7 aa3e 3d8f f9be
00000080: 183d 8b3e ae07 a6bd 8a80 97bf 2a13 9c3e
00000090: 13e5 87be 2bc4 a33e 05f4 873e 2536 0d3f
000000a0: 4224 00be ee29 ddbd eeb5 8abe c56f 11be
000000b0: b711 9f3e bc47 4bbe 89e8 633f cc7a 653e
000000c0: b6c3 c1be d53b 74be 05ff 053f c7f1 0f3e
000000d0: 070a 3cbe 6658 8bbe f8da 403f b088 b13e
000000e0: f762 ab3e 1311 873e a069 99bd bc6c 393e
000000f0: eda0 613e 6baa 7cbd c607 9a3f 2227 5fbf
00000100: ca74 3abe 8237 483e 8bff d93e e0d7 ea3e
00000110: adba 5f3e a8f8 313e 2edb 683e 16bf 393f
00000120: bb9d 43be 4579 8fbe 3361 7cbf e8ed c83d
00000130: d2ba 63be 0d76 05bf 0070 d6be 8326 f73e
00000140: 95a8 803e 18d2 ec3e 2d87 0a3e 9c88 31bf
00000150: c927 7c3e f57f 83bd 71f5 f5bd ce29 3ebf
00000160: cdaf 80be ea3a e4be 0274 83bf f82e cf3e
00000170: 3180 c53e 6916 e8be c8ba aebe 7569 673e
00000180: 7903 0b3f 5fff 15be 8074 963f edcb 19bf
00000190: 9332 f33c 1512 aa3d 7cd7 7ebf 5e9c edbe
000001a0: 752b 233e 3c04 e2bd 3d0d 20bf 93f7 a53d
000001b0: 7bd7 4bbd 6cb3 493e 471e 94be 7cd9 093f
000001c0: 87cf ae3e a58e bc3e 420c be3e 2f7b 55bd
000001d0: f7c9 acbe 01bd 98be 2676 41bf 20fd af3e
000001e0: fb03 a0be 778c 743e 04df 8e3f 7114 c43d
000001f0: b27c 3c3d b153 55be adec 50bf dbb1 f23e
00000200: f8f3 a93e e835 1e3d 1612 dcbe 3a34 d3be
00000210: faa9 6dbe ddcb 9abc a653 503e e536 c4bd
00000220: 8744 1f3d 71d9 a03e 4011 ba3e 9017 873e
00000230: 2232 47be d109 e4be 9ae4 a53e 96fb 40be
00000240: 9adc 31bc 1b39 b3be 065c 53bd 3392 f3be
00000250: 79a3 76be 3a39 b7be bcdd 203f 55e6 1a3f
00000260: fb91 6a3e d6a7 65be f2d1 213e 0989 603e
00000270: 59ac 95be 7e8e ad3e ea20 553f e93d 8f3e
00000280: 5a44 713d e424 cb3e 7ca8 37bf 567a 21bf
00000290: 1738 6abe fba2 81bd 6663 32be 50f4 4a3e
000002a0: 5f58 173e db48 d1be 6c6b 5bbd b1fd 95be
000002b0: 503a ae3e db2a d1be 37f8 a9bc 01a0 5bb8
000002c0: 13b2 383d c4f8 043f ade5 c3be ada5 8bbe
000002d0: 51d0 fbbd 5d06 c63d 0faf 06bf 61e4 683f
000002e0: 5432 d5be a9f3 a13e 7c9a 8c3e 8815 643f
000002f0: 27bf 993e 6658 bcbe 72b9 febe b6c3 87be
00000300: 0569 773e 8f1b 3b3d 675a 1ebf fd1c 3e3f
00000310: 99ae 81bd 4621 863e fb3b 5d3e f59f e33b
00000320: 4210 bebd 4778 01bf 2498 0b3f 22a7 833e
00000330: 4e78 ffbc bbb8 c8be 7b19 28bd d37e a03e
00000340: a3d1 263e b8e5 083e 119e 6fbf ad96 b7bd
00000350: 29b6 e03e 0dce 95bd 3dd1 0cbf 6c2d a4be
00000360: 2987 83be 0291 96be 9f4d 98be a930 8ebe
00000370: 0dcf 53be e3a3 f3bc d8ca 74bf b6dc c6bd
00000380: 5366 c03e c265 5dbe 3e15 7c3f 608f cd3e
00000390: 300f 323e 2e22 463e 38c1 00bf 1f08 b53e
000003a0: 7acc ec3d 2fcf fe3e 348e c4be ccca 75be
000003b0: d69a a33e 63e9 7a3e 5cc8 8b3e a28d bfbe
000003c0: b28a e73d 22c9 ddbe e16f 163d ac4c 8c3e
000003d0: c58d 4e3d a6f3 3d3e c5f4 bebe a3cb 39bf
000003e0: a1bd 04be dd72 cebe c07e d8be 0bc3 23bd
000003f0: f4ba 22be d93e 9f3c d106 6b3f 30ee 96be

fc1.bias f4 [300]
0.09606419 -0.76811403 0.0886211 -0.19329515 -0.33648202 -0.04118162 -0.19539744 -0.21944372
0.03973853 -0.63743764 0.8202989 -0.8257863 -0.66762656 0.45989475 -0.3608923 0.5975955
-0.8596472 0.47272873 0.036594216 -0.65582746 -0.37205616 0.24097681 -0.20204414 0.20848212
-0.22121121 0.33579755 0.5833083 -0.4205623 -0.968099 -0.47076967 0.26748917 0.6382447
-0.26444912 -0.8202775 0.647727 0.70141166 -0.4650574 0.69544053 0.23487055 -0.017823867
0.07336471 -0.402254 0.65680975 -0.67307407 0.301085 -0.18385585 0.16150275 -0.022443622
-0.4838651 -0.69135094 0.31103384 -0.5008828 -0.85347784 0.36351848 0.809746 0.5376602
0.7712194 -1.1883485 -0.50563765 -0.6841728 0.4451459 0.2039226 -0.13733153 -0.6978131
-0.25632936 -0.32094353 0.37630308 -0.524167 0.508831 -0.14083056 -0.67863446 -0.35603356
0.12834477 -0.80491996 0.3556984 -0.5545583 0.21088925 0.7383265 -0.46777633 -0.75866586
0.83884406 -0.9203572 0.27083808 0.015248926 -0.0013452045 -0.024395643 -0.9525845 0.3441095
-0.21471119 0.4763786 -0.3241655 -0.49232537 0.984044 0.8871783 0.8950579 -0.22137153
0.061411805 0.44132122 -0.26366293 -0.86148936 0.53182346 0.88035727 0.20112999 0.4285838
0.34682998 -0.1843771 -0.10178143 -0.7478048 -0.07249766 -0.40379626 0.13577473 -0.20988809
0.31340435 -0.97854424 0.09574507 -0.8474649 1.008017 -0.38055024 -0.6209755 -0.8069313
0.5910757 0.92915165 0.23558998 -0.4091267 -0.23421586 -0.24930629 0.15916844 0.0013042334
0.77673566 0.44358546 -0.23489572 -0.4379886 0.25508144 0.3741551 -0.50509685 -0.70695746
-0.32815382 -0.3811237 0.9019966 0.6894184 -0.37891135 -1.2458348 -0.6847451 -0.01163093
-0.4138777 0.7446105 0.87633306 0.9731947 0.5989641 0.59543616 -0.64159 0.29834563
0.80543095 0.14948404 -0.6272291 -0.46273482 -0.17051765 0.65581244 0.8250351 0.39755315
0.17702574 0.25616083 0.5928506 -0.28835982 -0.19843388 0.5286872 -0.13925134 0.5797278
-0.096127324 0.58990103 1.0465971 0.04074421 0.46987957 -0.22998974 -0.59713614 -0.05040221
0.65518695 0.17952073 0.2975015 -0.36682934 -0.8582605 -0.06063571 0.7836471 0.4975306
0.7444321 0.20956394 -0.46919936 0.78996336 -0.19738111 0.51248854 -0.44435304 -1.0504919
-0.6658538 1.2585417 -0.5054646 -0.75167435 -0.2013394 -0.33795112 0.20555227 0.015343489
0.45840666 0.8825256 -0.74136996 0.25987938 0.85843736 0.3211938 -0.29001886 0.853121
-0.08701202 -0.53038645 -0.17227718 -0.7554861 -0.8748672 -0.28629118 -0.18079005 0.21077625
0.73629165 -0.50456226 0.4999358 -0.13109706 0.7371272 -0.4507528 0.8005265 -0.6222807
0.23317033 -0.47348118 -0.4544923 0.3540042 -0.875102 0.55744404 -0.009178678 0.1105342
-0.5181131 -0.898834 -0.98140556 0.6176899 -0.3341712 -0.6183548 -0.061391227 -0.6794613
0.2780662 -0.5613122 0.39529455 -0.672364 -0.4665563 0.12942187 -0.35206324 -0.7152505
-0.10471559 0.56747 -0.7630812 0.579664 0.09268047 0.24002424 0.52486265 0.6834498
00000000: 4dbd c43d 1fa3 44bf fb7e b53d 2aef 45be
00000010: 5f47 acbe 0fae 28bd 4416 48be dbb5 60be
00000020: dec4 223d 1d2f 23bf 1cff 513f bb66 53bf
00000030: 93e9 2abf 5377 eb3e e0c6 b8be 05fc 183f
00000040: d711 5cbf 8009 f23e d1e3 153d 4fe4 27bf
00000050: 257e bebe a0c2 763e a9e4 4ebe 567c 553e
00000060: 3185 62be a8ed ab3e b153 153f f153 d7be
00000070: 56d5 77bf b908 f1be 57f4 883e 0164 233f
00000080: e065 87be b5fd 51bf 70d1 253f b78f 333f
00000090: 011c eebe 6408 323f e881 703e 5c03 92bc
000000a0: 3d40 963d 3cf4 cdbe af24 283f 954e 2cbf
000000b0: d027 9a3e b544 3cbe fa60 253e b0db b7bc
000000c0: 2bbd f7be 60fc 30bf d43f 9f3e db39 00bf
000000d0: 867d 5abf 181f ba3e 844b 4f3f 19a4 093f
000000e0: a26e 453f ce1b 98bf 7871 01bf f325 2fbf
000000f0: 2aea e33e 16d1 503e a3a0 0cbe e1a3 32bf
00000100: 9a3d 83be b652 a4be ccaa c03e cf2f 06bf
00000110: c042 023f e335 10be fdba 2dbf 084a b6be
00000120: d06c 033e 3c0f 4ebf 1a1e b63e 88f7 0dbf
00000130: 5af3 573e f702 3d3f 6180 efbe ed37 42bf
00000140: 7cbe 563f 889c 6bbf 4aab 8a3e a2d6 793c
00000150: 9351 b0ba 5fd9 c7bc 94dc 73bf 1f2f b03e
00000160: 40dd 5bbe e5e7 f33e 05f9 a5be 1212 fcbe
00000170: 4fea 7b3f 1e1e 633f 8422 653f 38af 62be
00000180: f28a 7b3d dbf4 e13e d4fe 86be 918a 5cbf
00000190: 9525 083f 185f 613f 05f5 4d3e 566f db3e
000001a0: b393 b13e 5acd 3cbe c872 d0bd 2370 3fbf
000001b0: a779 94bd 62be cebe 8808 0b3e e7ec 56be
000001c0: 8976 a03e e081 7abf fe15 c43d 76f3 58bf
000001d0: b306 813f 7bd7 c2be 40f8 1ebf 0d93 4ebf
000001e0: bd50 173f e2dc 6d3f 803e 713e 0e79 d1be
000001f0: 48d6 6fbe 264a 7fbe 0dfd 223e d0f2 aa3a
00000200: 26d8 463f a21d e33e 8188 70be 0b40 e0be
00000210: 099a 823e 4291 bf3e 074e 01bf 2afb 34bf
00000220: c703 a8be a522 c3be 40e9 663f b97d 303f
00000230: ab00 c2be 8477 9fbf 744b 2fbf a88f 3ebc
00000240: c7e7 d3be cb9e 3e3f 5d57 603f 4a23 793f
00000250: b655 193f 816e 183f 3e3f 24bf c2c0 983e
00000260: b930 4e3f 5812 193e 1692 20bf 94eb ecbe
00000270: 2e9c 2ebe 53e3 273f 8035 533f 168c cb3e
00000280: 3c46 353e 8327 833e 0fc5 173f e6a3 93be
00000290: 4032 4bbe 0b58 073f e797 0ebe 0b69 143f
000002a0: 67de c4bd c103 173f e5f6 853f 67e3 263d
000002b0: 0e94 f03e 6e82 6bbe eadd 18bf 8c72 4ebd
000002c0: 55ba 273f 48d4 373e 1e52 983e 0ed1 bbbe
000002d0: f6b6 5bbf 265d 78bd 199d 483f 55bc fe3e
000002e0: 1a93 3e3f ee97 563e e63a f0be 0a3b 4a3f
000002f0: 461e 4abe 7332 033f 3e82 e3be 8576 86bf
00000300: 6575 2abf e517 a13f 2166 01bf bb6d 40bf
00000310: ea2b 4ebe ee07 adbe 4b7c 523e 4263 7b3c
00000320: 47b4 ea3e 33ed 613f 6cca 3dbf e90e 853e
00000330: 8dc2 5b3f 8473 a43e 5a7d 94be 2366 5a3f
00000340: 5c33 b2bd 68c7 07bf 6e69 30be 8967 41bf
00000350: 4cf7 5fbf c294 92be 0721 39be bbd5 573e
00000360: 9c7d 3c3f fe2a 01bf 96f7 ff3e 4f3e 06be
00000370: 5eb4 3c3f 12c9 e6be 4eef 4c3f ca4d 1fbf
00000380: 34c4 6e3e 206c f2be 37b3 e8be 0a40 b53e
00000390: af06 60bf a7b4 0e3f 2a62 16bc c15f e23d
000003a0: 0fa3 04bf fc19 66bf 653d 7bbf ed20 1e3f
000003b0: 7d18 abbe 804c 1ebf 5e75 7bbd 2df1 2dbf
000003c0: b15e 8e3e 28b2 0fbf 0c64 ca3e 0c20 2cbf
000003d0: 78e0 eebe 2b87 043e a241 b4be a81a 37bf
000003e0: 2175 d6bd b745 113f 4a59 43bf dc64 143f
000003f0: 42cf bd3d eac8 753e 665d 063f 91f6 2e3f

fc2.weight f4 [200, 300]
0.014063911 0.04330168 -0.16010426 0.054483104 -0.06882665 -0.08355828 0.03391166 0.04059535
0.041921493 -0.08303215 0.030737111 0.0025988037 0.0668244 -0.02418576 -0.0103887515 0.077529624
-0.0077241203 -0.021026414 -0.033242445 0.013882521 -0.011386958 -0.0033417866 0.025507033 0.06802136
0.025814686 -0.055122796 -0.052655075 -0.2905515 0.034542225 -0.04290119 0.06521375 -0.042729147
-0.005219683 0.03619087 0.04639268 0.016329171 -0.03247595 0.029636458 -0.033105247 -0.071030736
-0.0075575504 0.07416674 -0.018256914 0.013147613 -0.0049999887 -0.09152163 0.06063901 0.0475896
0.0012367233 -0.32032722 -0.038734656 -0.028268062 -0.011067471 -0.035774074 0.012644144 -0.02761962
0.057079993 0.021785196 0.064013936 0.04989234 0.07234414 0.0005448383 0.008772815 -0.028192475
0.05105888 0.042524118 -0.03324499 -0.043041885 -0.020175876 -0.049752984 0.0012367343 0.03722766
-0.090385474 -0.09407279 0.05371075 -0.0054255193 0.0063413647 0.11656272 0.0686175 -0.0077983965
-0.0034160912 0.029589701 -0.018191809 -0.17486918 -0.027991695 -0.005617865 0.05357229 0.02241155
0.053530153 0.071525805 0.06998237 -0.010627024 -0.053364515 0.048766915 0.026678404 -0.01964302
-0.06381586 0.046451826 -0.023688372 -0.07787858 -0.013013848 0.01870544 0.045218505 0.022188528
-0.0215049 -0.087182544 0.011611861 -0.057524197 -0.045582373 0.035375312 0.0040667616 -0.1102677
0.006516649 0.00011403798 -0.1239299 -0.050075267 -0.006480561 0.0014499717 -0.029947469 0.047703527
-0.009675969 -0.0041895523 -0.024075337 -0.00043803954 -0.05070728 -0.025976907 0.0714777 -0.032869257
0.0026967349 -0.09313054 0.004653733 -0.017986089 -0.18834253 -0.038059335 0.045121346 -0.020297078
0.02350558 0.05902937 0.021976558 0.07154631 0.034242786 -0.21830156 0.014402073 -0.0648053
0.032648955 -0.019208623 -0.034504082 -0.060387217 -0.043680985 0.025813118 -0.06422941 0.008546072
-0.0035063562 -0.029085997 -0.07120087 0.06362469 0.07587267 0.031982552 -0.03201844 -0.024287082
0.11359371 0.06826814 -0.020584932 -0.023658386 0.05467404 -0.035542637 -0.115584046 -0.020564921
-0.15419462 0.059543412 -0.039870113 -0.012983468 0.0012856815 0.024823496 -0.014062101 -0.04209518
0.069776855 -0.016388375 0.010144492 -0.048726574 0.008994408 -0.01780332 -0.0353153 -0.0052093896
-0.03664761 0.013443575 0.03266099 -0.046729635 0.056776725 0.04091392 -0.018731887 0.062239084
0.010507734 -0.04553594 -0.055128016 -0.01526617 0.036645476 0.032052524 0.02094925 -0.015451251
0.010085262 0.08967947 -0.054994944 -0.013693757 0.00028683763 -0.022346945 -0.05459719 -0.05042598
0.022596626 -0.40694 0.024436327 0.0063301935 -0.06408828 -0.2624832 -0.029340062 0.001648672
-0.041905653 -0.038493592 0.0047732885 -0.011677037 -0.06836795 -0.036045562 -0.0072034257 -0.048257235
0.100787066 -0.060284514 0.01079463 0.046175238 -0.09889215 0.063032344 -0.017720044 -0.15050699
0.009724243 -0.059765566 -0.53239477 0.016791483 0.015255769 0.030088767 0.06327894 -0.0065537603
-0.011012651 0.021494318 0.030250337 0.013005113 -0.508021 0.053719647 -0.05362779 -0.020105103
-0.031003607 0.0958709 0.0067075156 -0.006597425 0.038992994 0.04612294 -0.0835422 0.03055496
00000000: 516c 663c 1a5d 313d 5ff2 23be ad29 5f3d
00000010: fdf4 8cbd 9a20 abbd f4e6 0a3d 4f47 263d
00000020: dfb5 2b3d c30c aabd 65cc fb3c b150 2a3b
00000030: 3bdb 883d 3721 c6bc 9535 2abc dac7 9e3d
00000040: 9e1a fdbb 963f acbc 3b29 08bd 8373 633c
00000050: 5d90 3abc e001 5bbb 20f4 d03c c84e 8b3d
00000060: 5279 d33c 71c8 61bd d9ac 57bd 2bc3 94be
00000070: 267c 0d3d 29b9 2fbd c98e 853d c204 2fbd
00000080: e009 abbb e13c 143d 4006 3e3d c1c4 853c
00000090: 8005 05bd 28c8 f23c 5e99 07bd 9078 91bd
000000a0: 54a5 f7bb bbe4 973d 868f 95bc 1669 573c
000000b0: f2d6 a3bb b16f bbbd 9c60 783d 50ed 423d
000000c0: 8c19 a23a ee01 a4be 3ba8 1ebd 6c92 e7bc
000000d0: 5654 35bc d687 12bd 6229 4f3c 8b42 e2bc
000000e0: b6cc 693d de76 b23c bd19 833d e95b 4c3d
000000f0: 2a29 943d 7bd3 0e3a dabb 0f3c e8f3 e6bc
00000100: 1e23 513d c52d 2e3d e62b 08bd b04c 30bd
00000110: e147 a5bc c9c9 4bbd eb19 a23a 087c 183d
00000120: 051c b9bd 3ca9 c0bd ceff 5b3d 8ec8 b1bb
00000130: 39cb cf3b 6fb8 ee3d 5587 8c3d b189 ffbb
00000140: 80e0 5fbb 1a66 f23c fd06 95bc e810 33be
00000150: d74e e5bc 1116 b8bb 9e6e 5b3d 6d98 b73c
00000160: 6f42 5b3d 1f7c 923d eb52 8f3d f81c 2ebc
00000170: c094 5abd d1bf 473d ab8c da3c 66ea a0bc
00000180: e4b1 82bd 4544 3e3d 1e0e c2bc ce7e 9fbd
00000190: 0938 55bc 273c 993c 0a37 393d b7c4 b53c
000001a0: 0b2b b0bc c38c b2bd ad3f 3e3c 7e9e 6bbd
000001b0: 95b4 3abd b4e5 103d 7842 853b 08d4 e1bd
000001c0: 9d89 d53b ad27 ef38 f6ce fdbd b91b 4dbd
000001d0: e35a d4bb fa0c be3a 6554 f5bc c664 433d
000001e0: f587 1ebc 8348 89bb a439 c5bc aca8 e5b9
000001f0: 70b2 4fbd 86cd d4bc e662 923d eaa1 06bd
00000200: b4bb 303b 39bb bebd 587e 983b 9057 93bc
00000210: dddc 40be 1be4 1bbd 29d1 383d 0f46 a6bc
00000220: c68e c03c c8c8 713d 2f08 b43c df86 923d
00000230: 2a42 0c3d 728a 5fbe acf6 6b3c a4b8 84bd
00000240: e9ba 053d 675b 9dbc 2754 0dbd 9658 77bd
00000250: d5ea 32bd 0876 d33c b58a 83bd d304 0c3c
00000260: e5ca 65bb c245 eebc c3d1 91bd a94d 823d
00000270: 2163 9b3d 2300 033d c525 03bd b4f5 c6bc
00000280: d2a3 e83d 2bd0 8b3d bba1 a8bc 3bcf c1bc
00000290: e3f1 5f3d 2895 11bd 54b7 ecbd c477 a8bc
000002a0: 32e5 1dbe cbe3 733d d84e 23bd 9db8 54bc
000002b0: 5084 a83a a55a cb3c ba64 66bc ff6b 2cbd
000002c0: 2be7 8e3d ea40 86bc 1535 263c 8495 47bd
000002d0: 485d 133c 45d8 91bc c7a6 10bd 87b3 aabb
000002e0: ce1b 16bd 7142 5c3c 88c7 053d 9367 3fbd
000002f0: b68e 683d 5b95 273d 9d73 99bc 69ee 7e3d
00000300: a128 2c3c e583 3abd eacd 61bd f51e 7abc
00000310: 9119 163d 8249 033d c39d ab3c 3e27 7dbc
00000320: a83c 253c dfa9 b73d 6142 61bd c85b 60bc
00000330: b262 9639 f110 b7bc 4ea1 5fbd 798b 4ebd
00000340: 8f1c b93c 715a d0be b12e c83c 836d cf3b
00000350: b740 83bd 3364 86be 925a f0bc 4118 d83a
00000360: 43a5 2bbd 75ab 1dbd 3f69 9c3b 0b51 3fbc
00000370: 7f04 8cbd 83a4 13bd b70a ecbb 61a9 45bd
00000380: 7369 ce3d e5ec 76bd f6db 303c 3f22 3d3d
00000390: f887 cabd 1a17 813d a029 91bc 811e 1abe
000003a0: 6e52 1f3c bdcc 74bd 064b 08bf 4b8e 893c
000003b0: 55f3 793c b87c f63c 6498 813d edc0 d6bb
000003c0: 686e 34bc da14 b03c 8ecf f73c 6613 553c
000003d0: aa0d 02bf 2209 5c3d d0a8 5bbd 75b3 a4bc
000003e0: 47fb fdbc f657 c43d b8ca db3b 362f d8bb
000003f0: 1eb7 1f3d 68eb 3c3d 2c18 abbd 654e fa3c

fc2.bias f4 [200]
-0.0042484393 0.023528304 0.011560057 0.030507619 0.028917005 0.20934252 -0.11880477 0.035824712
0.34110606 0.07224511 0.51271427 -0.06974206 0.028820086 0.009062055 0.08238486 -0.018027188
0.0121711455 0.03940104 0.0027952841 -0.040164735 9.826198e-05 0.007193395 0.14104122 -0.031495873
-0.057960678 0.31086123 -0.18936421 -0.004502912 0.19362731 0.16874102 -0.0016042821 0.2455526
-0.0015992761 0.1944552 -0.06671709 -0.109996915 0.016612213 0.011606805 0.41749918 0.28966668
0.39630678 0.10403015 -0.019210638 -0.022757161 -0.0208597 -0.12618354 -0.19085842 0.36886156
0.045488242 0.26084697 -0.032151535 0.27962437 0.007428064 0.3066531 0.080538124 0.11484089
0.018419003 -0.019612975 -0.03700248 0.34447894 0.0153293 -0.052450903 0.26682612 -0.008671191
0.02146336 0.49559265 -0.015090879 0.025988972 0.09456676 0.04906829 0.33873433 0.113960765
0.046747405 0.2686863 0.069877476 0.23888135 -0.0071491566 -0.10757142 -0.019523047 0.101697035
-0.22633474 -0.04143471 -0.025005527 0.27567226 0.12339153 -0.044225354 -0.0021664007 -0.12047681
0.2512287 0.012235408 0.03566825 0.32478648 -0.042779922 -0.033220705 0.2466991 -0.00082996464
0.25751027 -0.1545941 -0.033243056 0.24053648 0.35473835 0.040406883 0.006092092 -0.0077789607
-0.013877351 0.026249664 -0.2655015 0.03769391 0.25306335 -0.10480043 -0.081982486 -0.09904685
-0.086024776 -0.0006065608 0.08603126 0.27441627 0.018303517 0.19881596 -0.022870785 -0.01973554
-0.05136683 0.04295025 0.005484862 -0.04156919 -0.051586624 -0.0034316187 -0.029695604 0.080379896
0.51140594 0.026445244 -0.04546217 0.046419576 0.016959103 0.029483257 0.015577036 0.2007175
-0.0466133 0.01793126 -0.042385038 -0.08438217 0.153781 -0.044190075 -0.034681037 -0.0472019
-0.011515487 0.27272883 -0.007647421 -0.021063415 0.09237031 0.010975103 -0.4536562 0.18018615
-0.025299704 -0.024865702 0.0032887484 0.58119065 0.17523585 0.24796376 -0.00020265987 -0.19339405
0.13473982 -0.09414755 -0.008434006 0.15266326 0.062358204 0.020311475 -0.042321708 -0.0036821477
0.017375909 0.022410702 0.034353204 -0.06618164 0.03246446 -0.022986269 0.052939687 -0.0036642193
-0.07160473 0.14533477 0.041707024 0.27341455 0.16779053 0.23646212 -0.021261437 -0.03309698
0.4735298 0.37549308 0.25795037 0.04102002 -0.12241222 -0.018385641 -0.086653635 -0.047477685
-0.050878808 0.058940746 0.014821723 0.009758057 0.01042955 0.010003458 -0.07384866 0.0085231075
00000000: 7e36 8bbb 6ebe c03c 6566 3d3c 1deb f93c
00000010: 5be3 ec3c e35d 563e ea4f f3bd efbc 123d
00000020: 74a5 ae3e 3ff5 933d 3e41 033f edd4 8ebd
00000030: 1a18 ec3c 0379 143c 65b9 a83d c1ad 93bc
00000040: 7c69 473c fc62 213d 1631 373b c783 24bd
00000050: 0012 ce38 92b6 eb3b 1c6d 103e d101 01bd
00000060: 2d68 6dbd 3429 9f3e b1e8 41be 2a8d 93bb
00000070: 3d46 463e 72ca 2c3e c646 d2ba 2472 7b3e
00000080: cd9e d1ba 441f 473e f8a2 88bd 1046 e1bd
00000090: 5616 883c 782a 3e3c 74c2 d53e 314f 943e
000000a0: b9e8 ca3e c20d d53d a15f 9dbc 3a6d babc
000000b0: f6e1 aabc 4236 01be 6470 43be 6cdb bc3e
000000c0: e151 3a3d bc8d 853e 54b1 03bd ed2a 8f3e
000000d0: 1e67 f33b a301 9d3e 2cf1 a43d b331 eb3d
000000e0: 73e3 963c 64ab a0bc ea8f 17bd 8b5f b03e
000000f0: bf27 7b3c c2d6 56bd 6f9d 883e 9c11 0ebc
00000100: eed3 af3c 52be fd3e bc3f 77bc d3e6 d43c
00000110: 38ac c13d d5fb 483d 966e ad3e 4364 e93d
00000120: 357a 3f3d 4091 893e ec1b 8f3d 509d 743e
00000130: 7943 eabb 684e dcbd ccee 9fbc 8946 d03d
00000140: 4bc4 67be 71b7 29bd 64d8 ccbc ea24 8d3e
00000150: b3b4 fc3d a525 35bd 2cfa 0dbb 8cbc f6bd
00000160: 0ca1 803e 0577 483c df18 123d 6a4a a63e
00000170: 003a 2fbd 6f12 08bd b09e 7c3e fc91 59ba
00000180: 63d8 833e ea4d 1ebe df29 08bd 324f 763e
00000190: 44a0 b53e b081 253d 2ca0 c73b a7e6 febb
000001a0: d45d 63bc 8909 d73c d0ef 87be ee64 1a3d
000001b0: 8591 813e 9ca1 d6bd 6fe6 a7bd 13d9 cabd
000001c0: c22d b0bd 9b01 1fba 2831 b03d 4a80 8c3e
000001d0: 42f1 953c 6996 4b3e 835b bbbc 6dac a1bc
000001e0: 0666 52bd 9aec 2f3d 5bba b33b 7444 2abd
000001f0: 7f4c 53bd 02e5 60bb 3244 f3bc 379e a43d
00000200: 80eb 023f b2a3 d83c 8a36 3abd 7422 3e3d
00000210: d1ed 8a3c df86 f13c d336 7f3c e388 4d3e
00000220: 96ed 3ebd 94e4 923c ef9b 2dbd 8fd0 acbd
00000230: c478 1d3e a700 35bd b40d 0ebd c856 41bd
00000240: 74ab 3cbc 1da3 8b3e 3897 fabb 2f8d acbc
00000250: a52c bd3d ebd0 333c a045 e8be b882 383e
00000260: 5341 cfbc 28b3 cbbc 0b88 573b e9c8 143f
00000270: 0771 333e 36ea 7d3e 1881 54b9 1709 46be
00000280: 3cf9 093e 6ed0 c0bd c92e 0abc c253 1c3e
00000290: 516b 7f3d 4064 a63c 8759 2dbd 3050 71bb
000002a0: ec57 8e3c a696 b73c f2b5 0c3d 3d8a 87bd
000002b0: 74f9 043d b34d bcbc 49d7 583d 6623 70bb
000002c0: 80a5 92bd a3d2 143e fcd4 2a3d fefc 8b3e
000002d0: 48d1 2b3e 2023 723e 772c aebc b390 07bd
000002e0: 7f72 f23e a140 c03e 1212 843e 9c04 283d
000002f0: 42b3 fabd 7c9d 96bc 7677 b1bd f677 42bd
00000300: 4c66 50bd da6b 713d d0d6 723c 42e0 1f3c
00000310: b4e0 2a3c 8be5 233c f73d 97bd 81a4 0b3c

fc3.weight f4 [2, 200]
0.0052276105 -0.021011839 -0.051791202 0.016112927 0.023893388 0.2656139 -0.0042736614 0.034476146
-1.1558837 0.026872862 -0.3742859 -0.06518224 -0.038582433 0.070002444 0.14910182 0.0531989
0.014368163 0.057454027 -0.007289788 0.045406286 -0.053554207 -0.03011284 0.03995146 0.08152157
0.042027403 0.25534213 -0.118386716 -0.2343929 -0.05146464 0.040065166 0.0630369 -0.16300616
-0.060885064 0.33100373 -0.0038057824 -0.020291276 -0.06653826 -0.031277716 -0.22558047 -0.38679662
-0.07098841 0.120596975 0.043253038 0.06619554 -0.070108324 0.13186413 -0.07644682 -0.07684765
0.008216699 0.20335536 0.042697966 0.07953048 -0.05610117 -0.17035152 -0.026410991 0.07319744
-0.038845964 0.031596456 0.054611158 -0.32133505 -0.01593979 -0.04228445 0.15422237 0.027536768
-0.03412208 -0.478221 0.016545158 -0.008980004 0.123895824 0.0010270874 0.15149452 -0.068926685
0.05946571 -0.09746602 0.032627963 -0.10457357 0.060885064 -0.04834944 0.06335544 -0.01209748
-0.05158859 -0.21881066 0.0074364054 0.02794017 0.08133519 0.032475635 0.038380295 -0.04355333
-1.1638184 -0.010943647 -0.0013595738 -0.1409968 0.006088833 0.044296134 0.13369024 0.0197564
0.12674345 -0.16779667 -0.00037231552 0.13332225 -0.056001067 0.011943549 0.062308144 0.03032793
0.049966097 -0.04573784 -0.034613665 -0.016540471 -0.5035545 0.10297145 -0.05546662 -0.06902931
-0.0650248 -0.027086003 0.079297625 -0.15980183 -0.007145174 0.03972189 -0.03629038 -0.010817459
0.044758078 0.043190036 -0.022637948 0.055423718 0.062192656 0.013544864 -0.039412215 -0.0606519
-0.22754088 -0.012698281 0.050074138 -0.032900322 -0.059810784 -0.05063293 0.032114275 -0.079506055
0.06352819 -0.047414243 0.04612155 -0.13015446 -0.03264447 0.0115399165 -0.044787876 -0.053803194
0.008599477 -0.32770488 0.031507045 0.03674606 -0.10951625 0.047284517 -0.16183196 -0.07607247
0.008292137 -0.03480397 0.052810296 -0.2546856 -0.0029115803 -0.41609085 -0.061380535 -0.14895456
-0.071008995 -0.06823326 0.11838965 -0.2932584 -0.06090586 0.0030816696 0.066478655 -0.03342932
0.051940527 0.0001170171 0.061034076 0.13988443 -0.06117564 0.027039435 0.016537119 0.016584273
-0.012324817 0.022293996 0.032971103 -0.12575662 -0.04003161 -0.07649982 0.06068017 -0.040712856
-0.3436966 -0.2614628 -0.030337635 0.030474085 -0.046842214 -0.024135761 -0.015139003 -0.019695908
-0.0010459468 0.019155636 -0.06373681 0.023522716 0.04083157 0.02876825 -0.036033235 0.04818166
0.048744187 0.018355671 -0.13276361 -0.27464685 0.003482609 -0.24215445 -0.0072972393 0.031309605
0.035690602 -0.06672454 -0.035772562 -0.028043415 0.049161423 -0.016493004 -0.18256393 -0.13169071
0.030928688 -0.03808972 0.05259991 0.03580981 0.033493727 -0.0048929993 -0.019056037 -0.037679937
0.042072106 -0.116726026 -0.02559028 0.0143104205 0.016785443 -0.11594371 -0.013376293 -0.015936067
0.032259565 -0.034155767 -0.115496665 -0.027207078 0.0060981456 -0.063549146 -0.028374972 -0.12845711
-0.11329126 -0.17049384 0.014159544 0.054034166 -0.046796955 -0.055714298 -0.059368856 -0.09628882
0.02579331 -0.23890595 -0.0016962513 -0.09635588 -0.05177289 -0.036729973 -0.15657598 -0.14934883
00000000: 604c ab3b 0521 acbc 0323 54bd 42ff 833c
00000010: 11bc c33c 8cfe 873e 120a 8cbb dc36 0d3d
00000020: fff3 93bf 7a24 dc3c 67a2 bfbe 447e 85bd
00000030: 9d08 1ebd 715d 8f3d 26ae 183e 17e7 593d
00000040: 7268 6b3c ea54 6b3d 2ddf eebb f1fb 393d
00000050: a85b 5bbd 34af f6bc 24a4 233d c8f4 a63d
00000060: ed24 2c3d 34bc 823e bc74 f2bd b104 70be
00000070: 96cc 52bd 5f1b 243d 7d19 813d 16eb 26be
00000080: 9e62 79bd 5279 a93e 6f6a 79bb e439 a6bc
00000090: 3645 88bd 101d 00bd 91fe 66be 350a c6be
000000a0: 5f62 91bd 8cfb f63d 192a 313d 8791 873d
000000b0: f494 8fbd 6407 073e 2690 9cbd 4d62 9dbd
000000c0: 559f 063c 633c 503e 10e4 2e3d e0e0 a23d
000000d0: 57ca 65bd a170 2ebe dd5b d8bc 8ae8 953d
000000e0: f21c 1fbd 496b 013d f3af 5f3d 0786 a4be
000000f0: 2a94 82bc 7632 2dbd 78ec 1d3e ca94 e13c
00000100: 98c3 0bbd 62d9 f4be b689 873c de20 13bc
00000110: 18bd fd3d 569f 863a 6121 1b3e 6f29 8dbd
00000120: 5192 733d 449c c7bd e6a4 053d ab2a d6bd
00000130: 9e62 793d 100a 46bd 7fc0 813d 8234 46bc
00000140: 8f4e 53bd e70f 60be 17ad f33b c9e2 e43c
00000150: 1093 a63d 2c05 053d a834 1d3d fa64 32bd
00000160: 00f8 94bf fb4c 33bc ba33 b2ba 7761 10be
00000170: d584 c73b dd6f 353d 18e6 083e 2cd8 a13c
00000180: 09c9 013e e4d2 2bbe 5833 c3b9 a185 083e
00000190: 6061 65bd e0ae 433c d336 7f3d 4772 f83c
000001a0: 40a9 4c3d 9a57 3bbd 0fc7 0dbd e27f 87bc
000001b0: f3e8 00bf b2e2 d23d f730 63bd 3d5f 8dbd
000001c0: b92b 85bd 77e3 ddbc cb66 a23d 17a3 23be
000001d0: 1022 eabb 6cb3 223d 39a5 14bd b63b 31bc
000001e0: 3f54 373d 09e8 303d 3873 b9bc fb03 633d
000001f0: babd 7e3d 47eb 5d3c b46e 21bd 206e 78bd
00000200: 7a00 69be 730c 50bc 8a1a 4d3d 7dc2 06bd
00000210: 27fc 74bd 7a64 4fbd 428a 033d 12d4 a2bd
00000220: 111b 823d 7035 42bd f3e9 3c3d 3647 05be
00000230: 35b6 05bd eb11 3d3c 7e73 37bd bd60 5cbd
00000240: d2e4 0c3c efc8 a7be 880d 013d 0983 163d
00000250: 0e4a e0bd 69ad 413d 47b7 25be e2cb 9bbd
00000260: bedb 073c 9c8e 0ebd 9c4f 583d 2766 82be
00000270: 36d0 3ebb dc09 d5be 286a 7bbd 8b87 18be
00000280: 2a6d 91bd e1bd 8bbd 4676 f23d f725 96be
00000290: 6c78 79bd d6f5 493b f625 883d 2fed 08bd
000002a0: 97bf 543d 1467 f538 defe 793d dd3d 0f3e
000002b0: 4f93 7abd ce81 dd3c da78 873c bedb 873c
000002c0: 07ee 49bc e6a1 b63c b50c 073d 58c6 00be
000002d0: 2ff8 23bd f0ab 9cbd c58b 783d 86c2 26bd
000002e0: 00f9 afbe 74de 85be a286 f8bc caa4 f93c
000002f0: 9fdd 3fbd 5cb8 c5bc 9509 78bc 5059 a1bc
00000300: 2718 89ba 48ec 9c3c 7288 82bd b6b2 c03c
00000310: 013f 273d 65ab eb3c 9697 13bd 225a 453d
00000320: fca7 473d a25e 963c 2ff3 07be 839e 8cbe
00000330: 7c3c 643b 56f7 77be ae1d efbb 803e 003d
00000340: 4f30 123d e0a6 88bd 4086 12bd 4ebb e5bc
00000350: 7d5d 493d 561c 87bc 0af2 3abe eed9 06be
00000360: 295e fd3c f703 1cbd 0173 573d 4fad 123d
00000370: b830 093d 7455 a0bb 681b 9cbc 4756 1abd
00000380: cd53 2c3d 0e0e efbd b5a2 d1bc 4176 6a3c
00000390: a081 893c e573 edbd 3d28 5bbc 5b8c 82bc
000003a0: 9b22 043d ebe6 0bbd 8489 ecbd 61e1 debc
000003b0: f4d2 c73b 0e26 82bd a172 e8bc 438a 03be
000003c0: 4005 e8bd f095 2ebe 6ffd 673c ee52 5d3d
000003d0: 2aae 3fbd ad34 64bd c22c 73bd 1333 c5bd
000003e0: 7e4c d33c c3a3 74be c054 deba 3b56 c5bd
000003f0: cf0f 54bd 2b72 16bd 7455 20be e6ee 18be

fc3.bias f4 [2]
0.06630313 -0.08835386
00000000: efc9 873d def2 b4bd
