log/train_1_1k/models/320_actor.pt (torch_old, 249426 bytes, 6 tensors)

fc1.weight f4 [300, 4]
00000000: 5a1b a43e 0d86 90bd a178 81bf cbdb 15bf
00000010: 27c6 78be 2db6 713d 985d 883f e790 cc3c
00000020: f8bc 34bd b081 e03d 0f90 b8bf 7736 01bf
00000030: 4b77 87be 23d4 26be 820d fabe f4f7 183f
00000040: 57db 82be eb97 8f3e c5b7 45bf d0e7 4f3e
00000050: 4464 48be 499f 443e ab94 403f 86b8 253f
00000060: cc73 52be 8b0b f6be 6a75 103e 9c7d 13bf
00000070: a6fe c03e 386f 0a3e f1ee 1f3e 3ae4 27bf
00000080: ed0e 973e f015 64bd c60b 94bf 33d8 b63e
00000090: 61fe 4ebe 8ff9 c73e a8f9 3b3e 09f5 283f
000000a0: f25c f4bd 85a0 cdbd 9760 88be 1215 75be
000000b0: 9d25 a73e 404e 2dbe 88a0 6f3f 6d47 bd3e
000000c0: e92f babe e886 75be 0f34 f53e 7755 293e
000000d0: 0a1c 1ebe 0a52 91be 3853 503f 00b2 a03e
000000e0: 0734 b43e 23de 803e 13bb cdbd 9e1b 393e
000000f0: 3321 4d3e 1577 1abd 72e5 a03f 8d12 80bf
00000100: 0d4d 12be 111b 683e ec9e bc3e 4b9e 233f
00000110: 7936 763e 281f 1b3e 08dc 483e 1a36 353f
00000120: c270 56be e276 8dbe 7da4 65bf f1ff 973d
00000130: 95b3 6bbe aa7e 04bf d7d0 a9be 5c61 103f
00000140: d9b1 833e 2bf0 eb3e 525c 943d a4a2 2dbf
00000150: 3007 793e f883 59bd 69b6 88be 8056 48bf
00000160: 67ee 99be 53a8 ddbe 130c 69bf 748c e73e
00000170: 80e7 d43e 8e11 debe 2a9b 9bbe fb9c 833e
00000180: b0d0 0a3f f991 f1bd db7b 853f 8038 2cbf
00000190: 8242 d63d 1a3c 9f3d 200e 79bf 8b46 d4be
000001a0: d1ca 273e c540 dfbd 6f53 3bbf 495f b33d
000001b0: a66d 1ebd fb36 513e 3f62 b0be f5f9 073f
000001c0: 6725 af3e ff9b be3e 9343 a53e c693 0dbd
000001d0: 9e91 b1be e096 9abe dff4 51bf c74a bc3e
000001e0: fe56 94be e1cb 753e 6ae2 9c3f 350b 6b3d
000001f0: 58ce 393d e090 55be eaab 2abf 943d f43e
00000200: f5a9 ae3e 811c 6d3d d463 bbbe 6ed1 ecbe
00000210: add0 67be d91f b5bc 0d8f c73e 015a 503b
00000220: cc78 953d d525 9a3e 70fe 003f 3205 a63e
00000230: 973b 4fbe 6feb ddbe 84dd eb3e db8c 4dbe
00000240: 3ec3 80bb 9b58 b2be 185d e2bd aac5 e0be
00000250: 711b 66be 9446 b3be 7e98 2b3f 59d7 063f
00000260: 9ad4 5a3e 85d8 60be cdb2 543d b867 813e
00000270: 2f9f 8ebe ef42 b43e e35f 713f 8298 ad3e
00000280: 7f0e 743d ebbd c53e 551e 4abf fcf7 1cbf
00000290: a44a 5bbe 124c a3bd 8b5e edbd da55 803e
000002a0: 5e9f f13d 28a8 d2be c8a8 efbc 062d 71be
000002b0: 0792 b03e 4474 cdbe 6725 223d 18e1 413d
000002c0: 7004 833c 9811 023f ab09 f3be c23f 8abe
000002d0: 9e33 d6bd bee0 d43d 29eb 29bf f2aa 763f
000002e0: d2d8 b8be e4cb c03e f466 9d3e c3b9 783f
000002f0: 738a 903e dd4d b4be 9655 07bf 7b09 5bbe
00000300: 7896 8a3e 689f e33c 477c 02bf d02c 2c3f
00000310: 6b44 31bd 8579 883e bac2 453e 100c c23c
00000320: b3fe 80bd 1109 febe 7bdd 0e3f f1be 433e
00000330: 2eef 3bbd 43cf c7be 0c54 57bd 0a28 f73e
00000340: a54a 623e 1ef0 c53d 66c1 83bf b25e aebd
00000350: 6a15 e23e 4e23 8dbd 336a debe c71b 76be
00000360: a8f1 81be db59 92be 75a9 82be c208 b3be
00000370: 1dcf 43be 8701 8cbd ed33 71bf dca9 09be
00000380: d64c d33e 2ea7 42be 12a2 813f df43 073f
00000390: 2ae6 3a3e 3bb5 4d3e d91d 0cbf a9ff c23e
000003a0: f83f 3a3e cad3 e93e 5d27 04bf ef06 43be
000003b0: 0e53 a83e 1809 6f3e 9dbe 923e e019 acbe
000003c0: 9a51 e33d 04d7 ddbe f9ec 593e cec7 ac3e
000003d0: 971d 3c3d 18f5 3d3e 4ff4 8ebe 2084 39bf
000003e0: 4c02 20be 4c21 c7be 6881 cdbe 1198 863c
000003f0: fa30 1dbe 727e 053d 11cf 953f bd32 a8be
0.32052118 -0.07056818 -1.0114938 -0.585385 -0.24294339 0.059011627 1.0653563 0.024971439
-0.044125527 0.10962236 -1.4418963 -0.5047373 -0.264582 -0.16291861 -0.4883843 0.59753346
-0.25557968 0.28045592 -0.77233535 0.20303273 -0.19569498 0.19201387 0.7522685 0.64734685
-0.20551986 -0.48055682 0.1410729 -0.5761354 0.3769428 0.13518989 0.15618493 -0.6558262
0.29503575 -0.055684984 -1.1566093 0.35711822 -0.20214225 0.39057586 0.18356955 0.65998894
-0.119317904 -0.10040382 -0.26636192 -0.23933819 0.32645884 -0.16924381 0.93604326 0.36968556
-0.36364678 -0.23977244 0.4789128 0.16536509 -0.15440384 -0.28382903 0.8137698 0.31385803
0.35195944 0.25169477 -0.10045447 0.18076941 0.20032196 -0.03771122 1.2570021 -1.0005661
-0.14287205 0.22666575 0.36839998 0.6391341 0.24044217 0.15148604 0.19615185 0.7078568
-0.20941451 -0.27629763 -0.89704114 0.07421864 -0.23017724 -0.51755774 -0.33167145 0.5639856
0.25721624 0.4608167 0.07244171 -0.67826295 0.24319148 -0.05310437 -0.26701668 -0.7825699
-0.300647 -0.43292484 -0.9103405 0.45224345 0.4158287 -0.43372768 -0.30391818 0.25705704
0.5422468 -0.1179542 1.0428423 -0.6727371 0.10461904 0.07775135 -0.9728718 -0.4146007
0.16385962 -0.10901026 -0.73174185 0.087584086 -0.038678788 0.2043113 -0.34449956 0.5311578
0.34208223 0.3722839 0.32278118 -0.034564756 -0.3468141 -0.30193233 -0.8201427 0.367758
-0.2897262 0.24003555 1.2256596 0.057383735 0.0453628 -0.20856047 -0.6666857 0.4770323
0.34114042 0.05788851 -0.365996 -0.46253532 -0.22638197 -0.022109913 0.38976327 0.0031791928
0.07298431 0.3010699 0.5038824 0.3242584 -0.20237575 -0.43343684 0.4606744 -0.20073263
-0.0039295247 -0.34833226 -0.110529125 -0.43900806 -0.22471406 -0.35014784 0.6702956 0.52672344
0.21370164 -0.21957596 0.05192833 0.25274444 -0.27855822 0.35207316 0.94286937 0.33905417
0.059584137 0.38621458 -0.78952533 -0.61315894 -0.21415192 -0.07973494 -0.11590298 0.250655
0.11797975 -0.41143918 -0.029255286 -0.23552331 0.3448641 -0.40127766 0.03958645 0.047333807
0.015993327 0.50808096 -0.47468314 -0.27001768 -0.10459064 0.10394429 -0.6637445 0.9635459
-0.3610292 0.37655556 0.3074261 0.9715845 0.28230628 -0.35215655 -0.5286497 -0.21390335
0.27067924 0.027785972 -0.5097088 0.6725588 -0.04327814 0.26655212 0.19312564 0.023687392
-0.0629858 -0.49616292 0.558067 0.19115807 -0.045882396 -0.39025316 -0.052570388 0.48272735
0.22098787 0.09664939 -1.0293396 -0.085141554 0.44156963 -0.068914995 -0.434404 -0.24034034
-0.25379682 -0.2858418 -0.2551991 -0.3496762 -0.19121976 -0.06836229 -0.9421986 -0.13443702
0.4126956 -0.19009086 1.0127585 0.5283794 0.18251863 0.20088665 -0.54733044 0.38085678
0.18188465 0.45669395 -0.51622564 -0.19045614 0.32875866 0.23343313 0.2866105 -0.3361349
0.11099549 -0.43328106 0.21281804 0.3374619 0.045926657 0.18550527 -0.27920768 -0.7246723
-0.15625876 -0.3889259 -0.40137792 0.016429933 -0.15350714 0.03259129 1.1703817 -0.3285121

fc1.bias f4 [300]
00000000: 4e30 923e d58e 3ebf 6549 8c3e 7d34 b3be
00000010: 8b50 ccbe f358 b3bd 4383 22be 5d62 90bd
00000020: 0730 c73c 63b1 45bf eb92 7c3f bee3 63bf
00000030: 5f42 55bf 5e84 ea3e d588 b2be c50a 693f
00000040: 910b 8dbf b9c8 013f 583c a73b 6860 37bf
00000050: 72ab b1be dbd6 d63e 3724 39be c917 103c
00000060: 2500 2ebe 5568 833e aa31 3f3f fc63 c9be
00000070: 6aa2 73bf 98a5 1bbf 180b 973e 1d0d 2c3f
00000080: f533 81be 23f8 7bbf 201a 123f 4870 253f
00000090: 28d2 e2be cd6f 483f d951 c53e 8523 f4bd
000000a0: ef77 d43d c208 19bf 2519 043f 6260 6cbf
000000b0: fe8f b83e a80c 98be 0910 6c3d bd23 813c
000000c0: 71ff eebe e828 2fbf b723 d53e 01bb 25bf
000000d0: 3d31 53bf 961e aa3e 9b5b 4b3f 0368 3d3f
000000e0: 51a1 3f3f c7ab 9abf fefa 05bf 5d3c 3abf
000000f0: af25 e23e e968 3e3e 4203 20be 0455 1fbf
00000100: c5a7 0abf fbff c6be 271a 9c3e 88cc 10bf
00000110: 9ca9 fe3e a12d f1bd 47ad 23bf 4ff2 acbe
00000120: 43a0 d83d 9250 88bf 1235 993e 9380 2fbf
00000130: 3266 203e d881 3a3f 6e8b f8be 31a6 4abf
00000140: c716 963f 082c 8bbf a4af de3e 643e 423d
00000150: 5cf0 f73c adb9 fd3c 59ae 8abf 98b3 cf3e
00000160: 13c6 18be 4af1 e33e 49e3 84be 92e0 dfbe
00000170: 6146 803f b107 523f abc0 623f 746b 2dbe
00000180: 43cf 2f3d 90f7 d43e 755d e4be 8db3 5cbf
00000190: 9779 e23e 7438 4e3f 5bb1 363e 2807 d93e
000001a0: 9cf4 ad3e 1678 6dbe f7ec 09be bf60 4bbf
000001b0: af56 d13c 94c3 bebe 4143 8e3d d997 81be
000001c0: ee1c 0e3f 84b0 71bf 480e 093d 6113 60bf
000001d0: 9f38 753f 82d4 0dbf 6350 16bf 6b0f 56bf
000001e0: 0e21 223f 9288 6c3f e6eb 5e3e f6b5 dcbe
000001f0: 904d 0fbe 34b3 24bf b6bc d13d a5f8 1f3e
00000200: 91fe 7b3f e6fd e73e dce7 c7be b3c1 0fbf
00000210: 6533 b53e ebfb 073f c708 23bf 0a75 6fbf
00000220: 9c0b aebe acf5 e2be 05a2 8f3f bf1d 2b3f
00000230: b8d1 13bf 20e8 a1bf f22f 41bf e465 6ebc
00000240: 557f e4be 1052 3c3f eca7 473f 25b8 793f
00000250: 7452 3d3f 8e6f 033f 0ae3 23bf acde bc3e
00000260: 91e4 413f bc3d 933e 23ac 21bf 56ee bfbe
00000270: bf12 c0be fa66 223f 21d2 4d3f 4d03 e73e
00000280: 2e06 563e 512f d63e 8bdc 123f c272 90be
00000290: d4f3 f7bd dd89 f03e 6d42 5fbe 2a29 323f
000002a0: 3a19 97bd 62c2 283f aaba 903f f5c0 583d
000002b0: cdae 2b3f c305 8bbe 5ef9 35bf d854 98bc
000002c0: 4c18 1c3f aea5 a63e a32a f13e 3d65 12bf
000002d0: fb27 55bf 8133 a6be 8e5e 403f 3e31 1d3f
000002e0: 2177 343f 0f8f cd3d 012b 09bf 5257 783f
000002f0: 8fb3 d3be 3166 fc3e 58b8 bbbe cff1 7bbf
00000300: 2a06 57bf 57a6 a53f 6a76 f8be 249f 4ebf
00000310: cde9 bcbe 0de2 edbe b118 313e 3362 febd
00000320: 7f85 bf3e 79ac 963f a504 48bf 6ceb 1f3e
00000330: 3002 703f 8cd5 e23e db67 babe 6eee 543f
00000340: aca9 4ebe 4241 f1be 0dcf a2be 695a 80bf
00000350: 725d 56bf 4ca9 c3be b9bc 17be a9b8 923e
00000360: 2c0f 503f 91d8 fabe e76c 3f3f 22e6 f6bd
00000370: 8647 323f 3cc0 f6be 1832 363f aa1c 1cbf
00000380: d23c 5e3e 38b0 20bf 8642 0cbf 2315 c83e
00000390: e36f 6ebf 1fa3 443f 5b95 a2be 4356 c33c
000003a0: ef4f 11bf 874c 6fbf 3f16 76bf 7676 473f
000003b0: 09e6 6abe 85b6 39bf 516b 6ebe 28d7 75bf
000003c0: 6a8f c93e 3852 42bf b40b c03e cf0d 67bf
000003d0: ae4c fdbe 8bbd 9cbd 520f 0abf 045e 33bf
000003e0: fdb3 c4bb a526 1d3f 30ed 50bf c604 e13e
000003f0: 5464 ed3d 645f 613e 1b2b 173f 8910 1f3f
0.2855248 -0.74436694 0.27399746 -0.35000983 -0.399052 -0.087572 -0.15870385 -0.07050011
0.024314893 -0.77223796 0.9866168 -0.8901938 -0.833044 0.45804113 -0.3487002 0.9103206
-1.1019155 0.50696903 0.005103629 -0.7163148 -0.34701115 0.41960797 -0.18080221 0.008794733
-0.16992243 0.25665537 0.74685156 -0.39334095 -0.951697 -0.6079955 0.2950065 0.6720751
-0.25234953 -0.984255 0.57071114 0.6462445 -0.44300961 0.78295594 0.38539007 -0.11920837
0.10374438 -0.5977899 0.5160087 -0.9233457 0.36047357 -0.29697156 0.05763248 0.015764112
-0.4667926 -0.68421793 0.4162881 -0.6473847 -0.82497007 0.3322646 0.79436654 0.73986834
0.74855524 -1.2083672 -0.5233611 -0.7274836 0.44169375 0.18594708 -0.15626243 -0.622391
-0.54162246 -0.38867173 0.30488703 -0.5656209 0.49738777 -0.11776281 -0.63936275 -0.33778617
0.105774425 -1.0649588 0.29923302 -0.68555564 0.15663984 0.72854376 -0.48543876 -0.7915984
1.1725701 -1.0872812 0.43493378 0.04742278 0.03026598 0.030972326 -1.0834457 0.40566707
-0.1491931 0.44520026 -0.25954655 -0.4372602 1.0021478 0.82042986 0.8857524 -0.16935521
0.04292227 0.41595125 -0.44602552 -0.8621147 0.4423339 0.8055489 0.17841093 0.42388272
0.33975685 -0.2319034 -0.13469301 -0.794445 0.02555403 -0.3725859 0.069464214 -0.25311163
0.55512893 -0.94409966 0.033460885 -0.8752957 0.9578952 -0.55402386 -0.5871641 -0.83617276
0.6333169 0.9239589 0.21769676 -0.43107575 -0.13994431 -0.6433594 0.10241072 0.15622194
0.9843531 0.45310897 -0.39044082 -0.56154937 0.35390773 0.5311877 -0.6368527 -0.9353796
-0.33993232 -0.44328058 1.122132 0.66842264 -0.5774188 -1.2648964 -0.75463784 -0.01455066
-0.44628397 0.7356272 0.77990603 0.9754661 0.7395394 0.51342094 -0.6401831 0.36888635
0.7573939 0.28758037 -0.63153285 -0.37486523 -0.37514302 0.6343838 0.80398756 0.45119706
0.20900795 0.41832975 0.5736777 -0.28212553 -0.121070534 0.4698018 -0.21802683 0.6959406
-0.073778585 0.65921605 1.1306965 0.052918393 0.670636 -0.27152833 -0.7108363 -0.018595144
0.60974574 0.3254828 0.47102842 -0.5718573 -0.8326413 -0.3246117 0.7514428 0.6140326
0.70494276 0.10037052 -0.53581244 0.9700824 -0.4134793 0.49296716 -0.3666408 -0.98415846
-0.8399378 1.2941388 -0.48527843 -0.8071158 -0.36897126 -0.46461526 0.17294575 -0.12421074
0.37406537 1.1771384 -0.78132087 0.1561715 0.9375334 0.44303548 -0.3640736 0.83176315
-0.20181912 -0.471201 -0.31798592 -1.0027591 -0.83736336 -0.382151 -0.14818086 0.2865651
0.8127315 -0.48993352 0.74775547 -0.12055613 0.69640386 -0.48193538 0.71170187 -0.6098124
0.21702889 -0.6276889 -0.54789007 0.39078626 -0.93139476 0.76811403 -0.31754574 0.023844844
-0.56762594 -0.93476146 -0.96127695 0.7791513 -0.22939314 -0.7254413 -0.23283125 -0.9603143
0.3936723 -0.75906706 0.3750893 -0.90255445 -0.49472564 -0.0765334 -0.53929627 -0.7006533
-0.0060029016 0.6138709 -0.8161192 0.43948954 0.11591402 0.22009045 0.5905015 0.62134606

fc2.weight f4 [200, 300]
00000000: 5f7b 53bb 3939 0a3d 4f0f 2dbe 3082 4c3d
00000010: 8f39 a4bd e278 9ebd 7ba9 f53c 24a2 0e3d
00000020: 9d2e c93c ad66 bfbd b304 ec3c 7dbd 0ebc
00000030: cb9d 833d 3d2e dabc 269c 8fbc 5b59 a03d
00000040: 8c7f 51bc 2efb dbbc 6428 21bd ad3d 063c
00000050: b7fb 90bc 4e3c 90bc 145f a13c e108 6a3d
00000060: adcd 513c fa13 8bbd bfb0 79bd 7fab 91be
00000070: c24d d83c 7323 45bd 3503 be3d c9b1 55bd
00000080: 8b84 82bc 3363 033d e5a5 483d f99d 573c
00000090: 7167 1dbd d562 db3c 0134 30bd 5989 5fbd
000000a0: 9b57 3bbc b501 903d 188c cbbc e117 0b3b
000000b0: 7853 12bc 9c89 96bd eab9 a83d 51a1 143d
000000c0: 3b2d 0cbc 46bd acbe 098c 2fbd 22ba 0abd
000000d0: 26ec acbc 4c6c 4fbd ff5b 1b3c 035c e2bc
000000e0: 54c3 473d cf1a 4b3c 90b7 723d 799d 303d
000000f0: 8514 873d def7 acbb 39a7 693b 257c 78bc
00000100: 9470 3e3d 8398 0d3d 265e 36bd e528 48bd
00000110: 3e8c 913c 3e94 65bd 1f4f 07bc 5229 0c3d
00000120: a901 bbbd b767 1bbe 0bd5 463d 0af2 3abc
00000130: 3973 39ba 77d2 e73d e3e0 7e3d c9b1 55bc
00000140: b0ae 08bc 92ba 153d a708 c1bc 5db4 34be
00000150: 3651 06bd 859f 5abc d2ea 8b3d b479 183c
00000160: fe34 373d 46e4 903d d5ea 523d 0f22 88bc
00000170: 13ea 74bd 1de5 513d ec2a ab3c 81bb 00bd
00000180: b0c0 ccbd bd9e 353d 75e8 0ebd bd27 b4bd
00000190: 5347 4ebc fc7e 8e3c 7f89 253d 95be 863c
000001a0: 7ec4 dbbc 2ae6 f4bd 644f 053c 70ad cabd
000001b0: a554 6dbd 80c8 cc3c 69d7 c33b 0371 02be
000001c0: bb49 a0bb 522f 8bbb c912 e9bd f41d 6dbd
000001d0: a0dd 24bc 6649 06bb 1603 06bd 357a 3f3d
000001e0: e850 7abc 38b1 12bc 287f 1bbd f859 38bc
000001f0: 94d7 50bd d794 36bd 1e9a ac3d d767 53bd
00000200: 6dfe 6e3c a161 f2bd 59f0 71bb 844f bdbc
00000210: f4af 0dbe 2298 1ebd d2e4 8c3d fdb2 bebc
00000220: 4064 a63c 0d57 3f3d bbce f43c c39d 753d
00000230: 3531 ef3c edf2 50be a570 5a3c d749 91bd
00000240: b564 f83c 42e8 73bc 1903 4dbd 1398 82bd
00000250: 83c7 45bd 480c c33c 4d37 98bd be92 b73a
00000260: f493 20bb 5407 20bd 28eb a5bd 6bff 753d
00000270: 6e95 873d 75ef db3c cb92 0cbd a18c 00bd
00000280: f3a6 6b3e 2c82 853d 2c07 dabc ec75 d0bc
00000290: d213 453d 6b43 4ebd eb74 02be 98ca cbbc
000002a0: b0ae 08be abc8 593d 8bb8 32bd 4562 98bc
000002b0: 05ef d0ba 7753 923c 521a 6b3c 6a8e 73bd
000002c0: 851a 863d fde6 eebc 7b6a cebb e407 63bd
000002d0: 89e0 1d3b f66b b5bc a934 1dbd a46b 62bc
000002e0: 4c32 20bd 2908 e13a 32e8 d73c d429 33bd
000002f0: f3f4 333d 614b 143d 29be c2bc ce4d 2d3d
00000300: 46ea 8fbc b011 71bd 9693 78bd b8f5 91bc
00000310: fa9b 023d 857b 993c 8465 2b3c 3e87 99bc
00000320: 82de babb 0383 c63d a266 6abd d9d8 d5bc
00000330: 0550 64bb a369 0dbd 8ec4 77bd a2f4 60bd
00000340: 9f04 893c 88a3 cbbe 2542 493c 6793 a43c
00000350: 268b 99bd 1199 89be d8a4 25bd eb1a bcbb
00000360: b907 56bd 0129 39bd b879 df3c 054e 8fbc
00000370: dca2 97bd 4137 43bd 7106 8abc 8b59 74bd
00000380: 292a cd3d de19 99bd b5e1 f83c 210a 283d
00000390: b237 cebd 05c0 983d 1492 03bd 1b4b 16be
000003a0: da5a ce3b 7111 81bd 3c32 04bf 61f1 4d3c
000003b0: b177 fc3b 26ca c03c 6f0e 5e3d 1925 39bc
000003c0: af31 88bc d466 853c 9ac9 c43c d4e9 043c
000003d0: 0b40 03bf af81 253d cffe ddbd c125 26bd
000003e0: 333e f4bc 73ab bc3d ce58 a43c ad95 77bc
000003f0: caa3 023d 9796 1b3d c2d4 81bd b580 e53c
-0.003226958 0.033745978 -0.16900371 0.049928844 -0.08018791 -0.077379 0.029988041 0.034822598
0.02455836 -0.09345756 0.028810835 -0.00871217 0.06426581 -0.026633376 -0.017530512 0.07829543
-0.012786757 -0.02685317 -0.03934516 0.008193416 -0.017698152 -0.01760688 0.019698657 0.057137374
0.012805385 -0.067909196 -0.060959574 -0.28451154 0.026404265 -0.04812951 0.092779554 -0.052171502
-0.015932342 0.032077026 0.048986334 0.013160222 -0.038428728 0.026780525 -0.043018345 -0.054574344
-0.011434461 0.070315756 -0.024847075 0.002122395 -0.008931033 -0.07350466 0.08238585 0.036286656
-0.008555706 -0.33738154 -0.042858157 -0.033868916 -0.021108698 -0.05064039 0.009482383 -0.027631765
0.048770264 0.012396528 0.05925709 0.043118928 0.06595711 -0.0052785715 0.003565265 -0.015166317
0.04649408 0.034569275 -0.04452338 -0.048867125 0.017767068 -0.056049578 -0.00825861 0.034219094
-0.09131176 -0.15176283 0.048543017 -0.011410246 -0.00070743595 0.1131944 0.062226187 -0.013042876
-0.00834243 0.03655488 -0.023563696 -0.17646928 -0.032792293 -0.0133436965 0.06831898 0.00930636
0.04472827 0.0707479 0.051493485 -0.016617803 -0.059793543 0.05124389 0.02089449 -0.031428818
-0.0999769 0.044340838 -0.034889657 -0.08796642 -0.012590247 0.017394535 0.04041433 0.016448298
-0.026827093 -0.11957963 0.008136604 -0.09896362 -0.05794205 0.02499795 0.0059766066 -0.12738423
-0.004891602 -0.0042475844 -0.11380536 -0.057889894 -0.010062605 -0.0020490526 -0.032717787 0.046747405
-0.015278079 -0.008953385 -0.037963063 -0.011251919 -0.05098684 -0.04457554 0.08427833 -0.0516127
0.014587027 -0.118350275 -0.003691694 -0.023109205 -0.13836652 -0.038719304 0.068795815 -0.023278708
0.020311475 0.046713877 0.029883733 0.059964906 0.029198268 -0.20405169 0.013332521 -0.07094162
0.030321458 -0.014886918 -0.050051782 -0.06376662 -0.048285972 0.023809567 -0.07432423 0.0014005525
-0.002450225 -0.03906949 -0.08101493 0.06005804 0.06620298 0.02684758 -0.03431968 -0.031384114
0.23012905 0.06518969 -0.026614748 -0.025446855 0.048114605 -0.050357264 -0.12739913 -0.024876878
-0.13347888 0.053169888 -0.043633025 -0.018601546 -0.0015940374 0.017862065 0.014349537 -0.05946199
0.06548027 -0.029162878 -0.0062993146 -0.055427447 0.0024090132 -0.022146206 -0.0383803 -0.013819609
-0.039110467 0.001716857 0.026355837 -0.043741062 0.043934774 0.0362047 -0.023772316 0.04231053
-0.017567765 -0.05885476 -0.060687624 -0.017817363 0.031887032 0.018735657 0.010461215 -0.018741246
-0.0057027945 0.09692957 -0.057226785 -0.026104378 -0.0034837734 -0.03452457 -0.060490184 -0.0549208
0.016725836 -0.39773202 0.0122838365 0.020089818 -0.074972436 -0.26874593 -0.04044041 -0.0057405136
-0.05225346 -0.04520512 0.02727972 -0.017493257 -0.0740411 -0.047660116 -0.016848775 -0.059655707
0.10017807 -0.07475637 0.030381063 0.041025285 -0.10069217 0.074585 -0.032121733 -0.14677088
0.0062974514 -0.06302155 -0.5163915 0.012569756 0.007704698 0.023533892 0.054212984 -0.011300349
-0.016625253 0.016284384 0.024021912 0.00811239 -0.51269597 0.04040688 -0.108396165 -0.04056335
-0.029814815 0.09212389 0.020061877 -0.015111369 0.031894483 0.03798541 -0.063394085 0.028015474

fc2.bias f4 [200]
00000000: 02c1 1f3d 297b eabc 9451 90bd 0448 063e
00000010: 5be3 ec3c a4d1 ce3e ea4f f3bd efbc 123d
00000020: 2871 b13e 6efc 313e 45fb 053f edd4 8ebd
00000030: cbba 2ebd b45f 573d 5423 8d3d 3224 af3d
00000040: 7c69 473c fc62 213d 1631 373b c783 24bd
00000050: 0012 ce38 92b6 eb3b 3940 663e d101 01bd
00000060: 2d68 6dbd f1d9 cd3e 81c5 88be 38e7 93bd
00000070: 1e31 1c3e 682b 833e c646 d2ba 2c05 853e
00000080: cd9e d1ba 3171 563e f8a2 88bd 018a 4dbe
00000090: 9722 833c 782a 3e3c 2bbd a83e 1642 b13e
000000a0: b1a8 993e 0d37 903e df63 b7bc 6fa2 d3bc
000000b0: f6e1 aabc c391 123d a755 61be e32f 8b3e
000000c0: e151 3a3d 77da 903e 54b1 03bd 12cf cc3e
000000d0: d27f b9bd 0fb0 013e c9b5 f73b 6607 5c3e
000000e0: 73e3 963c 64ab a0bc 96e9 3d3e bcc0 a13e
000000f0: bf27 7b3c c2d6 56bd 4ca0 e53e 9c11 0ebc
00000100: dc44 7bbd af37 073f bc3f 77bc 7003 143d
00000110: 9c4c 873e d5fb 483d 85cc ba3e ae38 4abc
00000120: 357a 3f3d a6b2 a43e e990 303e 259e 193e
00000130: 7943 eabb 85c3 4ebe 5407 a0bc 06b4 1a3e
00000140: ac61 b9be bccb 983c 60c2 3e3d 4d17 c83e
00000150: ba7e 463e a525 35bd 2cfa 0dbb cb30 3fbe
00000160: bf51 7b3e 0577 483c df18 123d 27eb 933e
00000170: 003a 2fbd 6f12 08bd 2456 923e fc91 59ba
00000180: 63d8 833e ea4d 1ebe df29 08bd 611b 933e
00000190: f48b 8b3e b081 253d 2ca0 c73b fbd3 c13d
000001a0: d45d 63bc 8909 d73c 8150 afbe ee64 1a3d
000001b0: f4e2 4d3e bf77 d6bd 4dc6 1cbe bc6c 38be
000001c0: 515c 42be 9b01 1fba 574c 313e 1ce1 6f3e
000001d0: 42f1 953c 1bf7 a03e 835b bbbc 2852 b8bc
000001e0: 0666 52bd 3397 153e 5bba b33b 7444 2abd
000001f0: 7f4c 53bd 02e5 60bb 3244 f3bc fdf4 dcbc
00000200: c6c8 f53e b2a3 d83c 8a36 3abd 7422 3e3d
00000210: b443 5cbc df86 f13c d336 7f3c 7956 073e
00000220: 96ed 3ebd 94e4 923c ef9b 2dbd 134f 6abe
00000230: 5f3d 793e 7bcc 573d b40d 0ebd c856 41bd
00000240: 74ab 3cbc a055 8d3e 3897 fabb c2f0 a73d
00000250: 78fd b43d 0b06 ea3d e285 eabe 3e4f 363e
00000260: 5341 cfbc 28b3 cbbc a163 c03d 8d31 b03e
00000270: 5296 91bd b988 803e 1881 54b9 53ed a0be
00000280: 55f9 e43d a1c3 29be 77fc 413e 21e5 073d
00000290: 7d81 1b3e 4064 a63c 8759 2dbd 3050 71bb
000002a0: ec57 8e3c a696 b73c f2b5 0c3d d6b8 77bd
000002b0: 74f9 043d b34d bcbc 30ec 193e 6623 70bb
000002c0: 80a5 92bd 54a5 cb3e fcd4 2a3d 4580 973e
000002d0: b934 b13d 961b 703e 772c aebc a6e5 8b3d
000002e0: 9df7 8e3e 89c7 e53e a666 303d aa24 133e
000002f0: cfce cebd c2b6 bfbd 479d 66be bd19 0cbd
00000300: 4c66 50bd d2a4 223e d0d6 723c 42e0 1f3c
00000310: b4e0 2a3c 0434 e63d 99ab 08be 6f51 af3b
0.039002426 -0.02862318 -0.0704681 0.1311341 0.028917005 0.40394318 -0.11880477 0.035824712
0.34656644 0.1738145 0.5233653 -0.06974206 -0.04265861 0.052581504 0.06891504 0.085518256
0.0121711455 0.03940104 0.0027952841 -0.040164735 9.826198e-05 0.007193395 0.22485436 -0.031495873
-0.057960678 0.4020534 -0.26713184 -0.07221836 0.15253112 0.25619054 -0.0016042821 0.25980508
-0.0015992761 0.20941617 -0.06671709 -0.20072176 0.016007705 0.011606805 0.32956824 0.34620732
0.30011514 0.28167 -0.02238649 -0.02583429 -0.0208597 0.03578354 -0.2200533 0.27184972
0.045488242 0.28291675 -0.032151535 0.40001732 -0.09057583 0.12664817 0.0075595123 0.21487197
0.018419003 -0.019612975 0.18546137 0.31592357 0.0153293 -0.052450903 0.4484886 -0.008671191
-0.061344966 0.5281934 -0.015090879 0.03613609 0.26425636 0.04906829 0.3648416 -0.012342615
0.046747405 0.32167548 0.17242779 0.15001734 -0.0071491566 -0.20191772 -0.019534744 0.15107736
-0.3620733 0.018651836 0.04657209 0.39080277 0.1938428 -0.044225354 -0.0021664007 -0.18670957
0.24542902 0.012235408 0.03566825 0.28890345 -0.042779922 -0.033220705 0.28581345 -0.00082996464
0.25751027 -0.1545941 -0.033243056 0.28731826 0.27255213 0.040406883 0.006092092 0.0946426
-0.013877351 0.026249664 -0.34241107 0.03769391 0.20106107 -0.104720585 -0.1531002 -0.18010229
-0.18980528 -0.0006065608 0.17314278 0.23425716 0.018303517 0.31438527 -0.022870785 -0.022500113
-0.05136683 0.14608459 0.005484862 -0.04156919 -0.051586624 -0.0034316187 -0.029695604 -0.026972288
0.4800474 0.026445244 -0.04546217 0.046419576 -0.013443876 0.029483257 0.015577036 0.1321658
-0.0466133 0.01793126 -0.042385038 -0.22881727 0.24339817 0.052685242 -0.034681037 -0.0472019
-0.011515487 0.2760439 -0.007647421 0.08200218 0.08837408 0.11426934 -0.4580527 0.17803666
-0.025299704 -0.024865702 0.09394003 0.34412804 -0.071087494 0.2510431 -0.00020265987 -0.31431064
0.11180369 -0.16578533 0.18943964 0.0331775 0.15186115 0.020311475 -0.042321708 -0.0036821477
0.017375909 0.022410702 0.034353204 -0.060479008 0.03246446 -0.022986269 0.15031505 -0.0036642193
-0.07160473 0.39774573 0.041707024 0.2959005 0.08652634 0.23448023 -0.021261437 0.06830911
0.2792329 0.44878796 0.043066643 0.14369455 -0.10098039 -0.0936103 -0.22520934 -0.034204233
-0.050878808 0.15883186 0.014821723 0.009758057 0.01042955 0.1124039 -0.1334671 0.005350284

fc3.weight f4 [2, 200]
00000000: 79d7 5f3b 745c 46bb 8cf0 1fbd 873a 853c
00000010: 11bc c33c dd2e b13e 120a 8cbb dc36 0d3d
00000020: 30ec 98bf f07b c33c 15b5 bdbe 447e 85bd
00000030: 8760 1abd 333a b13d 17d5 1b3e 05be 5a3d
00000040: 7268 6b3c ea54 6b3d 2ddf eebb f1fb 393d
00000050: a85b 5bbd 34af f6bc c6a4 173d c8f4 a63d
00000060: ed24 2c3d 2ec1 ac3e a370 0abe b57a 6bbe
00000070: 2700 80bd 149f 413d 7d19 813d 33b3 20be
00000080: 9e62 79bd 11de af3e 6f6a 79bb 595a 90bb
00000090: c034 87bd 101d 00bd 308e 5fbe e97a 0abf
000000a0: be1f 87bd 5929 623e c683 243d 4019 813d
000000b0: f494 8fbd 660f 1b3e baae adbd d320 92bd
000000c0: 559f 063c b39a 3f3e 10e4 2e3d 9815 de3d
000000d0: 89fc 49bd 0eb4 19be a416 1fbc a3c3 ae3d
000000e0: f21c 1fbd 496b 013d 1c92 b33d 840f 8fbe
000000f0: 2a94 82bc 7632 2dbd 5571 273e ca94 e13c
00000100: 0cc8 c9bc b369 29bf b689 873c 578c 31bd
00000110: 9787 2a3e 569f 863a 0cef 083e 783d 8fbd
00000120: 5192 733d 4cd6 84be 1e5e 023d 878f cdbd
00000130: 9e62 793d c45b 94bd 51bd 813d 4b29 7ebb
00000140: f18c 9cbd 7011 01be 0e85 a53b 2214 123d
00000150: 4881 bc3d 2c05 053d a834 1d3d b9db 05bd
00000160: f80e 93bf fb4c 33bc ba33 b2ba 7cbe 1dbe
00000170: d584 c73b dd6f 353d 6081 083e 2cd8 a13c
00000180: 09c9 013e e4d2 2bbe 5833 c3b9 3c5b 073e
00000190: f585 5ebd e0ae 433c d336 7f3d 962b f03c
000001a0: 40a9 4c3d 9a57 3bbd cfa7 32bd e27f 87bc
000001b0: f6de 1cbf 4a2c c33d b1ae 8bbd dba3 a4bd
000001c0: 4530 83bd 77e3 ddbc b09c aa3d 0bc9 32be
000001d0: 1022 eabb 425d 3d3d 39a5 14bd 0559 06bc
000001e0: 3f54 373d d963 2e3d 3873 b9bc fb03 633d
000001f0: babd 7e3d 47eb 5d3c b46e 21bd eb0b 95bd
00000200: e90a 65be 730c 50bc 8a1a 4d3d 7dc2 06bd
00000210: 8874 bfbd 7a64 4fbd 428a 033d dc63 90bd
00000220: 111b 823d 7035 42bd f3e9 3c3d 705e 0fbe
00000230: 0276 35bd 2569 0a3c 7e73 37bd bd60 5cbd
00000240: d2e4 0c3c 711c a9be 880d 013d 7f74 1a3d
00000250: f2ba fcbd 109f 3f3d a9d3 09be d4f0 b8bd
00000260: bedb 073c 9c8e 0ebd d071 723d 6f2a 6bbe
00000270: d7f7 21bb 1b7f c6be 286a 7bbd a1fb 94be
00000280: 0970 a7bd a6b6 aabd 4172 103e fab8 aabe
00000290: c627 94bd d6f5 493b f625 883d 2fed 08bd
000002a0: 97bf 543d 1467 f538 defe 793d 59dd 083e
000002b0: 4f93 7abd ce81 dd3c ebd1 063c bedb 873c
000002c0: 07ee 49bc 5151 2a3e b50c 073d 0144 74be
000002d0: efb4 37bd 88f1 93bd c58b 783d da53 6abd
000002e0: 4710 8dbe 2336 8bbe f701 e5bc 4b8a fc3c
000002f0: 571b 49bd 98d6 11bd f498 e1bc e657 94bd
00000300: 2718 89ba acc0 773c 7288 82bd b6b2 c03c
00000310: 013f 273d f305 e73c 11bd d7bc 17a8 383d
00000320: fca7 473d a25e 963c 2ff3 07be 839e 8cbe
00000330: 7c3c 643b 56f7 77be ae1d efbb 803e 003d
00000340: 4f30 123d e0a6 88bd 4086 12bd 4ebb e5bc
00000350: 7d5d 493d 561c 87bc 0af2 3abe eed9 06be
00000360: 295e fd3c f703 1cbd 0173 573d 4fad 123d
00000370: b830 093d 7455 a0bb 681b 9cbc 4756 1abd
00000380: cd53 2c3d 0e0e efbd b5a2 d1bc 4176 6a3c
00000390: a081 893c e573 edbd 3d28 5bbc 5b8c 82bc
000003a0: 9b22 043d ebe6 0bbd 8489 ecbd 61e1 debc
000003b0: f4d2 c73b 0e26 82bd a172 e8bc 438a 03be
000003c0: 4005 e8bd f095 2ebe 6ffd 673c ee52 5d3d
000003d0: 2aae 3fbd ad34 64bd c22c 73bd 1333 c5bd
000003e0: 7e4c d33c c3a3 74be c054 deba 3b56 c5bd
000003f0: cf0f 54bd 2b72 16bd 7455 20be e6ee 18be
0.0034155531 -0.0030267509 -0.039047763 0.01626326 0.023893388 0.34606066 -0.0042736614 0.034476146
-1.1947079 0.023862809 -0.37052217 -0.06518224 -0.037689712 0.08653679 0.15218006 0.053403873
0.014368163 0.057454027 -0.007289788 0.045406286 -0.053554207 -0.03011284 0.037022375 0.08152157
0.042027403 0.33741134 -0.1351953 -0.22996028 -0.06250029 0.04727085 0.0630369 -0.15693359
-0.060885064 0.3434911 -0.0038057824 -0.0044053015 -0.06601858 -0.031277716 -0.21831584 -0.54093796
-0.06597851 0.22086085 0.04016473 0.06303644 -0.070108324 0.15142593 -0.08480592 -0.07135167
0.008216699 0.18711357 0.042697966 0.108439624 -0.049313102 -0.15010092 -0.009709988 0.085334085
-0.038845964 0.031596456 0.087681025 -0.27941525 -0.01593979 -0.04228445 0.16351826 0.027536768
-0.024631523 -0.6617691 0.016545158 -0.04334673 0.16653286 0.0010270874 0.13372439 -0.06994146
0.05946571 -0.25944746 0.03182804 -0.10037141 0.060885064 -0.072440654 0.06334937 -0.0038781937
-0.0764407 -0.12604308 0.0050512617 0.03566373 0.09204346 0.032475635 0.038380295 -0.032680247
-1.1488943 -0.010943647 -0.0013595738 -0.15404695 0.006088833 0.044296134 0.13330603 0.0197564
0.12674345 -0.16779667 -0.00037231552 0.13218397 -0.05432697 0.011943549 0.062308144 0.029317658
0.049966097 -0.04573784 -0.043617066 -0.016540471 -0.6127771 0.09529932 -0.06820429 -0.080390655
-0.06405691 -0.027086003 0.08330667 -0.17459504 -0.007145174 0.046231516 -0.03629038 -0.008199935
0.044758078 0.04257569 -0.022637948 0.055423718 0.062192656 0.013544864 -0.039412215 -0.07277664
-0.22367443 -0.012698281 0.050074138 -0.032900322 -0.093483984 -0.05063293 0.032114275 -0.07050297
0.06352819 -0.047414243 0.04612155 -0.14000869 -0.044301994 0.00844792 -0.044787876 -0.053803194
0.008599477 -0.33029512 0.031507045 0.037708756 -0.123403445 0.046782553 -0.13459648 -0.09030309
0.008292137 -0.03480397 0.05919057 -0.22965406 -0.0024714374 -0.3876885 -0.061380535 -0.29098228
-0.08175666 -0.08335619 0.14106084 -0.3334425 -0.07234149 0.0030816696 0.066478655 -0.03342932
0.051940527 0.0001170171 0.061034076 0.13365687 -0.06117564 0.027039435 0.008228759 0.016584273
-0.012324817 0.16632582 0.032971103 -0.23854066 -0.044850286 -0.07223803 0.06068017 -0.057208873
-0.2755148 -0.2718974 -0.027955038 0.030827662 -0.04909834 -0.035605043 -0.027538754 -0.07243328
-0.0010459468 0.01512162 -0.06373681 0.023522716 0.04083157 0.028201079 -0.026335271 0.045082178
0.048744187 0.018355671 -0.13276361 -0.27464685 0.003482609 -0.24215445 -0.0072972393 0.031309605
0.035690602 -0.06672454 -0.035772562 -0.028043415 0.049161423 -0.016493004 -0.18256393 -0.13169071
0.030928688 -0.03808972 0.05259991 0.03580981 0.033493727 -0.0048929993 -0.019056037 -0.037679937
0.042072106 -0.116726026 -0.02559028 0.0143104205 0.016785443 -0.11594371 -0.013376293 -0.015936067
0.032259565 -0.034155767 -0.115496665 -0.027207078 0.0060981456 -0.063549146 -0.028374972 -0.12845711
-0.11329126 -0.17049384 0.014159544 0.054034166 -0.046796955 -0.055714298 -0.059368856 -0.09628882
0.02579331 -0.23890595 -0.0016962513 -0.09635588 -0.05177289 -0.036729973 -0.15657598 -0.14934883

fc3.bias f4 [2]
00000000: de2a 2f3e def2 b4bd
0.17106196 -0.08835386
