log/train_1_1k/models/320_critic.pt (torch_old, 251025 bytes, 5 tensors)

fc1.weight f4 [300, 6]
0	0xbe5c8b09	-0.21537413
1	0x3e9a3c6b	0.3012422
2	0x3f5e7ad9	0.869062
3	0x3ee90230	0.4550948
4	0xbf489b0f	-0.783616
5	0x400acc62	2.1687245
6	0x3e571fa6	0.21008167
7	0x3e24b528	0.1608473
8	0xbea8c5d3	-0.32963428
9	0x3f52cc2a	0.8234278
10	0x3e341fab	0.17590205
11	0xbe07442f	-0.13209604
12	0x3cf6ebe3	0.030141776
13	0x3db167c8	0.08662373
14	0xbec220c1	-0.37915614
15	0x3e56d9b3	0.20981483
16	0xbf30228e	-0.68802726
17	0xbe269443	-0.16267495
18	0xbdcaf83f	-0.099106304
19	0xbdc1174b	-0.09428271
20	0xbede3b3b	-0.43404564
21	0xbfc986ad	-1.5744225
22	0xbe130e62	-0.14360955
23	0xbf76a4d8	-0.9634528
24	0x3f0d9700	0.5530853
25	0xbd4717bf	-0.04860663
26	0xbf839e2d	-1.0282646
27	0xbc33822b	-0.010956327
28	0xbf006065	-0.50147086
29	0x3e751529	0.23933853
30	0xbe392195	-0.18079217
31	0x3e1379cf	0.14401935
32	0x3e71f5f7	0.23628984
33	0xbe2bd25b	-0.16779463
34	0xbf737b00	-0.9510956
35	0x3ea82bb5	0.32845846
36	0xbe5ca34d	-0.2154667
37	0x3ef74626	0.48295707
38	0x3bb5fb5c	0.005553646
39	0xbfe9d2d8	-1.826747
40	0xbef7c0af	-0.48389193
41	0xbe80550a	-0.2506488
42	0x3e846a8d	0.25862542
43	0x3e37bb67	0.17942582
44	0xbdc6f84f	-0.0971533
45	0xbf44826d	-0.76761514
46	0x3f43d324	0.7649405
47	0xbf5d7d7f	-0.86519617
48	0xbdd46163	-0.103701375
49	0x3ee21896	0.44159383
50	0x3f0afa4e	0.54288185
51	0xbfd094c2	-1.6295397
52	0x3e8875be	0.2665233
53	0xbfa86e47	-1.3158654
54	0xbd9f4409	-0.077766486
55	0x3e1dbf36	0.15404972
56	0x3f52599a	0.8216797
57	0x3fbba61b	1.4660066
58	0x3f9a8446	1.2071617
59	0x3fa9dfd5	1.3271433
60	0x3cfbd78e	0.030742433
61	0x3eedcddb	0.46446118
62	0x3ed6c7da	0.4194935
63	0x3e8eebb9	0.27914217
64	0x3f62b3d0	0.8855562
65	0x3e8925bb	0.267866
66	0x3e538aa2	0.20658353
67	0xbe88c5ac	-0.26713312
68	0x3f3fc646	0.74911916
69	0xbe9af0b1	-0.30261758
70	0xbebb43ac	-0.36575067
71	0x3d8234cd	0.06357727
72	0xbf025b9d	-0.5092104
73	0x3e60f5e3	0.21968798
74	0x3f0c91ee	0.5491017
75	0xbf764be8	-0.96209574
76	0x3fb565f5	1.417174
77	0xbf62e375	-0.8862832
78	0xbe668e68	-0.22515261
79	0x3e1429bc	0.14469045
80	0xbfc2f3b2	-1.523062
81	0x3faf6eb8	1.3705664
82	0x3e821c72	0.25412327
83	0xbda919e9	-0.08256895
84	0xbe0a4f2a	-0.13506761
85	0x3ee78a01	0.45222476
86	0xbe4f56b3	-0.20247917
87	0x3e49b294	0.19697028
88	0xbf46007c	-0.7734449
89	0x401c4984	2.441987
90	0xbe225508	-0.1585275
91	0x3d4472fe	0.047961228
92	0x3e9dbfda	0.30810434
93	0xbd7602ba	-0.060061194
94	0x3dec755e	0.115458235
95	0x3f035f29	0.5131708
96	0x3e8a1abe	0.26973528
97	0xbd04994f	-0.03237277
98	0xbda9b6a8	-0.08286792
99	0x3f3ba9f7	0.7330622
100	0x3d34072b	0.04395215
101	0x3e837c50	0.2568078
102	0x3c9350d6	0.017982882
103	0xbe004cb9	-0.12529267
104	0xbf927aa5	-1.1443678
105	0xbf922879	-1.1418601
106	0xc0018800	-2.0239258
107	0xbf4e0c0c	-0.8048713
108	0xbc886d31	-0.016653629
109	0xbdaab8c8	-0.083360255
110	0xbf6e10d5	-0.92994434
111	0xbed26294	-0.41090834
112	0xbfb1a130	-1.3877316
113	0x3c10d43a	0.008839661
114	0x3e9d5e51	0.3073602
115	0x3e1eb845	0.15499981
116	0x3f8eb175	1.1147906
117	0xc085b921	-4.1788487
118	0x3e7c2c03	0.24626164
119	0xc01a2b41	-2.40889
120	0x3d6dd97c	0.058068737
121	0x3c84b83f	0.016201137
122	0x3f4f529d	0.8098543
123	0xbf8b20be	-1.0869367
124	0x3e815eaa	0.25267535
125	0xbe11ee05	-0.14250953
126	0xbce311c3	-0.02771843
127	0x3c17f85d	0.009275523
128	0xbf6d7673	-0.92758864
129	0xbf20801f	-0.626955
130	0xbf004b8b	-0.5011527
131	0x3f3059c4	0.6888697
132	0xbe1d74d0	-0.15376592
133	0xbd9cb7c5	-0.07652239
134	0xbee4c81b	-0.44683918
135	0xbcc4ebba	-0.024038184
136	0xbd9b0008	-0.07568365
137	0xbf7625f6	-0.96151674
138	0x3a7523ef	0.0009351363
139	0x3e8982cf	0.26857612
140	0x3ecab422	0.39590555
141	0x3eff7d6b	0.49900374
142	0xbe956299	-0.29176787
143	0x3f04fdad	0.5194958
144	0x3ed02c66	0.40658873
145	0x3dbcbdb6	0.09215872
146	0xbf49e8c6	-0.7887081
147	0x3fd320d4	1.6494393
148	0xbeae0fbb	-0.33996376
149	0x3fbc3526	1.470372
150	0x3d86c095	0.06579701
151	0x3cbbb473	0.022913193
152	0xbe28ffc8	-0.16503823
153	0xbe8a8550	-0.27054834
154	0x3dfbf085	0.12301735
155	0xbf3823e1	-0.71929747
156	0xbd48b886	-0.0490041
157	0xbe52b85b	-0.20578139
158	0x3e75aca2	0.23991635
159	0x3dc7ac48	0.09749657
160	0x3deee6e0	0.1166513
161	0xbea724bc	-0.32645214
162	0x3cee07c7	0.029056443
163	0x3ebdb1d9	0.3704975
164	0xbe50d4db	-0.20393698
165	0xbde0f983	-0.109850906
166	0xbe0b5c74	-0.13609487
167	0xbf090226	-0.53518903
168	0xbeb8321a	-0.35975724
169	0x3e53759e	0.20650336
170	0xbf918915	-1.1369959
171	0xbed94680	-0.424366
172	0xbf6937a8	-0.9110055
173	0xbf27d3be	-0.6555747
174	0xbe714c91	-0.23564364
175	0x3f14cc76	0.5812448
176	0x3e5c3220	0.21503496
177	0x3f524c59	0.8214775
178	0x3fbde93e	1.4836805
179	0xbe00f10b	-0.1259195
180	0x3dcb3e84	0.09924033
181	0x3e2f3557	0.17110191
182	0xbf2051c9	-0.62624794
183	0xc00e1466	-2.219995
184	0xbf5c2688	-0.85996294
185	0xc0071fec	-2.1113234
186	0x3d793e04	0.06085016
187	0xbd8e6696	-0.069531605
188	0x3dbbe525	0.09174565
189	0xbec358d5	-0.3815371
190	0xbfd73cb0	-1.6815395
191	0xbf78e6c4	-0.9722712
192	0x3d100854	0.035164192
193	0x3f5e42af	0.868205
194	0x3f3f11ea	0.7463671
195	0xc0a4c2c0	-5.148773
196	0xbe30e26e	-0.17273876
197	0xc0254c88	-2.582796
198	0xbdf8d070	-0.12149131
199	0x3f12466d	0.5713871
200	0x3e5b3f42	0.2141085
201	0xbfb1353f	-1.3844374
202	0x3ef18a65	0.471759
203	0xbfc0e4e0	-1.5069847
204	0x3bee2861	0.007267997
205	0xbd8d2a13	-0.06892791
206	0xbf77568e	-0.96616447
207	0x3dc9f8a1	0.09861875
208	0xbfb6b452	-1.4273779
209	0x3eca9f27	0.3957455
210	0xbe436b9a	-0.19084015
211	0x3d71cfdc	0.05903612
212	0x3f33123b	0.6994969
213	0xbe93fd1f	-0.28904054
214	0x3eac7bf3	0.33688316
215	0x3ea9b4f2	0.33145863
216	0xbcff51aa	-0.03116687
217	0xbe1c114f	-0.15240978
218	0x3d1554ea	0.036457933
219	0x3ea61ccc	0.32443845
220	0xbdd4a4b3	-0.103829764
221	0x3f40a37e	0.7524947
222	0xbd926200	-0.07147598
223	0x3d52ec69	0.05149499
224	0x3da69db7	0.081355505
225	0xbf0df81b	-0.55456704
226	0x3fb77ff1	1.433592
227	0xbf45bb13	-0.7723858
228	0x3eaba79b	0.3352631
229	0x3df4c1d9	0.11951036
230	0x3de4b026	0.1116641
231	0xbf722e3b	-0.9460179
232	0xc0049770	-2.071743
233	0xbe5b8839	-0.21438684
234	0x3d441499	0.047871206
235	0xbda0ad2f	-0.07845532
236	0xbed9ffd0	-0.42577982
237	0x3ead38e7	0.33832476
238	0x3ea981a6	0.33106726
239	0xbed2c675	-0.41167036
240	0xbdd4a72b	-0.10383447
241	0x3eb6b57d	0.3568534
242	0xbfae17ba	-1.3600991
243	0x3f0b5c0f	0.54437345
244	0xbe888771	-0.26665834
245	0x3f682b3c	0.9069097
246	0x3d572948	0.052529603
247	0x3d1911b6	0.037370406
248	0x3eaf0800	0.3418579
249	0xbeba7272	-0.3641544
250	0xbe61566c	-0.22005624
251	0x3da0c900	0.07850838
252	0x3c81fd66	0.0158679
253	0xbd467516	-0.048451506
254	0x3f280482	0.6563188
255	0xbf9cfc80	-1.2264557

fc1.bias f4 [300]
0	0xbfa99ef6	-1.3251636
1	0xc0316222	-2.7716146
2	0x3d88efe2	0.06686379
3	0xc02bc773	-2.6840484
4	0xc085a428	-4.1762886
5	0x4045fadb	3.093436
6	0xbba94cbb	-0.0051666177
7	0xbfd0e48e	-1.6319749
8	0xbe366927	-0.1781355
9	0x406057d2	3.5053601
10	0xc0721ceb	-3.783015
11	0x40659df7	3.5877664
12	0x40152044	2.3300943
13	0x4043dc74	3.0603304
14	0xbebc97ea	-0.3683465
15	0x405f7a59	3.4918425
16	0x404563bf	3.084213
17	0xc050a3ed	-3.2600052
18	0xc05b9923	-3.4312217
19	0x3f62b235	0.8855317
20	0x40875902	4.229615
21	0x40815ed7	4.042827
22	0xc023b1c8	-2.557726
23	0xc082fc27	-4.0932803
24	0x3f74848e	0.9551476
25	0x403bbbb7	2.9333322
26	0x40394049	2.8945487
27	0x408016ae	4.0027685
28	0x3edc865b	0.43071255
29	0xbffc1fe0	-1.9697227
30	0x408490df	4.1426845
31	0xc02e62a1	-2.7247698
32	0x3f1f0643	0.6211893
33	0xbcdec6eb	-0.02719446
34	0xc081487c	-4.040098
35	0x406cfe0c	3.7030058
36	0xc0cedf40	-6.464752
37	0x3fbb155f	1.4615897
38	0xbffc8ff9	-1.9731437
39	0x40034601	2.0511477
40	0x3fb3a2ce	1.4034059
41	0x4051d005	3.2783215
42	0x3e2b6025	0.16735895
43	0x3fbb5385	1.4634863
44	0xbf33e157	-0.70265716
45	0x4078921e	3.8839183
46	0xbf953cb7	-1.1659154
47	0xbf5cf40e	-0.863099
48	0x404324ed	3.0491288
49	0xbebddcb5	-0.3708245
50	0x3f997451	1.1988622
51	0x4055ab08	3.338564
52	0x3e077173	0.13226871
53	0x4022494e	2.5357242
54	0xc0ae7550	-5.4518204
55	0xbfe67f6a	-1.8007634
56	0x3f9abc05	1.2088629
57	0x3fa585de	1.2931478
58	0x3f681dfd	0.9067076
59	0xc0b94cd0	-5.7906265
60	0xbdec96af	-0.11552178
61	0x4022e88f	2.5454443
62	0xbf89f129	-1.0776721
63	0x3fccd2df	1.6001853
64	0x4082b673	4.0847716
65	0x4032c3e6	2.7932067
66	0xc03f420f	-2.988407
67	0xbeae7672	-0.34074742
68	0x408808c1	4.2510686
69	0x405b2bbc	3.4245443
70	0x3fb5e3cf	1.4210147
71	0x403f9cd2	2.9939466
72	0x40559960	3.3374863
73	0xbffa3d66	-1.9549987
74	0xc0198a3a	-2.3990617
75	0x3e49feeb	0.1972615
76	0x405a427a	3.4103074
77	0x3fad2688	1.3527384
78	0x4004d053	2.075215
79	0xc08a6de9	-4.325917
80	0x38fde1ce	0.000121060395
81	0x3fcdeec3	1.6088489
82	0x3f4465ae	0.7671765
83	0x405aeb07	3.420595
84	0x404df482	3.2180486
85	0x4015688c	2.334506
86	0xbff8aa07	-1.9426888
87	0xbf8f9e60	-1.1220207
88	0x4006529c	2.098792
89	0xc0047a74	-2.069974
90	0xbfac9a14	-1.3484521
91	0x4035c48d	2.8401215
92	0x3f36f70e	0.71470726
93	0x402832b7	2.6280954
94	0x3ffdafa8	1.9819231
95	0x3ffe9945	1.9890524
96	0x40831696	4.096507
97	0x3f79f8da	0.9764534
98	0x3fe341d8	1.7754469
99	0x404fd074	3.247098
100	0x3f29dbb0	0.6635084
101	0xc0a064a9	-5.0122876
102	0xbf233b69	-0.6376253
103	0x3fa32a14	1.2747216
104	0xbfc006eb	-1.5002111
105	0x3e4b1edc	0.1983599
106	0xc06078a6	-3.5073638
107	0x405e6af2	3.4752774
108	0x3f8c73fe	1.0972898
109	0x406391e4	3.5557795
110	0x402e3cab	2.7224529
111	0x409fa12b	4.988424
112	0x4052b07b	3.2920215
113	0x406cfa1c	3.7027655
114	0xbf4ff6bb	-0.81235856
115	0x40538af8	3.305357
116	0x3f42c40f	0.7608041
117	0xc04b7e33	-3.1795776
118	0x3f85110e	1.039583
119	0x4036e87a	2.8579392
120	0x3e2fc2e3	0.17164187
121	0x40323ec3	2.7850807
122	0xc037e9db	-2.8736484
123	0x3ec57b8f	0.3857083
124	0x402419fe	2.5640864
125	0x4001a733	2.02583
126	0x4082f5bf	4.0924983
127	0x402be043	2.6855628
128	0x402ffbe4	2.7497492
129	0x404e2f63	3.2216423
130	0xbff2e09e	-1.8974798
131	0x3f37261e	0.7154254
132	0x405f5584	3.4895945
133	0xbef42c15	-0.47689882
134	0x40b99b4a	5.800206
135	0x3ed12ee6	0.40856093
136	0xc00f700e	-2.2412143
137	0x407db6cc	3.964282
138	0xc0142366	-2.3146605
139	0x40480f61	3.1259387
140	0xc084bd49	-4.148106
141	0xc0675efa	-3.615172
142	0x402b5fa8	2.6777134
143	0xc03519f2	-2.8297086
144	0xc08e3a18	-4.4445915
145	0x4049a2fc	3.1505728
146	0x403ed229	2.9815772
147	0x403c2600	2.9398193
148	0x40811171	4.033379
149	0x3f28ff4b	0.66014546
150	0xc06cdede	-3.7011027
151	0x404d6aec	3.209651
152	0x40612992	3.5181623
153	0x3fcb2518	1.5870695
154	0xbf818455	-1.011851
155	0x4079cb96	3.903051
156	0x3f5e61f2	0.868682
157	0xc0a775a8	-5.2331123
158	0x403aa383	2.91623
159	0x407e8d19	3.977362
160	0x3f4cc890	0.79993534
161	0x4026a922	2.604073
162	0x407d23ad	3.9553025
163	0x401cd7ee	2.4506793
164	0x405c8c57	3.4460657
165	0xc036d61e	-2.8568187
166	0x40734008	3.8007832
167	0x3f8496bf	1.0358504
168	0x402e2c17	2.721441
169	0xc01764fa	-2.3655381
170	0xbebfda7a	-0.37471372
171	0xc06d043d	-3.7033837
172	0xc004f821	-2.0776446
173	0x4090d515	4.526011
174	0xbfb771e7	-1.4331635
175	0x402ded43	2.7176063
176	0xbff17069	-1.886243
177	0x409ba1a3	4.863481
178	0x408a433e	4.3207083
179	0xbfe0f6aa	-1.7575276
180	0x3fc9c4d5	1.5763193
181	0x407a2d55	3.9090168
182	0xbf3b3d16	-0.73140085
183	0x4078113a	3.8760514
184	0x4038adcf	2.8856084
185	0x3fd681f3	1.6758407
186	0x401c8984	2.4458933
187	0x3f2f0c9f	0.68378633
188	0x4047906d	3.11819
189	0xc01f9257	-2.4933069
190	0x3faac48a	1.3341229
191	0x403ab568	2.9173222
192	0xbfae0629	-1.359563
193	0x3fd21d47	1.6415185
194	0x40461791	3.0951884
195	0xbea51a5e	-0.3224668
196	0x408ee1d9	4.4650693
197	0x4064e224	3.5763025
198	0x3f6bb59e	0.92074
199	0x4052081d	3.2817452
200	0x3dd9124d	0.10599194
201	0x40b99a30	5.8000717
202	0xbe63f29f	-0.22260521
203	0xc08a67e7	-4.3251834
204	0x40306f14	2.7567797
205	0xbfcfa121	-1.6221048
206	0x3f45b901	0.7723542
207	0x3fdd1e13	1.7274803
208	0x3e2e86ee	0.17043659
209	0x40418074	3.0234652
210	0xbfcd7a22	-1.6052897
211	0xbff01c18	-1.8758574
212	0xc05c06d6	-3.4379172
213	0x3d5648c5	0.052315492
214	0xc02a8d24	-2.6648645
215	0xc0c2f379	-6.092221
216	0x405f3405	3.48755
217	0x3fe2fe2f	1.7733821
218	0xc01cb997	-2.4488275
219	0x3f9e8f53	1.2387489
220	0x4028adcd	2.635608
221	0xc05d64f9	-3.459288
222	0x4025a87e	2.588409
223	0x3f88ba37	1.0681828
224	0x40a7a7aa	5.239217
225	0xc0bdec43	-5.9350905
226	0xbf6f91b8	-0.93581724
227	0xc032ceda	-2.7938752
228	0x4066cd06	3.6062636
229	0xbfd9977f	-1.6999358
230	0xc029aab7	-2.6510446
231	0x406324b1	3.5491145
232	0x3c9c8c70	0.019109935
233	0xc03eb8d2	-2.9800305
234	0xc031015c	-2.765708
235	0xc0577c22	-3.3669515
236	0x4081f831	4.061547
237	0xc030e5d4	-2.7640276
238	0x40524088	3.2851887
239	0xbee642fe	-0.44972986
240	0x405af08a	3.4209313
241	0xc03fffc2	-2.9999852
242	0x407afae3	3.921563
243	0xbeb69149	-0.3565772
244	0x40584dbc	3.3797445
245	0xc0509485	-3.259065
246	0xc074b673	-3.8236358
247	0x3e98c230	0.29835653
248	0x4060d057	3.512716
249	0x400d7150	2.210041
250	0xc0878f0c	-4.236212
251	0x40090e34	2.141492
252	0x404d06fc	3.2035513
253	0xbfaca7c4	-1.3488698
254	0xbc5f9d09	-0.01364828
255	0x3fc47f60	1.5351372

fc2.weight f4 [200, 300]
0	0xbd445770	-0.04793495
1	0xbc7e17b0	-0.015508577
2	0x3b2e59b0	0.002660375
3	0xbd3ca8da	-0.046059467
4	0x3d30937c	0.043109402
5	0xbd0bac52	-0.034099884
6	0xbd251f06	-0.04031279
7	0xbc9f76cb	-0.019465825
8	0xbc9bcd48	-0.019018784
9	0xbbace1b8	-0.005275931
10	0xbd6c676c	-0.05771582
11	0xbd2e094f	-0.042489346
12	0xbcb5a8a0	-0.022175133
13	0x3d144779	0.036200974
14	0xbd51ad17	-0.051190462
15	0xbd32629b	-0.04355107
16	0xbbbfb0e6	-0.0058499454
17	0x3d29ee84	0.04148723
18	0x3d0713da	0.032977916
19	0xbc5ffcc0	-0.0136711
20	0x3b877dfe	0.0041348925
21	0xbd4b0748	-0.04956749
22	0xbd68e6a7	-0.056860592
23	0x3cc54ccc	0.024084471
24	0xbd2a09dc	-0.04151331
25	0xbd724e19	-0.05915651
26	0xba6f8b0f	-0.0009137848
27	0x3d09c7f0	0.03363794
28	0x3c0c8afa	0.0085780565
29	0x3a153000	0.00056910515
30	0xbc693ba8	-0.014235415
31	0xbd40b986	-0.04705193
32	0xbd37b1ff	-0.044847485
33	0xbcc94024	-0.024566717
34	0x3d41bc84	0.047298923
35	0xbd791097	-0.060806837
36	0xbcd5e89e	-0.026111897
37	0xbceced12	-0.028921638
38	0x3ba450ff	0.0050145383
39	0xbd5bd41e	-0.053669088
40	0xbd67c9b3	-0.05658884
41	0xbd287f53	-0.04113705
42	0xbd602472	-0.054722257
43	0x3c624170	0.013809547
44	0xbc75d15c	-0.015003528
45	0x3c1852a4	0.009297047
46	0x3d64aac0	0.055826902
47	0xbd63dbe0	-0.05562961
48	0x3ccc2470	0.024919719
49	0xbd122498	-0.03567943
50	0xbb5a09a0	-0.0033269897
51	0x3cfe67ca	0.03105535
52	0xb80af000	-3.312528e-05
53	0xbd9a5a2f	-0.075367324
54	0x3c524418	0.012833618
55	0xbd4730c8	-0.048630506
56	0xbd321c4b	-0.043484014
57	0xbd147272	-0.036241956
58	0x3cc8f9b8	0.024533138
59	0xbd308f9b	-0.043105703
60	0xbd1f5f5b	-0.038909297
61	0x39b35c9b	0.00034210537
62	0xbc352868	-0.011056997
63	0x3ca3187d	0.019909138
64	0xbcc029ff	-0.023457525
65	0xb7a41667	-1.9560755e-05
66	0x3cc45ef0	0.023971051
67	0xbd78689e	-0.060646646
68	0xbd93b6f1	-0.07212628
69	0xbd062e0e	-0.032758765
70	0x3c94a151	0.018143328
71	0x3bf81e65	0.0075719827
72	0xbc2f1ac0	-0.01068753
73	0xbd42a6e6	-0.047522448
74	0xbd6b02e3	-0.0573758
75	0xbca0a77c	-0.019611113
76	0xbbfb1438	-0.0076623224
77	0xbd5c688e	-0.05381065
78	0xbaa7ac62	-0.0012792463
79	0x3c5e5de8	0.013572194
80	0xbbab9c35	-0.005237127
81	0xbd1489e2	-0.036264308
82	0x3d08f117	0.033433046
83	0x3d06d605	0.03291895
84	0x3cc16a4f	0.023610262
85	0x3ce17a0c	0.027524017
86	0xbd481175	-0.048844773
87	0x3cd9c4c3	0.026583081
88	0xbcf7e3ce	-0.030259993
89	0xbc338b7c	-0.010958549
90	0xbd3528c9	-0.04422835
91	0xbbc3cbb2	-0.00597521
92	0x3ca8ac50	0.020589978
93	0xbd7134d8	-0.058888286
94	0xbd408707	-0.047003772
95	0x3c2ac4a8	0.010422863
96	0xbd009859	-0.03139529
97	0xbd68f771	-0.056876604
98	0xbbf19680	-0.0073726773
99	0xbc15e973	-0.009149897
100	0x3ce5367d	0.027980084
101	0x3cfa2dc0	0.030539393
102	0xbae4ec46	-0.0017465435
103	0x3cdb4974	0.026768424
104	0xbd0bf2a3	-0.034166943
105	0xbc28e650	-0.010308817
106	0x3d0eb3f0	0.03483957
107	0xbd356fde	-0.044296138
108	0xbc8bae70	-0.017050952
109	0xbd0c2d3b	-0.034222823
110	0x3cf2c730	0.029635996
111	0xbd811559	-0.063029
112	0xbd950aca	-0.072774485
113	0xbc080a9f	-0.0083033135
114	0x3d5a2b88	0.05326417
115	0xbd431be9	-0.04763404
116	0x3d0d13b3	0.034442615
117	0xbd492f6d	-0.049117494
118	0xbb8bb422	-0.004263417
119	0xbceb83cb	-0.028749367
120	0xbd182f7d	-0.037154663
121	0xbc1bc960	-0.009508461
122	0x3cf0ae84	0.02938009
123	0xbbb160ca	-0.0054131495
124	0x3c1c55ff	0.009541987
125	0x3cdfe718	0.027331874
126	0x3c6e622d	0.014549774
127	0xbd80c351	-0.06287254
128	0xbd16dba4	-0.03683056
129	0xbda0612c	-0.07831034
130	0xbbdacc70	-0.006677203
131	0xbce5d6a6	-0.028056454
132	0xbd288723	-0.0411445
133	0x3d6adc4e	0.057339005
134	0x3a8effe4	0.0010910002
135	0x3c93a368	0.018022254
136	0x3d011b9e	0.03152048
137	0xbd00dac1	-0.03145862
138	0xba99e120	-0.0011740066
139	0xbd4cdc09	-0.05001453
140	0xbd1b5430	-0.037922084
141	0xbd5af5a0	-0.053456903
142	0xbd84f58d	-0.064921476
143	0x3cd0d004	0.025489815
144	0x3d250540	0.04028821
145	0x3cda842c	0.026674353
146	0xbc7bc7e9	-0.0153674865
147	0xbd86e5a6	-0.06586771
148	0xbc80dea9	-0.015731173
149	0x3cf7ef85	0.030265579
150	0xbca6e7f6	-0.02037428
151	0x3d0ceca2	0.034405358
152	0xbd0d07fb	-0.03443144
153	0xbceef69e	-0.02917033
154	0xbd2fb03a	-0.042892672
155	0xbda097dc	-0.07841465
156	0xbd51316d	-0.051072527
157	0x3d326722	0.043555386
158	0xbd399e31	-0.04531688
159	0xbd1ec702	-0.038764007
160	0xbcb4d51a	-0.022074271
161	0xbd594bac	-0.053050682
162	0xbd6b1e3b	-0.057401877
163	0xbd89ef01	-0.067350395
164	0xbc515c65	-0.012778376
165	0xbc064e20	-0.008197337
166	0xbcc3eeda	-0.023917604
167	0xbd3e0e44	-0.046400324
168	0x3c1fa1c2	0.009743156
169	0xbd204ded	-0.039136816
170	0xbd58e2d4	-0.052950695
171	0x3d63e68d	0.055639792
172	0xbd4d27c5	-0.050086755
173	0xbccbc6b0	-0.024875015
174	0x3d069785	0.032859344
175	0x3d0055f0	0.031331956
176	0xbd4bd650	-0.04976493
177	0x3d040f13	0.03224094
178	0xbb664407	-0.0035135762
179	0xbcf77355	-0.030206362
180	0x3c8eb994	0.017422475
181	0xbd200754	-0.03906949
182	0x3d48b96e	0.049004965
183	0xbcdf5e61	-0.027266683
184	0xbbac0d7e	-0.005250632
185	0xbd1721f4	-0.036897615
186	0x3c4a43f6	0.012345305
187	0xbd809859	-0.06279058
188	0xbc7710dd	-0.015079704
189	0xbcd988e2	-0.026554529
190	0xbc4ebc83	-0.012618187
191	0x3c82c30a	0.015962142
192	0x3d6a7cb0	0.057247818
193	0xbcfa2b9a	-0.030538369
194	0xbd460aa4	-0.04834999
195	0x3c8611d8	0.01636593
196	0x3bcbaf3f	0.0062159593
197	0xbae409b5	-0.0017397912
198	0x3d105150	0.035233796
199	0xbd3135d2	-0.043264218
200	0x3c00e5b8	0.007867269
201	0xbd106f16	-0.03526219
202	0xbd27622a	-0.0408651
203	0xbc2516b4	-0.010076214
204	0x3d021ef9	0.03176782
205	0xbd101c5f	-0.035183307
206	0x3d1d1fce	0.03836041
207	0xbd156e0c	-0.036481902
208	0xbb158e30	-0.0022820346
209	0xbc9bf070	-0.019035548
210	0xbce71b3b	-0.028211227
211	0x3cffb7bc	0.031215541
212	0xbaf2b9a0	-0.0018518455
213	0x3c5bed68	0.013423301
214	0xbb603c10	-0.0034215488
215	0xbcf41414	-0.02979473
216	0xbd262d91	-0.0405708
217	0xbcd7cb0a	-0.026341934
218	0xbd6ade60	-0.05734098
219	0x3ce755c0	0.028239131
220	0xbd9e03b2	-0.077155486
221	0x3c09ef01	0.008418799
222	0x3c69b6d9	0.014264786
223	0xbd2d3c6e	-0.04229396
224	0xbd676130	-0.05648917
225	0xbbcc97b8	-0.006243672
226	0x3c3d9e20	0.0115733445
227	0xbb8b6cb8	-0.0042549036
228	0x3b2b696c	0.0026155366
229	0x3cbc3484	0.02297426
230	0x3c653810	0.013990417
231	0xbcadb747	-0.021205558
232	0xbceaf343	-0.02868045
233	0xbd43b442	-0.04777933
234	0xbd4a1e76	-0.049345456
235	0x3af4b940	0.0018670931
236	0xbd93a751	-0.072096474
237	0xbc53b3c8	-0.012921281
238	0xbd11f1d0	-0.035631
239	0xbcafa7a2	-0.021442238
240	0xbbbe8fd5	-0.005815486
241	0xbd3d7aa5	-0.04625954
242	0xbc98f6b6	-0.018672328
243	0xbd46852d	-0.04846685
244	0x3d147a41	0.036249403
245	0x3d3a6362	0.045504935
246	0x3cb82df0	0.022482842
247	0xbd4bca98	-0.049753755
248	0xbcd0470c	-0.025424503
249	0x3bd55ae0	0.0065110773
250	0x3d2a1594	0.041524485
251	0x3ce30013	0.027709996
252	0xbd0ac1f2	-0.033876367
253	0x3d324242	0.04352022
254	0xbca0abfa	-0.019613255
255	0x3cf2ef38	0.029655084

fc2.bias f4 [200]
0	0x3ca73f01	0.020415785
1	0x3e4a47de	0.19753978
2	0xbffeda21	-1.9910318
3	0x402083fc	2.5080557
4	0xbd176074	-0.03695722
5	0xbdc784d5	-0.097421326
6	0x3fe43ef0	1.7831707
7	0xbd9f7e9b	-0.0778782
8	0xbd30d042	-0.04316736
9	0x3ecf6863	0.40509328
10	0xbd8c7773	-0.06858721
11	0xbdbaa002	-0.0911255
12	0xbf94d41a	-1.1627228
13	0xbd744dd2	-0.059644528
14	0xbdc81945	-0.09770445
15	0x3c97e92c	0.018543802
16	0xbcd0b46d	-0.025476659
17	0xbd8c3123	-0.068453096
18	0x3e9a19e2	0.30097872
19	0x3f8704e5	1.0548369
20	0x4022aad6	2.541677
21	0x3f872fde	1.0561483
22	0x3ec66f7b	0.38756928
23	0x3c34e295	0.0110403495
24	0x3ea9562a	0.3307355
25	0x3b8e6f5c	0.004346771
26	0xbf056abd	-0.52115995
27	0x3f7908c6	0.9727901
28	0xbd3c22bb	-0.04593156
29	0x400feb58	2.2487392
30	0x3f6daa94	0.92838407
31	0x400d2d19	2.2058775
32	0x3d0ea224	0.034822598
33	0x4000dff0	2.013668
34	0xbd2bf60e	-0.041982703
35	0x3a576b31	0.0008217572
36	0x3f5680d0	0.837903
37	0xbfa68f39	-1.3012458
38	0xbf86be16	-1.052676
39	0x3fc86c3b	1.5658029
40	0x3ce43894	0.02785901
41	0xbd86aef6	-0.0657634
42	0x3f7e1e12	0.99264634
43	0xbd4c6ea9	-0.04991022
44	0x3cae4f9f	0.0212782
45	0xbc8d3ac4	-0.017239936
46	0xbeb208c3	-0.3477231
47	0xbe865906	-0.26239794
48	0x3f842ecf	1.0326785
49	0x3ccae037	0.024765117
50	0xbdc054f7	-0.09391206
51	0x3e2840d1	0.16430975
52	0xbce1cb7b	-0.027562847
53	0xbd96c04c	-0.073608965
54	0x3cb7e4c7	0.022447957
55	0xbd3c4fd6	-0.045974575
56	0x3cc9078d	0.024539733
57	0x3cd35c1e	0.02580076
58	0x3f193b26	0.5985588
59	0x3f337fc3	0.70116824
60	0xbd7a0a97	-0.061045256
61	0xbee766d4	-0.4519564
62	0xbf6d8af0	-0.92790127
63	0xbd30a54a	-0.043126382
64	0x4027958c	2.6185026
65	0x3cbf66ad	0.02336439
66	0xb82e288f	-4.1522606e-05
67	0x3ecb5536	0.39713448
68	0xbd596aec	-0.053080484
69	0x3e067075	0.13128836
70	0xbf9107a8	-1.1330462
71	0x3ec5def2	0.38646656
72	0x4017e2f3	2.373227
73	0x3f4277d8	0.7596412
74	0xbebb635d	-0.36599246
75	0x3d55d8d8	0.05220875
76	0xbb8e63a5	-0.0043453746
77	0xbd4f54db	-0.050618034
78	0x3fabafbd	1.3413006
79	0x4011c674	2.2777376
80	0xbf282192	-0.65676224
81	0xc01940ee	-2.394588
82	0x3f7c7747	0.986195
83	0xbc938041	-0.018005492
84	0x3ee33d08	0.443825
85	0xbfdf3dc0	-1.744072
86	0x401a0b87	2.4069536
87	0x3fe70326	1.8047836
88	0x3f4f7fd3	0.8105442
89	0x3d81c139	0.063356824
90	0xbf095a90	-0.5365381
91	0xbfaf16d8	-1.3678846
92	0x401dfdff	2.4686277
93	0xbf793acc	-0.9735534
94	0x3b7f8cc3	0.0038993813
95	0x3f5d58bc	0.8646352
96	0x402f7beb	2.7419384
97	0x3ba435a6	0.005011278
98	0x3e8923df	0.2678518
99	0xbd0a3551	-0.033742253
100	0xbd438179	-0.047730897
101	0xbd6f6016	-0.058441244
102	0x3c66ebfe	0.014094351
103	0x3fe9cf31	1.8266355
104	0x4003e2bb	2.0607135
105	0xbd58b73b	-0.052909117
106	0x3f268768	0.65050364
107	0xbd104806	-0.035224937
108	0x3fb605a5	1.4220473
109	0x3c90441d	0.017610604
110	0x3e1a69ce	0.15079424
111	0x3f11a7f8	0.56896925
112	0x3be91a98	0.007113766
113	0x3f6c2e9e	0.9225863
114	0xbdd6f690	-0.10496247
115	0xc008e948	-2.1392384
116	0xbdbfdfc6	-0.09368853
117	0x3f96d3d3	1.1783394
118	0xbd37543f	-0.044758078
119	0x401022f1	2.2521327
120	0x3c84e5ec	0.016222917
121	0xbda235ed	-0.07920442
122	0x3fec1c23	1.8446087
123	0x3fb88dc1	1.441826
124	0x3f287a29	0.658114
125	0x3f1babfb	0.60809296
126	0x3fd6e205	1.6787726
127	0xbdb1baa2	-0.086781755
128	0x3eda7c5c	0.42673004
129	0x3ff6fa74	1.9295182
130	0x3fe808dd	1.8127705
131	0x3c42e920	0.011896402
132	0x3ceaa139	0.02864133
133	0x401bd43c	2.4348288
134	0x3fdfee70	1.749464
135	0x3fef4e08	1.8695688
136	0x4027581a	2.6147523
137	0x40282d3c	2.627761
138	0xbcd8a79a	-0.026447106
139	0xbde9beaa	-0.114133194
140	0xbd4b68f0	-0.049660623
141	0xbd2b1f35	-0.04177781
142	0xbed7d0c3	-0.4215146
143	0x401c0e37	2.4383676
144	0xbd128640	-0.035772562
145	0x3e8230c9	0.25427845
146	0x3c71020f	0.014709963
147	0x3f96ed00	1.1791077
148	0xbdac348e	-0.084084615
149	0xbe81b96a	-0.25336772
150	0x3c765d2b	0.015036861
151	0xbd0883b8	-0.03332874
152	0x400f2c12	2.2370648
153	0x4013b8a5	2.3081448
154	0x3f27f453	0.65607184
155	0x3f635612	0.8880321
156	0x3cd3f477	0.025873406
157	0x3fd67081	1.6753083
158	0xbf9f5f5b	-1.2450975
159	0xbd0f80ce	-0.035034947
160	0x3fdfaa76	1.7473896
161	0x4014350d	2.315738
162	0xbd10829e	-0.035280816
163	0xbf652a69	-0.8951784
164	0xbd80e291	-0.06293214
165	0x3fa46184	1.284226
166	0x3f87fa68	1.0623293
167	0x3d03a59b	0.032140356
168	0xbfd04898	-1.6272154
169	0x4015f4a8	2.3430576
170	0xbdc1fad8	-0.09471673
171	0xbda769fa	-0.0817451
172	0x3fa0edcb	1.2572569
173	0xbc8d3236	-0.017235857
174	0xbc2d6d0f	-0.010585084
175	0x4017f142	2.3741002
176	0x3fb03557	1.3766278
177	0x3fa1ce46	1.2641075
178	0x3f24a957	0.6432089
179	0x3ed58e4b	0.41710123
180	0x3f163400	0.58673096
181	0xc03a6952	-2.9126782
182	0xbc0f4635	-0.008744766
183	0x3e99c1d5	0.30030695
184	0xbd98eafe	-0.07466696
185	0xbd3be823	-0.04587568
186	0x3c2450fe	0.010029076
187	0xc0177bcc	-2.366931
188	0x3efcc34d	0.49367753
189	0x3e34b4c7	0.17647086
190	0x401993ed	2.3996537
191	0x3ed22b6d	0.41048756
192	0xbd7f61cc	-0.062349126
193	0x3ff4a034	1.911139
194	0x3fadb833	1.3571838
195	0xbd118857	-0.035530414
196	0x3f98e279	1.1944114
197	0xbe789396	-0.2427505
198	0x3e9024dd	0.28153124
199	0xbf0ebe30	-0.55758953

fc3.weight f4 [1, 200]
0	0x3cba7cd9	0.02276461
1	0x3cfb0498	0.030641839
2	0x3d9a0373	0.07520189
3	0xbe80ab14	-0.25130522
4	0xbd0203a1	-0.031741742
5	0xbc807d01	-0.015684607
6	0xbe1c91f7	-0.15290056
7	0xbcd3d91e	-0.025860365
8	0xbd763233	-0.060106467
9	0xbfd10a5d	-1.6331288
10	0x3a5c83e7	0.0008411989
11	0xbabd99bb	-0.0014465371
12	0x3e19aa65	0.15006407
13	0xbcb5c9b5	-0.022190908
14	0xbc3fbc9e	-0.011702685
15	0xbc7e9a93	-0.015539783
16	0x3b535067	0.0032243968
17	0xbb70d330	-0.0036746971
18	0xbf9e6a14	-1.2376122
19	0x3d749422	0.059711583
20	0xbe2806e1	-0.16408874
21	0x3e0105b8	0.12599838
22	0xbeeff86e	-0.46869224
23	0xbdc1ad12	-0.09456839
24	0xbfcdfd19	-1.6092864
25	0x3b8c544a	0.004282509
26	0x3e6c471b	0.23074
27	0x3fb8fe08	1.4452524
28	0xbca47fdf	-0.020080505
29	0xbe1b094e	-0.15140268
30	0x3eafa378	0.34304404
31	0xbd959cfc	-0.07305333
32	0xbca8dd12	-0.020613227
33	0xbe9d25b2	-0.30692822
34	0x3bc87aed	0.0061181695
35	0xbb286013	-0.002569203
36	0xbf29d713	-0.663438
37	0x3ccf97c8	0.02534093
38	0x3caf373e	0.021388646
39	0xbd6fbd44	-0.058530107
40	0x3d3187d9	0.043342445
41	0x3c7e4c73	0.015521157
42	0x3e5e4c74	0.21708852
43	0xba722ed9	-0.0009238548
44	0x3c5c5505	0.013448005
45	0xbb0e966d	-0.0021757141
46	0x3cf63233	0.030053234
47	0x3d01e07a	0.03170822
48	0x3f843c13	1.0330833
49	0xbf8bd749	-1.0925075
50	0xb68f3e65	-4.268996e-06
51	0xbf75920b	-0.9592597
52	0x3cb160ca	0.021652598
53	0x3ad5f430	0.0016323384
54	0xbb901926	-0.004397529
55	0x3c9dfe44	0.019286282
56	0xbc66401e	-0.014053373
57	0xbd3ff34d	-0.04686289
58	0xbf2ad69a	-0.66733706
59	0xbfc513d2	-1.5396674
60	0x3cd1ba24	0.025601454
61	0x3d67a057	0.056549396
62	0x3d352265	0.044222254
63	0x3cd150ac	0.025551163
64	0xbe41cad1	-0.18925025
65	0x3b0c5062	0.0021410217
66	0x3d77284c	0.060341164
67	0xbf491498	-0.7854705
68	0x3ce9b6d9	0.028529571
69	0x4004af3b	2.0731952
70	0xbd0a26d7	-0.033728447
71	0xbf2f68e0	-0.685194
72	0xbe92ff9e	-0.28710645
73	0x3e0a21c8	0.13489449
74	0xbcafb028	-0.021446303
75	0x3c154949	0.009111711
76	0xbc378706	-0.011201626
77	0xbc8d0be3	-0.017217582
78	0xbeaec8b7	-0.34137508
79	0xbe03320b	-0.12812059
80	0x3d002af9	0.031290982
81	0x3d63521b	0.055498224
82	0x3ec3a76f	0.3821368
83	0x3aeab4c2	0.0017906653
84	0x3ecb0e87	0.3965952
85	0x3e0d3a64	0.13791806
86	0xbdeb0565	-0.11475638
87	0x3f376b12	0.7164775
88	0xbc8aecea	-0.016958673
89	0xbe18c7d4	-0.14919978
90	0xb99a0055	-0.00029373416
91	0x3d4d7461	0.050159816
92	0xbe119919	-0.14218558
93	0x3e2edb65	0.1707588
94	0x3b217e54	0.0024641948
95	0x3f0b77c4	0.5447962
96	0xbe50e716	-0.20400652
97	0x3ce9a351	0.028520258
98	0xbf00f231	-0.50369555
99	0xbc605c49	-0.0136938775
100	0xbd27a879	-0.040932152
101	0xbbc1f6ef	-0.0059193294
102	0x3bf8977d	0.007586418
103	0xbe713a95	-0.23557504
104	0xbcc9d50d	-0.024637723
105	0x3d54d31f	0.051959153
106	0xbe36d73e	-0.17855546
107	0xbc23d3fe	-0.009999273
108	0xbe00f653	-0.12593965
109	0x3ce8a951	0.028401049
110	0x3ac30090	0.0014877487
111	0x3f360647	0.7110333
112	0x3c7236a8	0.014783539
113	0x3e9f5abf	0.3112392
114	0xbf3d047c	-0.7383497
115	0x3ea2bea5	0.31786075
116	0xbcc4d16a	-0.024025638
117	0xbed2d74e	-0.4117989
118	0xbd234b45	-0.039866704
119	0xbd19e216	-0.037569128
120	0x3c735f89	0.01485432
121	0xbce190e3	-0.027534908
122	0x3f8c15ca	1.094415
123	0xbf0706be	-0.5274466
124	0xbeb5d294	-0.3551222
125	0x3f5cc1a3	0.86232966
126	0xbdb9c7bb	-0.09071299
127	0xbbbc5583	-0.0057474985
128	0x3ceddd5d	0.029036218
129	0xbf56c695	-0.8389676
130	0xbe63a880	-0.22232246
131	0xbcab137c	-0.020883314
132	0x3cafa378	0.021440253
133	0xbd89fc98	-0.067376316
134	0xbe0404bc	-0.12892431
135	0xbec93e64	-0.39305413
136	0xbe6f6d45	-0.23381527
137	0xbe4849a7	-0.19559346
138	0xbbec9d0b	-0.0072208694
139	0x3b01e079	0.0019817634
140	0xbcc6f833	-0.024288272
141	0xbd64ffcd	-0.055908013
142	0xbb154562	-0.002277695
143	0xb9ff3b52	-0.00048681587
144	0x3b016b4a	0.0019747787
145	0xbe5afa82	-0.21384624
146	0x3d2581af	0.04040688
147	0x3fb3c69a	1.4044983
148	0xbcc127e6	-0.023578595
149	0xbe584dc2	-0.21123412
150	0x3d02848a	0.03186468
151	0xbd12381f	-0.035698052
152	0x3edb9f9f	0.4289522
153	0x3e9b4e8f	0.30333373
154	0x3f0c47b6	0.5479692
155	0xc08f163c	-4.471464
156	0xbc22ca5d	-0.0099359425
157	0xbdbf81f8	-0.093509614
158	0xbb5626f9	-0.0032677038
159	0x3cf9c05f	0.030487237
160	0xbe76292d	-0.24039145
161	0xbe571dd4	-0.21007472
162	0x3d5c9386	0.053851627
163	0x3d34d10d	0.04414468
164	0x3d06c665	0.032904048
165	0x3f24811b	0.642595
166	0xbe529704	-0.2056542
167	0x3cf0c777	0.029391987
168	0xbac5dcc6	-0.0015095703
169	0xbd8f14c1	-0.0698638
170	0x3cb23f73	0.02175877
171	0xbc916cfe	-0.017752167
172	0x3c5413b7	0.0129441535
173	0xbc96f29f	-0.018426238
174	0x3c6c0c84	0.014407281
175	0xbe747c55	-0.23875554
176	0x3ed290f4	0.41126215
177	0x3f92d494	1.1471124
178	0xbf7afe26	-0.9804405
179	0x3eae161d	0.34001246
180	0x3eb17971	0.34662965
181	0x3e1de859	0.15420665
182	0x3c3cf5ab	0.011533181
183	0xbc994ca6	-0.018713307
184	0xbd110f3f	-0.03541493
185	0x3d164f02	0.03669644
186	0x3d0f9c25	0.03506102
187	0x3f107acd	0.5643738
188	0x3e596186	0.21228608
189	0xbe460428	-0.19337523
190	0xbde78392	-0.11304392
191	0xbfa59d08	-1.2938547
192	0x3cdbc096	0.02682523
193	0xbd9c20c2	-0.076234356
194	0xbdd92da7	-0.106044106
195	0x3d052c3c	0.03251289
196	0x3f15c5a4	0.585047
197	0x3f8e05e3	1.1095546
198	0xbf87ef46	-1.0619895
199	0x3e6bef12	0.23040417
