log/train_1_1k/models/340_critic.pt (torch_old, 251025 bytes, 5 tensors)

fc1.weight f4 [300, 6]
000000 72 d4 50 be 54 78 a6 3e c5 d2 8c 3f e9 0e 32 3f
       -0.20393541 0.32513678 1.1001822 0.69554
000010 26 3a 6c bf 07 c4 17 40 8d 0b 5d 3e c0 89 3b 3e
       -0.9227623 2.3713396 0.21586438 0.18314266
000020 3a db 09 bf 88 62 56 3f 70 6b 48 3e 6a 2b 6e be
       -0.5385014 0.83744097 0.19572234 -0.23258749
000030 ba 5a dd 3c 90 15 83 3d 03 f6 07 bf e9 8c 27 3e
       0.0270208 0.06400597 -0.5310976 0.16362347
000040 f7 e7 42 bf 42 8c 8b be b3 a5 8f bd cf 8e 59 bd
       -0.761352 -0.27255446 -0.070140265 -0.05311471
000050 f7 9b 8f be 9b 85 bd bf 2f 2f 1e be 12 87 6a bf
       -0.2804868 -1.4806398 -0.15447687 -0.9161235
000060 c5 3b 05 3f 02 bc 64 bd 10 63 6e bf 60 65 9b bd
       0.52044326 -0.05584336 -0.9311991 -0.07587695
000070 9e da f4 be 22 17 57 3d b8 26 04 be 2a 33 03 3e
       -0.47823042 0.052512296 -0.12905395 0.12812486
000080 6b 48 94 3c 0b 49 8f bd 63 0d 5c bf f3 e1 c2 3e
       0.018100938 -0.06996354 -0.85957927 0.3806301
000090 bf 26 50 be 48 de f4 3e b6 bd 8a 3e 6b c9 d6 bf
       -0.2032728 0.47825837 0.27097863 -1.6780218
0000a0 5a f3 18 bf a2 66 a3 be 2f 23 7d 3e a5 fd 5f 3e
       -0.59746325 -0.3191424 0.24720453 0.21874101
0000b0 ff 6b 34 be 4f ba 4f bf 87 96 6d 3f e3 6f 84 bf
       -0.17619322 -0.8114366 0.9280781 -1.0346645
0000c0 50 4c ea bd 5f ee 1b 3f d2 5e 01 3f db 34 9f bf
       -0.11440337 0.609106 0.5053531 -1.2438005
0000d0 94 16 91 3d dc d4 9a bf 7e 46 a1 bd 73 81 0a 3e
       0.070843846 -1.209621 -0.078747734 0.13525943
0000e0 7d 8f 84 3f 15 94 b2 3f f4 7e a6 3f c8 ab bd 3f
       1.0356289 1.3951441 1.3007493 1.4818048
0000f0 e6 cb bd bc 3f 45 eb 3e 27 fd 1d 3f 79 6a 6a 3e
       -0.023168515 0.45951268 0.61714405 0.22892179
000100 77 c2 54 3f 6d ad 51 3e 95 f4 49 3e 13 f3 85 be
       0.8310923 0.20476313 0.19722207 -0.26162013
000110 24 13 84 3f af e5 41 be 45 72 29 be 57 b6 23 3e
       1.0318341 -0.18935274 -0.16547497 0.15987526
000120 13 c3 fd be 97 71 63 3e b5 43 01 3f 81 5f 5d bf
       -0.49562892 0.222113 0.5049394 -0.8647385
000130 7d 43 b2 3f d8 bf 36 bf ad e3 42 be 88 8a 0c 3e
       1.3926846 -0.7138648 -0.19032164 0.1372472
000140 1e f9 cd bf 70 70 b6 3f ef 7f 6b 3e 64 17 75 bd
       -1.609165 1.4253063 0.22998022 -0.05983676
000150 37 68 1f be d6 94 e0 3e 7d 0b 26 3e 24 96 41 3e
       -0.15567099 0.43863553 0.1621532 0.1890493
000160 eb 71 7a bf bb 9f 1c 40 5b 55 07 be 6f f4 8f 3d
       -0.97830075 2.4472492 -0.13216154 0.07029044
000170 32 ac 18 3e 0e 44 b0 bd e0 fb b4 3d 67 5c 1d 3f
       0.14909437 -0.086067304 0.08837104 0.6146912
000180 ff 49 59 3e 33 50 83 bc 93 a7 79 bd 90 23 50 3f
       0.21219634 -0.016029453 -0.060950827 0.81304264
000190 da 24 cc bd a4 12 d1 3e c1 0c f5 3c fc 85 de bd
       -0.099679664 0.40834534 0.029913308 -0.10865399
0001a0 e1 33 9c bf 36 ca 99 bf 21 9c 07 c0 8e 59 6c bf
       -1.2203332 -1.2014835 -2.1189044 -0.9232415
0001b0 90 39 c4 bc 3f c0 8f bd 6e ac 69 bf 5b 70 de be
       -0.02395323 -0.0701909 -0.9127873 -0.43445095
0001c0 6c 34 b7 bf e1 07 76 3d fe 8c a5 3e 50 33 28 3e
       -1.4312873 0.060066108 0.3233413 0.16425824
0001d0 54 d1 9e 3f 6b bb 7c c0 c0 4c 9e 3e 53 1f 22 c0
       1.2407632 -3.948939 0.3091793 -2.5331619
0001e0 98 7b c0 3c 0d be 00 3d f7 34 38 3f f1 25 96 bf
       0.023496434 0.031431247 0.7195582 -1.1730329
0001f0 a5 ea 6c 3e 64 a0 27 be e2 fd d0 3c 6a 02 ac 3c
       0.23136385 -0.16369778 0.025511686 0.020997245
000200 1d 88 81 bf 4d 62 1b bf fa b1 da be 01 bb 38 3f
       -1.0119663 -0.6069687 -0.4271391 0.72160345
000210 6e 47 e0 bd a1 37 6f bd e6 37 a8 be 5f 10 b2 3d
       -0.10951124 -0.05840266 -0.32855147 0.08694529
000220 5a de 17 be 1a ac 72 bf 69 42 15 3d 54 4d 7f 3e
       -0.14830914 -0.94793856 0.036440287 0.24931842
000230 9e c1 7c 3e 11 23 f9 3e 75 57 db bc 49 80 07 3f
       0.24683234 0.48659566 -0.026775101 0.5293012
000240 dd f6 db 3e 89 9d c6 3d fb b9 4d bf 8a 45 d1 3f
       0.4296178 0.09698016 -0.8036191 1.6349347
000250 8c 56 25 bf b9 aa d3 3f 35 3f da 3d 17 d8 cb 3b
       -0.64585185 1.6536475 0.10656587 0.0062208283
000260 e9 3c 3b be 12 42 ca be 95 8f 05 be f6 6b 4e bf
       -0.18284954 -0.39503533 -0.13043053 -0.80633485
000270 ea 2e f7 3a d9 3c 3a be e9 1d da 3e 8f de 0e 3e
       0.0018858586 -0.18187274 0.42600945 0.13952087
000280 7f b1 e2 3d 5e 51 9a be ac ba 05 3c 55 33 df 3e
       0.11069011 -0.30140203 0.008162182 0.4359385
000290 8e 9f d2 bd e8 67 1f bd 21 bb 28 be 69 59 f6 be
       -0.10284339 -0.038917452 -0.16477634 -0.4811509
0002a0 ad 67 a8 be a7 8e 5e 3e 41 d9 7a bf 9a e1 c3 be
       -0.32891598 0.21734105 -0.97987753 -0.38258058
0002b0 49 ad 6a bf 99 c3 29 bf 61 6e 8a be ad 51 14 3f
       -0.9167066 -0.66314083 -0.27037337 0.5793713
0002c0 f9 47 8a 3e b8 12 84 3f 64 a9 a0 3f 12 e7 e1 bd
       0.27008036 1.0318213 1.2551694 -0.11030401
0002d0 89 e7 8d 3d 2c 82 45 3e 6e ae e4 be b5 71 18 c0
       0.069289275 0.19287938 -0.4466433 -2.3819401
0002e0 4a b7 12 bf 98 b0 0d c0 80 a2 f2 3d e8 df b0 bd
       -0.57310927 -2.2139034 0.11847401 -0.08636457
0002f0 4f 4c 4f 3e 4a 64 00 bf 2b 4b 00 c0 ae d7 87 bf
       0.20243953 -0.5015303 -2.004588 -1.0612695
000300 da f7 80 3d 58 9f 5a 3f a0 77 fe 3e b3 0e aa c0
       0.06297274 0.8539939 0.49700642 -5.3142943
000310 93 c2 8a bd c8 72 30 c0 2f bf 1b be 7e 20 28 3f
       -0.06775393 -2.7570057 -0.1520965 0.6567458
000320 84 01 93 3e f2 be 8c bf a2 33 d0 3e c7 df ba bf
       0.28712094 -1.0995772 0.40664393 -1.4599541
000330 fe f5 92 3c d1 75 8f bd a2 3e 35 bf 9b ef 39 3e
       0.017939564 -0.070048936 -0.70798695 0.18157808
000340 10 83 8d bf 83 79 0e 3f 8b cd 37 be 68 28 6a 3d
       -1.1055622 0.5565416 -0.17949502 0.05716744
000350 56 81 d6 3e 08 7c a6 be a1 bf 81 3e ed b9 d7 3e
       0.4189555 -0.32516503 0.25341514 0.42134038
000360 eb bf b4 bc a0 f0 3f be 52 eb a4 3c 3a 6a 53 3e
       -0.02206417 -0.18744135 0.02013174 0.20645991
000370 56 cc 44 bc 91 4b 1f 3f 5d 8e 54 bd 1d 54 12 3d
       -0.012011608 0.6222468 -0.05189358 0.035724748
000380 df 78 86 3d e7 e7 0f bf 70 73 be 3f d4 94 3f bf
       0.06566023 -0.5621323 1.4878979 -0.7483647
000390 b7 03 0c 3f 0d ae 12 3e 28 40 18 3c f9 46 4d bf
       0.5469317 0.14324208 0.00929264 -0.8018642
0003a0 bd 2a de bf 4e 25 54 be c4 be 43 3d ce 36 8d bd
       -1.7356793 -0.20717356 0.04778935 -0.06895219
0003b0 b4 88 59 be f0 fa d4 3e 41 86 ee 3e de 23 bf be
       -0.21243554 0.415977 0.46586803 -0.37332052
0003c0 f3 4d eb bd e3 d0 da 3e 49 28 87 bf a8 e0 36 3f
       -0.11489477 0.42737493 -1.0559169 0.7143655
0003d0 99 15 f6 bd b8 fc 6a 3f 82 3d 61 3d d4 d4 23 3d
       -0.12015838 0.9179187 0.0549903 0.03999789
0003e0 95 00 c2 3e fe a0 dd be 65 ba a6 be dc db e2 3c
       0.3789107 -0.4328689 -0.32564083 0.027692728
0003f0 54 26 a9 3c 72 d4 49 bc f8 df 29 3f 57 ad 8d bf
       0.02064816 -0.012318717 0.66357374 -1.1068524

fc1.bias f4 [300]
000000 af 5f 97 bf 87 d8 2d c0 07 de 92 3d b9 2a 31 c0
       -1.1826075 -2.7163408 0.071712546 -2.7682326
000010 10 ff 82 c0 c9 c7 40 40 f7 80 cf bd c4 f0 b9 bf
       -4.0936356 3.012194 -0.1013202 -1.4526601
000020 8d c3 a5 be 0a 96 5f 40 e9 41 6e c0 1b 79 61 40
       -0.32375756 3.4935327 -3.7227728 3.5230167
000030 9e d9 11 40 a5 ac 43 40 ac 9f 9f be c1 c3 58 40
       2.2789073 3.0574124 -0.31176507 3.3869479
000040 c1 be 47 40 38 88 4e c0 63 40 5c c0 3e cd 7e 3f
       3.1210177 -3.2270641 -3.4414299 0.99531925
000050 33 95 87 40 90 04 81 40 82 89 29 c0 33 c8 87 c0
       4.236963 4.031807 -2.6490178 -4.2431884
000060 93 f3 80 3f 9a 5d 3a 40 92 e4 35 40 49 e6 7d 40
       1.0074333 2.911963 2.8420758 3.9671805
000070 40 7e dc 3e 79 e0 04 c0 e7 01 87 40 ac 00 28 c0
       0.4306507 -2.0762007 4.218982 -2.625041
000080 4e c0 1b 3f 66 bb ee bd dc 75 82 c0 9a 99 67 40
       0.6084031 -0.11656837 -4.076887 3.61875
000090 1e a6 cf c0 d4 d4 b9 3f e6 71 04 c0 d0 1c 02 40
       -6.489028 1.4518075 -2.0694518 2.0330086
0000a0 d4 ba b7 3f ec 19 51 40 ec 6a 00 3e 57 f6 b9 3f
       1.435389 3.2672071 0.12540787 1.4528302
0000b0 67 05 25 bf 4f aa 80 40 f6 67 a8 bf 72 1f 4d bf
       -0.6446137 4.0207896 -1.3156726 -0.80126107
0000c0 67 de 47 40 e9 e0 ca be c6 5a 96 3f 4f 2c 5f 40
       3.1229494 -0.39624718 1.1746452 3.4870794
0000d0 bf d8 64 3e 2f aa 20 40 5e 3a b4 c0 5d cb db bf
       0.22348307 2.5103872 -5.632125 -1.7171437
0000e0 34 c3 82 3f 5b 64 9b 3f ce d7 6f 3f b6 69 c2 c0
       1.0215821 1.2140001 0.93688667 -6.075404
0000f0 6f f2 54 be 1a ac 25 40 2e 65 98 bf 40 7e e0 3f
       -0.20795606 2.5886292 -1.1905878 1.7538528
000100 16 53 85 40 74 b8 30 40 5a 8e 3d c0 63 5c aa be
       4.1663923 2.7612581 -2.9618134 -0.3327361
000110 9a a2 88 40 65 7c 56 40 75 6c a9 3f b0 f0 43 40
       4.269849 3.3513424 1.3236223 3.0615654
000120 ad 12 59 40 7c 61 fb bf 11 60 1a c0 19 a9 9a 3e
       3.3917649 -1.9639125 -2.4121134 0.30207136
000130 a2 c7 60 40 75 c7 90 3f b1 03 09 40 5a ac 91 c0
       3.5121846 1.131087 2.1408503 -4.552289
000140 6c 9d cc bc 74 c3 a3 3f ed cf 36 3f 37 87 59 40
       -0.024977408 1.2794023 0.7141102 3.3988779
000150 ca 26 4c 40 d2 a7 16 40 d7 de ef bf b9 dc a1 bf
       3.1898675 2.353993 -1.873988 -1.2645484
000160 32 f8 05 40 fc 01 fc bf 58 30 ae bf 6d 99 38 40
       2.0932736 -1.9688106 -1.3608503 2.8843644
000170 48 9c 2f 3f f9 c7 29 40 c4 a6 fd 3f d7 6c fb 3f
       0.6859784 2.6528304 1.9816518 1.964259
000180 63 67 84 40 45 ef 51 3f 25 8a e1 3f 02 15 52 40
       4.1376204 0.8200572 1.7620283 3.2825322
000190 24 9e 2b 3f a4 fe 9f c0 13 a4 23 bf 33 1e 9e 3f
       0.6703818 -4.999834 -0.6392223 1.2352966
0001a0 01 92 bb bf 91 01 32 3d 3a 9e 60 c0 33 6b 5a 40
       -1.4653932 0.043458525 -3.5096574 3.412793
0001b0 56 6f 80 3f 05 55 64 40 db 4e 2b 40 e6 21 a0 40
       1.0033977 3.5676892 2.676688 5.004138
0001c0 26 44 53 40 4f 52 6d 40 50 51 4e bf bc c8 53 40
       3.3010345 3.7081487 -0.80592823 3.3091269
0001d0 e3 e6 69 3f 1c 6c 4e c0 b9 86 86 3f 2f 94 32 40
       0.9136793 -3.2253485 1.0509864 2.7902944
0001e0 13 0b 25 3e e6 60 32 40 e1 2a 37 c0 08 66 c4 3e
       0.16117506 2.7871642 -2.8619921 0.38359094
0001f0 fe a0 21 40 b1 21 fd 3f 88 a4 83 40 85 3c 3e 40
       2.5254512 1.9775907 4.1138344 2.9724438
000200 67 2b 2d 40 c1 be 55 40 cd 8a f2 bf f2 29 3d 3f
       2.705774 3.3397677 -1.8948609 0.7389213
000210 6b dd 60 40 0a ea ef be af 87 bb 40 81 41 aa 3e
       3.5135143 -0.46858245 5.860313 0.332531
000220 1c bb 16 c0 8f 6f 7e 40 44 3c 0e c0 ba c5 45 40
       -2.3551702 3.975559 -2.2224283 3.0901933
000230 00 15 82 c0 6b 9f 5d c0 34 96 32 40 73 93 33 c0
       -4.0650635 -3.462855 2.7904177 -2.8058746
000240 a3 55 90 c0 fa 23 46 40 d7 7a 3e 40 56 6a 39 40
       -4.5104537 3.0959458 2.9762475 2.8971152
000250 e5 cc 81 40 d6 07 35 3f e0 5b 65 c0 d5 ba 4d 40
       4.0562615 0.7071508 -3.5837326 3.2145283
000260 df 44 60 40 c1 eb cc 3f a6 29 72 bf c9 97 7b 40
       3.5042036 1.6009446 -0.945948 3.9311392
000270 84 9b 38 3f 47 ac aa c0 a8 a0 38 40 c6 a4 80 40
       0.721123 -5.33353 2.8848057 4.020114
000280 25 7f 4e 3f 47 2a 22 40 a4 2e 83 40 bf 4f 15 40
       0.8066276 2.5338304 4.0994434 2.3329923
000290 d2 b1 5c 40 e1 de 38 c0 33 75 73 40 aa f5 87 3f
       3.4483533 -2.8886034 3.8040283 1.0621846
0002a0 b9 90 2a 40 60 b1 1c c0 d9 32 a0 be a9 06 6e c0
       2.6650832 -2.448326 -0.31288794 -3.7191565
0002b0 dc c0 fc bf 44 12 92 40 13 1b b3 bf d0 5a 2f 40
       -1.9746356 4.5647297 -1.3992637 2.7399178
0002c0 be 0f ee bf b0 84 9c 40 8f 89 8b 40 b7 2a ed bf
       -1.8598554 4.891197 4.360542 -1.852866
0002d0 0a aa bb 3f f1 81 76 40 c4 3d 3e bf ae f4 75 40
       1.4661267 3.851681 -0.74312997 3.843059
0002e0 b8 80 38 40 72 2a d6 3f 0a 42 1e 40 a5 f0 63 3f
       2.8828564 1.6731703 2.4727807 0.8903907
0002f0 a5 5c 41 40 d9 fc 24 c0 c8 ed a3 3f 0d 65 3f 40
       3.0212796 -2.5779326 1.280694 2.9905427
000300 2b 32 a7 bf 0f 76 d0 3f 0c 32 49 40 e1 3b db be
       -1.3062185 1.6286029 3.1436796 -0.4281912
000310 c1 c7 8f 40 2b d6 65 40 04 52 6e 3f 52 db 4f 40
       4.493134 3.5911968 0.93093896 3.2477612
000320 d8 d1 de 3d 17 ba ba 40 dc 24 75 be 3f 7c 87 c0
       0.10879868 5.835216 -0.23939842 -4.2339168
000330 a6 4b 26 40 4a 19 e7 bf a5 59 09 3f e8 67 e1 3f
       2.5983672 -1.8054593 0.5365241 1.7609835
000340 9e b1 8a 3e 4c e0 3b 40 a5 e5 c4 bf 9f 02 f5 bf
       0.27088636 2.935565 -1.5382582 -1.9141425
000350 42 7f 5e c0 0c 42 f4 bd a4 53 2c c0 4c 4a c4 c0
       -3.4765172 -0.1192666 -2.692605 -6.1340694
000360 64 a1 5f 40 e0 3f e9 3f ea 8f 18 c0 67 56 8d 3f
       3.4942255 1.8222618 -2.3837838 1.1041993
000370 0a 2e 29 40 cf 3d 55 c0 6b 94 23 40 86 95 83 3f
       2.643435 -3.3318975 2.5559337 1.0280006
000380 d7 43 a9 40 3d 42 bd c0 09 e5 7c bf 00 fa 35 c0
       5.289531 -5.9143357 -0.9878698 -2.8433838
000390 3a 00 65 40 2f 4e ea bf dc 07 2a c0 d5 f2 5d 40
       3.5781388 -1.830511 -2.6567297 3.4679463
0003a0 12 91 39 3f ef c8 40 c0 3d 5f 36 c0 c7 d2 5e c0
       0.72486985 -3.012264 -2.849563 -3.4816148
0003b0 1e 15 83 40 2e 61 31 c0 ea d5 50 40 4f 22 8e be
       4.096328 -2.7715564 3.2630563 -0.2776055
0003c0 a4 de 5b 40 0a 4f 3d c0 b9 de 7c 40 94 0e d1 be
       3.435464 -2.9579492 3.951094 -0.40831435
0003d0 20 2b 57 40 61 cf 55 c0 56 b2 71 c0 a5 cf 50 3e
       3.3620071 -3.3407824 -3.7765098 0.2039171
0003e0 d8 43 61 40 14 17 10 40 2f 9c 89 c0 58 92 17 40
       3.5197659 2.2514086 -4.3003154 2.368307
0003f0 b7 17 4d 40 f3 21 c0 bf e8 73 27 be bc a3 cd 3f
       3.2045724 -1.501036 -0.16352808 1.6065593

fc2.weight f4 [200, 300]
000000 70 57 44 bd b0 17 7e bc b0 59 2e 3b da a8 3c bd
       -0.04793495 -0.015508577 0.002660375 -0.046059467
000010 7c 93 30 3d 52 ac 0b bd 06 1f 25 bd cb 76 9f bc
       0.043109402 -0.034099884 -0.04031279 -0.019465825
000020 48 cd 9b bc b8 e1 ac bb 6c 67 6c bd 4f 09 2e bd
       -0.019018784 -0.005275931 -0.05771582 -0.042489346
000030 a0 a8 b5 bc 79 47 14 3d 17 ad 51 bd 9b 62 32 bd
       -0.022175133 0.036200974 -0.051190462 -0.04355107
000040 e6 b0 bf bb 84 ee 29 3d da 13 07 3d c0 fc 5f bc
       -0.0058499454 0.04148723 0.032977916 -0.0136711
000050 fe 7d 87 3b 48 07 4b bd a7 e6 68 bd cc 4c c5 3c
       0.0041348925 -0.04956749 -0.056860592 0.024084471
000060 dc 09 2a bd 19 4e 72 bd 0f 8b 6f ba f0 c7 09 3d
       -0.04151331 -0.05915651 -0.0009137848 0.03363794
000070 fa 8a 0c 3c 00 30 15 3a a8 3b 69 bc 86 b9 40 bd
       0.0085780565 0.00056910515 -0.014235415 -0.04705193
000080 ff b1 37 bd 24 40 c9 bc 84 bc 41 3d 97 10 79 bd
       -0.044847485 -0.024566717 0.047298923 -0.060806837
000090 9e e8 d5 bc 12 ed ec bc ff 50 a4 3b 1e d4 5b bd
       -0.026111897 -0.028921638 0.0050145383 -0.053669088
0000a0 b3 c9 67 bd 53 7f 28 bd 72 24 60 bd 70 41 62 3c
       -0.05658884 -0.04113705 -0.054722257 0.013809547
0000b0 5c d1 75 bc a4 52 18 3c c0 aa 64 3d e0 db 63 bd
       -0.015003528 0.009297047 0.055826902 -0.05562961
0000c0 70 24 cc 3c 98 24 12 bd a0 09 5a bb ca 67 fe 3c
       0.024919719 -0.03567943 -0.0033269897 0.03105535
0000d0 00 f0 0a b8 2f 5a 9a bd 18 44 52 3c c8 30 47 bd
       -3.312528e-05 -0.075367324 0.012833618 -0.048630506
0000e0 4b 1c 32 bd 72 72 14 bd b8 f9 c8 3c 9b 8f 30 bd
       -0.043484014 -0.036241956 0.024533138 -0.043105703
0000f0 5b 5f 1f bd 9b 5c b3 39 68 28 35 bc 7d 18 a3 3c
       -0.038909297 0.00034210537 -0.011056997 0.019909138
000100 ff 29 c0 bc 67 16 a4 b7 f0 5e c4 3c 9e 68 78 bd
       -0.023457525 -1.9560755e-05 0.023971051 -0.060646646
000110 f1 b6 93 bd 0e 2e 06 bd 51 a1 94 3c 65 1e f8 3b
       -0.07212628 -0.032758765 0.018143328 0.0075719827
000120 c0 1a 2f bc e6 a6 42 bd e3 02 6b bd 7c a7 a0 bc
       -0.01068753 -0.047522448 -0.0573758 -0.019611113
000130 38 14 fb bb 8e 68 5c bd 62 ac a7 ba e8 5d 5e 3c
       -0.0076623224 -0.05381065 -0.0012792463 0.013572194
000140 35 9c ab bb e2 89 14 bd 17 f1 08 3d 05 d6 06 3d
       -0.005237127 -0.036264308 0.033433046 0.03291895
000150 4f 6a c1 3c 0c 7a e1 3c 75 11 48 bd c3 c4 d9 3c
       0.023610262 0.027524017 -0.048844773 0.026583081
000160 ce e3 f7 bc 7c 8b 33 bc c9 28 35 bd b2 cb c3 bb
       -0.030259993 -0.010958549 -0.04422835 -0.00597521
000170 50 ac a8 3c d8 34 71 bd 07 87 40 bd a8 c4 2a 3c
       0.020589978 -0.058888286 -0.047003772 0.010422863
000180 59 98 00 bd 71 f7 68 bd 80 96 f1 bb 73 e9 15 bc
       -0.03139529 -0.056876604 -0.0073726773 -0.009149897
000190 7d 36 e5 3c c0 2d fa 3c 46 ec e4 ba 74 49 db 3c
       0.027980084 0.030539393 -0.0017465435 0.026768424
0001a0 a3 f2 0b bd 50 e6 28 bc f0 b3 0e 3d de 6f 35 bd
       -0.034166943 -0.010308817 0.03483957 -0.044296138
0001b0 70 ae 8b bc 3b 2d 0c bd 30 c7 f2 3c 59 15 81 bd
       -0.017050952 -0.034222823 0.029635996 -0.063029
0001c0 ca 0a 95 bd 9f 0a 08 bc 88 2b 5a 3d e9 1b 43 bd
       -0.072774485 -0.0083033135 0.05326417 -0.04763404
0001d0 b3 13 0d 3d 6d 2f 49 bd 22 b4 8b bb cb 83 eb bc
       0.034442615 -0.049117494 -0.004263417 -0.028749367
0001e0 7d 2f 18 bd 60 c9 1b bc 84 ae f0 3c ca 60 b1 bb
       -0.037154663 -0.009508461 0.02938009 -0.0054131495
0001f0 ff 55 1c 3c 18 e7 df 3c 2d 62 6e 3c 51 c3 80 bd
       0.009541987 0.027331874 0.014549774 -0.06287254
000200 a4 db 16 bd 2c 61 a0 bd 70 cc da bb a6 d6 e5 bc
       -0.03683056 -0.07831034 -0.006677203 -0.028056454
000210 23 87 28 bd 4e dc 6a 3d e4 ff 8e 3a 68 a3 93 3c
       -0.0411445 0.057339005 0.0010910002 0.018022254
000220 9e 1b 01 3d c1 da 00 bd 20 e1 99 ba 09 dc 4c bd
       0.03152048 -0.03145862 -0.0011740066 -0.05001453
000230 30 54 1b bd a0 f5 5a bd 8d f5 84 bd 04 d0 d0 3c
       -0.037922084 -0.053456903 -0.064921476 0.025489815
000240 40 05 25 3d 2c 84 da 3c e9 c7 7b bc a6 e5 86 bd
       0.04028821 0.026674353 -0.0153674865 -0.06586771
000250 a9 de 80 bc 85 ef f7 3c f6 e7 a6 bc a2 ec 0c 3d
       -0.015731173 0.030265579 -0.02037428 0.034405358
000260 fb 07 0d bd 9e f6 ee bc 3a b0 2f bd dc 97 a0 bd
       -0.03443144 -0.02917033 -0.042892672 -0.07841465
000270 6d 31 51 bd 22 67 32 3d 31 9e 39 bd 02 c7 1e bd
       -0.051072527 0.043555386 -0.04531688 -0.038764007
000280 1a d5 b4 bc ac 4b 59 bd 3b 1e 6b bd 01 ef 89 bd
       -0.022074271 -0.053050682 -0.057401877 -0.067350395
000290 65 5c 51 bc 20 4e 06 bc da ee c3 bc 44 0e 3e bd
       -0.012778376 -0.008197337 -0.023917604 -0.046400324
0002a0 c2 a1 1f 3c ed 4d 20 bd d4 e2 58 bd 8d e6 63 3d
       0.009743156 -0.039136816 -0.052950695 0.055639792
0002b0 c5 27 4d bd b0 c6 cb bc 85 97 06 3d f0 55 00 3d
       -0.050086755 -0.024875015 0.032859344 0.031331956
0002c0 50 d6 4b bd 13 0f 04 3d 07 44 66 bb 55 73 f7 bc
       -0.04976493 0.03224094 -0.0035135762 -0.030206362
0002d0 94 b9 8e 3c 54 07 20 bd 6e b9 48 3d 61 5e df bc
       0.017422475 -0.03906949 0.049004965 -0.027266683
0002e0 7e 0d ac bb f4 21 17 bd f6 43 4a 3c 59 98 80 bd
       -0.005250632 -0.036897615 0.012345305 -0.06279058
0002f0 dd 10 77 bc e2 88 d9 bc 83 bc 4e bc 0a c3 82 3c
       -0.015079704 -0.026554529 -0.012618187 0.015962142
000300 b0 7c 6a 3d 9a 2b fa bc a4 0a 46 bd d8 11 86 3c
       0.057247818 -0.030538369 -0.04834999 0.01636593
000310 3f af cb 3b b5 09 e4 ba 50 51 10 3d d2 35 31 bd
       0.0062159593 -0.0017397912 0.035233796 -0.043264218
000320 b8 e5 00 3c 16 6f 10 bd 2a 62 27 bd b4 16 25 bc
       0.007867269 -0.03526219 -0.0408651 -0.010076214
000330 f9 1e 02 3d 5f 1c 10 bd ce 1f 1d 3d 0c 6e 15 bd
       0.03176782 -0.035183307 0.03836041 -0.036481902
000340 30 8e 15 bb 70 f0 9b bc 3b 1b e7 bc bc b7 ff 3c
       -0.0022820346 -0.019035548 -0.028211227 0.031215541
000350 a0 b9 f2 ba 68 ed 5b 3c 10 3c 60 bb 14 14 f4 bc
       -0.0018518455 0.013423301 -0.0034215488 -0.02979473
000360 91 2d 26 bd 0a cb d7 bc 60 de 6a bd c0 55 e7 3c
       -0.0405708 -0.026341934 -0.05734098 0.028239131
000370 b2 03 9e bd 01 ef 09 3c d9 b6 69 3c 6e 3c 2d bd
       -0.077155486 0.008418799 0.014264786 -0.04229396
000380 30 61 67 bd b8 97 cc bb 20 9e 3d 3c b8 6c 8b bb
       -0.05648917 -0.006243672 0.0115733445 -0.0042549036
000390 6c 69 2b 3b 84 34 bc 3c 10 38 65 3c 47 b7 ad bc
       0.0026155366 0.02297426 0.013990417 -0.021205558
0003a0 43 f3 ea bc 42 b4 43 bd 76 1e 4a bd 40 b9 f4 3a
       -0.02868045 -0.04777933 -0.049345456 0.0018670931
0003b0 51 a7 93 bd c8 b3 53 bc d0 f1 11 bd a2 a7 af bc
       -0.072096474 -0.012921281 -0.035631 -0.021442238
0003c0 d5 8f be bb a5 7a 3d bd b6 f6 98 bc 2d 85 46 bd
       -0.005815486 -0.04625954 -0.018672328 -0.04846685
0003d0 41 7a 14 3d 62 63 3a 3d f0 2d b8 3c 98 ca 4b bd
       0.036249403 0.045504935 0.022482842 -0.049753755
0003e0 0c 47 d0 bc e0 5a d5 3b 94 15 2a 3d 13 00 e3 3c
       -0.025424503 0.0065110773 0.041524485 0.027709996
0003f0 f2 c1 0a bd 42 42 32 3d fa ab a0 bc 38 ef f2 3c
       -0.033876367 0.04352022 -0.019613255 0.029655084

fc2.bias f4 [200]
000000 01 3f a7 3c de 47 4a 3e f8 ed 02 c0 86 db 21 40
       0.020415785 0.19753978 -2.0457745 2.5290236
000010 74 60 17 bd d5 84 c7 bd df 41 e7 3f 9b 7e 9f bd
       -0.03695722 -0.097421326 1.8066977 -0.0778782
000020 42 d0 30 bd ce 9d ca 3e 73 77 8c bd 02 a0 ba bd
       -0.04316736 0.3957352 -0.06858721 -0.0911255
000030 1a d4 94 bf d2 4d 74 bd 45 19 c8 bd 2c e9 97 3c
       -1.1627228 -0.059644528 -0.09770445 0.018543802
000040 6d b4 d0 bc 23 31 8c bd 76 59 a0 3e e5 04 87 3f
       -0.025476659 -0.068453096 0.31318253 1.0548369
000050 b7 82 25 40 de 2f 87 3f 7b 6f c6 3e 64 9c c2 3c
       2.5861032 1.0561483 0.38756928 0.023756213
000060 2a 56 a9 3e 5c 6f 8e 3b bd 6a 05 bf c6 08 79 3f
       0.3307355 0.004346771 -0.52115995 0.9727901
000070 bb 22 3c bd 84 ad 10 40 94 aa 6d 3f c8 66 0d 40
       -0.04593156 2.2605906 0.92838407 2.2093983
000080 24 a2 0e 3d 56 65 00 40 0e f6 2b bd 31 6b 57 3a
       0.034822598 2.006185 -0.041982703 0.0008217572
000090 d0 80 56 3f 39 8f a6 bf d3 15 94 bf 98 21 cb 3f
       0.837903 -1.3012458 -1.156916 1.5869627
0000a0 94 38 e4 3c f6 ae 86 bd f5 b6 79 3f a9 6e 4c bd
       0.02785901 -0.0657634 0.97544795 -0.04991022
0000b0 9f 4f ae 3c c4 3a 8d bc c3 08 b2 be 06 59 86 be
       0.0212782 -0.017239936 -0.3477231 -0.26239794
0000c0 25 7f 82 3f 37 e0 ca 3c 91 94 cc bd d1 40 28 3e
       1.0195051 0.024765117 -0.09989274 0.16430975
0000d0 7b cb e1 bc 4c c0 96 bd c7 e4 b7 3c 75 9f 3e bd
       -0.027562847 -0.073608965 0.022447957 -0.04653879
0000e0 8d 07 c9 3c 1e 5c d3 3c f5 c8 1e 3f c3 7f 33 3f
       0.024539733 0.02580076 0.62025386 0.70116824
0000f0 97 0a 7a bd 4d e5 0d bf a5 7a 7e bf 4a a5 30 bd
       -0.061045256 -0.5542801 -0.9940589 -0.043126382
000100 11 8f 2a 40 ad 66 bf 3c 07 0f 02 bd 24 0d c6 3e
       2.664982 0.02336439 -0.031752612 0.386819
000110 ec 6a 59 bd 75 70 06 3e 87 00 95 bf f2 de c5 3e
       -0.053080484 0.13128836 -1.1640786 0.38646656
000120 52 d7 16 40 d8 77 42 3f cc ec e7 be d8 d8 55 3d
       2.356892 0.7596412 -0.4529785 0.05220875
000130 a5 63 8e bb db 54 4f bd bd af ab 3f e9 90 13 40
       -0.0043453746 -0.050618034 1.3413006 2.3057196
000140 92 21 28 bf ee 40 19 c0 be e0 7c 3f 41 80 93 bc
       -0.65676224 -2.394588 0.9878043 -0.018005492
000150 98 f5 df 3e 9b a8 e3 bf a8 e5 1b 40 79 8e e3 3f
       0.4374206 -1.7785829 2.435892 1.7777854
000160 d3 7f 4f 3f 39 c1 81 3d 86 8c 0f bf d8 16 af bf
       0.8105442 0.063356824 -0.56073797 -1.3678846
000170 15 84 20 40 15 73 81 bf c3 8c 7f 3b 8f 08 5e 3f
       2.5080616 -1.0113245 0.0038993813 0.8673181
000180 6a 62 30 40 a6 35 a4 3b df 23 89 3e 51 35 0a bd
       2.7560067 0.005011278 0.2678518 -0.033742253
000190 79 81 43 bd 16 60 6f bd fe eb 66 3c f8 d4 ea 3f
       -0.047730897 -0.058441244 0.014094351 1.8346243
0001a0 ec 97 03 40 1f 17 ad bd 68 87 26 3f 06 48 10 bd
       2.0561476 -0.084516756 0.65050364 -0.035224937
0001b0 8d d9 b8 3f 1d 44 90 3c ce 69 1a 3e 38 a3 11 3f
       1.4441391 0.017610604 0.15079424 0.5688968
0001c0 98 1a e9 3b 5f cb 62 3f 00 a6 2e be 21 38 0a c0
       0.007113766 0.8859157 -0.17055511 -2.1596758
0001d0 c6 df bf bd d3 d3 96 3f 3f 54 37 bd 3b 74 0f 40
       -0.09368853 1.1783394 -0.044758078 2.2414691
0001e0 ec e5 84 3c ed 35 a2 bd 23 1c ec 3f ff c1 b7 3f
       0.016222917 -0.07920442 1.8446087 1.4356078
0001f0 56 d7 21 3f 92 0e 1d 3f 12 35 df 3f a2 ba b1 bd
       0.632192 0.6135036 1.7438071 -0.086781755
000200 5c 7c da 3e 57 bf ef 3f fd f6 f0 3f 20 e9 42 3c
       0.42673004 1.8730267 1.8825375 0.011896402
000210 39 a1 ea 3c 70 36 1d 40 77 38 db 3f f6 be e9 3f
       0.02864133 2.4564476 1.7126607 1.8261402
000220 65 b9 28 40 fc 4a 2a 40 9a a7 d8 bc 92 94 0a be
       2.6363156 2.6608267 -0.026447106 -0.13533238
000230 f0 68 4b bd 35 1f 2b bd c3 d0 d7 be 42 fa 13 40
       -0.049660623 -0.04177781 -0.4215146 2.3121495
000240 40 86 12 bd aa 88 22 3e 0f 02 71 3c 4f 03 9b 3f
       -0.035772562 0.15872446 0.014709963 1.2110385
000250 8e 34 ac bd 6a b9 81 be 2b 5d 76 3c b8 83 08 bd
       -0.084084615 -0.25336772 0.015036861 -0.03332874
000260 1b 54 10 40 89 ea 12 40 d0 69 24 3f 63 46 63 3f
       2.2551334 2.295565 0.6422396 0.88779277
000270 77 f4 d3 3c 7a 7b db 3f 5b 5f 9f bf ce 80 0f bd
       0.025873406 1.7147057 -1.2450975 -0.035034947
000280 76 46 e5 3f d2 5b 14 40 9e 82 10 bd 16 63 77 bf
       1.7912128 2.3181043 -0.035280816 -0.9663557
000290 91 e2 80 bd ca e3 a6 3f fd 13 8d 3f 9b a5 03 3d
       -0.06293214 1.3038266 1.1021725 0.032140356
0002a0 0e 3b d2 bf 18 b6 17 40 d8 fa c1 bd fa 69 a7 bd
       -1.6424272 2.3704891 -0.09471673 -0.0817451
0002b0 10 77 9d 3f 34 52 8d bc 0f 6d 2d bc ce 63 19 40
       1.230196 -0.017251112 -0.010585084 2.3967166
0002c0 1a 77 ab 3f 65 d2 9c 3f a1 55 20 3f 42 0f e0 3e
       1.3395722 1.2251707 0.6263066 0.4376164
0002d0 99 ba 17 3f 52 69 3a c0 35 46 0f bc d5 c1 99 3e
       0.592691 -2.9126782 -0.008744766 0.30030695
0002e0 fe ea 98 bd 23 e8 3b bd fe 50 24 3c cc 7b 17 c0
       -0.07466696 -0.04587568 0.010029076 -2.366931
0002f0 aa 46 fd 3e ea 45 93 3e 93 88 1d 40 6d 2b d2 3e
       0.49467975 0.28764278 2.4614608 0.41048756
000300 cc 61 7f bd bc 92 f3 3f b7 8a af 3f 57 88 11 bd
       -0.062349126 1.9029155 1.3714207 -0.035530414
000310 e9 a1 96 3f 96 93 78 be dd 24 90 3e 7f 50 19 bf
       1.1768161 -0.2427505 0.28153124 -0.5988845

fc3.weight f4 [1, 200]
000000 d9 7c ba 3c 98 04 fb 3c 8f 4a c3 3d a3 46 a0 be
       0.02276461 0.030641839 0.09535705 -0.31303892
000010 a1 03 02 bd 01 7d 80 bc 53 17 22 be 1e d9 d3 bc
       -0.031741742 -0.015684607 -0.1582921 -0.025860365
000020 33 32 76 bd 0b ca cf bf e7 83 5c 3a bb 99 bd ba
       -0.060106467 -1.6233534 0.0008411989 -0.0014465371
000030 65 aa 19 3e b5 c9 b5 bc 9e bc 3f bc 93 9a 7e bc
       0.15006407 -0.022190908 -0.011702685 -0.015539783
000040 67 50 53 3b 30 d3 70 bb ca 76 9e bf 22 94 74 3d
       0.0032243968 -0.0036746971 -1.2380002 0.059711583
000050 de 3e 1b be b8 05 01 3e 6e f8 ef be 84 fb 3e bd
       -0.151607 0.12599838 -0.46869224 -0.046626583
000060 19 fd cd bf 4a 54 8c 3b 1b 47 6c 3e 08 fe b8 3f
       -1.6092864 0.004282509 0.23074 1.4452524
000070 df 7f a4 bc 45 fe 23 be 78 a3 af 3e 95 26 36 bd
       -0.020080505 -0.16014965 0.34304404 -0.04447039
000080 12 dd a8 bc 58 98 6b be ed 7a c8 3b 13 60 28 bb
       -0.020613227 -0.23007333 0.0061181695 -0.002569203
000090 13 d7 29 bf 14 9f cf 3c 1f df c2 3c 33 e1 01 bd
       -0.663438 0.025344409 0.023788033 -0.031708907
0000a0 d9 87 31 3d 73 4c 7e 3c e4 66 29 3e d9 2e 72 ba
       0.043342445 0.015521157 0.16543156 -0.0009238548
0000b0 05 55 5c 3c 6d 96 0e bb 33 32 f6 3c 7a e0 01 3d
       0.013448005 -0.0021757141 0.030053234 0.03170822
0000c0 26 a4 aa 3f 49 d7 8b bf 1b a1 fc 3c 0b 92 75 bf
       1.3331344 -1.0925075 0.03083854 -0.9592597
0000d0 ca 60 b1 3c 30 f4 d5 3a 26 19 90 bb a9 a6 a6 3c
       0.021652598 0.0016323384 -0.004397529 0.020343142
0000e0 1e 40 66 bc 4d f3 3f bd 31 98 2b bf d2 13 c5 bf
       -0.014053373 -0.04686289 -0.670291 -1.5396674
0000f0 24 ba d1 3c 33 b7 06 3c 46 9a 97 3c ac 50 d1 3c
       0.025601454 0.008222389 0.01850618 0.025551163
000100 f5 f4 14 be 62 50 0c 3b e0 24 f0 3c 32 ce 4a bf
       -0.14546569 0.0021410217 0.029314458 -0.7922088
000110 d9 b6 e9 3c 3b af 04 40 60 67 34 3d e0 68 2f bf
       0.028529571 2.0731952 0.0440439 -0.685194
000120 d6 8f 93 be c8 21 0a 3e 10 b1 6e 3c 49 49 15 3c
       -0.28820676 0.13489449 0.014568582 0.009111711
000130 06 87 37 bc e3 0b 8d bc b7 c8 ae be 35 c0 48 bd
       -0.011201626 -0.017217582 -0.34137508 -0.049011428
000140 f9 2a 00 3d 1b 52 63 3d 35 7b af 3e c2 b4 ea 3a
       0.031290982 0.055498224 0.34273687 0.0017906653
000150 52 f9 a2 3e 1f 6c ca 3d 5b 89 aa bd 5d 8c 0e 3f
       0.3183084 0.09883904 -0.0832698 0.5568293
000160 ea ec 8a bc d4 c7 18 be da c2 b2 3c 61 74 4d 3d
       -0.016958673 -0.14919978 0.021821428 0.050159816
000170 b3 1e c6 bd 38 8b f1 3d 54 7e 21 3b fa 0c 52 3f
       -0.09673824 0.11794132 0.0024641948 0.8205105
000180 43 d7 06 be 51 a3 e9 3c 31 f2 00 bf 49 5c 60 bc
       -0.13168053 0.028520258 -0.50369555 -0.0136938775
000190 79 a8 27 bd ef f6 c1 bb 7d 97 f8 3b a6 b5 42 be
       -0.040932152 -0.0059193294 0.007586418 -0.19014606
0001a0 f3 40 1c bd a1 cb a7 3c 3e d7 36 be fe d3 23 bc
       -0.038147878 0.02048284 -0.17855546 -0.009999273
0001b0 2b a5 ff bd 51 a9 e8 3c 90 00 c3 3a 5d 21 3f 3f
       -0.12482675 0.028401049 0.0014877487 0.74660283
0001c0 a8 36 72 3c 85 13 87 3e 18 ef 2b bf 33 4e 98 3e
       0.014783539 0.2638208 -0.67161703 0.2974716
0001d0 6a d1 c4 bc 4e d7 d2 be 45 4b 23 bd 83 3b bf bc
       -0.024025638 -0.4117989 -0.039866704 -0.023343807
0001e0 89 5f 73 3c e3 90 e1 bc ca 15 8c 3f 54 61 e7 be
       0.01485432 -0.027534908 1.094415 -0.45191443
0001f0 0b f8 81 be 2a fd 65 3f 0d 6f f1 bd 83 55 bc bb
       -0.25384554 0.8983942 -0.117887594 -0.0057474985
000200 5d dd ed 3c 20 86 33 bf 41 d7 34 be 7c 13 ab bc
       0.029036218 -0.70126534 -0.17660238 -0.020883314
000210 78 a3 af 3c c7 e5 6a bd 44 43 54 bd bb 9f ae be
       0.021440253 -0.05734804 -0.051821962 -0.3410624
000220 ec e7 19 be f2 10 69 be 0b 9d ec bb 54 ad d6 bc
       -0.15029877 -0.2276037 -0.0072208694 -0.026205696
000230 33 f8 c6 bc cd ff 64 bd 62 45 15 bb e7 49 97 3d
       -0.024288272 -0.055908013 -0.002277695 0.07387143
000240 4a 6b 01 3b 62 77 11 be af 81 25 3d 93 83 a8 3f
       0.0019747787 -0.14205697 0.04040688 1.3165153
000250 e6 27 c1 bc c2 4d 58 be 8a 84 02 3d 1f 38 12 bd
       -0.023578595 -0.21123412 0.03186468 -0.035698052
000260 d0 24 00 3f db 33 95 3e b5 be f9 3e a5 5d 8f c0
       0.5005617 0.29141125 0.4877831 -4.480181
000270 5d ca 22 bc 6a c0 dc bd f9 26 56 bb 5f c0 f9 3c
       -0.0099359425 -0.107788876 -0.0032677038 0.030487237
000280 c8 c2 7c be 08 b9 22 be 86 93 5c 3d 79 db a6 3c
       -0.24683678 -0.15890896 0.053851627 0.020368325
000290 65 c6 06 3d 4c 23 1a 3f 3f f7 48 be 77 c7 f0 3c
       0.032904048 0.6021011 -0.19625567 0.029391987
0002a0 24 a8 8d bb 2e 7b 76 bd 73 3f b2 3c fe 6c 91 bc
       -0.0043230224 -0.060176067 0.02175877 -0.017752167
0002b0 f1 a7 72 bc 54 12 97 bc 84 0c 6c 3c 8d 56 3e be
       -0.014810548 -0.018441357 0.014407281 -0.18587704
0002c0 9e 50 bb 3e 45 05 6c 3f 78 11 41 bf 42 d1 91 3e
       0.36584944 0.9219554 -0.7541728 0.28479964
0002d0 50 cc d5 3e 59 e8 1d 3e ab f5 3c 3c a6 4c 99 bc
       0.4175744 0.15420665 0.011533181 -0.018713307
0002e0 3f 0f 11 bd 02 4f 16 3d 25 9c 0f 3d cd 7a 10 3f
       -0.03541493 0.03669644 0.03506102 0.5643738
0002f0 77 a8 c2 3d a9 c7 41 bf ae 2d e5 bd 08 9d a5 bf
       0.09504788 -0.7569528 -0.11190353 -1.2938547
000300 96 c0 db 3c e8 89 36 bd 0c 2b bd bd 3c 2c 05 3d
       0.02682523 -0.04456511 -0.09236726 0.03251289
000310 83 30 05 3f e3 05 8e 3f 46 ef 87 bf 68 b3 6e 3e
       0.5202715 1.1095546 -1.0619895 0.23310626
