log/train_1_1k/models/380_actor.pt (torch_old, 249426 bytes, 6 tensors)

fc1.weight f4 [300, 4]
00000000: 2c80 b33e 4593 44bc 1d54 61bf a19e 02bf
00000010: e086 66be f6a0 a03d f966 8a3f 3241 6bbd
00000020: c57e 88bd 24b5 d13d f8f3 a9bf f976 c9be
00000030: 6caf 7cbe 80ce 26be a372 1ebf 9b3a 083f
00000040: 3401 88be 6e15 8b3e ea1a 61bf 7391 6e3e
00000050: d36f 47be 5c1f 3a3e 0def 5c3f c1d5 103f
00000060: c09e 52be 9f42 f0be 5eb0 963e e41e 04bf
00000070: e43f c43e 600c 083e deb0 5d3e fd5b 15bf
00000080: c28d 7e3e 4efe c2bd 67a9 99bf af8e a53e
00000090: 86d7 31be 7235 d33e 91d4 353e 5cc9 5a3f
000000a0: cbe2 d0bd 1e34 c4bd 013d 6fbe 8fac a8bd
000000b0: eaf8 c43e 6ef9 bfbd 5cf6 883f afe8 013f
000000c0: 97fd b7be 701f 6fbe d929 cf3e 6c94 4a3d
000000d0: e646 21be 96c0 8cbe 62c3 493f 79e1 6d3e
000000e0: 71ff b93e 69c4 7f3e 3b07 89bd 2570 3b3e
000000f0: ea12 743e d546 97bb b7fd a23f 63ed 80bf
00000100: 12f6 22be e18a 333e e826 ae3e 973d 533f
00000110: 0eb6 7c3e c765 1b3e 3259 693e 6430 3e3f
00000120: c0ff 63be 5f50 7fbe f2e4 62bf 827b 8a3d
00000130: 280f 70be f69e 03bf 8333 b5be 1b60 f83e
00000140: 0aba 5a3e 06d9 f73e 7298 00be d742 14bf
00000150: 6650 923e c660 8cbc 6f30 a3bd 7983 3bbf
00000160: 413b d2be e914 b7be 088b 71bf 548b e73e
00000170: 6076 e83e 3db7 d0be 0382 bebe c0db 683e
00000180: eaf0 053f 8887 f9bd 23c3 703f 2043 3bbf
00000190: 5fb3 023e 4eb8 e73c cfcf 8abf d2ec f7be
000001a0: 2b40 663e a8e4 84bd 326b 2fbf 230f 203e
000001b0: 5c1c abbd e934 6b3e 4a0f 90be fc6c 453f
000001c0: 3779 bc3e 1822 b23e 6859 653e d514 d83d
000001d0: 89ac aebe 1167 96be b490 6ebf 9759 b53e
000001e0: a90c 91be ff8f 703e c367 9d3f d482 f43c
000001f0: 12bf 5a3c 2a71 57be 4737 40bf 327e ef3e
00000200: 8640 af3e 03bc 5f3d 9250 e9be a239 08bf
00000210: 7335 67be f3b0 81bc d91a d43e e133 adbd
00000220: 5094 b93d e7be 923e 8fa3 3a3f d341 953e
00000230: 0504 4fbe ecaa d8be 122a 023f b197 77be
00000240: 95be e6bb ec52 b1be 8fc5 e1bd 1f0e bdbe
00000250: c00a 62be 3eae b0be a8bd 2a3f e6e4 e53e
00000260: c127 4f3e 0532 64be 5b59 693e 0d6d 8c3e
00000270: c91d 83be cfe8 c43e 0a4a 7d3f e17c 293e
00000280: dab7 b73d 73f3 c03e 5aca 45bf 4f77 00bf
00000290: 660d 54be 2a31 94bd 2f61 0cbe b6c7 063e
000002a0: eb30 d33d 821d d5be 2682 48bd 3d96 98be
000002b0: 4cde ba3e 3afe c4be 23af ffbd e9c8 2f3d
000002c0: 7546 6b3d c5d8 fe3e 0355 b5be 5a36 36be
000002d0: 2839 84bd d32b 1b3e 56b1 24bf e3c3 933f
000002e0: 6bde 9fbe 671f de3e 640f 973e 6cc4 653f
000002f0: e2c7 863e fa04 b9be 631d 29bf f09b 71be
00000300: 254b 893e 68a7 7d3c 9898 15bf ffdb 1d3f
00000310: 41a3 b1bd a0f5 8b3e 6bd4 e33c 1dbf c43e
00000320: 7dc4 4ebd 3175 f8be 1bb9 293f 68ef 413e
00000330: a938 45bd 9e9a c3be 15aa 93bd 5954 253f
00000340: b664 2c3e f409 133e ac0f 7abf 32e9 bdbd
00000350: 23a9 bf3e 1bed f6bd 49d3 ebbe 6ba3 85be
00000360: 23ba 73be 16b7 91be 983e 78be fc47 abbe
00000370: 29be 43be f1a5 86bd a98f 68bf a0be 31bd
00000380: 3eba bf3e 12c7 5bbe 6384 883f 18ec 0d3f
00000390: d5be 2f3e f5de 5b3e 87ed 05bf cccd c53e
000003a0: 2f7d 333e a027 f93e d8eb 4fbf 177b 32bd
000003b0: 407d af3e 68bb 703e cb40 a23e 7ab5 93be
000003c0: c2f2 bd3d e3b5 e2be 9635 623e 40f3 ba3e
000003d0: 97df 823d 9211 2f3e f8c9 36be 3dd5 54bf
000003e0: 12b1 1dbe 674e c2be 7853 8bbe 41b1 173e
000003f0: 87e4 1abe dfd1 f03c e90c a33f 557d eebe
0.35058725 -0.011998002 -0.8801897 -0.510233 -0.22512388 0.07843201 1.0812675 -0.057435222
-0.06664804 0.10239628 -1.3277578 -0.3934858 -0.24676293 -0.16289711 -0.6189367 0.53214425
-0.26563418 0.27164787 -0.8793169 0.23297672 -0.19476251 0.18176025 0.8630226 0.5657616
-0.20568371 -0.46925828 0.29431432 -0.51609635 0.38329995 0.1328597 0.216495 -0.5834349
0.24858764 -0.09521161 -1.2004822 0.3233542 -0.17367372 0.41251713 0.17756869 0.854635
-0.10199507 -0.09580253 -0.23363115 -0.08236038 0.38471156 -0.09373747 1.0700183 0.5074567
-0.3593566 -0.23351836 0.40461615 0.049457952 -0.15749702 -0.2749068 0.78813756 0.23230542
0.363277 0.24977268 -0.06690832 0.18304498 0.2383534 -0.004616598 1.2733678 -1.0072445
-0.15914181 0.17533447 0.34014058 0.82515854 0.24678823 0.15175544 0.22787932 0.7429259
-0.2226553 -0.24933003 -0.8863059 0.067618385 -0.23443282 -0.5141443 -0.35390863 0.48510823
0.21360031 0.48407763 -0.12558153 -0.5791449 0.28576964 -0.017135989 -0.07968222 -0.73247486
-0.41060832 -0.3575814 -0.9435277 0.45223486 0.45402813 -0.407648 -0.37208566 0.22740078
0.5232073 -0.12184054 0.94047755 -0.731493 0.12763737 0.028286126 -1.0844668 -0.48422867
0.22485416 -0.06488925 -0.6852294 0.15630774 -0.083550185 0.22969402 -0.28136665 0.7711942
0.3681123 0.34791636 0.22397387 0.105508484 -0.3411601 -0.29375508 -0.9318955 0.35419914
-0.2832997 0.2349243 1.229729 0.02984754 0.013351219 -0.21039262 -0.75084347 0.46775967
0.34228915 0.05462266 -0.45569283 -0.5321294 -0.22578983 -0.015831446 0.41426733 -0.08457161
0.090614915 0.28661272 0.7290582 0.29151782 -0.20216377 -0.42317903 0.50845444 -0.2417896
-0.007041762 -0.34633577 -0.110240094 -0.36924836 -0.22074413 -0.34507936 0.6669564 0.44901198
0.20230009 -0.22284706 0.22787993 0.2742695 -0.25608662 0.3845887 0.989411 0.16551544
0.08970614 0.37685737 -0.7726189 -0.5018205 -0.20708236 -0.0723594 -0.13708948 0.13162121
0.10312065 -0.41624075 -0.048952244 -0.29802123 0.36497724 -0.3847521 -0.124845766 0.042916212
0.05744024 0.49774757 -0.3541642 -0.17794171 -0.06456214 0.15153436 -0.64333093 1.1544155
-0.3122438 0.43383333 0.2950393 0.8975284 0.26324373 -0.3613661 -0.66060466 -0.23594642
0.26815143 0.015481807 -0.58435965 0.6166381 -0.08673716 0.27335835 0.02781125 0.38427058
-0.050480355 -0.4852691 0.66298074 0.18938982 -0.04814974 -0.382039 -0.07210175 0.6458183
0.16835293 0.14359266 -0.97680163 -0.09272994 0.3743373 -0.12056943 -0.46059635 -0.2610124
-0.23801474 -0.28459996 -0.24242628 -0.33453357 -0.19115509 -0.065746196 -0.9084421 -0.043394685
0.3744678 -0.21462658 1.0665401 0.55438375 0.1716264 0.2147177 -0.5231556 0.38633573
0.17528223 0.48663044 -0.81219244 -0.04357442 0.34275246 0.2350899 0.31690058 -0.28849393
0.09274818 -0.44279394 0.22090754 0.3651371 0.06390303 0.17096546 -0.17850482 -0.83137876
-0.15399578 -0.3795044 -0.2721212 0.14813711 -0.15126239 0.02939695 1.2738315 -0.46579996

fc1.bias f4 [300]
00000000: aae0 503e f1f3 61bf f384 aa3e 71dc d1be
00000010: a902 81be e301 41be 4e00 62bd c63c fdbd
00000020: 4e8c 6c3d ce33 63bf f996 863f f7ff 88bf
00000030: f901 68bf 3f0d d53e 7210 b4be d2bd 643f
00000040: b1a9 a1bf 3a7b f23e 34da 4e3d d5dd 47bf
00000050: ad38 bbbe 144c bd3e c829 3dbe abc7 283d
00000060: b16c f5bd ffa5 ae3e e8b9 313f 0ce2 16bf
00000070: 835d 87bf 47b0 2dbf b760 df3e 3fba 243f
00000080: d5e1 3dbe 5947 8cbf d750 163f 0115 1e3f
00000090: a211 d8be 5fee 3e3f f2ac bd3e b38d 32be
000000a0: 1da7 e43d 2e98 2dbf df4d ef3e 3eb0 6abf
000000b0: 5eb4 bf3e d609 f7be 46f7 ba3d 7ab4 523c
000000c0: 00fc d3be 8338 80bf 25a2 b43e 2e75 5ebf
000000d0: a436 51bf bafb b33e cc7d 453f 88c2 4f3f
000000e0: f5e1 313f d8ea 9abf 2087 16bf 0db8 44bf
000000f0: 9947 ac3e c4c8 843e 5973 f1bd 33e4 30bf
00000100: 3b4e 24bf a9a5 d2be 557a 493e 614c 1cbf
00000110: b139 043f 6e03 b2be 97a8 18bf 4d8d b7be
00000120: 31cd 9b3e 61af 94bf 845d 833e 7f30 47bf
00000130: 58ce 523e b113 423f 184d 23bf 52c4 5dbf
00000140: 2dd0 ab3f e981 96bf 17a7 ec3e 2a5c 9f3d
00000150: 1087 ad3d f649 f6bc 28a8 99bf f778 c73e
00000160: aeab d5bd 9998 083f 933c 7fbe 7a7f 01bf
00000170: cb6d 6d3f 3757 453f f357 5e3f b39e 63be
00000180: 7278 49bd 7db5 d13e 5621 dfbe ecb4 58bf
00000190: 7799 e83e 7966 3e3f 706e 763e 6615 c53e
000001a0: cdb7 fd3d dd4f 91be eaf0 0abe 7345 57bf
000001b0: de9b 01bd 306c d3be 3078 cc3b cdb9 c5be
000001c0: af2c 213f 3fb7 80bf 12f1 a13c 4a87 78bf
000001d0: 0447 7f3f 34f3 0dbf d042 1ebf 2ab8 65bf
000001e0: bdf6 053f c0cb 6b3f 9e93 513e ef7e edbe
000001f0: 6efb b0bd 9296 2ebf 8f55 013e 8f42 733d
00000200: 6801 843f 9a35 0c3f 0766 c8be 9786 1abf
00000210: 4e78 023f b8e3 183f ca76 46bf f8bf 84bf
00000220: deb3 d3be 250f 08bf 3607 9a3f e1a4 413f
00000230: 9d0c 35bf 0a0f aabf ca13 5dbf e58a 3a3d
00000240: 1983 f9be 4893 393f 1867 353f 8ba8 8d3f
00000250: 52c4 4c3f e2cd e53e f122 2dbf 9463 993e
00000260: f6be 543f 1b27 9a3e c346 32bf 4d92 c7be
00000270: 9e4b cdbe 7c15 2c3f 2e4d 463f 1a2a dd3e
00000280: c2c7 753e ed6f bc3e 1f51 123f 1b36 5fbe
00000290: b821 b2be 9a33 cf3e d3a1 9dbd d0d9 573f
000002a0: 70af eabd d506 0d3f cf48 9b3f 07ab 8d3d
000002b0: 0ec3 153f 8412 9abe 1031 22bf f4d7 dc3b
000002c0: 9d4d 323f 4f85 cc3e d97a ca3e ba91 7dbf
000002d0: b8fa 5ebf be1e 1cbf 1799 363f a5aa 123f
000002e0: 2255 293f 721b 003d cc6e 08bf 1b18 843f
000002f0: 9c80 d1be e0d0 d93e bb97 9ebe 55d5 7ebf
00000300: 3a3a 71bf 7ada ae3f 95b9 04bf affc 62bf
00000310: c4cf 04bf d7c9 efbe adf0 143e 8d23 24be
00000320: cb12 aa3e b9f1 a53f 7121 5abf b571 a03d
00000330: a529 873f eb47 d43e 717b 7dbe 2bfc 473f
00000340: d777 04bf 096a 18bf fee5 cabe 4d4c 8cbf
00000350: 0ffe 5dbf 7293 0fbf 6a52 a0bd f645 663e
00000360: 3d00 443f de59 00bf 8c98 3d3f bfa1 f7bd
00000370: fcda 2a3f 3dbe d5be 9a41 333f 60bd 22bf
00000380: 7dde 903e 1edc 1fbf 5865 dabe e500 c93e
00000390: 2ffc 69bf 3dc9 483f c9af d3be 676f 9fbd
000003a0: 7256 1cbf a596 7ebf bb98 76bf 28dd 373f
000003b0: eec5 47be 2ece 4bbf aba0 43be b067 86bf
000003c0: 8c7e dd3e 859a 75bf 5f25 bb3e 232a 78bf
000003d0: 6a49 20bf 5efb 27be 6826 2ebf b04e 4dbf
000003e0: 4fcd d43c 1ceb 263f 73e9 6bbf 2b68 f53e
000003f0: 19cd fc3d 2cd4 203e 47f7 413f fbfc 163f
0.20398203 -0.8826285 0.33304557 -0.40988496 -0.25197342 -0.18848376 -0.05517607 -0.12365107
0.057750992 -0.8875092 1.0514823 -1.0703114 -0.9062801 0.41611668 -0.35168797 0.8935214
-1.2629911 0.4735964 0.050501063 -0.78072864 -0.36566678 0.36972106 -0.1847297 0.041206043
-0.11983622 0.3411102 0.69424295 -0.5893867 -1.0575413 -0.678471 0.43628475 0.6434669
-0.1854318 -1.0959274 0.587171 0.617508 -0.42200953 0.74582475 0.3704601 -0.17436866
0.11164687 -0.6781033 0.46739098 -0.91675174 0.37442297 -0.48249692 0.09129195 0.012860412
-0.41403198 -1.0017246 0.35279956 -0.8689755 -0.81724 0.3515299 0.77145076 0.81156206
0.6948541 -1.2102919 -0.58799934 -0.7684334 0.33648375 0.25934422 -0.11789579 -0.69098204
-0.6418187 -0.41142014 0.19675572 -0.61054045 0.5165053 -0.34768242 -0.5963225 -0.3584999
0.30429986 -1.1616021 0.25657284 -0.77808374 0.20586526 0.75811297 -0.6378951 -0.86627686
1.3422905 -1.1758395 0.4622123 0.07781251 0.08473027 -0.030064564 -1.2004442 0.38959476
-0.10433136 0.53357846 -0.24925451 -0.5058514 0.92745656 0.77086204 0.8685295 -0.22228508
-0.04918713 0.40958777 -0.4358012 -0.84651065 0.45429584 0.7437511 0.24065566 0.38492888
0.12388573 -0.28381243 -0.13568464 -0.84090346 -0.031642787 -0.41293478 0.0062399134 -0.38618317
0.62958807 -1.0055922 0.019768272 -0.97081435 0.99717736 -0.55449224 -0.618207 -0.8973414
0.5232962 0.9210777 0.20466468 -0.46385905 -0.086417064 -0.681985 0.12630294 0.059389647
1.0312929 0.5476929 -0.3914034 -0.6036162 0.5096482 0.5972247 -0.7752501 -1.0371084
-0.41348165 -0.5314811 1.2033451 0.7564221 -0.7072237 -1.328584 -0.8635832 0.045542616
-0.48732832 0.7249036 0.70860434 1.106706 0.7998706 0.4488364 -0.6763144 0.29958785
0.83103883 0.3010796 -0.69639224 -0.38978806 -0.40096754 0.6722028 0.77461517 0.43196183
0.24001983 0.36804143 0.5715503 -0.21797983 -0.3479135 0.40469056 -0.07696881 0.8431673
-0.11459243 0.5508855 1.2131594 0.069173865 0.58500755 -0.3009225 -0.63356113 0.006739611
0.6964968 0.39945456 0.3954685 -0.99050486 -0.87101316 -0.6098441 0.71327347 0.5729163
0.6614553 0.031276174 -0.5329406 1.0319856 -0.40918434 0.4254217 -0.30975136 -0.9954427
-0.9422947 1.3660424 -0.51845676 -0.88666815 -0.51879525 -0.4683368 0.14544936 -0.16029187
0.33217463 1.2964393 -0.8520728 0.07834188 1.0559584 0.4146112 -0.2475412 0.7811915
-0.5174536 -0.59536797 -0.39628595 -1.0960785 -0.8671579 -0.5608436 -0.07828219 0.22487625
0.76562864 -0.50137126 0.74060893 -0.120913975 0.66740394 -0.41746703 0.70021975 -0.63570213
0.28294745 -0.6244525 -0.42655444 0.39258495 -0.91400427 0.78432065 -0.4134505 -0.0778492
-0.61069405 -0.99448615 -0.963268 0.7182183 -0.19509098 -0.7961148 -0.19104259 -1.0500393
0.4326061 -0.95938903 0.3655195 -0.96939296 -0.6261202 -0.16404483 -0.68027353 -0.8019819
0.025976805 0.652025 -0.9215309 0.47931036 0.12343807 0.15705937 0.7576794 0.5897977

fc2.weight f4 [200, 300]
00000000: ef60 163c fa72 d83c 745b 2fbe 3004 263d
00000010: b7ef a8bd 233d aabd 75ce f33c b9e7 363d
00000020: 03b1 f33c ae17 c2bd d449 e53c 52fa 173b
00000030: cdf5 733d 81f3 dcbc d68d 17bc 9c36 f33d
00000040: e41d 51bc d58f 94bc bc97 33bd db14 af3b
00000050: 51ec 0fbc e5ec a53c d83c 713c f4fa 813d
00000060: e55c 443d 3567 71bd c9af 50bd 70a8 92be
00000070: 69dd 0f3d a488 5fbd 9326 ae3d 63c7 60bd
00000080: 2998 88bb 56c4 963c 3b0d 6c3d 2db4 593c
00000090: c1fc 1dbd f69b d43c 0b0c 14bd 7185 63bd
000000a0: 36f1 1fbb d693 703d febc bcbc 761d d23b
000000b0: c217 6b37 9c89 96bd 280f a83d bc59 1f3d
000000c0: e789 753b 66ba adbe b00a 2dbd 20b6 16bd
000000d0: 8121 6bbc e297 04bd 7d8c 083c eddd 0cbd
000000e0: d425 833d 6b92 a93c 3a8c 8b3d b15f 553d
000000f0: ef0b 893d f6fd 0e3b ffa1 d33a ab9e 15bc
00000100: a4b3 373d 4cdb 033d 7b77 1abd 4379 4dbd
00000110: 97ae 2f3c 87c0 64bd 8672 20bc 39e7 a33c
00000120: 6731 c1bd 865f 1dbe 5ff5 333d def9 62bc
00000130: 2da7 193d 5e38 fa3d ec7e 913d 1ea7 9cbc
00000140: d0fe 23bc 3eda 0d3d ba4b b8bc 2caf 2bbe
00000150: 9b50 11bd 07de 8dba d2ea 8b3d afea 453d
00000160: e0a7 393d d264 a33d 5ae6 1a3d 11e0 8dbc
00000170: dbe1 36bc 470b 563d 11ab ef3c 639c 9dbc
00000180: 0fb2 d3bd 4051 383d 464e e3bc 6b56 a2bd
00000190: a2ca ecbc 1d06 943c 295c 4a3d 3ff2 8a3c
000001a0: feee dbbc c64f f2bd afd8 1ebc 70ad cabd
000001b0: 8b74 65bd 2179 173d 73e3 0a3b 247d f5bd
000001c0: 7b25 a0bb b4b5 8f3b 0a9b dbbd dc2e 91bd
000001d0: 81b9 883b 1ab0 d2bb 8435 39bd fe8d 713d
000001e0: 8858 f6bb 915c 25bb a276 b0bc ca72 1eba
000001f0: 9598 7ebd 7180 2cbd cf6f be3d 4e54 1fbd
00000200: 8107 5e3c c006 ccbd b453 293a d2d5 cfbc
00000210: 0bc7 11be 0b1f 4fbd 25a7 863d f520 17bd
00000220: 3f23 ed3c 9e4b e03d 9000 013d f66b 193e
00000230: 67e1 e53c 87f0 52be a5ed 5a3c 7414 7ebd
00000240: 3768 323d b41e 55bc 30e5 1abd ddde 83bd
00000250: c095 3ebd b8b8 fc3c 530e 81bd eec0 453c
00000260: 91e4 10bc 7618 e1bc ab54 94bd 4ea9 5c3d
00000270: 8f09 963d 96f9 123d 9fa8 0ebd 134b cbbc
00000280: 3cfa 7c3e 5cdd 843d ce06 9abc d2a6 eabc
00000290: 48c0 403d cb0b 1cbd b41d 05be a534 b3bc
000002a0: 79a1 ffbd 648b 743d 1521 38bd fc27 24bc
000002b0: 9771 0c3d ac3e db3c db2d 6b3c 1742 43bd
000002c0: 4a16 983d e3d9 09bd d830 6ebb e06e 6bbd
000002d0: e2ba 383c 64f4 c5bc 4ac5 21bd 6917 65bc
000002e0: 154c 23bd 56c0 283c 6ce9 b73c 0b41 5fbd
000002f0: 3d16 903d a0f4 383d 2647 d0bc 2106 c13c
00000300: b019 fabc 355f 6cbc d791 54bd 4651 15bc
00000310: 62d5 f33c 0d14 123d 7165 2b3d 93ca a8bc
00000320: b3f4 373c 31cd d63d d76a 48bd 4128 61bc
00000330: 535a aabb a09d 24bd f1f4 83bd 1e6f 5fbd
00000340: b06f 893c 0a07 c8be f7f3 063d 7091 8b3c
00000350: 8b54 80bd 8259 85be 8d3c e8bc 6fe7 9e3b
00000360: 47ee 25bd 527b 40bd b0f9 623d 7bb2 01bd
00000370: 1008 8bbd 655a 29bd b664 96bc b8c5 42bd
00000380: 8651 df3d 6b56 8abd 57cd eb3c 996d 4f3d
00000390: 818a bdbd 1041 9b3d ea1b 11bd 791e 0ebe
000003a0: bfe4 1d3b 8791 5fbd 79f5 02bf 4e50 4f3c
000003b0: d8ab 4bbb eee7 973c ee48 733d 0be8 4abc
000003c0: 76f7 86bc 6530 4e3c 0cac 063d d784 033b
000003d0: a12c 01bf bf3c 3c3d 95a3 dbbd e1c9 58bd
000003e0: 1489 fbbc 8624 cf3d 4a8b 943c afbb efbb
000003f0: afbe 203d 9865 4a3d b877 90bd b561 dd3c
0.009178384 0.026422013 -0.1712473 0.040531337 -0.08248847 -0.08312442 0.029761532 0.04465458
0.029747492 -0.09477173 0.027989306 0.0023189974 0.059560586 -0.02697158 -0.009250125 0.1187565
-0.012763474 -0.01813499 -0.043845877 0.0053430623 -0.00878437 0.020254562 0.014723979 0.06346694
0.047940154 -0.058936317 -0.05094889 -0.28644133 0.035123263 -0.05457367 0.08503451 -0.05487765
-0.0041685295 0.018404167 0.057629805 0.013287586 -0.038571123 0.025953274 -0.036144298 -0.05554718
-0.0024405248 0.058734737 -0.023039337 0.0064122034 1.4012623e-05 -0.07350466 0.08206016 0.038903937
0.003746623 -0.33931273 -0.04224652 -0.03679478 -0.01435125 -0.03237141 0.008334276 -0.034391332
0.064036995 0.0206997 0.068138555 0.05209321 0.06691729 0.0021818853 0.0016146301 -0.009132068
0.044849053 0.03219156 -0.0377116 -0.050164472 0.010722778 -0.05584767 -0.0097929295 0.020007716
-0.09433251 -0.1536847 0.043935176 -0.013853518 0.037512947 0.122177824 0.071042866 -0.019122656
-0.0100094825 0.03463196 -0.022497047 -0.16766042 -0.035477262 -0.0010823616 0.06831898 0.048319515
0.045326114 0.07978214 0.037817337 -0.017318757 -0.011162247 0.05225685 0.029256376 -0.01923961
-0.10336696 0.04499936 -0.027747285 -0.07926639 -0.028905217 0.018069321 0.049404297 0.016961215
-0.026847359 -0.11831622 -0.009695216 -0.09896362 -0.056019347 0.036980752 0.00211927 -0.11986759
-0.0048872805 0.0043856744 -0.10722931 -0.07089016 0.0041725044 -0.0064296843 -0.045217052 0.058973305
-0.007517878 -0.0025232176 -0.021540944 -0.00060443266 -0.062157232 -0.04211468 0.092986695 -0.03889876
0.013551594 -0.09962225 0.0006459311 -0.025370512 -0.14236085 -0.050566714 0.06574849 -0.036896665
0.02894747 0.10951923 0.031494677 0.1498259 0.028061582 -0.20599566 0.013362323 -0.062031224
0.04355642 -0.0130078085 -0.037816226 -0.06438992 -0.04652953 0.0308498 -0.0630156 0.012069924
-0.008843557 -0.027477484 -0.07242712 0.0538724 0.07326042 0.035882555 -0.03482878 -0.024816072
0.24704832 0.064875335 -0.018802073 -0.028644 0.047058374 -0.038097184 -0.12999612 -0.021875689
-0.1248197 0.059703246 -0.044953424 -0.010019299 0.034288015 0.026763283 0.0143541945 -0.04767045
0.07426126 -0.03365506 -0.003634503 -0.057478786 0.011275025 -0.024164386 -0.03949479 -0.013982632
-0.03986748 0.010299763 0.022450171 -0.05450539 0.070354916 0.045155168 -0.025424551 0.023562493
-0.030529827 -0.014426996 -0.051896896 -0.009113615 0.029764835 0.035663653 0.04184479 -0.020604407
0.011227774 0.10488356 -0.048930015 -0.013742507 -0.005198756 -0.040189385 -0.06443203 -0.05454933
0.01677689 -0.3906787 0.032947507 0.017037123 -0.06266125 -0.26044852 -0.028349185 0.0048493664
-0.040510442 -0.046992607 0.0554139 -0.031664353 -0.06788647 -0.041345973 -0.01835857 -0.04755184
0.10904221 -0.06754764 0.028784437 0.05064163 -0.09254933 0.07580769 -0.03542701 -0.13878812
0.0024092642 -0.054582145 -0.5115581 0.0126534235 -0.0031077769 0.01854321 0.059395723 -0.012384425
-0.01647542 0.01258478 0.03287892 0.0020068192 -0.50458723 0.04595637 -0.1072456 -0.0529269
-0.030705012 0.10114388 0.018132824 -0.007316075 0.03924435 0.049413294 -0.070540845 0.02702413

fc2.bias f4 [200]
00000000: a2ae 503d 2a40 0cbd a649 b1bd 18e8 293e
00000010: 5be3 ec3c 4608 fe3e ea4f f3bd fe7d 073d
00000020: bd0e 923e 0d5e 563e 0784 063f edd4 8ebd
00000030: 58ff acbd ffc2 3fbd 5423 8d3d 4d98 fb3d
00000040: 7c69 473c fc62 213d 1631 373b c783 24bd
00000050: 0012 ce38 92b6 eb3b 8d11 863e d101 01bd
00000060: 2d68 6dbd 9804 d23e e172 41be d07c dabd
00000070: 126c 263e daac 973e c646 d2ba 814b 803e
00000080: cd9e d1ba 3171 563e f8a2 88bd cd83 e9be
00000090: 9e8f 5c3c 782a 3e3c e9bd 953e 2f5b bf3e
000000a0: 36fb 873e 06c8 be3e df63 b7bc 6fa2 d3bc
000000b0: f6e1 aabc 2993 913d eed2 94be 4120 733e
000000c0: 46f6 323d 1b31 8a3e 54b1 03bd 93da e43e
000000d0: 7ffb 2ebe c0a8 083e b8fa 2dbc c890 823e
000000e0: 73e3 963c 64ab a0bc ee23 c73e 8636 a53e
000000f0: bf27 7b3c c2d6 56bd 7fa4 f43e 9c11 0ebc
00000100: b263 a2bd 18e9 063f f865 7abc ef82 343d
00000110: ba87 ae3e d5fb 483d 7e00 ac3e 00dc 89bc
00000120: 357a 3f3d 7a30 9f3e a3ff 553e 4255 e93d
00000130: 7943 eabb 60b7 c5bd 5407 a0bc 06b4 1a3e
00000140: 2a6e dcbe 322d 7e3c ab54 8b3e bc3b db3e
00000150: f3cf 693e a525 35bd 2cfa 0dbb 6dc4 3fbe
00000160: 740a 733e 0577 483c df18 123d af36 7f3e
00000170: 003a 2fbd 6f12 08bd 6099 7c3e fc91 59ba
00000180: 73d2 843e ea4d 1ebe df29 08bd 62c4 7b3e
00000190: be5c 813e b081 253d 2ca0 c73b f42f 063e
000001a0: d45d 63bc 8909 d73c cb61 bebe ee64 1a3d
000001b0: 5601 5b3e 3d3c 49bd 378a b9bd 7ca0 cabc
000001c0: 7dc2 86be 9b01 1fba cfc8 583e 0b09 563e
000001d0: b284 8a3c 3b06 b93e 835b bbbc 2852 b8bc
000001e0: 0666 52bd c289 3b3e 5bba b33b 7444 2abd
000001f0: 7f4c 53bd 02e5 60bb 3244 f3bc 2ffa d4bd
00000200: 424e e83e b2a3 d83c 8a36 3abd 7422 3e3d
00000210: 0e90 abbd df86 f13c d336 7f3c b48c 083e
00000220: 96ed 3ebd 94e4 923c ef9b 2dbd d811 2cbe
00000230: e8f3 723e d519 1d3e b40d 0ebd c856 41bd
00000240: 74ab 3cbc f358 873e 3897 fabb a798 f33d
00000250: 2a06 b73d a21b 1b3e b373 eabe 0c24 123e
00000260: 5341 cfbc dc7b c2bc b407 093e 7f29 b83e
00000270: 0f06 9bbd 6ea8 813e 1881 54b9 09c3 9fbe
00000280: 4688 283e c044 91bd f571 723e 1e9e 9e3d
00000290: 964a 253e 4064 a63c 8759 2dbd 3050 71bb
000002a0: ec57 8e3c a696 b73c f2b5 0c3d 962e 90bd
000002b0: 74f9 043d b34d bcbc b2a5 343e 6623 70bb
000002c0: 80a5 92bd 1d19 1e3f fcd4 2a3d 56d5 9b3e
000002d0: 68a1 593e b381 6c3e 772c aebc 862d 963d
000002e0: c3c8 7f3e 7284 bf3e 214e ff3c 6986 383e
000002f0: fe1f d2bd 7f7e 2ebe eaca 9ebe b3c2 e2bd
00000300: 4c66 50bd 4144 453e d0d6 723c 42e0 1f3c
00000310: b4e0 2a3c 0b5c 183e f91b 5fbe 6f51 af3b
0.050947793 -0.03424088 -0.086566254 0.16592443 0.028917005 0.49615687 -0.11880477 0.03307914
0.2852687 0.20934315 0.5254521 -0.06974206 -0.084471405 -0.046816822 0.06891504 0.122849084
0.0121711455 0.03940104 0.0027952841 -0.040164735 9.826198e-05 0.007193395 0.26185265 -0.031495873
-0.057960678 0.4101913 -0.18891479 -0.10668337 0.16252163 0.29624063 -0.0016042821 0.25057605
-0.0015992761 0.20941617 -0.06671709 -0.4560837 0.013461975 0.011606805 0.29246452 0.37374255
0.26558846 0.3726198 -0.02238649 -0.02583429 -0.0208597 0.07108147 -0.29067177 0.23742773
0.043691896 0.2699059 -0.032151535 0.4469801 -0.17088126 0.13345623 -0.010618858 0.25501084
0.018419003 -0.019612975 0.388946 0.3226816 0.0153293 -0.052450903 0.4778175 -0.008671191
-0.079291716 0.5269942 -0.0152831 0.04407018 0.34087926 0.04906829 0.33594126 -0.016828537
0.046747405 0.31091672 0.20898299 0.11393215 -0.0071491566 -0.09654117 -0.019534744 0.15107736
-0.43052799 0.015513705 0.27213034 0.4281901 0.22833233 -0.044225354 -0.0021664007 -0.18727274
0.23734456 0.012235408 0.03566825 0.24923204 -0.042779922 -0.033220705 0.24667883 -0.00082996464
0.2594181 -0.1545941 -0.033243056 0.24586633 0.2526607 0.040406883 0.006092092 0.1310423
-0.013877351 0.026249664 -0.37183985 0.03769391 0.21387228 -0.049129713 -0.090595655 -0.024734728
-0.26320258 -0.0006065608 0.21170352 0.20901887 0.016908977 0.36137566 -0.022870785 -0.022500113
-0.05136683 0.18314269 0.005484862 -0.04156919 -0.051586624 -0.0034316187 -0.029695604 -0.10399281
0.45372206 0.026445244 -0.04546217 0.046419576 -0.083770856 0.029483257 0.015577036 0.13334924
-0.0466133 0.01793126 -0.042385038 -0.16803682 0.23725855 0.15341885 -0.034681037 -0.0472019
-0.011515487 0.2643505 -0.007647421 0.118943505 0.089367226 0.1514726 -0.45791396 0.14271563
-0.025299704 -0.023740701 0.13381845 0.3596916 -0.07569515 0.25323814 -0.00020265987 -0.31203488
0.16458234 -0.07093191 0.23676284 0.07745002 0.16141734 0.020311475 -0.042321708 -0.0036821477
0.017375909 0.022410702 0.034353204 -0.070401356 0.03246446 -0.022986269 0.17641333 -0.0036642193
-0.07160473 0.6175707 0.041707024 0.304362 0.21252978 0.23096351 -0.021261437 0.07332902
0.24978928 0.37405735 0.031165184 0.18020023 -0.10260008 -0.17040442 -0.31014186 -0.11072292
-0.050878808 0.19264318 0.014821723 0.009758057 0.01042955 0.14878862 -0.21788014 0.005350284

fc3.weight f4 [2, 200]
00000000: 27e2 813c 4d75 ee39 b74f f8bc 5456 343c
00000010: 11bc c33c d748 e13e 120a 8cbb 5815 013d
00000020: bfc4 92bf f08c 5c3c aa9d c0be 447e 85bd
00000030: d835 fcbc 9703 c33d 17d5 1b3e 8270 4e3d
00000040: 7268 6b3c ea54 6b3d 2ddf eebb f1fb 393d
00000050: a85b 5bbd 34af f6bc 1fa3 0b3d c8f4 a63d
00000060: ed24 2c3d 4c5a b73e 9af1 1dbe 1072 67be
00000070: 9d3e 10be 66ec 3e3d 7d19 813d 19ac 15be
00000080: 9e62 79bd 11de af3e 6f6a 79bb 392e d5bd
00000090: 3abb 82bd 101d 00bd 2d5f 5cbe b049 16bf
000000a0: f0a8 87bd 41c1 4e3e c683 243d 4019 813d
000000b0: f494 8fbd a543 143e 9970 a3bd 2a67 93bd
000000c0: 3aff c63b 3da0 673e 10e4 2e3d 9e58 df3d
000000d0: ccef 75bd e52d 0ebe 5a2a 9bbb 0828 a73d
000000e0: f21c 1fbd 496b 013d 8481 413e 1057 96be
000000f0: 2a94 82bc 7632 2dbd 1187 193e ca94 e13c
00000100: b9df fbbc ac04 29bf 6cc5 853c 3433 85bd
00000110: 8812 fb3d 569f 863a 64cf 213e 6f18 93bd
00000120: 5192 733d 4871 80be 3bc9 ef3c dcc1 cabd
00000130: 9e62 793d d10c ccbd 51bd 813d 4b29 7ebb
00000140: ab3a 8abd 817f fcbd d7f8 593d c995 ec3c
00000150: 3e32 b13d 2c05 053d a834 1d3d 39bc 09bd
00000160: 1fb5 92bf fb4c 33bc ba33 b2ba 3871 15be
00000170: d584 c73b dd6f 353d 7943 153e 2cd8 a13c
00000180: 842a 043e e4d2 2bbe 5833 c3b9 7915 133e
00000190: 5985 10be e0ae 433c d336 7f3d a3dd cf3c
000001a0: 40a9 4c3d 9a57 3bbd 2f02 f6bc e27f 87bc
000001b0: 1554 1bbf d754 a83d c88b a4bd 0ff2 d3bd
000001c0: 3bbb 82bd 77e3 ddbc 7b41 a83d c578 7fbe
000001d0: 2957 b7bb 51d6 3f3d 39a5 14bd 0559 06bc
000001e0: 3f54 373d 7a2a 203d 3873 b9bc fb03 633d
000001f0: babd 7e3d 47eb 5d3c b46e 21bd bfa3 adbd
00000200: 0ebc 69be 730c 50bc 8a1a 4d3d 7dc2 06bd
00000210: 92ad 99bd 7a64 4fbd 428a 033d fe77 76bd
00000220: 111b 823d 7035 42bd f3e9 3c3d 74b6 4cbe
00000230: 4f76 fbbc a34f 153c 7e73 37bd bd60 5cbd
00000240: d2e4 0c3c ee5f a5be 880d 013d 35f5 123d
00000250: 96a7 1ebe a9ec 343d 2e43 0bbe 476a a1bd
00000260: bedb 073c 95a5 19bd 6c6b 693d 1de7 63be
00000270: 5898 00bb d0a6 c9be 286a 7bbd 825a acbe
00000280: acac 1abe 380d debd 5252 c43d 84d2 cfbe
00000290: 89f5 71bd d6f5 493b f625 883d 2fed 08bd
000002a0: 97bf 543d 1467 f538 defe 793d 6a1a 003e
000002b0: 4f93 7abd ce81 dd3c 68da d8bb bedb 873c
000002c0: 07ee 49bc f05a f83e b50c 073d 5df7 83be
000002d0: b39b fdbd 4f30 92bd c58b 783d bc3f 26bd
000002e0: 0abe 83be e76a 7ebe 182d 02bd ec47 e53c
000002f0: cdc8 2dbd 551c 87bd 8680 91bd b157 87bd
00000300: 2718 89ba da3f 413b 7288 82bd b6b2 c03c
00000310: 013f 273d 3522 c63c cfcf 25bd 17a8 383d
00000320: fca7 473d a25e 963c 2ff3 07be 839e 8cbe
00000330: 7c3c 643b 56f7 77be ae1d efbb 803e 003d
00000340: 4f30 123d e0a6 88bd 4086 12bd 4ebb e5bc
00000350: 7d5d 493d 561c 87bc 0af2 3abe eed9 06be
00000360: 295e fd3c f703 1cbd 0173 573d 4fad 123d
00000370: b830 093d 7455 a0bb 681b 9cbc 4756 1abd
00000380: cd53 2c3d 0e0e efbd b5a2 d1bc 4176 6a3c
00000390: a081 893c e573 edbd 3d28 5bbc 5b8c 82bc
000003a0: 9b22 043d ebe6 0bbd 8489 ecbd 61e1 debc
000003b0: f4d2 c73b 0e26 82bd a172 e8bc 438a 03be
000003c0: 4005 e8bd f095 2ebe 6ffd 673c ee52 5d3d
000003d0: 2aae 3fbd ad34 64bd c22c 73bd 1333 c5bd
000003e0: 7e4c d33c c3a3 74be c054 deba 3b56 c5bd
000003f0: cf0f 54bd 2b72 16bd 7455 20be e6ee 18be
0.015854908 0.00045482293 -0.030311448 0.01100691 0.023893388 0.44000885 -0.0042736614 0.031514496
-1.1466292 0.0134613365 -0.37620288 -0.06518224 -0.030787393 0.09522169 0.15218006 0.050400265
0.014368163 0.057454027 -0.007289788 0.045406286 -0.053554207 -0.03011284 0.03409111 0.08152157
0.042027403 0.3581108 -0.15424195 -0.22602105 -0.14086385 0.046612166 0.0630369 -0.14616431
-0.060885064 0.3434911 -0.0038057824 -0.10409207 -0.06383367 -0.031277716 -0.21520682 -0.5870619
-0.06624019 0.20190908 0.04016473 0.06303644 -0.070108324 0.1447893 -0.07980461 -0.07197411
0.006072906 0.2261972 0.042697966 0.10905574 -0.06004314 -0.13884695 -0.0047352733 0.08161932
-0.038845964 0.031596456 0.18897063 -0.29363298 -0.01593979 -0.04228445 0.1499293 0.027536768
-0.030746328 -0.66022754 0.01632949 -0.06503907 0.12259394 0.0010270874 0.1580177 -0.07182395
0.05946571 -0.25086427 0.029270759 -0.09900257 0.060885064 -0.09963382 0.06334937 -0.0038781937
-0.06749471 -0.12329007 0.053215828 0.028880017 0.08652161 0.032475635 0.038380295 -0.03362677
-1.1461524 -0.010943647 -0.0013595738 -0.14593971 0.006088833 0.044296134 0.1457652 0.0197564
0.12906843 -0.16779667 -0.00037231552 0.1436366 -0.14113368 0.011943549 0.062308144 0.02537424
0.049966097 -0.04573784 -0.030030338 -0.016540471 -0.60675174 0.08219307 -0.08034474 -0.103489034
-0.06383368 -0.027086003 0.082156144 -0.24948414 -0.005595107 0.046835247 -0.03629038 -0.008199935
0.044758078 0.03910301 -0.022637948 0.055423718 0.062192656 0.013544864 -0.039412215 -0.08478498
-0.22825643 -0.012698281 0.050074138 -0.032900322 -0.07503809 -0.05063293 0.032114275 -0.060173027
0.06352819 -0.047414243 0.04612155 -0.19991475 -0.030696062 0.009113225 -0.044787876 -0.053803194
0.008599477 -0.3229975 0.031507045 0.03587838 -0.15493616 0.04417101 -0.13599846 -0.07881599
0.008292137 -0.037511427 0.05698721 -0.22256131 -0.0019622054 -0.3938508 -0.061380535 -0.33662802
-0.15104932 -0.10842365 0.09586014 -0.40590298 -0.05907205 0.0030816696 0.066478655 -0.03342932
0.051940527 0.0001170171 0.061034076 0.12510076 -0.06117564 0.027039435 -0.006617833 0.016584273
-0.012324817 0.4850688 0.032971103 -0.2577466 -0.12383213 -0.071381204 0.06068017 -0.040588126
-0.25730926 -0.24845468 -0.031781286 0.027988397 -0.042427827 -0.06597201 -0.07104592 -0.06608523
-0.0010459468 0.0029487521 -0.06373681 0.023522716 0.04083157 0.024186233 -0.040481385 0.045082178
0.048744187 0.018355671 -0.13276361 -0.27464685 0.003482609 -0.24215445 -0.0072972393 0.031309605
0.035690602 -0.06672454 -0.035772562 -0.028043415 0.049161423 -0.016493004 -0.18256393 -0.13169071
0.030928688 -0.03808972 0.05259991 0.03580981 0.033493727 -0.0048929993 -0.019056037 -0.037679937
0.042072106 -0.116726026 -0.02559028 0.0143104205 0.016785443 -0.11594371 -0.013376293 -0.015936067
0.032259565 -0.034155767 -0.115496665 -0.027207078 0.0060981456 -0.063549146 -0.028374972 -0.12845711
-0.11329126 -0.17049384 0.014159544 0.054034166 -0.046796955 -0.055714298 -0.059368856 -0.09628882
0.02579331 -0.23890595 -0.0016962513 -0.09635588 -0.05177289 -0.036729973 -0.15657598 -0.14934883

fc3.bias f4 [2]
00000000: 1f7d 563e def2 b4bd
0.20946167 -0.08835386
