log/train_1_1k/models/40_actor.pt (torch_old, 249426 bytes, 6 tensors)

fc1.weight f4 [300, 4]
0	0x3eaa7710	0.33293962
1	0xbe0a9c61	-0.13536216
2	0xbe9c4b59	-0.30526236
3	0xbf04a394	-0.518121
4	0xbeb4853a	-0.35257894
5	0x3dea4080	0.11438084
6	0x3f074e85	0.52854186
7	0xbe84da06	-0.2594759
8	0xbe003ac1	-0.12522413
9	0x3dc778af	0.097398154
10	0xbf0d6cca	-0.55244124
11	0xbecf4213	-0.40480098
12	0xbecb6d7e	-0.39731973
13	0xbe17f20c	-0.14838427
14	0xbdce7ae3	-0.100820325
15	0x3ef5db4b	0.4801887
16	0xbec68b52	-0.38778168
17	0x3ecd7598	0.4012878
18	0xbe7d64f8	-0.24745548
19	0x3c6bd809	0.0143947685
20	0xbe695735	-0.22787173
21	0x3e876c29	0.26449707
22	0x3d68958c	0.056783244
23	0x3e56f7cc	0.20992965
24	0xbe9f6039	-0.311281
25	0xbef257c1	-0.47332576
26	0x3e476635	0.19472583
27	0xbee2a1b7	-0.44264004
28	0x3ecc5b9a	0.39913636
29	0x3e62ce89	0.221491
30	0x3ef8a789	0.4856532
31	0xbf297143	-0.6618845
32	0x3e65649e	0.22401664
33	0xbd818c34	-0.0632557
34	0xbf5143e3	-0.8174421
35	0x3e89135c	0.26772583
36	0xbe7aab6c	-0.24479455
37	0x3eb7cf94	0.35900557
38	0x3e735ecd	0.23766632
39	0x3f254d09	0.6457067
40	0xbe32e241	-0.17469122
41	0xbdbda86e	-0.09260641
42	0xbeafcfed	-0.34338322
43	0x3dae2461	0.085030325
44	0x3eacf462	0.337802
45	0xbe48f825	-0.1962591
46	0x3eeb728c	0.4598583
47	0x3d27a167	0.04092541
48	0xbefbaafb	-0.49153885
49	0xbe1505d9	-0.14553012
50	0x3eece73a	0.46270162
51	0xbd6d28df	-0.057900306
52	0xbe6e6a64	-0.23282772
53	0xbe9077ed	-0.28216496
54	0x3ee223b7	0.44167873
55	0x3e88f892	0.26752144
56	0x3ec42059	0.3830593
57	0x3ece3896	0.40277547
58	0x3e8e6795	0.27813402
59	0x3de8fb8f	0.11376106
60	0x3e1f37b4	0.15548593
61	0xbe4b167e	-0.19832799
62	0x3f20536e	0.62627304
63	0xbe2d6cf7	-0.16936098
64	0xbe5c3764	-0.21505505
65	0x3e598cea	0.2124516
66	0x3e7c482e	0.2463691
67	0x3ea63be8	0.3246758
68	0x3e80c196	0.25147694
69	0x3e391b26	0.18076763
70	0x3eb7bbcb	0.35885462
71	0x3f1dbe74	0.61618733
72	0xbea63812	-0.32464653
73	0xbe303054	-0.17205936
74	0xbed3e311	-0.41384175
75	0xbc8ba772	-0.017047618
76	0xbeac587f	-0.33661267
77	0xbed6cc78	-0.41952872
78	0xbdbb2e40	-0.09139681
79	0x3ef3c4f9	0.47611216
80	0x3e98358e	0.2972836
81	0x3ee69143	0.450327
82	0x3e6c3021	0.23065235
83	0xbf24b17c	-0.6433332
84	0x3dfe48e7	0.12416249
85	0xbe793332	-0.24335936
86	0x3d85ef0d	0.06539736
87	0xbebf3547	-0.37345335
88	0xbea11ca8	-0.31467175
89	0xbebac565	-0.36478725
90	0xbee75cd8	-0.45188022
91	0x3eb89955	0.36054483
92	0x3eba412d	0.3637785
93	0xbefc8770	-0.4932208
94	0xbbc2c42f	-0.005943797
95	0x3dcb5c96	0.09929769
96	0x3ef72f0e	0.48278087
97	0xbe90ebf1	-0.2830501
98	0x3ef4d8d7	0.47821686
99	0xbf2ae4d8	-0.6675544
100	0x3dc8251e	0.097727045
101	0x3d8ca19a	0.068667606
102	0xbf18fd4c	-0.597615
103	0xbec4cc40	-0.3843708
104	0x3e3dcf65	0.18536146
105	0xbde69005	-0.11257938
106	0xbed61cdb	-0.4181889
107	0x3e8726bf	0.26396748
108	0xbd75e5fe	-0.06003379
109	0x3e16a00a	0.14709488
110	0xbe2170d7	-0.15765701
111	0x3f17dd5a	0.5932213
112	0x3ea0260f	0.31279036
113	0x3edd543d	0.4322833
114	0x3edeaad2	0.434897
115	0xbd8b24d0	-0.06794131
116	0xbedb838c	-0.428738
117	0xbe35080c	-0.17678851
118	0xbed1a11b	-0.40943226
119	0x3eae0d93	0.3399473
120	0xbebc0d93	-0.36729106
121	0x3ea6ba05	0.32563797
122	0x3f007ea7	0.50193256
123	0x3d90b88c	0.070664495
124	0xbda897f7	-0.0823211
125	0xbe77f809	-0.24215712
126	0xbe4e9bf8	-0.20176685
127	0x3ec93287	0.39296362
128	0x3e9223c7	0.2854292
129	0x3cf8ae80	0.030356646
130	0xbe25bf90	-0.16186357
131	0xbf2facc4	-0.68622994
132	0xbe90373c	-0.2816714
133	0xbcb209ad	-0.02173313
134	0x3e86ae2a	0.26304752
135	0xbea50268	-0.32228398
136	0x3d946a12	0.07246794
137	0x3ea2da39	0.31807116
138	0x3cdc522b	0.02689465
139	0x3ee858c8	0.45380235
140	0xbe7d8f21	-0.2476163
141	0xbefd2cc6	-0.49448222
142	0x3e0c7661	0.13717033
143	0xbe7b06f2	-0.24514368
144	0x3ca260c8	0.01982154
145	0xbeacc4c9	-0.33743885
146	0xbd11b479	-0.035572503
147	0xbe82e0f7	-0.2556226
148	0xbe85ab0c	-0.2610706
149	0xbed803b2	-0.4219032
150	0x3eb5d8da	0.35517007
151	0x3effa647	0.49931547
152	0x3e587d4b	0.21141545
153	0xbe93a56f	-0.28837153
154	0x3de46218	0.111515224
155	0x3e5d29ca	0.21597973
156	0xbecbb826	-0.39788932
157	0x3ea2ac0e	0.31771892
158	0x3e7c086a	0.24612585
159	0xbcc6fb20	-0.024289668
160	0x3cf46cfd	0.029837126
161	0x3ebb937b	0.36635956
162	0xbef7777d	-0.4833335
163	0xbf011a50	-0.50430775
164	0xbecaa2f4	-0.39577448
165	0x3d959801	0.07304383
166	0xbe8797b9	-0.26482943
167	0x3daaeb1b	0.08345624
168	0x3e570f70	0.21001983
169	0xbecaa049	-0.39575413
170	0xbdb0a2f7	-0.08624833
171	0xbde59f2c	-0.11212
172	0x3ea1805a	0.31543237
173	0xbede887f	-0.43463513
174	0x3dd87ce0	0.10570693
175	0xbea454a3	-0.32095823
176	0x3e92b194	0.28651106
177	0x3ec89889	0.39178875
178	0xbde19e4f	-0.11016523
179	0xbdf12fbc	-0.11776683
180	0xbdc753f6	-0.09732811
181	0x3e1caa2b	0.15299289
182	0xbee381a8	-0.44434857
183	0x3f31ae7b	0.6940686
184	0xbebc8c30	-0.36825705
185	0x3ecef5b4	0.40421832
186	0xbd942470	-0.072335124
187	0x3f5289c7	0.8224148
188	0x3e8fcac2	0.2808438
189	0xbeda1e0d	-0.42601052
190	0xbe734554	-0.23756915
191	0xbe19016f	-0.14941953
192	0x3e225e60	0.15856314
193	0x3d8e4350	0.069464326
194	0xbd1403a3	-0.03613628
195	0x3ec70ba3	0.38876066
196	0xbd6edef3	-0.05831809
197	0x3e82f84f	0.2558007
198	0x3e108cdf	0.14116238
199	0x3d9591da	0.073032096
200	0xbe867fd3	-0.26269397
201	0xbee653b5	-0.44985738
202	0x3e3f159e	0.1866059
203	0x3b2890f5	0.0025721167
204	0xbb65a21c	-0.0035039252
205	0xbecd3e5f	-0.40086648
206	0xbe16671f	-0.14687775
207	0x3ec5c29e	0.38625044
208	0x3e224ce3	0.15849642
209	0x3e056ebc	0.13030523
210	0xbf0be9a1	-0.54653364
211	0xbda43c40	-0.08019304
212	0x3eef7fc3	0.46777162
213	0xbc580728	-0.0131853
214	0xbd069f00	-0.032866478
215	0xbead7798	-0.33880305
216	0xbea9ee97	-0.33189842
217	0xbe9b0d8d	-0.30283776
218	0xbec7e51d	-0.39041987
219	0xbd9f7153	-0.07785287
220	0xbe764d92	-0.24053028
221	0xbc8a563b	-0.016886821
222	0xbf068241	-0.525425
223	0xbe0dbe91	-0.13842227
224	0x3eda1216	0.42591923
225	0xbe253816	-0.16134676
226	0x3ec2e342	0.3806401
227	0x3dbec167	0.09314232
228	0x3e49a39c	0.19691318
229	0x3e041ac6	0.12900838
230	0xbea5365d	-0.32268038
231	0x3eae6632	0.34062344
232	0x3e3ffdb4	0.18749124
233	0x3eed8400	0.4638977
234	0xbe3f289b	-0.18667834
235	0xbe02504a	-0.1272594
236	0x3e93c034	0.28857577
237	0x3e9e10d9	0.3087223
238	0x3dc8692d	0.09785686
239	0xbef9f591	-0.48820165
240	0xbd35ac82	-0.04435397
241	0xbed99420	-0.42495823
242	0x3d691702	0.056906708
243	0x3e301a9a	0.17197648
244	0x3d7fb143	0.06242491
245	0x3e467c61	0.19383384
246	0xbe9a969a	-0.30193025
247	0xbefc22d4	-0.49245322
248	0xbe4a7f90	-0.19775224
249	0xbec609ba	-0.38679296
250	0xbe2b43ea	-0.16725126
251	0x3ddb779e	0.107161745
252	0xbe8e0879	-0.2774084
253	0x3d960a62	0.07326199
254	0x3e89ccff	0.26914212
255	0xbef57768	-0.47942662

fc1.bias f4 [300]
0	0x3db5b692	0.08872713
1	0xbe9d797e	-0.30756754
2	0xbe1431ef	-0.14472173
3	0xbdf363f4	-0.11884299
4	0x3e2d9dbf	0.16954707
5	0x3ecd8fbe	0.4014873
6	0xbeba282b	-0.3635877
7	0xbe405495	-0.18782265
8	0x3c7bff3c	0.015380677
9	0xbee43386	-0.4457056
10	0x3edb4b0c	0.42830694
11	0xbec3ec70	-0.38266325
12	0xbec087aa	-0.37603503
13	0x3eb26114	0.3483969
14	0xbe06ed16	-0.13176379
15	0xbc0adf3a	-0.008476073
16	0xbeb23ad1	-0.34810498
17	0x3ecb2d4d	0.39683
18	0x3e7a2a79	0.24430265
19	0xbecc56d8	-0.39910007
20	0xbe8474ec	-0.25870454
21	0xbc30a3c8	-0.010781236
22	0xbd739388	-0.05946687
23	0x3ead9a77	0.3390691
24	0x3d83b6d2	0.064313546
25	0xbd09617b	-0.03354023
26	0x3ef7b300	0.48378754
27	0xbe369fe4	-0.17834431
28	0xbecbe42d	-0.39822522
29	0xbe864dbc	-0.26231182
30	0x3ec20177	0.37891743
31	0x3ec89f80	0.3918419
32	0xbdf0736b	-0.11740764
33	0xbecca700	-0.3997116
34	0x3ea48dde	0.32139486
35	0x3f0ff036	0.5622591
36	0xbecccdca	-0.40000755
37	0x3f1e5419	0.6184707
38	0x3e7729d7	0.24137054
39	0x3e42d0c3	0.19024949
40	0x3d57cb4d	0.052684117
41	0xbe735a66	-0.23764953
42	0x3ec3978c	0.3820156
43	0xbec71e12	-0.3889013
44	0x3ddd1822	0.107956186
45	0x3e1727c0	0.14761257
46	0x3e94f439	0.29092577
47	0xbce9ea6d	-0.028554166
48	0xbddbe5d0	-0.10737193
49	0xbed17b2d	-0.40914288
50	0x3e8e453a	0.2778719
51	0xbeab39d0	-0.33442545
52	0xbe73a1e3	-0.23792224
53	0x3ce31840	0.027721524
54	0x3ec0ae05	0.37632766
55	0x3e96c7a7	0.29449198
56	0x3ef37a63	0.4755431
57	0xbf480841	-0.78137594
58	0xbed6eca6	-0.41977423
59	0xbebba7d5	-0.36651483
60	0x3ea8c05c	0.3295926
61	0xbe13ba02	-0.14426425
62	0xbe1a22bb	-0.15052311
63	0xbed36306	-0.41286486
64	0xbee41a78	-0.44551444
65	0xbe4d46ac	-0.2004649
66	0x3ee6877b	0.45025238
67	0xbdaa5784	-0.083174735
68	0x3eb88911	0.36042073
69	0xbd0d35a0	-0.03447497
70	0xbec85744	-0.39129078
71	0xbe4097fb	-0.18807976
72	0x3e664d0f	0.22490333
73	0xbee96735	-0.45586553
74	0x3e82ff3d	0.25585356
75	0xbe820be0	-0.25399685
76	0x3bf50d29	0.0074783755
77	0x3e1ea32b	0.15491931
78	0xbeb5e7b8	-0.3552835
79	0xbef6a57c	-0.4817313
80	0x3f1693d3	0.5881931
81	0xbee8808d	-0.45410576
82	0x3e943635	0.28947607
83	0x3e220753	0.15823106
84	0xbe803756	-0.25042218
85	0xbc0064d3	-0.007836538
86	0xbf2edb18	-0.6830306
87	0x3ecfeeca	0.4061187
88	0xbe1de8da	-0.15420857
89	0xbc669fb9	-0.014076167
90	0xbe490b76	-0.19633278
91	0xbe259952	-0.16171768
92	0x3f1e700e	0.6188973
93	0x3f22aee5	0.6354812
94	0x3f0ad579	0.54231983
95	0x3c9414ed	0.018076384
96	0x3e06b4f7	0.1315497
97	0x3ea0b6ca	0.31389457
98	0xbe1f6b24	-0.15568215
99	0xbf28159f	-0.6565799
100	0x3eaf1bfa	0.34201032
101	0x3f09a5da	0.53768694
102	0xbe4b523f	-0.19855593
103	0x3e5d35ef	0.21602605
104	0x3e3d94ee	0.18513843
105	0x3da696c6	0.081342265
106	0xbd1654f9	-0.03670213
107	0xbee0a123	-0.43872938
108	0xbaf74d6d	-0.0018867679
109	0xbe0b66e6	-0.13613471
110	0x3de9acba	0.11409898
111	0x3db49f5a	0.088194564
112	0x3e8de1cb	0.2771133
113	0xbf18ed94	-0.59737515
114	0x3e17b8d8	0.14816606
115	0xbeb1d07b	-0.3472937
116	0x3e5503da	0.2080225
117	0xbe3f076d	-0.18655176
118	0xbe99f49d	-0.30069438
119	0xbea64223	-0.32472333
120	0x3ed30fc5	0.4122297
121	0x3ef87e16	0.48533696
122	0x3da27b36	0.07933657
123	0xbea83943	-0.32856187
124	0xbe41922b	-0.18903415
125	0x3e8aacd7	0.2708499
126	0x3ddba003	0.10723879
127	0xbcf5bc75	-0.02999709
128	0x3eca450b	0.395058
129	0xbe443f25	-0.19164713
130	0xbe4b7b36	-0.1987122
131	0xbecbd980	-0.39814377
132	0x3e533a16	0.20627627
133	0x3d4716cf	0.048605736
134	0x3c09f530	0.008420274
135	0xbe89aa7d	-0.26887885
136	0xbde72fdd	-0.11288426
137	0xbc8f6b0e	-0.017507102
138	0x3f3a0631	0.726657
139	0x3ec16e30	0.3777938
140	0xbec3c50a	-0.38236266
141	0xbec0b2d3	-0.37636432
142	0xbef5a75c	-0.47979248
143	0x3d62a51c	0.05533324
144	0xbd512708	-0.051062614
145	0x3f1681f4	0.5879204
146	0x3f0cfafb	0.55070466
147	0x3ed66b71	0.41878846
148	0x3f0b6d97	0.54464096
149	0x3cfa3385	0.030542145
150	0xbf07c250	-0.5303087
151	0x3e4485eb	0.1919171
152	0x3eb180dc	0.34668624
153	0xbcd45b87	-0.02592255
154	0xbed5ee11	-0.41783193
155	0xbe515560	-0.20442724
156	0xbdf775d5	-0.120830216
157	0x3de65ee7	0.1124857
158	0x3f1054d6	0.5637945
159	0x3e458669	0.19289555
160	0x3df6ddcb	0.120540224
161	0x3e47faf6	0.19529328
162	0x3e339e71	0.1754091
163	0xbe609da7	-0.2193514
164	0xbb9c4846	-0.004769358
165	0x3f1363c0	0.5757408
166	0x3e30e914	0.17276412
167	0x3e9df505	0.30850998
168	0x3cd04396	0.025422852
169	0x3ee5b09b	0.44861302
170	0x3f0c6737	0.54844993
171	0xbe90d8a8	-0.28290296
172	0x3eca0f13	0.39464626
173	0x3caa8042	0.020813111
174	0xbe76d4d3	-0.24104623
175	0xbc68fe1a	-0.014220739
176	0x3ed01879	0.4064367
177	0x3e30c85e	0.17263934
178	0x3e4aa444	0.19789225
179	0xbed3e07c	-0.41382205
180	0xbf112553	-0.5669758
181	0x3de9820b	0.11401757
182	0x3f0f2f44	0.55931497
183	0x3e982b5a	0.29720575
184	0x3f155bb4	0.5834305
185	0x3db0b65a	0.08628531
186	0xbea7ed21	-0.32798102
187	0x3ed4d84e	0.41571277
188	0x3d7846d6	0.06061443
189	0x3e62c7f8	0.22146595
190	0xbe90c8bf	-0.28278157
191	0xbf0478a0	-0.5174656
192	0xbeebc814	-0.46051085
193	0x3f1560bc	0.5835073
194	0xbe6a393f	-0.228734
195	0xbef3ba91	-0.47603276
196	0xbd04a2af	-0.03238171
197	0xbebd5476	-0.369785
198	0x3ef1e7ad	0.47247067
199	0x3d2f3b5b	0.042781215
200	0x3efa68f8	0.4890821
201	0x3ee39291	0.4444776
202	0xbee83e20	-0.45359898
203	0x3ed7acf5	0.42124143
204	0x3e8628c8	0.2620299
205	0x3ea3f22f	0.3202071
206	0xbd15be41	-0.036558393
207	0x3f220961	0.6329556
208	0xbdfab873	-0.12242212
209	0x3c79b710	0.015241399
210	0xbea609d8	-0.32429385
211	0xbf0ae8e6	-0.54261625
212	0xbf099518	-0.53743124
213	0x3e296067	0.16540681
214	0xbea1b64f	-0.31584403
215	0x3d8d8598	0.069102466
216	0x3f24caf4	0.6437218
217	0xbeac81c1	-0.33692744
218	0x3ec27380	0.37978745
219	0xbdb9f22f	-0.09079396
220	0x3ed12f99	0.40856627
221	0xbe753658	-0.23946512
222	0x3ee9f639	0.45695665
223	0xbefe6bdb	-0.49691662
224	0x3dc507e5	0.096206464
225	0xbf0b00ad	-0.54297906
226	0xbcebff6a	-0.028808314
227	0x3e241f5c	0.16027588
228	0xbef18f0c	-0.4717945
229	0x3eb0ff49	0.34569767
230	0x3e613bd3	0.21995477
231	0x3e0ddaba	0.13852969
232	0xbea2333b	-0.3167971
233	0xbf0e22de	-0.55521953
234	0xbf299e60	-0.66257286
235	0x3ee64da2	0.44981104
236	0xbe47eb09	-0.19523253
237	0xbea150f3	-0.31507072
238	0xbc3e3265	-0.011608695
239	0xbedd9e0e	-0.4328465
240	0x3e65fa69	0.22458805
241	0xbebcb034	-0.36853182
242	0x3db31bb1	0.08745516
243	0xbec6cc0b	-0.38827547
244	0xbe1bc883	-0.15213208
245	0x3e91b2f9	0.28456858
246	0xbd40ffda	-0.047119
247	0xbeec5715	-0.46160188
248	0xbdd2e169	-0.102969
249	0x3df1ec6f	0.11812674
250	0xbf16c672	-0.58896554
251	0x3f05cd74	0.5226662
252	0xbd382841	-0.044960264
253	0x3e87faaa	0.2655843
254	0x3ee734d8	0.45157504
255	0x3ef15056	0.47131604

fc2.weight f4 [200, 300]
0	0x3c631b6b	0.013861517
1	0x3c760f0b	0.015018235
2	0x3cc761ac	0.024338566
3	0x3d3d9528	0.046284825
4	0x3c4444c9	0.01197929
5	0xbd5436e0	-0.051810145
6	0x3cc28a44	0.02374757
7	0x3c523725	0.01283053
8	0x3cdd04ce	0.02697983
9	0xbcec0c84	-0.028814562
10	0x3d134c04	0.035961166
11	0xbc667ab7	-0.014067343
12	0x3d561758	0.052268356
13	0xbd2018cc	-0.03908615
14	0xbc530247	-0.012878961
15	0x3d46f44b	0.04857282
16	0xbbdbd41e	-0.006708636
17	0xbc5ddba8	-0.01354114
18	0xbd088c76	-0.03333708
19	0x3bc43d10	0.0059887245
20	0xbd17ba4d	-0.037042905
21	0xbbf89b66	-0.0075868843
22	0x3cb72d2f	0.022360412
23	0x3d5e451f	0.054265138
24	0x3bcfdd93	0.0063435524
25	0xbd0ba86a	-0.03409616
26	0xbd26b649	-0.040701184
27	0x3c977fb3	0.018493509
28	0x3cb5c5cd	0.022189045
29	0xbd4f0ad1	-0.050547425
30	0xbcc9e24f	-0.024644045
31	0xbcff8cc4	-0.031195052
32	0xbb38fe09	-0.0028227589
33	0x3cec3b63	0.028836912
34	0xbc2b9c35	-0.010474254
35	0x3c0a57c0	0.008443773
36	0xbd1ac680	-0.03778696
37	0x3c9269c0	0.017872691
38	0xbd37d140	-0.04487729
39	0xbc5e1a28	-0.013556041
40	0xbd3b24d2	-0.04568941
41	0x3d5b8215	0.053590853
42	0xbd37b1ff	-0.044847485
43	0xbb5cbe7f	-0.003368288
44	0xbd35586e	-0.044273786
45	0xbd18009d	-0.03710996
46	0x3d482114	0.04885967
47	0x3d1e9439	0.038715575
48	0x3c825991	0.01591185
49	0xbd4ae808	-0.04953769
50	0xbd43346e	-0.047657423
51	0xbd104566	-0.035222434
52	0xbc181bf5	-0.009284009
53	0xbceb166b	-0.028697213
54	0x3c1bb4e0	0.009503573
55	0xbccfcdf4	-0.02536676
56	0x3d4a5f4e	0.049407296
57	0x3cf54fa2	0.029945198
58	0x3d0a3938	0.033745974
59	0x3d1827ac	0.03714721
60	0x3d45ad5e	0.04826104
61	0xbd578e5a	-0.05262599
62	0x3b8fd168	0.004388977
63	0xbd61df03	-0.05514432
64	0x3d2b1010	0.041763365
65	0x3d2aa03e	0.041656725
66	0xbd0f26f5	-0.03494926
67	0xbd4853de	-0.048908107
68	0xbd4bca98	-0.049753755
69	0xbd6895c9	-0.05678347
70	0xb86403e6	-5.4363067e-05
71	0x3d1d9268	0.038469702
72	0xbb90e05f	-0.0044212784
73	0xbcfe40bb	-0.031036725
74	0x3d4da3fa	0.05020521
75	0x3b90a9ae	0.0044147586
76	0xbc618cfb	-0.0137665225
77	0x3d50f2ec	0.05101292
78	0x3d52e305	0.051486034
79	0xbc790de4	-0.015201066
80	0xbb1ad347	-0.0023624466
81	0x3ca8c98a	0.020603914
82	0xbcc76595	-0.02434043
83	0x3d24e187	0.040254142
84	0xbcde7574	-0.027155615
85	0xbb8b892a	-0.0042582946
86	0xbd04da35	-0.03243466
87	0x3c8dcf33	0.017310714
88	0x3d4ac324	0.049502507
89	0x3c03112a	0.007999698
90	0x3d34a4bc	0.044102415
91	0xbcf737ed	-0.030178035
92	0xbcef2196	-0.02919082
93	0x3d422f16	0.047408186
94	0x3c6f5075	0.014606585
95	0xbc4efeeb	-0.012634019
96	0xbc5298ce	-0.012853814
97	0x3d0c8768	0.03430882
98	0xbd15511a	-0.036454298
99	0xbd455e0b	-0.04818539
100	0xbc96f6fc	-0.018428318
101	0x3bc44260	0.005989358
102	0xbcb21863	-0.021740144
103	0x3c8ef42d	0.017450416
104	0xbcf668f5	-0.030079344
105	0xbd3306ac	-0.043707535
106	0x3c405cc6	0.011740869
107	0xbcee5a5e	-0.029095825
108	0xbd0fb77e	-0.0350871
109	0x3d28739a	0.04112587
110	0xbc34f910	-0.011045709
111	0x3c006978	0.007837646
112	0x3b9948bd	0.0046778605
113	0xbc149982	-0.009069802
114	0x3ca9d713	0.020732438
115	0xbd785516	-0.06062802
116	0xbd472afd	-0.04862498
117	0xbb280260	-0.0025636181
118	0xbd0781e7	-0.03308287
119	0x3d26c5e8	0.04071608
120	0xbce2e4bc	-0.02769696
121	0xbd2ef798	-0.042716593
122	0xbc8cae23	-0.017172879
123	0x3b9f8a52	0.004868784
124	0xbd0dbf94	-0.03460653
125	0xbcabc72d	-0.020968998
126	0x3c43a4a1	0.011941106
127	0xbd3e0eed	-0.046400953
128	0xbcbfd7f6	-0.023418408
129	0xbd591114	-0.052994803
130	0xbc95f52b	-0.018305382
131	0xbcdd04cf	-0.026979832
132	0xbd585d63	-0.052823436
133	0xbd344ecd	-0.044020463
134	0xbb43ee26	-0.0029896586
135	0xbb521016	-0.0032053045
136	0x3c7da862	0.01548204
137	0x3d58c2f2	0.05292029
138	0x3c050cfc	0.0081207715
139	0x3d5bf35d	0.053698886
140	0x3cd1a69d	0.025592143
141	0xbcb2fedc	-0.021850042
142	0x3c177013	0.009243029
143	0xbc16f314	-0.009213228
144	0x3cbcbb13	0.023038423
145	0xbca92554	-0.020647682
146	0xbd1dd4d2	-0.03853304
147	0xbd643e38	-0.0557234
148	0xbd52cfa6	-0.05146756
149	0x3c2195c4	0.009862367
150	0xbd76de15	-0.060270388
151	0x383d0d3a	4.507343e-05
152	0xbbfd2b62	-0.007726119
153	0xbd04c6ad	-0.032416034
154	0xbcdd3797	-0.027004046
155	0x3d437130	0.047715366
156	0x3d6409b4	0.055673316
157	0xbc06a33e	-0.008217631
158	0xbd21e5e2	-0.039525874
159	0xbd0b4e92	-0.034010477
160	0xbb4444ca	-0.0029948228
161	0x3d5abf26	0.05340495
162	0xbcbb6f0b	-0.022880098
163	0xbd07b8ff	-0.03313541
164	0x3d4d75bc	0.05016111
165	0xbd3b5f6b	-0.045745295
166	0xbd0b798a	-0.034051456
167	0xbcfe7ce5	-0.031065414
168	0x3d17c604	0.037054077
169	0x3d313da1	0.043271665
170	0xbd23a73c	-0.03995441
171	0xbce97c42	-0.028501634
172	0xbceaef5b	-0.028678587
173	0x3c58bf0a	0.013229141
174	0x3ca60e50	0.020270497
175	0xbd4c7291	-0.049913947
176	0x3d3bccca	0.0458496
177	0x3cd72cb1	0.026266428
178	0x3ba041eb	0.0048906705
179	0xbd5fcdc6	-0.0546396
180	0xbacd8cb0	-0.0015682187
181	0xbd048cee	-0.032360964
182	0xbd2785a2	-0.040898927
183	0xbb7791c5	-0.0037776094
184	0xbd450c03	-0.04810716
185	0x3c5776e9	0.013150909
186	0x3ce0f4dc	0.027460508
187	0xbd582e83	-0.052778732
188	0x3d4fed33	0.05076332
189	0x3b888b87	0.0041670236
190	0xbcd5fe12	-0.026122127
191	0x3b3e5154	0.0029040175
192	0x3cd18f2c	0.025580965
193	0xbd48f01e	-0.04905712
194	0x3c96146a	0.018320281
195	0xbcb400ac	-0.021972977
196	0x3cebc633	0.028781032
197	0x3cea9d51	0.028639467
198	0x3cb9c158	0.022675201
199	0xbccb8acc	-0.024846457
200	0xba2c4246	-0.0006571155
201	0x3d35ae5d	0.04435574
202	0xbd1ddca2	-0.03854049
203	0xbc8f712e	-0.017510023
204	0x3c3ea0c0	0.0116350055
205	0xbd2293ae	-0.03969162
206	0xbd6a3aa5	-0.057184834
207	0xbd5cb563	-0.05388392
208	0xbc2aa234	-0.010414649
209	0xbd469e5c	-0.048490867
210	0x3c9c7157	0.019097013
211	0x3d35f4ad	0.044422794
212	0xbd692269	-0.05691758
213	0xbc8c4c7b	-0.017126312
214	0xbcdfeb01	-0.027333738
215	0xbb1e4db4	-0.0024155201
216	0xbd607f72	-0.05480904
217	0xbd2b907d	-0.04188584
218	0xbce70757	-0.028201742
219	0xbc0a7f89	-0.008453258
220	0xbd1d28f1	-0.038369123
221	0xbd49b757	-0.049247112
222	0xbb6063a2	-0.0034239073
223	0xbd071c56	-0.032986008
224	0x3d544a67	0.051828768
225	0xbd76c6a5	-0.060248036
226	0xbcb11692	-0.021617208
227	0x3cbdbce4	0.02316136
228	0xbd64fbe6	-0.05590429
229	0x3d092baf	0.033488926
230	0xbc52fa77	-0.012877098
231	0x3cc7d6dc	0.024394445
232	0xbb8923e0	-0.004185185
233	0xbd45fe34	-0.04833813
234	0x3c97ed14	0.018545665
235	0x3c298cdc	0.010348525
236	0x3c514ec8	0.012775131
237	0x3cb85f54	0.022506393
238	0x3d27f2b1	0.041002933
239	0xbc933b2c	-0.017972551
240	0xbc6c4b04	-0.014422182
241	0x3bec50c0	0.0072117746
242	0x3c6699f6	0.014074793
243	0x3b9ecf60	0.0048464984
244	0x3c810d88	0.015753523
245	0x3d5c8f9e	0.0538479
246	0x3c889b27	0.016675545
247	0xbd24127f	-0.0400567
248	0xbd37caee	-0.044871263
249	0x3d0ecd1c	0.034863576
250	0xbbcd0319	-0.006256473
251	0xbccca171	-0.024979325
252	0x3d02654a	0.031834878
253	0x3d3c519a	0.04597626
254	0xbd569072	-0.052383848
255	0x3cc3fce4	0.023924299

fc2.bias f4 [200]
0	0xbab869bb	-0.0014069596
1	0x3cc1e66c	0.023669444
2	0xbda5e415	-0.08100144
3	0x3ddebe3f	0.1087613
4	0x3cece35b	0.028917005
5	0x3d6be1c1	0.057588343
6	0xbdbaeb78	-0.09126943
7	0x3d12bcef	0.035824712
8	0x3d51159e	0.051046006
9	0x3e15742d	0.14595099
10	0x3e268300	0.1626091
11	0xbd5acac9	-0.053416047
12	0x3cb7c2c8	0.022431746
13	0xbc9a9bbf	-0.018873094
14	0x3b2e330c	0.002658072
15	0x3d57d59b	0.052693944
16	0x3c476b49	0.012171575
17	0x3d355484	0.044270054
18	0x3bc688fa	0.0060588093
19	0xbd2483c7	-0.040164735
20	0x38ce1200	9.826198e-05
21	0x3bebbdae	0.0071942424
22	0x3e335efb	0.17516701
23	0xbcef8050	-0.029235989
24	0xbd6c6a44	-0.05771853
25	0x3dcb5943	0.09929135
26	0xbe2b8524	-0.16750008
27	0xbe0bd05d	-0.13653703
28	0x3e0bb4d5	0.136432
29	0x3df54195	0.119753994
30	0xbc75a69a	-0.014993334
31	0xbc8a37fb	-0.016872397
32	0xbad17bdb	-0.0015982346
33	0x3cbc7de9	0.023009257
34	0xbcbc8fda	-0.023017813
35	0xbd9ed321	-0.077551134
36	0x3c881656	0.016612213
37	0x3c3e2a78	0.011606805
38	0x3d6ece0b	0.058301967
39	0x3d8378d0	0.064195275
40	0x3e03367a	0.1281375
41	0x3e1bf1e5	0.15228994
42	0xbc9d5fa1	-0.019210638
43	0xbcba6d3a	-0.022757161
44	0xbcaae1f6	-0.0208597
45	0x3c0fafee	0.008769972
46	0xbe4b401e	-0.19848678
47	0x3dc46fcb	0.09591635
48	0x3d3a51e1	0.045488242
49	0x3e0d9f89	0.13830389
50	0xbd03a3c7	-0.032138612
51	0x3dac1eca	0.0840431
52	0xbd321219	-0.04347429
53	0xbd88e031	-0.06683386
54	0xbbf7e843	-0.0075655296
55	0x3d96e7a1	0.073683985
56	0x3c98eafd	0.018666739
57	0xbc86ca4e	-0.016453888
58	0x3d1946f2	0.037421174
59	0xbd24cca8	-0.040234238
60	0x3c7b29bd	0.015329775
61	0xbd49cb3b	-0.04926608
62	0x3de60f6a	0.11233409
63	0xbc0e0051	-0.008667068
64	0xbc99e18f	-0.018784313
65	0x3c0edaeb	0.008719186
66	0xbc77e842	-0.015131058
67	0x3ddb183f	0.10697984
68	0xbc8b2262	-0.016984168
69	0x3d55de8c	0.05221419
70	0x3e058340	0.13038349
71	0xbb408792	-0.0029377681
72	0x3d3f7a35	0.046747405
73	0x3ce10891	0.027469905
74	0x3e13222e	0.14368507
75	0x3d7572ca	0.059923925
76	0xbbec381f	-0.0072088386
77	0xbe050e2a	-0.12993684
78	0xbc86ab0e	-0.016438987
79	0xbc98b5f1	-0.018641444
80	0xbda1e17b	-0.07904335
81	0x3dcf9541	0.1013589
82	0x3d454223	0.048158776
83	0x3df9d4c0	0.12198782
84	0x3e23536a	0.15949789
85	0xbd3525a5	-0.044225354
86	0xbb0dfa2c	-0.0021664007
87	0xbdba4191	-0.09094537
88	0x3d268a6e	0.04065936
89	0x3c4879c5	0.012236063
90	0x3d1f1522	0.038838513
91	0x3dc883ac	0.097907394
92	0xbd2f3332	-0.042773433
93	0xbd07db37	-0.033168044
94	0x3d8be72a	0.068312004
95	0xba5991fc	-0.00082996464
96	0x3e28588d	0.1644003
97	0xbde52735	-0.11189119
98	0xbd72390f	-0.059136447
99	0x3d24b118	0.040207952
100	0x3e112669	0.14174809
101	0x3d2581b0	0.040406883
102	0x3bc7a02c	0.006092092
103	0x3d84cd85	0.06484512
104	0xbc635d8a	-0.013877282
105	0x3cd70989	0.026249664
106	0xbe30ec48	-0.17277634
107	0x3d1a64ee	0.03769391
108	0xbc66f18c	-0.014095675
109	0x3bf16069	0.0073662293
110	0xbdcd2d2b	-0.10018381
111	0xbda77000	-0.08175659
112	0xbdba29af	-0.09089982
113	0x3a9c656f	0.0011932085
114	0xbd833ea6	-0.064084336
115	0xbcd5116e	-0.026009288
116	0x3c95f142	0.018303517
117	0x3e322fe7	0.17401086
118	0xbcbb424a	-0.022858758
119	0xbca1abc3	-0.019735223
120	0xbd521988	-0.05129388
121	0x3deb4bba	0.11489053
122	0x3bb3c19c	0.0054857265
123	0xbd2a214c	-0.04153566
124	0xbd46774c	-0.048453614
125	0xb9903cd4	-0.0002751114
126	0xbcf34432	-0.029695604
127	0xbca5c2ac	-0.020234428
128	0x3dcf1ac3	0.10112526
129	0x3cd8a3b2	0.026445244
130	0xbd3a368a	-0.04546217
131	0x3d45e870	0.048317373
132	0xbd7e7865	-0.062126536
133	0x3d063520	0.032765508
134	0x3c7f36d3	0.015577036
135	0x3db506c0	0.08839178
136	0xbd3eed96	-0.0466133
137	0x3c92e494	0.01793126
138	0xbd209bc4	-0.03921105
139	0x3dd9de56	0.1063811
140	0x3d798653	0.060919117
141	0x3cff8dc0	0.031195521
142	0xbd0be2f9	-0.034152005
143	0xbd414b10	-0.047190726
144	0xbc3cab74	-0.011515487
145	0x3dbe4839	0.09291119
146	0xbbe0fc72	-0.0068660313
147	0x3d52cd81	0.051465515
148	0x3da4b523	0.080423616
149	0x3da6da92	0.08147158
150	0xbe90a431	-0.28250268
151	0x3da9564e	0.082684144
152	0xbccf4153	-0.025299704
153	0xbccbb328	-0.024865702
154	0x3b42d00c	0.0029726056
155	0x3dd61ebc	0.10455081
156	0x3dffde67	0.12493592
157	0x3dbc2078	0.091858804
158	0xb9537d83	-0.00020169285
159	0xbd89265a	-0.06696768
160	0x3d9675ef	0.07346713
161	0xbd9cd18a	-0.07657154
162	0x3da15578	0.0787763
163	0x3d1f113a	0.038834788
164	0xbd813dde	-0.06310628
165	0x3cb8178f	0.022472171
166	0xbd2d5987	-0.042321708
167	0x3c3600e3	0.01110861
168	0x3c8e57ec	0.017375909
169	0x3cb99e30	0.022658437
170	0x3d0cb5f2	0.034353204
171	0x3dad8f6b	0.084746204
172	0x3d04f974	0.03246446
173	0xbcbc4db3	-0.022986269
174	0x3e030ada	0.12797108
175	0xbbb32dbc	-0.0054680984
176	0xbe109bca	-0.14121929
177	0x3e2b9369	0.16755451
178	0x3d2eb147	0.042649534
179	0x3da0396b	0.078234516
180	0xbccc571d	-0.024943883
181	0x3d00cb9a	0.03144417
182	0xbcae2c77	-0.021261437
183	0xbde461e0	-0.11151481
184	0x3d9110de	0.07083295
185	0x3d6db9ba	0.05803845
186	0x3daf351e	0.08555053
187	0x3dea5a7b	0.11443039
188	0xbe08a11e	-0.13342711
189	0xbd46a7d5	-0.0484999
190	0xbdc140c1	-0.09436179
191	0xbd9c3814	-0.076278836
192	0xbd50664c	-0.050878808
193	0x3e097e3c	0.13427061
194	0x3c72d98e	0.014822377
195	0x3c53c97e	0.012926457
196	0x3c5f8188	0.0136417225
197	0x3daa6619	0.08320255
198	0xbde5b132	-0.11215438
199	0x3c0ba481	0.0085231075

fc3.weight f4 [2, 200]
0	0x3c94ff12	0.018188033
1	0xbcac4d57	-0.021032972
2	0xbda3ae2e	-0.079922065
3	0x3d11e90c	0.03562264
4	0x3cc3bc11	0.023893388
5	0xbc3aed79	-0.011409157
6	0xbd250352	-0.04028637
7	0x3d0d36dc	0.034476146
8	0xbdce746b	-0.10080799
9	0x3d8be890	0.06831467
10	0xbd218ca9	-0.039440785
11	0xbd84ff22	-0.06493975
12	0xbd2469a6	-0.040139817
13	0xbd4910a8	-0.04908815
14	0x3ccf5188	0.025307432
15	0x3d9319f6	0.07182686
16	0x3c6b6872	0.014368163
17	0x3d7ae16f	0.061250146
18	0xbc2c8749	-0.010530301
19	0x3d39fbf1	0.045406286
20	0xbd5b5ba8	-0.053554207
21	0xbcf6af34	-0.03011284
22	0x3d3f153d	0.046651114
23	0xbd14f81b	-0.036369424
24	0x3d3c1ed2	0.04592783
25	0x3cdb9a49	0.026806967
26	0xbd91d326	-0.071203515
27	0xbdd2fc3c	-0.10302016
28	0x3d4e17a5	0.050315518
29	0x3cb98b0b	0.022649309
30	0xbbcd05b1	-0.006256782
31	0xbce581e6	-0.028016042
32	0xbd79629e	-0.060885064
33	0x3c926ae7	0.01787324
34	0xbc72edb8	-0.014827184
35	0xbd9522dd	-0.0728204
36	0xbd884536	-0.06653826
37	0xbd001d10	-0.031277716
38	0xbcdee260	-0.027207553
39	0xbb9fc758	-0.0048760585
40	0x3cf23ceb	0.029570064
41	0x3dd20612	0.10255064
42	0x3d312a19	0.043253038
43	0x3d879187	0.06619554
44	0xbd8f94f4	-0.070108324
45	0x3e05c407	0.1306306
46	0xbd89e4ae	-0.0673307
47	0x3ce66ebe	0.028128978
48	0x3c069f55	0.008216699
49	0x3cbfcd4e	0.023413327
50	0x3d2ee410	0.042697966
51	0x3ca14bf6	0.019689541
52	0xbdacc05a	-0.08435126
53	0xbd79f2cc	-0.061022565
54	0xbd5fd775	-0.054648835
55	0x3d3c5c91	0.045986716
56	0xbd30ad19	-0.04313383
57	0x3d06baad	0.03289287
58	0x3d4d3e8c	0.050108477
59	0xbd2e3bc5	-0.04253747
60	0xbc82942a	-0.01593979
61	0xbd3a1361	-0.045428637
62	0x3d7be3d9	0.06149659
63	0x3ce199e8	0.027539209
64	0xbd6056e0	-0.05477035
65	0xbd45f812	-0.04833228
66	0x3c879e13	0.016554868
67	0x3d76bef3	0.060240697
68	0x3d83f977	0.06444066
69	0xbb0b4b60	-0.0021254644
70	0x3c1b809c	0.009491112
71	0xbd932ccc	-0.07186279
72	0x3d739251	0.05946571
73	0xbb9a3fe3	-0.004707323
74	0x3d5c961f	0.053854104
75	0xbd6f4f28	-0.0584251
76	0x3d797ea7	0.0609118
77	0xbd73b51f	-0.059498902
78	0x3d867c2d	0.065666534
79	0xbd4f3508	-0.050587684
80	0xbd488ddb	-0.04896341
81	0xbc89f8df	-0.016842304
82	0x3d76525a	0.06013713
83	0x3c8b2b42	0.0169884
84	0x3dacc04e	0.08435117
85	0x3d05052c	0.032475635
86	0x3d1d34a8	0.038380295
87	0xbd5fa549	-0.054600988
88	0xbcf3e56c	-0.029772483
89	0xbc334cfb	-0.010943647
90	0xbb942450	-0.0045209303
91	0xbdbe318d	-0.09286795
92	0x3bc77c41	0.0060878103
93	0x3d356fdd	0.044296134
94	0x3d45cdf6	0.048292123
95	0x3ca1d82c	0.0197564
96	0x3c78a1a4	0.015175257
97	0xbd9e1229	-0.077183075
98	0xbcc11da4	-0.023573704
99	0x3d32e220	0.04367268
100	0x3c8969dc	0.01677411
101	0x3c43aee0	0.011943549
102	0x3d7f36d3	0.062308144
103	0x3d7b26f4	0.061316445
104	0x3d4ca940	0.049966097
105	0xbd3b579a	-0.04573784
106	0xbce5ce86	-0.02805258
107	0xbc877fe2	-0.016540471
108	0xbc6ce743	-0.014459434
109	0x3db0f441	0.08640338
110	0xbd0e840a	-0.03479389
111	0xbd181be0	-0.03713596
112	0xbda33c41	-0.07970477
113	0xbce6096e	-0.028080668
114	0x3d944954	0.07240549
115	0xbce3af71	-0.027793618
116	0xbbea2210	-0.007145174
117	0x3cb7e271	0.022446843
118	0xbd14a983	-0.03629447
119	0xbc317395	-0.01083078
120	0x3d373f88	0.044738322
121	0x3d8221df	0.06354117
122	0xbcb97338	-0.022637948
123	0x3d63233c	0.055453524
124	0x3d834fab	0.0641168
125	0x3c854795	0.016269485
126	0xbd216eb4	-0.039412215
127	0xbdba2c89	-0.09090526
128	0xbcacfe3f	-0.021117328
129	0xbc500c73	-0.012698281
130	0x3d4d1a8a	0.050074138
131	0xbd0762a6	-0.033053063
132	0xbdab4bf8	-0.08364099
133	0xbd53c97e	-0.05170583
134	0x3d038a42	0.032114275
135	0x3c661500	0.014043093
136	0x3d821b11	0.06352819
137	0xbd423570	-0.047414243
138	0x3d49d696	0.04927691
139	0x3c962954	0.018330254
140	0xbd1d4bd0	-0.03840238
141	0x3d8e8052	0.06958069
142	0xbd37737e	-0.044787876
143	0xbd5c64a5	-0.05380692
144	0x3c0ce4d2	0.008599477
145	0xbd0c212b	-0.03421132
146	0x3d0376ba	0.03209565
147	0x3d64b7dc	0.055839404
148	0x3d263257	0.04057535
149	0x3d9d57e3	0.07682779
150	0xbd96e214	-0.0736734
151	0xbd36e03c	-0.04464744
152	0x3c07dbbe	0.008292137
153	0xbd0e8e9c	-0.03480397
154	0x3d53c77f	0.051703926
155	0xbd0e8c70	-0.0348019
156	0x3d0105e2	0.03149975
157	0xbd0c61e2	-0.034273036
158	0xbd7b6a28	-0.061380535
159	0xbd29b9f4	-0.041437104
160	0x3d048621	0.032354478
161	0xbd3ceacd	-0.04612236
162	0x3de4f5a3	0.11179664
163	0xbca308dd	-0.019901687
164	0xbdab79d6	-0.08372848
165	0x3bbd3813	0.005774507
166	0x3d8825f6	0.066478655
167	0xbcbbcc4f	-0.02292457
168	0x3d54bf97	0.051940527
169	0xbb537f46	-0.0032271906
170	0x3d79fede	0.061034076
171	0x3dab43bd	0.083625294
172	0xbd7a934f	-0.06117564
173	0x3cdd81ce	0.027039435
174	0x3d6b12e5	0.057391066
175	0x3ca2f555	0.019892374
176	0xbd8bf50d	-0.06833849
177	0x3d0f608a	0.035004176
178	0x3d08973f	0.033347365
179	0x3d08247e	0.033237927
180	0xbb050351	-0.0020296166
181	0xbd201491	-0.039082114
182	0x3d788bc5	0.06068017
183	0xbd5adc7f	-0.053432938
184	0xbd18366c	-0.037161276
185	0xbc8be184	-0.017075308
186	0x3ce5fdc6	0.02807511
187	0x3d669214	0.056291655
188	0xbd21d2dc	-0.03950773
189	0xbcee30c6	-0.029075991
190	0xbd55cb00	-0.05219555
191	0xbd372e1e	-0.044721715
192	0xba89202f	-0.0010461862
193	0x3d803852	0.06260742
194	0xbd828872	-0.06373681
195	0x3cdaa754	0.026691116
196	0x3d33358b	0.043752234
197	0x3d6ce0d5	0.057831604
198	0xbd7c2584	-0.061559215
199	0x3d455a22	0.04818166
200	0x3d47a7fc	0.048744187
201	0x3c965ea2	0.018355671
202	0xbe046ee8	-0.12932932
203	0xbe399d30	-0.18126369
204	0x3b643db2	0.0034826812
205	0xbe326c8f	-0.17424224
206	0xbbec3b24	-0.0072091985
207	0x3d003e80	0.031309605
208	0x3d3c72d0	0.04600793
209	0xbcfec31a	-0.031098891
210	0xbc870761	-0.01648301
211	0xbce5bb4e	-0.028043415
212	0x3d527361	0.051379565
213	0xbc8718ef	-0.016491381
214	0xbdc085b7	-0.09400504
215	0xbd7bbbec	-0.061458513
216	0x3cfd5e29	0.030928688
217	0xbd1c03f7	-0.03808972
218	0x3d577301	0.05259991
219	0x3d12ad4f	0.03580981
220	0x3d0930b8	0.033493727
221	0xbba053e0	-0.004892811
222	0xbbb3ba81	-0.0054848795
223	0xbd1a4c4b	-0.037670415
224	0x3d2c53cd	0.042072106
225	0xbd85b734	-0.06529084
226	0xbcd1a2b5	-0.02559028
227	0x3c6b40d0	0.014358714
228	0x3d4b6b83	0.049663078
229	0xbd8989f9	-0.06715769
230	0xbc5ad2fc	-0.013355967
231	0xbc7a3d71	-0.015273438
232	0x3d04229b	0.032259565
233	0x3baa63b4	0.005199874
234	0xbdeadfb7	-0.114684515
235	0xbcd49df7	-0.02595423
236	0x3bc7d469	0.0060983193
237	0xbd82260e	-0.063549146
238	0xbc92c26c	-0.017914973
239	0xbde92da7	-0.113856606
240	0xbd77abdf	-0.060466643
241	0xbdcfaed5	-0.101407684
242	0x3c67fd6f	0.014159544
243	0x3d5d52ee	0.054034166
244	0xbd3fae2a	-0.046796955
245	0x3d448f02	0.047987945
246	0xbd732cc2	-0.059368856
247	0xbd119a2f	-0.03554743
248	0x3cd34c7e	0.02579331
249	0xbe1a97f9	-0.15097035
250	0xbade0a9f	-0.0016940421
251	0xbd63aaf8	-0.05558297
252	0xbd528e4b	-0.051405232
253	0xbd1647f9	-0.036689732
254	0xbe1f6461	-0.15565635
255	0xbd0ec1de	-0.034852855

fc3.bias f4 [2]
0	0x3e06de7d	0.1317081
1	0xbd4738c2	-0.048638113
