log/train_1_1k/models/520_actor.pt (torch_old, 249426 bytes, 6 tensors)

fc1.weight f4 [300, 4]
00000000: d534 5c3e 773e a33b f05b 88bf d2eb 3bbf
00000010: f9cf 43be a958 533d feb9 973f 22c4 86bd
00000020: 84ee a8bd 3153 8f3d ff9d a8bf 22df d2be
00000030: ddb6 80be 867a 08be 042e 2ebf 9f0b 0e3f
00000040: d3e4 7bbe e0fa 823e 86c5 5dbf fef9 843e
00000050: c69b 35be b116 2a3e a822 5e3f 4baa 1e3f
00000060: a24c 55be 486a ebbe 9a93 353e cd98 febe
00000070: e97e d13e 7331 e83d 6ffa 713e 1505 f5be
00000080: c63d a43e 6183 1abd aa07 8cbf e65f 923e
00000090: 3e81 12be 220a fb3e 3d9b 863e e8f3 543f
000000a0: aa2a 52bd 242c 2dbd 9ef0 4dbe 0b43 73be
000000b0: 0557 c33e 8248 a9bd fba3 833f 30a8 0d3f
000000c0: c6f5 bcbe 5574 42be e597 c03e 84fb 853d
000000d0: 3222 08be 0f4d 8ebe 43fc 623f 9d31 793e
000000e0: b3ff b33e 79e9 803e 3ed1 623d 6b97 243e
000000f0: 3f14 813e a897 023d cc82 9e3f bdba 73bf
00000100: 9019 2dbe b0a5 493e 5e53 df3e ea51 6d3f
00000110: 2834 493e 5e75 2f3e 0499 cc3e ce51 473f
00000120: 6ed5 56be 0191 83be a441 6bbf 0734 023e
00000130: f7d2 67be 5b05 07bf f28e e4be 694b 0c3f
00000140: 616a 813e 866c f43e f026 843b 8e32 17bf
00000150: 201c 993e 486a cbbb 94a9 e7bc d206 44bf
00000160: 5589 ccbe e53f b4be 8f17 6dbf 1b30 a43e
00000170: 9956 d73e ae86 debe e18a cabe 6026 a03e
00000180: 3314 063f 9039 d3bd 1c13 7a3f b698 2fbf
00000190: b466 fd3d 6163 3bbc 04de 8dbf ed29 10bf
000001a0: d28c 713e c535 51bd d377 38bf 3848 d53d
000001b0: 2502 99bd 4e31 533e 36cf 83be 58ad 4b3f
000001c0: 3785 ba3e 8e86 b13e 4241 813e a203 833d
000001d0: b7e9 a7be 05ed 9bbe 808a 7bbf 9652 d73e
000001e0: c994 8bbe 6828 7d3e fdbc a03f f453 3b3d
000001f0: be30 923c 042f 83be 9fe4 2dbf 40da cd3e
00000200: cda3 883e 80cb ea3d e378 cabe d8c6 07bf
00000210: c1fc 63be 5d88 d23c 5b82 d53e ed03 87bd
00000220: 4bf6 003e e924 883e d8af 873f c9a1 a53e
00000230: 2cac 3cbe 9a58 d3be 4714 163f 3a45 87be
00000240: 7c0e cdbc 6e75 b6be 6bb9 b2bd adec d0be
00000250: 0743 67be 616b 91be 8cd6 2d3f c752 c53e
00000260: 5ea9 433e 4307 67be 1dbc e83d 16cf 223e
00000270: f352 83be ec21 c83e a632 793f c515 203e
00000280: f28e e63c 8a30 cc3e ea09 58bf 5df8 24bf
00000290: 3c75 6cbe 567a 55bd 023d 54be cd1d e83d
000002a0: 97c3 543d 0365 d2be d710 12be 5b46 b4be
000002b0: 697e c23e 1298 c4be a22b 24be 467b 173e
000002c0: 5503 c73c 371f 043f 4e74 0cbf d9e1 3dbe
000002d0: e522 a8bd afa8 223e 4f37 14bf feaf a03f
000002e0: eeb3 94be 65a1 e93e 530e 953e 6bbf 5d3f
000002f0: c6d7 493e 1512 e1be 959b 54bf ffdd 59be
00000300: 18c1 803e 8d4a cf3b c308 10bf cdfa 2a3f
00000310: 156b bebd 8770 873e f90c 403c b5fa a53e
00000320: 29b5 5bbc c78f 02bf 99a9 1f3f d11a 403e
00000330: c6c2 c2bd 1874 b2be f182 16be d306 113f
00000340: fcd7 b23d 8797 223e 6ff9 62bf e839 b3bd
00000350: edb8 d73e cf8d 3dbd 07ec e8be c41c 8ebe
00000360: 9404 72be 6ea3 73be 472f d2bd df1b a7be
00000370: 88ec 3dbe de6d b2bd 7cf2 5dbf 6167 6abd
00000380: ea74 bd3e 2a27 42be e217 9e3f 5c84 193f
00000390: 6bc2 d43d 1e45 7a3e 90c4 e8be 1af7 ce3e
000003a0: a7b4 6a3e 0938 f13e 8b4c 21bf 13fa a8bd
000003b0: 1c80 ac3e 7a1f 6d3e 294c 933e 632c 90be
000003c0: 0b04 273d 1fbe e6be e078 fabd b83e 033e
000003d0: f936 843d 098f 233e 46a1 64be f55f 64bf
000003e0: ed2c 26be 6973 bcbe bc08 ddbe 8096 243e
000003f0: a4b0 f1bd 21de 593d 7b4f a13f 3a43 02bf
0.21504529 0.0049818116 -1.0653057 -0.7340671 -0.19122304 0.051598225 1.1853635 -0.06580378
-0.08248618 0.069982894 -1.3173217 -0.41185862 -0.25139514 -0.13327989 -0.68038964 0.5548648
-0.24599008 0.25582027 -0.8662952 0.2597198 -0.17735204 0.16610219 0.8677163 0.61978596
-0.20830014 -0.45979524 0.17732087 -0.49725953 0.40917137 0.11337557 0.23630689 -0.4785544
0.3207838 -0.03772295 -1.0939839 0.2858879 -0.14307114 0.49031168 0.26290312 0.8318467
-0.05131022 -0.042278424 -0.2011132 -0.23756044 0.38152328 -0.08265783 1.0284418 0.5533476
-0.3690626 -0.1898969 0.37615886 0.065421134 -0.13294294 -0.27793166 0.8866617 0.24335332
0.3515602 0.25178126 0.05537533 0.16073386 0.2521076 0.031882912 1.2383666 -0.95206815
-0.16904283 0.19692111 0.43618292 0.92703116 0.19648802 0.17134616 0.39960492 0.778592
-0.20979854 -0.25696567 -0.91897035 0.1271516 -0.2263907 -0.52742547 -0.4464031 0.54802567
0.25276473 0.47739047 0.004032962 -0.59061515 0.2990427 -0.006207738 -0.028279103 -0.76572907
-0.39948526 -0.35204998 -0.9261407 0.32067952 0.42058256 -0.43462127 -0.3955908 0.31279278
0.5237457 -0.103137136 0.9768541 -0.68592393 0.12373105 -0.011437268 -1.1083379 -0.56313974
0.23588875 -0.05107667 -0.7205784 0.10414165 -0.07471112 0.20624277 -0.25744027 0.79561377
0.3642976 0.3467297 0.252451 0.06397177 -0.32795498 -0.3045427 -0.9825821 0.42055196
-0.27261952 0.24722445 1.2557675 0.04573436 0.017845508 -0.25621808 -0.67926973 0.40205574
0.2668747 0.11464596 -0.39545354 -0.53037786 -0.22264387 0.025699789 0.41701016 -0.06592546
0.12593953 0.2659066 1.0600538 0.32349995 -0.18425053 -0.41278535 0.5862469 -0.26420003
-0.02503132 -0.35636467 -0.08726772 -0.4080557 -0.22584163 -0.28402236 0.679055 0.38539717
0.19107577 -0.22561364 0.11364005 0.1589931 -0.25649223 0.3908838 0.9734291 0.15633304
0.028144334 0.39880782 -0.8439013 -0.6444147 -0.23091596 -0.05211862 -0.20726398 0.11333809
0.05194434 -0.4109269 -0.14264236 -0.35209927 0.37987068 -0.3839727 -0.1603227 0.14793119
0.024293581 0.5161013 -0.54864967 -0.18543185 -0.082097806 0.1588466 -0.57896894 1.2553709
-0.29043525 0.45630947 0.2911249 0.86620206 0.19711217 -0.43959108 -0.830499 -0.21276091
0.2514732 0.006326026 -0.5626337 0.6678894 -0.09297768 0.2645304 0.011721843 0.32417837
-0.013409891 -0.51000637 0.6236816 0.1876023 -0.09509806 -0.34854198 -0.14698388 0.5665104
0.08732602 0.15878116 -0.88661855 -0.08751279 0.42133275 -0.046277817 -0.45492575 -0.2775632
-0.23634559 -0.23792812 -0.10262924 -0.3263845 -0.18547261 -0.08712362 -0.86698127 -0.057227496
0.3700326 -0.18960252 1.2351038 0.5996759 0.10388645 0.24440429 -0.45462465 0.404229
0.22920476 0.47113064 -0.6300742 -0.08250823 0.3369149 0.23156539 0.28769043 -0.28158864
0.04077534 -0.45066926 -0.12230086 0.12816894 0.06455798 0.15972532 -0.22327146 -0.8920892
-0.16228075 -0.368068 -0.43170726 0.16073036 -0.1180127 0.053190354 1.260238 -0.5088383

fc1.bias f4 [300]
00000000: 952f be3e 70c9 74bf 0eae a33e a8e1 e4be
00000010: e047 8fbe 6437 10be ab2f d4bd 1c32 8ebe
00000020: 8100 cfbd d265 4fbf bf87 9c3f f6f4 94bf
00000030: 88c4 68bf 7893 f43e 8836 e2be 1f77 643f
00000040: d1d8 aebf f8eb b23e f738 5a3c 8f9a 68bf
00000050: 4b97 c1be 3a66 c73e 4b8c fabd e966 d6bc
00000060: 2c64 efbd 7fc4 c03e 5842 383f 6c13 35bf
00000070: 79c7 86bf 69d8 40bf d056 e73e 204f 333f
00000080: e9a2 67be 13a5 8ebf cd6c 243f 77c6 403f
00000090: 00cb d9be 1dfb 543f 4317 ae3e 2c1b eabd
000000a0: cbd1 6a3e c997 23bf 2215 ff3e 3f05 7abf
000000b0: 9fd8 cb3e bfc8 2abf 34e5 1c3e c0ac 85bd
000000c0: 7c2e f1be 32c9 85bf d049 d23e f6c6 6abf
000000d0: 6966 44bf 9ddf a63e 72ef 5b3f 8f64 473f
000000e0: a356 263f ff62 a3bf 5744 0fbf a9e3 55bf
000000f0: a584 e73e 38dc 9b3e 6f87 46be 1ac9 31bf
00000100: 5dd0 1ebf 93b2 c8be 0439 083e 1392 26bf
00000110: c9bc 1a3f a3d2 9dbe f965 25bf b023 debe
00000120: 9bbe a03e 1d3c 99bf a2ad 923e bf13 68bf
00000130: 6774 2f3e 3370 3a3f 4d33 20bf e1fc 6ebf
00000140: c250 a33f edb5 95bf f905 d43e b0bb 393e
00000150: 6ff9 fc3d fe6e a5bd 66e5 94bf 098b c73e
00000160: 7f5d 81bd f30b 1f3f f069 abbe 0d0f 1abf
00000170: c17a 6e3f d905 543f 4d9e 593f c1fd 97be
00000180: 944b 29bd 25cb fb3e 52f2 c9be 5213 4dbf
00000190: 0e2f 113f e568 513f a0e3 993e 61a2 ed3e
000001a0: e2c3 303e a6b3 81be 1c25 4fbe 8c51 5abf
000001b0: 596f 48bb b5f9 f0be b785 09bd 099d 9cbe
000001c0: 5abe 283f a383 6abf 2147 a23c dc9f 81bf
000001d0: 9034 693f f9fd 03bf 1655 2dbf 97a7 8ebf
000001e0: e8b5 ec3e dbf0 763f fe7b 703e 3893 0fbf
000001f0: 951f a5bd 1d50 13bf e85d 0c3e 87ec 9a3d
00000200: 797d 8a3f 9fd6 143f 5644 d4be fbdc 3cbf
00000210: 051f 0c3f c3c6 2c3f c2fe 47bf 6b3d 8bbf
00000220: 058c fbbe 65f0 0dbf c807 a13f 7df7 403f
00000230: eed2 3ebf 78f7 9dbf e4bb 5cbf 0e28 3d3e
00000240: 9f5a 15bf db5e 5c3f 8abd 323f 5ff0 903f
00000250: 1237 453f f0b7 e73e 1015 39bf 968f a23e
00000260: c4b3 583f 1662 b53e 884c 26bf 5688 d7be
00000270: be4f e4be d602 363f 9cb1 613f 8fab ce3e
00000280: ce90 793e 8ac2 be3e 2f24 0d3f 4fbc 60be
00000290: 780d e2be f3fc c13e e168 aabd d549 4b3f
000002a0: af5f d5bd 0b2d 0c3f 4c73 a03f bbde f53d
000002b0: 4f0c 113f 370f b7be 9e08 20bf edc7 d43d
000002c0: b522 2e3f 642e ef3e 510e 063f 163b 7ebf
000002d0: 1861 57bf db1b 2ebf 20b4 493f 3063 173f
000002e0: b684 383f 0cf0 8a3d d6f4 22bf 7b2f 883f
000002f0: 5c7d 93be 07da af3e e97f cabe 9f90 85bf
00000300: 9d29 74bf af6c bd3f 941b 0ebf a9bd 5abf
00000310: 48f0 24bf 9805 bebe dd97 143e 469d 0fbe
00000320: b2eb a43e 78e1 a73f dd2c 77bf a0cc 8d3d
00000330: 4849 7a3f 4e4b eb3e 7073 95be 8328 673f
00000340: 70a3 07bf 9f94 23bf 72f8 9cbe 1dae 85bf
00000350: c935 81bf 81cf 10bf f78b 09be 9bbb 853e
00000360: 5010 513f a39f 06bf 040f 273f 7b44 30be
00000370: 04d0 173f d190 f4be 33ae 513f b1ec 33bf
00000380: 85e6 523e e50a 13bf 6e61 c5be 256c aa3e
00000390: 4a8a 6cbf b5f5 563f d164 09bf 6ac9 13be
000003a0: 8fbe 07bf eb4b 81bf 28a0 7fbf 010a 3b3f
000003b0: 871d 90be 609e 54bf 0321 3abe 2c71 84bf
000003c0: 5c63 d73e 815f 8ebf d6a3 b63e edad 83bf
000003d0: e023 19bf 0b1f d0bd eab9 1ebf 3155 7abf
000003e0: 4f40 0fbd 85be 343f bd3d 6dbf 328f ca3e
000003f0: 5e1f d43d 211e 1f3e 324e 3d3f 11c7 263f
0.37145677 -0.9561987 0.3196873 -0.44703412 -0.27984524 -0.1408363 -0.103606544 -0.27772605
-0.10107518 -0.8101474 1.2228926 -1.1637256 -0.9092488 0.4776876 -0.4418223 0.89244264
-1.3659917 0.34945655 0.013319246 -0.9086084 -0.3781074 0.3894518 -0.1223379 -0.026172118
-0.11689028 0.37649915 0.7197623 -0.7073276 -1.0529624 -0.75330216 0.4518342 0.7004261
-0.22620739 -1.1144127 0.64228517 0.75302833 -0.4253769 0.8319567 0.34002122 -0.11430964
0.22931592 -0.6390348 0.4982081 -0.97664255 0.39813706 -0.66712564 0.15321809 -0.0652709
-0.47105777 -1.0452025 0.4107194 -0.9170984 -0.76718765 0.32592478 0.8591224 0.77887815
0.6497595 -1.2764586 -0.55963653 -0.83550507 0.45218387 0.3044145 -0.19387601 -0.6944748
-0.6203669 -0.3919874 0.13303 -0.6506664 0.60444313 -0.30824766 -0.6460872 -0.43386602
0.3139542 -1.197147 0.28648096 -0.9065513 0.17134248 0.7282745 -0.6257828 -0.9335461
1.275902 -1.1696144 0.41410807 0.18138003 0.12352263 -0.08077811 -1.1632507 0.38973263
-0.06316661 0.6212761 -0.3347926 -0.60179216 0.9315606 0.8282142 0.8500717 -0.29685786
-0.041331843 0.49178424 -0.39442688 -0.80107605 0.56712425 0.8180068 0.30056477 0.46412948
0.17262223 -0.25332373 -0.20229 -0.8528068 -0.0030583946 -0.4706551 -0.033574786 -0.30588558
0.65915453 -0.9160711 0.019809308 -1.012691 0.9109583 -0.51559407 -0.67707956 -1.1144894
0.46232533 0.96461266 0.234848 -0.56084013 -0.080626644 -0.5754412 0.13707697 0.07564645
1.0819541 0.58139986 -0.41458386 -0.7377469 0.5473483 0.67490786 -0.78123105 -1.0878118
-0.49130264 -0.5544494 1.25805 0.7537764 -0.74540603 -1.2341146 -0.862242 0.18472311
-0.583414 0.8608224 0.69820464 1.1323355 0.77037156 0.4525752 -0.72297764 0.31750172
0.846493 0.35426396 -0.6496053 -0.42096204 -0.44592088 0.7109808 0.88161635 0.40365264
0.24371645 0.37257797 0.55133337 -0.21946834 -0.441509 0.37888297 -0.08320785 0.79409534
-0.10418641 0.5475623 1.2535186 0.12005373 0.56659406 -0.35753796 -0.6251315 0.10389695
0.6802171 0.4671508 0.52365595 -0.9930891 -0.8413253 -0.68011254 0.78790474 0.59135723
0.720775 0.067840666 -0.6365484 1.063949 -0.2880658 0.3434603 -0.39550713 -1.043476
-0.95375997 1.4798793 -0.5551083 -0.8544565 -0.6442914 -0.37113643 0.14511056 -0.14024839
0.3221107 1.3115683 -0.9655283 0.06923795 0.9776807 0.4595589 -0.29189634 0.9029619
-0.5298376 -0.6389865 -0.306583 -1.044376 -1.0094539 -0.56566626 -0.13432299 0.26119694
0.81665516 -0.52587336 0.6525729 -0.17213623 0.5930178 -0.47766736 0.8190643 -0.7028304
0.20595749 -0.574385 -0.38550895 0.33285633 -0.9239851 0.8396867 -0.5366946 -0.14432302
-0.53025144 -1.0101293 -0.99853754 0.7306214 -0.28147528 -0.8305416 -0.18176655 -1.0347037
0.42067993 -1.1122895 0.35671872 -1.0287453 -0.59820366 -0.10162171 -0.6200243 -0.9778624
-0.03497344 0.7060321 -0.9267233 0.39562374 0.10357545 0.15538837 0.7394744 0.651475

fc2.weight f4 [200, 300]
00000000: a152 783c a8a9 7cbb c3f4 02be 9f1b 453d
00000010: e7d0 24bd 5108 ccbd 15f6 493d 12d3 693d
00000020: dabc d13b d2b5 b1bd 06be 833d 3ca3 693c
00000030: 7a7c 923d a544 00bc 2493 0e3c 35d1 f33d
00000040: e6e7 4abe f316 e8bb 844f d8bc 8efd 873c
00000050: 5f79 833c a277 2c3d 462f ff3c 7f21 843d
00000060: 43a8 813d 5d89 97bd 762d 8cbd ca87 71be
00000070: 0248 653d 3eb2 2cbd 3f0b be3d f1a9 36bd
00000080: 0b4f 4f3c 4e40 e73b f60e 8f3d a77f 0f3d
00000090: b5dd d0bc 8de0 3d3d e770 1abd 9616 27bd
000000a0: ed64 de3c 952f 7f3d ee54 03bb adc0 6c3b
000000b0: 6eff d13c 9b15 c8bd 0650 8b3c 933a 373d
000000c0: 2217 873c 3561 98be 8dc9 e4bc 37aa ffbc
000000d0: 0ad6 403d a28a fcbc db92 083d caef 0abc
000000e0: 0d27 8f3d 52cd 7c3d 8063 c63d d241 923d
000000f0: 691f ae3d 20a9 40bd d14a 8d3c 620c a0bc
00000100: 9171 5c3d 5093 0c3d c806 69bd faa0 31bd
00000110: a58d d03b ca87 2ebd 67bc 6abc 91a5 fd3c
00000120: 0d9b aabd 5a64 96be 0bb5 7c3d fc2a 47be
00000130: 3464 de3c 9369 113e 536f be3d fa24 e7bb
00000140: 8127 09be f3d3 32be b7a4 8d3a 26fa 0dbe
00000150: 4293 2cbc 8988 f23a 29ee 68bd 71c4 233d
00000160: b395 623d 0986 6dbd 6aee 813c 2ac0 a0bc
00000170: 0a70 dfbb 45e7 a93d 3857 293d 6058 81bb
00000180: 49b7 4abe 01a6 8d3d 07ee eabc b473 20bd
00000190: 9a37 d0bc ce80 1c3d 7e4b 2c3c 3efa 103d
000001a0: a1e4 94bc 3bfc 5fbe 2684 24bc 921c cabe
000001b0: 0cbc bebd 816d 423d 1bcc a93c af0c 82be
000001c0: ef30 603d 3054 083d 76ef 42bd a726 9bbd
000001d0: b5b3 34bd cea7 463c 0969 27bd 0313 5d3e
000001e0: 20ec c53b e000 f13b 1d76 07bd a235 4b3c
000001f0: 4bf3 1fbd e605 b6bd 3b90 36bd b024 2ebd
00000200: 6e99 623d 4247 62bd b6ed feba 6dca 44bc
00000210: 575d 1abe 94d8 0bbd b851 d63d e438 05bd
00000220: 5310 503d 3430 013e 876f bb3d 6376 0f3e
00000230: 1f03 113d edd6 3fbe a293 51be 705f 11bd
00000240: 43bc c73d dd75 eb3b f31c 17bd 4fbc 08bd
00000250: c10f cdbc 32ca 343d bdc9 0ebd 89cb a93c
00000260: ed1b 4d3c af6e a8bc 3136 05bd d914 803d
00000270: 845d 993d cba8 9b3a 09ce 2bbc 62ac 4ebc
00000280: cbcf 913e 9d21 a93d 0443 0bbc f218 07bc
00000290: a6d8 2f3d 9cd6 2dbd 4c36 a7bd 1af7 023c
000002a0: 0d21 79be cf5c 9b3d dc41 96bc 3ce1 11bb
000002b0: 1111 273d 8ca2 303d b695 55be 5416 5fbd
000002c0: 817a b73d 246e 683c 78a2 e83b 493d 80bd
000002d0: 3525 2b3d 1f37 12bd 112a 87bc 235d e5ba
000002e0: 4caa 9abc bf14 0aba ed2b 053d 3343 0fbd
000002f0: 4931 313d e5b4 8f3d 1c45 0ebc abc8 1fb9
00000300: 5137 d2bc 5c5f dfbc 5260 8bbc 6cef 9e3c
00000310: 5927 323d 00d5 4b3c 79d2 5f3d 9317 47ba
00000320: 64a3 deba ea1e 1d3e 3172 acbc 32aa 82bb
00000330: 2daf d43c 3911 c1bc f9fd 43bd 3571 1bbd
00000340: c163 cf3c dbba c3be 24c0 443b 2db1 403d
00000350: 918f 12bd 6d41 72be b321 72bc af41 5e3c
00000360: 81fe 3abd 0a1d 38bd 91a8 383d 85a7 67bc
00000370: dd78 39bd 87eb 24bd 0f40 043c 11ea 16bd
00000380: 8018 063e 7ee5 1abd 6f3b a13c 52b2 6a3d
00000390: 4395 80bd 24d1 d93d 8ca0 60bd d539 ebbd
000003a0: bdae 8b3c 5362 d7bc 5327 07bf e040 dc3c
000003b0: 15f7 233b 8a81 b73c b64e 783d d41d 2938
000003c0: 71d7 003b 62ac 813c ec82 433d 1fe0 6a3c
000003d0: 2e17 f4be d790 1e3d 80f7 03be 388e f4bd
000003e0: 9f34 ddbb 026e fd3d 46c0 c3bd 5ac8 00bb
000003f0: f4ed 613d 632a 713d 9bb0 3dbd a18a 513d
0.015156419 -0.0038553271 -0.12788682 0.048122045 -0.040238287 -0.09962524 0.049306948 0.057086058
0.0064006867 -0.086772576 0.064327285 0.0142601095 0.07152648 -0.007828866 0.008702073 0.119051374
-0.19815025 -0.007082814 -0.026405104 0.016600396 0.016049085 0.04210628 0.031150471 0.064517014
0.063309215 -0.07399247 -0.068446085 -0.23586956 0.055976875 -0.042162172 0.09279489 -0.044595663
0.012653123 0.0070572263 0.069852754 0.035033848 -0.025496343 0.046356726 -0.03770533 -0.040793024
0.027147735 0.062301237 -0.0020039636 0.0036125586 0.025634494 -0.09769746 0.017005932 0.044733595
0.016490523 -0.29761663 -0.027928138 -0.031209094 0.047079124 -0.030827824 0.033343177 -0.008480022
0.0698987 0.061719246 0.09686947 0.071414605 0.08502085 -0.04703629 0.01724759 -0.019537155
0.053819243 0.034320176 -0.056891233 -0.04336641 0.0063645416 -0.042609967 -0.014327145 0.030962737
-0.08330355 -0.29373437 0.061696094 -0.19449991 0.02714739 0.1420043 0.09298577 -0.0070539685
-0.13393976 -0.17463665 0.0010806535 -0.13864955 -0.010533156 0.0018503825 -0.056867752 0.039982263
0.055318546 -0.057989154 0.015860755 -0.019622881 -0.006818776 0.08296064 0.041342944 -0.0039473027
-0.1979648 0.06916428 -0.028677953 -0.039172843 -0.025417138 0.038208775 0.010516046 0.0353949
-0.018175425 -0.21873562 -0.010041272 -0.39474922 -0.09313211 0.047467712 0.020727208 -0.25400302
0.054734167 0.033283412 -0.04759165 -0.07575732 -0.044116694 0.012124969 -0.040871654 0.21589284
0.006040111 0.0073548406 -0.033071626 0.012402924 -0.03905038 -0.08887844 -0.044571143 -0.042515457
0.055322103 -0.055243738 -0.0019449505 -0.012011153 -0.15074669 -0.034142092 0.10464805 -0.03252496
0.050796818 0.12616044 0.091521315 0.14010005 0.035403367 -0.18734331 -0.20466474 -0.035491407
0.09752705 0.0071856813 -0.036892843 -0.03338271 -0.025031926 0.04413814 -0.03486036 0.020726936
0.012518865 -0.02056059 -0.032522384 0.062539764 0.0748854 0.0011875866 -0.010486134 -0.012614341
0.28478846 0.08258364 -0.0084998645 -0.0082456935 0.04293122 -0.042440996 -0.08164653 0.007993484
-0.24329014 0.07586061 -0.018341951 -0.0022259494 0.04078776 0.043123767 -0.20857891 -0.054464653
0.08958913 0.014186416 0.007099446 -0.06261689 0.04178353 -0.0356971 -0.016499551 -0.001749907
-0.018880032 -0.00052673736 0.032512594 -0.034976196 0.043259893 0.07016925 -0.008683469 -0.00015238176
-0.025661143 -0.02726715 -0.017013703 0.019401275 0.043494556 0.01244092 0.05464408 -0.00075947604
-0.001698595 0.15343824 -0.021050544 -0.003987574 0.025962437 -0.023567783 -0.04784963 -0.03794976
0.025316121 -0.38228497 0.0030021751 0.047043968 -0.035781447 -0.2365777 -0.014778542 0.013565465
-0.04565287 -0.04494957 0.045082632 -0.014139061 -0.04528128 -0.04026368 0.008071913 -0.036844317
0.13095284 -0.037816517 0.01968166 0.057298966 -0.062784694 0.106355935 -0.05484061 -0.1148564
0.017051095 -0.026292002 -0.5279438 0.026886404 0.0025019099 0.022400636 0.06062194 4.032052e-05
0.0019659663 0.015829269 0.04773228 0.014335661 -0.47673935 0.03871235 -0.12887383 -0.119411886
-0.0067506577 0.12374498 -0.095581576 -0.001965067 0.05515857 0.058878314 -0.046311002 0.051157597

fc2.bias f4 [200]
00000000: c488 b73d 7b4c 0cbd 6d87 9abd ef8c ef3d
00000010: 5ce3 ec3c 5790 f23e ea4f f3bd ff7d 073d
00000020: 3347 963e 6fa6 263e f935 253f edd4 8ebd
00000030: 4376 eabc 22bc debc 9629 7d3d b54d a43d
00000040: 7d69 473c 2b8e 173d 1731 373b c783 24bd
00000050: 0012 ce38 93b6 eb3b 0036 633e d101 01bd
00000060: 2d68 6dbd ba02 d33e 619b 18be b5c5 c0bd
00000070: abbc 273e c521 833e c646 d2ba e532 823e
00000080: cd9e d1ba 084a 503e f8a2 88bd 9b8b ebbe
00000090: 9f8f 5c3c dd7d ce3c 9063 aa3e aee7 d73e
000000a0: aa32 953e 8abe b33e df63 b7bc 6fa2 d3bc
000000b0: f6e1 aabc 6113 a33d a903 a8be d0bd 763e
000000c0: 1ba1 323d 6c47 763e 54b1 03bd 9cd7 c83e
000000d0: 767d 08be cb1e c53d 1226 243d 8621 673e
000000e0: 74e3 963c 64ab a0bc c4fe da3e d83e 923e
000000f0: c027 7b3c c2d6 56bd b128 e23e 9c11 0ebc
00000100: 8ac0 c4bd 636b 063f caf0 7cbc e9d4 0d3e
00000110: 3b0d 9e3e d6fb 483d db50 dd3e 50a2 9bbc
00000120: 367a 3f3d 08cb a23e 148e 293e ccc6 fd3d
00000130: 7a43 eabb cc20 b3bd 5407 a0bc 07b4 1a3e
00000140: 09bc dbbe 332d 7e3c 64f4 8e3e af17 d03e
00000150: c289 403e a525 35bd 2cfa 0dbb 1364 56be
00000160: 59ea 723e 0677 483c e018 123d 1a7b 843e
00000170: 003a 2fbd 6f12 08bd 1971 323e fc91 59ba
00000180: efea 853e ea4d 1ebe df29 08bd ff58 4e3e
00000190: f82a a03e b081 253d 2da0 c73b 840b b33d
000001a0: d45d 63bc 8a09 d73c a42d b4be ee64 1a3d
000001b0: 4a87 3f3e 7fa9 85bd bd0b 84bd e562 6e3c
000001c0: ede1 61be 9b01 1fba 0c7b 1d3e 8228 8e3e
000001d0: 419c 803c 2262 a43e 835b bbbc 2852 b8bc
000001e0: 0666 52bd 7196 0f3e 5cba b33b 7444 2abd
000001f0: 7f4c 53bd 02e5 60bb 3244 f3bc 6d0f bcbd
00000200: 3ff3 023f b3a3 d83c 8a36 3abd 7522 3e3d
00000210: 9d55 29be e086 f13c d436 7f3c a4c8 2a3e
00000220: 96ed 3ebd 94e4 923c ef9b 2dbd 596d 1dbe
00000230: bae9 903e 91f9 343e b40d 0ebd 808c 46bd
00000240: 74ab 3cbc 11cb 723e 3897 fabb a09c 9b3d
00000250: 1fb0 6c3d eaa6 de3d 5b23 d7be de30 2f3e
00000260: 5341 cfbc 50ec 9b3d d507 bf3d e132 c33e
00000270: 2926 a1bd 611b 443e 1881 54b9 598a c8be
00000280: f126 5d3e f754 1dbd d692 723e 5ff2 9f3d
00000290: d011 973e 4164 a63c 8759 2dbd 3050 71bb
000002a0: ed57 8e3c a796 b73c f3b5 0c3d d268 fabc
000002b0: 75f9 043d b34d bcbc e39e b03e 6723 70bb
000002c0: 80a5 92bd 08a7 1f3f fdd4 2a3d 2012 983e
000002d0: 4ff3 9a3e d9a5 723e 772c aebc c610 063e
000002e0: 92a9 ab3e 4586 d23e b353 eb3c 8818 0c3e
000002f0: d1c9 96bd f4c3 47be af1b 8bbe 8417 e3bd
00000300: 4c66 50bd b2ab 913e 0eda 3e3c 43e0 1f3c
00000310: b5e0 2a3c 5449 d73d f91b 5fbe 7051 af3b
0.08961633 -0.034252625 -0.07545362 0.11696803 0.028917007 0.47375748 -0.11880477 0.033079144
0.29351196 0.16274427 0.6453548 -0.06974206 -0.028620845 -0.027189318 0.061807238 0.08022634
0.012171146 0.037000816 0.0027952844 -0.040164735 9.826198e-05 0.0071933954 0.22188568 -0.031495873
-0.057960678 0.41213018 -0.14903022 -0.094127096 0.16380565 0.25611702 -0.0016042821 0.25429454
-0.0015992761 0.2034074 -0.06671709 -0.46004948 0.013461976 0.0252065 0.33279085 0.42168945
0.29140216 0.35106307 -0.02238649 -0.02583429 -0.0208597 0.079626806 -0.32815292 0.24095845
0.043610673 0.24050683 -0.032151535 0.39226997 -0.1332911 0.09625014 0.04007537 0.22571382
0.018419005 -0.019612975 0.42772496 0.2856357 0.015329301 -0.052450903 0.4417167 -0.008671191
-0.096070364 0.5250761 -0.015438268 0.1385075 0.3086947 0.049068294 0.4322575 -0.018998295
0.04674741 0.31795526 0.16558105 0.12391433 -0.007149157 -0.0874649 -0.019534744 0.15107737
-0.42916897 0.015513706 0.2792083 0.4064307 0.1880255 -0.044225354 -0.0021664007 -0.20936613
0.23722209 0.012235409 0.035668254 0.2587517 -0.042779922 -0.033220705 0.17425956 -0.00082996464
0.26155803 -0.1545941 -0.033243056 0.20151137 0.31282783 0.040406883 0.0060920925 0.08742431
-0.013877351 0.026249666 -0.3519107 0.03769391 0.18703952 -0.065264694 -0.064475514 0.0145499455
-0.2205884 -0.0006065608 0.1537897 0.2776528 0.015699508 0.3210612 -0.022870785 -0.022500113
-0.05136683 0.14022233 0.0054848623 -0.04156919 -0.051586624 -0.0034316187 -0.029695604 -0.0918263
0.51152414 0.026445245 -0.04546217 0.04641958 -0.16536565 0.029483259 0.015577037 0.16678101
-0.0466133 0.01793126 -0.042385038 -0.15373744 0.2830332 0.17673327 -0.034681037 -0.048473835
-0.011515487 0.23710276 -0.007647421 0.07598233 0.05778515 0.1087168 -0.42019162 0.17108485
-0.025299704 0.076134324 0.09327666 0.38124755 -0.078686066 0.19151069 -0.00020265987 -0.3916805
0.21596886 -0.038411107 0.23688826 0.078099005 0.29505777 0.020311477 -0.042321708 -0.0036821477
0.01737591 0.022410704 0.034353208 -0.03056756 0.032464463 -0.022986269 0.3449622 -0.0036642195
-0.07160473 0.62364244 0.041707028 0.29701328 0.30263755 0.23696078 -0.021261437 0.13092336
0.3352781 0.41118065 0.028726434 0.13681233 -0.07362712 -0.19508344 -0.27169558 -0.110884696
-0.050878808 0.28451306 0.011648668 0.009758058 0.010429551 0.10512033 -0.21788014 0.0053502843

fc3.weight f4 [2, 200]
00000000: 85c1 173d 7d2b ee39 6ce5 cabd 7829 903b
00000010: 12bc c33c 9501 e33e 130a 8cbb 5915 013d
00000020: 0f89 9abf fc39 913b 0bd4 23bf 457e 85bd
00000030: 775a 87bd 3491 ac3d d51b 113e b19b 483d
00000040: 7368 6b3c 566d 613d 2edf eebb f1fb 393d
00000050: a85b 5bbd 35af f6bc 05ee 0e3d c9f4 a63d
00000060: ee24 2c3d 3add cd3e 6160 1abe 89d3 4ebe
00000070: 48cf 06be f5be 633d 7d19 813d c96b 32be
00000080: 9f62 79bd 2cfb ad3e 6f6a 79bb 4868 debd
00000090: 3bbb 82bd 5b9c 00bd bb5a 5abe 09a8 1bbf
000000a0: 5853 67bd 3c56 333e c783 243d 4119 813d
000000b0: f494 8fbd e407 1d3e eca9 cfbd 94fc 62bd
000000c0: b2cb c33b dfef 603e 10e4 2e3d a243 c13d
000000d0: 78bf b5bd b73c 1abe 76d2 92bd 51f9 ab3d
000000e0: f31c 1fbd 4a6b 013d 74ab 553e d0b7 a6be
000000f0: 2b94 82bc 7732 2dbd 3ebb 1a3e cb94 e13c
00000100: a144 67bd 3557 25bf 4c59 843c fbd0 7cbe
00000110: 8929 dc3d 569f 863a 7b75 883e c628 90bd
00000120: 5292 733d 39f8 84be faed e43c 4971 a6bd
00000130: 9f62 793d bb4e c4bd 52bd 813d 4b29 7ebb
00000140: 1602 94bd 827f fcbd 9c84 923d c8fa fe3c
00000150: e18b a33d 2d05 053d a934 1d3d 1482 62bd
00000160: 20b5 92bf fc4c 33bc bb33 b2ba 6e7f 19be
00000170: d584 c73b de6f 353d 01f2 023e 2dd8 a13c
00000180: 436c 3b3e e5d2 2bbe 5933 c3b9 5f3c 013e
00000190: 4d7f 1bbe e0ae 433c d436 7f3d 9bc1 b53c
000001a0: 41a9 4c3d 9b57 3bbd 4c86 90bc e27f 87bc
000001b0: 4d54 20bf f901 a13d 7829 9ebd 2f16 c9bd
000001c0: f8d4 d4bd 78e3 ddbc 53f8 b03d b7fd e2be
000001d0: aa4a 8bbb 6134 303d 3aa5 14bd 0659 06bc
000001e0: 3f54 373d 4415 173d 3973 b9bc fc03 633d
000001f0: bbbd 7e3d 48eb 5d3c b56e 21bd f562 d8bd
00000200: 705b 6dbe 740c 50bc 8a1a 4d3d 7ec2 06bd
00000210: 5189 38be 7b64 4fbd 438a 033d 3883 a3bd
00000220: 121b 823d 7035 42bd f4e9 3c3d 09db 43be
00000230: e6f0 c5bc 4489 f83c 7f73 37bd 97e1 55bd
00000240: d3e4 0c3c dc0e 97be 890d 013d 006d 0c3d
00000250: 8d79 1abe 4128 2a3d b307 28be ba1a a4bd
00000260: bfdb 073c d8b5 3cbe af66 663d f90a 74be
00000270: 9c50 953a 9b9b a7be 296a 7bbd f1f0 9dbe
00000280: bf94 30be e157 d5bd 734e d83d 8f56 c7be
00000290: d420 45be d7f5 493b f725 883d 30ed 08bd
000002a0: 98bf 543d 1467 f538 dffe 793d ece1 1e3e
000002b0: 5093 7abd cf81 dd3c 0fed 15be bfdb 873c
000002c0: 07ee 49bc 19ee d73e b60c 073d aff3 74be
000002d0: bc67 13be 41be 9ebd c68b 783d 0e25 45bd
000002e0: d03f b4be 8233 82be 9b43 03bd 502a d13c
000002f0: 5373 1abd 115d b6bd da2b b0bd f72b 87bd
00000300: 2818 89ba a73c 09bd be39 78bd b7b2 c03c
00000310: 023f 273d 5fa4 aa3c d0cf 25bd 18a8 383d
00000320: fda7 473d a35e 963c 2ff3 07be 839e 8cbe
00000330: 7d3c 643b 56f7 77be ae1d efbb 813e 003d
00000340: 5030 123d e0a6 88bd 4086 12bd 4ebb e5bc
00000350: 7e5d 493d 561c 87bc 0af2 3abe eed9 06be
00000360: 2a5e fd3c f803 1cbd 0273 573d 50ad 123d
00000370: b830 093d 7455 a0bb 681b 9cbc 4756 1abd
00000380: ce53 2c3d 0e0e efbd b5a2 d1bc 4276 6a3c
00000390: a181 893c e573 edbd 3d28 5bbc 5b8c 82bc
000003a0: 9c22 043d ebe6 0bbd 8489 ecbd 61e1 debc
000003b0: f5d2 c73b 0e26 82bd a172 e8bc 438a 03be
000003c0: 4005 e8bd f095 2ebe 70fd 673c ef52 5d3d
000003d0: 2aae 3fbd ad34 64bd c22c 73bd 1333 c5bd
000003e0: 7f4c d33c c3a3 74be c054 deba 3b56 c5bd
000003f0: cf0f 54bd 2b72 16bd 7455 20be e6ee 18be
0.03704979 0.000454273 -0.0990704 0.0043994747 0.02389339 0.44337144 -0.004273662 0.0315145
-1.2073077 0.004431961 -0.63995427 -0.065182246 -0.06609052 0.08426133 0.14170773 0.048976604
0.014368164 0.05503591 -0.0072897887 0.045406286 -0.053554207 -0.030112842 0.034894962 0.08152158
0.042027406 0.40207845 -0.15075828 -0.20197882 -0.13165009 0.055602033 0.0630369 -0.1742393
-0.060885068 0.3398069 -0.0038057824 -0.10859734 -0.06383368 -0.031399112 -0.21323673 -0.60803276
-0.056475967 0.17513365 0.040164735 0.06303645 -0.070108324 0.15335041 -0.10139832 -0.05541666
0.00597521 0.21966504 0.042697966 0.09436728 -0.088744104 -0.15062223 -0.071690485 0.08397163
-0.038845968 0.03159646 0.20866185 -0.32562113 -0.015939793 -0.042284455 0.1511049 0.02753677
-0.056461934 -0.6458619 0.016155861 -0.24689095 0.1075011 0.0010270874 0.2665213 -0.07039027
0.059465714 -0.2597063 0.027945507 -0.08127076 0.060885068 -0.09585329 0.06334938 -0.0038781937
-0.0722696 -0.12329008 0.071541995 0.031125441 0.07985664 0.03247564 0.0383803 -0.055299833
-1.1461525 -0.0109436475 -0.0013595739 -0.14990017 0.006088833 0.044296138 0.1278763 0.019756401
0.18303017 -0.16779669 -0.00037231555 0.12620686 -0.1518528 0.011943549 0.062308148 0.022187045
0.0499661 -0.045737844 -0.017642163 -0.016540471 -0.6262863 0.078617044 -0.07722753 -0.09818684
-0.10392183 -0.027086005 0.08641114 -0.44334194 -0.004250844 0.043018702 -0.036290385 -0.008199936
0.044758078 0.036885515 -0.02263795 0.05542372 0.06219266 0.013544865 -0.03941222 -0.105657496
-0.23179412 -0.012698282 0.050074138 -0.032900326 -0.18021132 -0.050632935 0.03211428 -0.07984012
0.063528195 -0.047414243 0.046121553 -0.19126524 -0.02416272 0.03033889 -0.04478788 -0.052217092
0.008599478 -0.29503524 0.03150705 0.034283638 -0.1508543 0.041542295 -0.16409187 -0.0801291
0.008292138 -0.18428743 0.05625027 -0.2383231 0.0011391821 -0.32735905 -0.06138054 -0.30847886
-0.17244242 -0.10417152 0.10561838 -0.38933226 -0.19250804 0.0030816698 0.06647866 -0.033429325
0.05194053 0.0001170171 0.06103408 0.1551587 -0.061175644 0.027039437 -0.14641212 0.016584275
-0.012324817 0.42173842 0.032971106 -0.23921083 -0.1439504 -0.07751132 0.060680173 -0.04813104
-0.35204935 -0.25429922 -0.032046895 0.025532871 -0.037707638 -0.0890447 -0.08602114 -0.066001825
-0.001045947 -0.03350511 -0.060601942 0.023522718 0.040831573 0.020830331 -0.04048139 0.04508218
0.04874419 0.018355673 -0.13276361 -0.27464685 0.0034826093 -0.24215445 -0.0072972393 0.03130961
0.035690606 -0.06672454 -0.035772562 -0.028043415 0.049161427 -0.016493004 -0.18256393 -0.13169071
0.03092869 -0.038089722 0.052599914 0.035809815 0.033493727 -0.0048929993 -0.019056037 -0.037679937
0.04207211 -0.116726026 -0.02559028 0.014310421 0.016785445 -0.11594371 -0.013376293 -0.015936067
0.03225957 -0.034155767 -0.115496665 -0.027207078 0.006098146 -0.063549146 -0.028374972 -0.12845711
-0.11329126 -0.17049384 0.014159545 0.05403417 -0.046796955 -0.055714298 -0.059368856 -0.09628882
0.025793312 -0.23890595 -0.0016962513 -0.09635588 -0.05177289 -0.036729973 -0.15657598 -0.14934883

fc3.bias f4 [2]
00000000: 80e3 2b3e def2 b4bd
0.16786003 -0.08835386
