log/train_1_1k/models/600_critic.pt (torch_old, 251025 bytes, 5 tensors)

fc1.weight f4 [300, 6]
-0.19982092 0.5207537 0.8044604 0.28983784 -1.5324435 2.8828146 0.25431883 0.09630265
-0.8689111 1.9161022 0.19262247 -0.3953333 0.008199127 0.36616156 -1.0643693 0.21350136
-0.80738395 -1.1600901 -0.1305715 -0.108269684 0.64053124 -1.2474155 0.6530885 -1.1737882
0.35421115 0.03000176 -1.5431229 0.21324202 -1.4314631 0.102111466 -0.077772476 0.14404494
-0.043576106 -0.5960968 -1.1967705 0.47123468 -0.14370754 0.28699824 -0.052009303 -1.4985775
0.44125766 0.89102656 0.21377082 0.4184292 0.14426066 0.023802586 -0.73441255 -1.6682105
-0.10190544 0.7763119 0.45062998 -0.7409305 0.7177104 -0.68992764 -0.046904348 0.2536754
1.3201201 1.8659418 1.1383083 2.2380023 0.034646973 0.49318856 0.8302991 1.0398257
0.49068153 0.9691046 0.023020422 -0.12769656 1.0945342 -0.45127895 -0.7014971 1.257585
-0.3137789 0.20254289 1.0257338 -0.5562627 1.9594958 -0.6193023 -0.08610557 0.107158214
-1.4270222 1.7526956 -0.5440871 0.008500448 0.0058009224 0.67520195 0.2892569 0.22852038
-0.5548126 2.9627929 -0.008421369 0.15643317 0.72928995 0.06793043 0.38792697 1.8712068
0.12982608 0.21568206 0.16583325 0.96356815 -0.93508 -0.072468154 0.20706461 -0.25951326
-1.8587207 -1.8912054 -1.4939297 -0.944993 -0.18935661 -0.06678575 -1.041034 -0.37571794
-1.9535931 -0.34703612 0.24996375 0.29130048 1.8187425 -3.7786329 0.6391121 -2.879538
-0.005331133 0.0038392066 0.46439296 -1.0656846 0.36532468 -0.16340579 0.08540998 -0.004978838
-0.8742703 -0.4441549 -0.48159856 0.7891931 -0.083767965 -0.21349724 -0.71740615 0.6517806
0.13126041 -1.1523814 0.039957378 0.2925474 0.33646855 0.6382957 -0.089186125 0.7176471
0.1851547 0.17486487 -1.6652387 2.4418497 -2.5296235 1.7239629 0.1940632 -0.014856188
-0.046368513 -0.07480371 -0.287022 -0.77455586 -0.044820666 -0.087754875 0.54871523 0.6186758
0.9681637 1.2399555 0.015163484 0.5475459 0.6142737 0.3390746 0.29305336 -1.1391152
-0.18415928 0.37015516 -1.1061691 -0.30328444 -1.7933509 -0.29267028 -0.13050464 0.67722934
1.309548 1.2945664 1.8890584 -0.22096659 0.05327176 0.24364778 0.04136012 -2.698373
-0.054615714 -2.5314775 0.091861494 0.07707267 0.609011 -1.4977882 -2.1381128 -1.3622476
0.020353235 1.142695 -0.33940452 -4.7734575 -0.15623634 -2.0744286 -0.17449898 0.8205941
0.3342618 -0.95794666 0.13279623 -1.3309436 0.16398863 -0.16310568 -1.4942698 -0.43321666
-1.447327 0.65625286 -0.061259713 0.2063663 1.4088526 -0.045522045 0.4646268 1.5566374
0.06863956 -0.22155042 0.16890074 0.7789803 -0.70347613 0.6880595 -0.08823366 0.077968076
0.3006756 -0.12994011 0.9572236 -1.0027972 0.5801298 0.016519168 0.75249237 -0.4831971
-0.45547122 -0.57225204 0.03717549 -0.025020441 -0.6223163 0.38656354 0.5721295 0.6297307
-0.091539524 0.57244325 -0.99984527 0.27721393 -0.5779918 1.9202483 0.16804484 0.15949197
0.44716454 -0.16215667 -0.5107374 0.45674163 -0.04872336 -0.082495406 -1.0512234 -1.8103992
00000000: db9d 4cbe 1d50 053f 1ef1 4d3f a065 943e
00000010: 1c27 c4bf 0980 3840 1436 823e 533a c53d
00000020: f570 5ebf d642 f53f d33e 453e 2069 cabe
00000030: a255 063c 8779 bb3e 413d 88bf 1aa0 5a3e
00000040: b7b0 4ebf d57d 94bf 89b4 05be 7fbc ddbd
00000050: dbf9 233f 50ab 9fbf cf30 273f b13e 96bf
00000060: 2a5b b53e 40c6 f53c 0d85 c5bf 1e5c 5a3e
00000070: 2f3a b7bf d11f d13d 2d47 9fbd 8480 133e
00000080: dc7c 32bd cd99 18bf c72f 99bf ac45 f13e
00000090: 1228 13be 6ff1 923e b507 55bd 63d1 bfbf
000000a0: 86ec e13e 511a 643f bde6 5a3e 5a3c d63e
000000b0: 11b9 133e a4fd c23c 7602 3cbf ec87 d5bf
000000c0: cdb3 d0bd 60bc 463f f9b8 e63e 9fad 3dbf
000000d0: debb 373f 199f 30bf c61e 40bd bee1 813e
000000e0: b2f9 a83f 2ed7 ee3f 16b4 913f 6e3b 0f40
000000f0: fce9 0d3d 3683 fc3e 7b8e 543f 0219 853f
00000100: 9c3a fb3e 3d17 783f 5395 bc3c e3c2 02be
00000110: b219 8c3f 090e e7be 5095 33bf 8cf8 a03f
00000120: a1a7 a0be 6767 4f3e 3f4b 833f 3b67 0ebf
00000130: c2d0 fa3f 988a 1ebf 1e58 b0bd c475 db3d
00000140: aaa8 b6bf 5458 e03f 4b49 0bbf 7745 0b3c
00000150: aa15 be3b 09da 2c3f 7b19 943e 3f01 6a3e
00000160: 3308 0ebf 669e 3d40 c8f9 09bc 0430 203e
00000170: bfb2 3a3f 1c1f 8b3d 5d9e c63e b483 ef3f
00000180: 21f1 043e c2db 5c3e 31d0 293e 67ac 763f
00000190: 6761 6fbf 2f6a 94bd bf08 543e ecde 84be
000001a0: 8fea edbf 0513 f2bf 1739 bfbf 10eb 71bf
000001b0: b3e6 41be f8c6 88bd 9a40 85bf 1a5e c0be
000001c0: 570f fabf b8ae b1be 7ff6 7f3e 5625 953e
000001d0: 8ecc e83f 1fd5 71c0 da9c 233f 5a4a 38c0
000001e0: c9b0 aebb 339b 7b3b eac4 ed3e 5a68 88bf
000001f0: d60b bb3e d953 27be 6deb ae3d 8525 a3bb
00000200: 2ed0 5fbf 4568 e3be 1694 f6be 8f08 4a3f
00000210: 8a8e abbd 059f 5abe eea7 37bf 18db 263f
00000220: 2169 063e 3c81 93bf 59aa 233d c6c8 953e
00000230: 9b45 ac3e 5967 233f 37a7 b6bd b8b7 373f
00000240: 3299 3d3e c70f 333e 8b26 d5bf 4447 1c40
00000250: 5ae5 21c0 d1aa dc3f 81b8 463e 5e67 73bc
00000260: e9ec 3dbd b032 99bd 8cf4 92be 4b49 46bf
00000270: e095 37bd d4b8 b3bd 9a78 0c3f 8a61 1e3f
00000280: 94d9 773f ddb6 9e3f 4370 783c f82b 0c3f
00000290: 0b41 1d3f 309b ad3e 170b 963e 87ce 91bf
000002a0: 4094 3cbe fa84 bd3e f396 8dbf 1948 9bbe
000002b0: 868c e5bf e1d8 95be 02a3 05be e75e 2d3f
000002c0: 459f a73f 5ab4 a53f aacc f13f 1145 62be
000002d0: 7d33 5a3d ce7e 793e 3b69 293d 25b2 2cc0
000002e0: bab4 5fbd ba03 22c0 e121 bc3d 47d8 9d3d
000002f0: 25e8 1b3f 86b7 bfbf d7d6 08c0 215e aebf
00000300: d4bb a63c d443 923f 6ec6 adbe 2ac0 98c0
00000310: 6bfc 1fbe 70c3 04c0 dcaf 32be 7412 523f
00000320: 5d24 ab3e fe3b 75bf bcfb 073e 5c5c aabf
00000330: a3ec 273e 2d05 27be 3c44 bfbf 93ce ddbe
00000340: 0342 b9bf 3000 283f 77eb 7abd b051 533e
00000350: 4855 b43f 5375 3abd 90e3 ed3e e53f c73f
00000360: e692 8c3d 1dde 62be 51f4 2c3e 416b 473f
00000370: 0317 34bf ab24 303f d9b3 b4bd baad 9f3d
00000380: 27f2 993e 050f 05be 9b0c 753f a95b 80bf
00000390: 6383 143f 3553 873c 57a3 403f 9c65 f7be
000003a0: 8633 e9be 1c7f 12bf 5445 183d abf7 ccbc
000003b0: 1f50 1fbf a8eb c53e 1477 123f 0836 213f
000003c0: 1379 bbbd a48b 123f dcf5 7fbf fcee 8d3e
000003d0: 45f7 13bf b2ca f53f f213 2c3e dd51 233e
000003e0: c0f2 e43e 660c 26be b0bf 02bf 0ada e93e
000003f0: 2592 47bd 5af3 a8bd 7d8e 86bf 29bb e7bf

fc1.bias f4 [300]
-0.91621 -2.9476793 1.2079425 -2.9436905 -4.0579257 2.8149974 -0.2105809 -0.8469496
0.052932166 3.5472357 -4.0323243 3.9048607 2.4702616 3.1071112 -0.22314397 3.271401
3.4257982 -2.890172 -3.70123 0.7184407 4.055101 3.885553 -2.470768 -4.6485686
0.57277316 3.1405225 2.6065254 4.7537484 -0.1765992 -2.0157053 4.3400893 -2.7172925
-0.39418596 -0.050726652 -4.558797 3.3922293 -6.7968407 1.3350649 -2.7971876 2.045801
1.1819386 3.400819 0.536401 1.1617314 -0.45754844 4.882864 -2.4217927 -0.29748425
3.217219 0.25292948 1.1843487 3.6815338 0.6428639 2.3389084 -6.0967584 -1.6757232
1.1444978 0.20179288 1.5828865 -6.9498405 -0.2735874 2.968289 -0.91450065 1.1555272
3.9194233 2.7239487 -3.3291006 -0.991378 4.0828857 3.1948445 1.5757236 3.323156
3.0640104 -2.2553263 -2.5488708 -0.027390672 3.4765 1.3005639 1.5164875 -4.5759807
-0.46765828 1.321996 0.59351873 3.3420892 3.0607529 2.3456306 -1.7213812 -1.0887488
1.9565734 -2.3530257 -2.2808306 2.5286686 0.78504896 2.344897 1.9420841 1.7487669
4.0326676 0.524714 1.4411544 3.5114768 0.6263832 -5.7460146 -1.2290052 1.033978
-1.6404107 0.69573855 -3.272494 3.2318192 0.5838429 3.417033 2.6452026 4.8153343
3.392889 3.4366288 -0.43257734 3.41682 1.0397851 -3.8129349 0.6684707 3.0863504
-0.010424337 3.346436 -3.2711582 0.46964923 2.4310071 1.8508736 4.1487765 3.085039
2.3269343 3.760845 -1.6586416 0.6093492 3.2493432 -0.5301 5.911997 0.60394484
-2.4054973 3.9443362 -2.6959229 2.8894284 -4.070438 -3.8836584 2.4977791 -3.8064914
-4.6783414 2.9658298 3.2242787 2.6605988 3.7513885 0.93202215 -3.8905947 2.9275763
3.4737191 1.643958 0.15638965 3.9900558 0.3239447 -5.7175393 2.7062225 4.09047
1.1455672 2.2186036 4.4231205 1.9082867 3.4336696 -2.6309416 3.8231516 0.9694373
2.5244944 -1.8107353 -0.48456445 -3.8943849 -2.0872524 4.6813416 -1.655248 3.18253
-1.8844595 4.7210383 4.3395762 -2.086469 1.7057189 3.6854055 -1.1253175 3.841202
2.6251516 1.236522 2.2445319 -0.059755336 2.5802004 -2.4392214 1.5363909 2.9293394
-1.2257001 1.0886621 3.685579 -0.687618 4.652093 3.3842673 0.60500866 2.984933
-0.1443078 5.8309035 -0.2771275 -4.449922 2.3675199 -2.163676 0.45171118 1.7737572
-0.18598488 3.0172746 -1.6352205 -1.857601 -3.9035168 -0.58635986 -2.6304803 -6.3913126
3.5200155 1.4015248 -2.4626458 1.3897942 3.019515 -3.7578177 2.4785826 2.1265836
5.3128147 -6.796442 -0.89435506 -2.5847516 3.1962047 -2.279846 -2.2732854 3.579425
0.48884153 -3.4394944 -3.5980952 -3.0689416 3.7358806 -3.5074053 3.1329734 -0.44093117
3.406821 -3.391602 3.7851496 -0.20331547 3.15981 -2.9203904 -3.6289313 -0.1551837
4.151474 2.115816 -4.46106 2.4011862 3.0067134 -1.0504411 -0.1038875 1.1509591
00000000: bd8c 6abf c7a6 3cc0 dc9d 9a3f 6d65 3cc0
00000010: 87da 81c0 eb28 3440 85a2 57be b0d1 58bf
00000020: 66cf 583d e905 6340 cd08 81c0 3de9 7940
00000030: c418 1e40 e9da 4640 da7f 64be a25e 5140
00000040: 4740 5b40 94f8 38c0 f4e0 6cc0 bbeb 373f
00000050: 63c3 8140 e6ac 7840 1021 1ec0 13c1 94c0
00000060: 43a1 123f 52fe 4840 50d1 2640 b51e 9840
00000070: 6cd6 34be 5101 01c0 03e2 8a40 1fe8 2dc0
00000080: bed2 c9be c0c6 4fbd aae1 91c0 491a 5940
00000090: b87f d9c0 68e3 aa3f 1f05 33c0 67ee 0240
000000a0: c449 973f 05a7 5940 9351 093f 9db3 943f
000000b0: ca43 eabe 6c40 9c40 a7fe 1ac0 db4f 98be
000000c0: ebe6 4d40 f97f 813e bd98 973f 409e 6b40
000000d0: bb92 243f adb0 1540 a518 c3c0 197e d6bf
000000e0: e77e 923f cba2 4e3e 069c ca3f 1865 dec0
000000f0: a613 8cbe 72f8 3d40 b71c 6abf 51e8 933f
00000100: d5d7 7a40 2d55 2e40 fc0f 55c0 f3ca 7dbf
00000110: 00a7 8240 5578 4c40 50b1 c93f 97ae 5440
00000120: bf18 4440 4457 10c0 b320 23c0 6762 e0bc
00000130: fa7e 5e40 e178 a63f 431c c23f 6f6e 92c0
00000140: e870 efbe 2a37 a93f d8f0 173f cae4 5540
00000150: 60e3 4340 d01e 1640 3856 dcbf 1f5c 8bbf
00000160: ff70 fa3f f997 16c0 21f9 11c0 b5d5 2140
00000170: f8f8 483f cb12 1640 3696 f83f 98d7 df3f
00000180: 9d0b 8140 a853 063f bf77 b83f 09bc 6040
00000190: a65a 203f 5adf b7c0 0b50 9dbf 6459 843f
000001a0: faf8 d1bf ec1b 323f 8b70 51c0 20d6 4e40
000001b0: ba76 153f abb0 5a40 004b 2940 3817 9a40
000001c0: 1825 5940 baf1 5b40 c77a ddbe 2ead 5a40
000001d0: ae17 853f 2007 74c0 e520 2b3f c486 4540
000001e0: d7ca 2abc 022c 5640 a85a 51c0 dd75 f03e
000001f0: 9f95 1b40 6de9 ec3f c7c2 8440 4771 4540
00000200: 7eec 1440 afb1 7040 5e4e d4bf 4ffe 1b3f
00000210: 3df5 4f40 a2b4 07bf 142f bd40 219c 1a3f
00000220: abf3 19c0 0170 7c40 008a 2cc0 65ec 3840
00000230: 0741 82c0 dc8d 78c0 9ddb 1f40 8e9d 73c0
00000240: f9b4 95c0 28d0 3d40 955a 4e40 4047 2a40
00000250: c016 7040 0199 6e3f 81ff 78c0 695d 3b40
00000260: 6a51 5e40 376d d23f 9c24 203e 135d 7f40
00000270: 14dc a53e 15f6 b6c0 c032 2d40 21e5 8240
00000280: f2a1 923f 9afd 0d40 348a 8d40 bd42 f43f
00000290: 3ec1 5b40 5961 28c0 84ae 7440 0b2d 783f
000002a0: 5191 2140 2dc6 e7bf d518 f8be 9a3d 79c0
000002b0: 8b95 05c0 8dcd 9540 2bdf d3bf 92ae 4b40
000002c0: f835 f1bf bf12 9740 cfdd 8a40 b588 05c0
000002d0: ff54 da3f afdd 6b40 670a 90bf 41d6 7540
000002e0: 7c02 2840 5a46 9e3f 69a6 0f40 03c2 74bd
000002f0: 0122 2540 341c 1cc0 75a8 c43f 4c7a 3b40
00000300: bee3 9cbf 4859 8b3f 87e0 6b40 bc07 30bf
00000310: f2dd 9440 d697 5840 d9e1 1a3f 2409 3f40
00000320: 6dc5 13be c396 ba40 a8e3 8dbe c365 8ec0
00000330: 7285 1740 ab79 0ac0 b046 e73e 7a0a e33f
00000340: d272 3ebe 071b 4140 e84e d1bf dfc5 edbf
00000350: 38d3 79c0 ae1b 16bf ca59 28c0 a285 ccc0
00000360: ef47 6140 2a65 b33f fd9b 1dc0 c7e4 b13f
00000370: bc3f 4140 1680 70c0 19a1 1e40 f219 0840
00000380: 9402 aa40 747c d9c0 74f4 64bf 926c 25c0
00000390: 9e8e 4c40 ffe8 11c0 827d 11c0 4d15 6540
000003a0: 7049 fa3e ad20 5cc0 3147 66c0 8a69 44c0
000003b0: ab18 6f40 5479 60c0 a382 4840 bbc1 e1be
000003c0: 5b09 5a40 0210 59c0 e43f 7240 ee31 50be
000003d0: 543a 4a40 ade7 3ac0 6940 68c0 7ae8 1ebe
000003e0: e0d8 8440 8869 0740 01c1 8ec0 09ad 1940
000003f0: fe6d 4040 db74 86bf f8c2 d4bd a152 933f

fc2.weight f4 [200, 300]
-0.04793495 -0.015508577 0.002660375 -0.046059467 0.043109402 -0.034099884 -0.04031279 -0.019465825
-0.019018784 -0.005275931 -0.05771582 -0.042489346 -0.022175133 0.036200978 -0.051190462 -0.04355107
-0.0058499454 0.04148723 0.032977916 -0.0136711 0.004134893 -0.04956749 -0.056860592 0.024084471
-0.04151331 -0.05915651 -0.0009137848 0.033637945 0.008578057 0.00056910515 -0.014235415 -0.04705193
-0.044847485 -0.024566717 0.047298923 -0.060806837 -0.026111897 -0.028921638 0.0050145383 -0.053669088
-0.05658884 -0.04113705 -0.054722257 0.013809547 -0.015003528 0.009297048 0.055826902 -0.05562961
0.02491972 -0.03567943 -0.0033269897 0.031055352 -3.312528e-05 -0.075367324 0.012833618 -0.048630506
-0.043484014 -0.036241956 0.024533138 -0.043105703 -0.038909297 0.0003421054 -0.011056997 0.01990914
-0.023457525 -1.9560755e-05 0.023971051 -0.060646646 -0.07212628 -0.032758765 0.01814333 0.007571983
-0.01068753 -0.047522448 -0.0573758 -0.019611113 -0.0076623224 -0.05381065 -0.0012792463 0.013572194
-0.005237127 -0.036264308 0.03343305 0.032918952 0.023610264 0.027524017 -0.048844773 0.026583083
-0.030259993 -0.010958549 -0.04422835 -0.00597521 0.020589978 -0.058888286 -0.047003772 0.010422863
-0.03139529 -0.056876604 -0.0073726773 -0.009149897 0.027980085 0.030539393 -0.0017465435 0.026768424
-0.034166943 -0.010308817 0.03483957 -0.044296138 -0.017050952 -0.034222823 0.029635997 -0.063029
-0.072774485 -0.0083033135 0.05326417 -0.04763404 0.03444262 -0.049117494 -0.004263417 -0.028749367
-0.037154663 -0.009508461 0.02938009 -0.0054131495 0.009541988 0.027331876 0.014549775 -0.06287254
-0.03683056 -0.07831034 -0.006677203 -0.028056454 -0.0411445 0.057339005 0.0010910003 0.018022256
0.03152048 -0.03145862 -0.0011740066 -0.05001453 -0.037922084 -0.053456903 -0.064921476 0.025489815
0.04028821 0.026674354 -0.0153674865 -0.06586771 -0.015731173 0.03026558 -0.02037428 0.03440536
-0.03443144 -0.02917033 -0.042892672 -0.07841465 -0.051072527 0.043555386 -0.04531688 -0.038764007
-0.022074271 -0.053050682 -0.057401877 -0.067350395 -0.012778376 -0.008197337 -0.023917604 -0.046400324
0.009743157 -0.039136816 -0.052950695 0.055639792 -0.050086755 -0.024875015 0.032859348 0.03133196
-0.04976493 0.032240942 -0.0035135762 -0.030206362 0.017422477 -0.03906949 0.049004965 -0.027266683
-0.005250632 -0.036897615 0.012345306 -0.06279058 -0.015079704 -0.026554529 -0.012618187 0.015962144
0.057247818 -0.030538369 -0.04834999 0.01636593 0.00621596 -0.0017397912 0.035233796 -0.043264218
0.007867269 -0.03526219 -0.0408651 -0.010076214 0.031767823 -0.035183307 0.03836041 -0.036481902
-0.0022820346 -0.019035548 -0.028211227 0.031215541 -0.0018518455 0.013423301 -0.0034215488 -0.02979473
-0.0405708 -0.026341934 -0.05734098 0.028239131 -0.077155486 0.008418799 0.014264787 -0.04229396
-0.05648917 -0.006243672 0.0115733445 -0.0042549036 0.0026155368 0.02297426 0.013990417 -0.021205558
-0.02868045 -0.04777933 -0.049345456 0.0018670931 -0.072096474 -0.012921281 -0.035631 -0.021442238
-0.005815486 -0.04625954 -0.018672328 -0.04846685 0.036249407 0.045504935 0.022482842 -0.049753755
-0.025424503 0.0065110773 0.041524485 0.027709998 -0.033876367 0.04352022 -0.019613255 0.029655084
00000000: 7057 44bd b017 7ebc b059 2e3b daa8 3cbd
00000010: 7c93 303d 52ac 0bbd 061f 25bd cb76 9fbc
00000020: 48cd 9bbc b8e1 acbb 6c67 6cbd 4f09 2ebd
00000030: a0a8 b5bc 7a47 143d 17ad 51bd 9b62 32bd
00000040: e6b0 bfbb 84ee 293d da13 073d c0fc 5fbc
00000050: ff7d 873b 4807 4bbd a7e6 68bd cc4c c53c
00000060: dc09 2abd 194e 72bd 0f8b 6fba f1c7 093d
00000070: fb8a 0c3c 0030 153a a83b 69bc 86b9 40bd
00000080: ffb1 37bd 2440 c9bc 84bc 413d 9710 79bd
00000090: 9ee8 d5bc 12ed ecbc ff50 a43b 1ed4 5bbd
000000a0: b3c9 67bd 537f 28bd 7224 60bd 7041 623c
000000b0: 5cd1 75bc a552 183c c0aa 643d e0db 63bd
000000c0: 7124 cc3c 9824 12bd a009 5abb cb67 fe3c
000000d0: 00f0 0ab8 2f5a 9abd 1844 523c c830 47bd
000000e0: 4b1c 32bd 7272 14bd b8f9 c83c 9b8f 30bd
000000f0: 5b5f 1fbd 9c5c b339 6828 35bc 7e18 a33c
00000100: ff29 c0bc 6716 a4b7 f05e c43c 9e68 78bd
00000110: f1b6 93bd 0e2e 06bd 52a1 943c 661e f83b
00000120: c01a 2fbc e6a6 42bd e302 6bbd 7ca7 a0bc
00000130: 3814 fbbb 8e68 5cbd 62ac a7ba e85d 5e3c
00000140: 359c abbb e289 14bd 18f1 083d 06d6 063d
00000150: 506a c13c 0c7a e13c 7511 48bd c4c4 d93c
00000160: cee3 f7bc 7c8b 33bc c928 35bd b2cb c3bb
00000170: 50ac a83c d834 71bd 0787 40bd a8c4 2a3c
00000180: 5998 00bd 71f7 68bd 8096 f1bb 73e9 15bc
00000190: 7e36 e53c c02d fa3c 46ec e4ba 7449 db3c
000001a0: a3f2 0bbd 50e6 28bc f0b3 0e3d de6f 35bd
000001b0: 70ae 8bbc 3b2d 0cbd 31c7 f23c 5915 81bd
000001c0: ca0a 95bd 9f0a 08bc 882b 5a3d e91b 43bd
000001d0: b413 0d3d 6d2f 49bd 22b4 8bbb cb83 ebbc
000001e0: 7d2f 18bd 60c9 1bbc 84ae f03c ca60 b1bb
000001f0: 0056 1c3c 19e7 df3c 2e62 6e3c 51c3 80bd
00000200: a4db 16bd 2c61 a0bd 70cc dabb a6d6 e5bc
00000210: 2387 28bd 4edc 6a3d e5ff 8e3a 69a3 933c
00000220: 9e1b 013d c1da 00bd 20e1 99ba 09dc 4cbd
00000230: 3054 1bbd a0f5 5abd 8df5 84bd 04d0 d03c
00000240: 4005 253d 2d84 da3c e9c7 7bbc a6e5 86bd
00000250: a9de 80bc 86ef f73c f6e7 a6bc a3ec 0c3d
00000260: fb07 0dbd 9ef6 eebc 3ab0 2fbd dc97 a0bd
00000270: 6d31 51bd 2267 323d 319e 39bd 02c7 1ebd
00000280: 1ad5 b4bc ac4b 59bd 3b1e 6bbd 01ef 89bd
00000290: 655c 51bc 204e 06bc daee c3bc 440e 3ebd
000002a0: c3a1 1f3c ed4d 20bd d4e2 58bd 8de6 633d
000002b0: c527 4dbd b0c6 cbbc 8697 063d f155 003d
000002c0: 50d6 4bbd 140f 043d 0744 66bb 5573 f7bc
000002d0: 95b9 8e3c 5407 20bd 6eb9 483d 615e dfbc
000002e0: 7e0d acbb f421 17bd f743 4a3c 5998 80bd
000002f0: dd10 77bc e288 d9bc 83bc 4ebc 0bc3 823c
00000300: b07c 6a3d 9a2b fabc a40a 46bd d811 863c
00000310: 40af cb3b b509 e4ba 5051 103d d235 31bd
00000320: b8e5 003c 166f 10bd 2a62 27bd b416 25bc
00000330: fa1e 023d 5f1c 10bd ce1f 1d3d 0c6e 15bd
00000340: 308e 15bb 70f0 9bbc 3b1b e7bc bcb7 ff3c
00000350: a0b9 f2ba 68ed 5b3c 103c 60bb 1414 f4bc
00000360: 912d 26bd 0acb d7bc 60de 6abd c055 e73c
00000370: b203 9ebd 01ef 093c dab6 693c 6e3c 2dbd
00000380: 3061 67bd b897 ccbb 209e 3d3c b86c 8bbb
00000390: 6d69 2b3b 8434 bc3c 1038 653c 47b7 adbc
000003a0: 43f3 eabc 42b4 43bd 761e 4abd 40b9 f43a
000003b0: 51a7 93bd c8b3 53bc d0f1 11bd a2a7 afbc
000003c0: d58f bebb a57a 3dbd b6f6 98bc 2d85 46bd
000003d0: 427a 143d 6263 3a3d f02d b83c 98ca 4bbd
000003e0: 0c47 d0bc e05a d53b 9415 2a3d 1400 e33c
000003f0: f2c1 0abd 4242 323d faab a0bc 38ef f23c

fc2.bias f4 [200]
0.020415787 0.16588932 -1.8082063 2.527148 -0.03695722 -0.097421326 1.8525021 -0.0778782
-0.04316736 0.36396557 -0.06858721 -0.0911255 -1.1627228 -0.05964453 -0.09770445 0.018543804
-0.025476659 -0.068453096 0.22032918 1.054837 2.5582156 1.0561484 0.5114997 -0.004843375
0.29485306 0.0043467716 -0.52115995 0.90931034 -0.04593156 2.3353386 0.9590021 2.0841575
0.0348226 2.0256038 -0.041982703 -0.027778918 0.8299343 -1.3115017 -1.246273 1.4040054
0.027859012 -0.0657634 1.0075872 -0.04991022 0.021278203 -0.053158715 -0.38266206 -0.26239794
0.78044343 0.024765119 -0.10006631 0.14477964 -0.027562847 -0.073608965 0.022447959 -0.04653879
0.024539735 0.035955105 0.5577452 0.6185423 -0.061045256 -0.27708468 -1.15874 -0.043126382
2.803021 -0.00837782 -0.031775273 0.23204361 -0.053080484 0.07571996 -1.1723397 0.3140758
2.2855182 0.6962279 -0.43897834 0.052208755 -0.0043453746 -0.050618034 1.2870598 2.3506472
-0.69810677 -2.4752023 0.9618224 -0.049367692 0.4329449 -1.7837371 2.428065 1.7209661
0.80410683 0.06335683 -0.56073797 -1.4293975 2.4605756 -1.4557601 0.0038993815 0.6976515
2.844761 -0.008492375 0.26785183 -0.033742253 -0.047730897 -0.058441244 0.014094352 1.8481143
2.1355865 -0.084516756 0.6505037 -0.035224937 1.6191015 0.017610606 0.15079425 0.7166999
0.0071137664 0.99516445 -0.17505366 -2.197762 -0.09368853 1.1783395 -0.044758078 2.1794248
0.016222918 -0.07920442 1.8128985 1.4146886 0.5739803 0.369927 1.8391044 -0.086781755
0.42673007 1.8124003 1.91124 0.011896403 0.028641332 2.2576485 1.6767455 1.8416381
2.7069888 2.591713 -0.0581991 -0.13771085 -0.049660623 -0.04177781 -0.4215146 2.4070582
-0.035772562 0.1104576 -0.01619684 1.0741273 -0.084084615 -0.25336772 0.015036862 -0.03332874
2.3810785 2.3681335 0.5396484 0.85602313 0.025873406 1.6889807 -1.2691782 -0.035034947
1.8622974 2.2251449 -0.053073034 -1.030699 -0.06293214 1.3485024 1.0423836 0.04406144
-1.677409 2.2301795 -0.09471673 -0.0817451 1.2301961 -0.017251112 -0.010585084 2.3623712
1.3293375 1.3448138 0.64705217 0.45647708 0.64591074 -2.9126782 -0.008744766 0.27320677
-0.07466696 -0.04587568 -0.001076099 -2.366931 0.47055012 0.22179347 2.34242 0.4104876
-0.062349126 1.8817589 1.4425726 -0.06726099 1.2147484 -0.18708882 0.28153127 -0.31783867
00000000: 023f a73c e4de 293e 4e73 e7bf cbbc 2140
00000010: 7460 17bd d584 c7bd ca1e ed3f 9b7e 9fbd
00000020: 42d0 30bd b259 ba3e 7377 8cbd 02a0 babd
00000030: 1ad4 94bf d34d 74bd 4519 c8bd 2de9 973c
00000040: 6db4 d0bc 2331 8cbd f99d 613e e604 873f
00000050: ceb9 2340 df2f 873f a5f1 023f 2db5 9ebb
00000060: fbf6 963e 5d6f 8e3b bd6a 05bf 90c8 683f
00000070: bb22 3cbd 3076 1540 2981 753f d662 0540
00000080: 25a2 0e3d 7ea3 0140 0ef6 2bbd 9d90 e3bc
00000090: 9376 543f 4adf a7bf e085 9fbf 73b6 b33f
000000a0: 9538 e43c f6ae 86bd 9ef8 803f a96e 4cbd
000000b0: a04f ae3c f4bc 59bd 48ec c3be 0659 86be
000000c0: 24cb 473f 38e0 ca3c 91ef ccbd 1d41 143e
000000d0: 7bcb e1bc 4cc0 96bd c8e4 b73c 759f 3ebd
000000e0: 8e07 c93c a945 133d 64c8 0e3f ca58 1e3f
000000f0: 970a 7abd 0bde 8dbe 9851 94bf 4aa5 30bd
00000100: b264 3340 2043 09bc ca26 02bd d79c 6d3e
00000110: ec6a 59bd 1113 9b3d 3a0f 96bf 8bce a03e
00000120: ee45 1240 fe3b 323f c5c1 e0be d9d8 553d
00000130: a563 8ebb db54 4fbd 60be a43f 0171 1640
00000140: 20b7 32bf b769 1ec0 fe39 763f c735 4abd
00000150: f4aa dd3e 7f51 e4bf 6b65 1b40 9e48 dc3f
00000160: f2d9 4d3f 3ac1 813d 868c 0fbf 7ff6 b6bf
00000170: 127a 1d40 5956 babf c48c 7f3b 4a99 323f
00000180: 9010 3640 9a23 0bbc e023 893e 5135 0abd
00000190: 7981 43bd 1660 6fbd ffeb 663c 028f ec3f
000001a0: 73ad 0840 1f17 adbd 6987 263f 0648 10bd
000001b0: b83e cf3f 1e44 903c cf69 1a3e a579 373f
000001c0: 991a e93b 19c3 7e3f 4441 33be 22a8 0cc0
000001d0: c6df bfbd d4d3 963f 3f54 37bd b27b 0b40
000001e0: ede5 843c ed35 a2bd 0f0d e83f 8414 b53f
000001f0: 5ff0 123f 1267 bd3e c667 eb3f a2ba b1bd
00000200: 5d7c da3e bcfc e73f 83a3 f43f 21e9 423c
00000210: 3aa1 ea3c 507d 1040 999f d63f ccba eb3f
00000220: 4e3f 2d40 a0de 2540 2e62 6ebd 1304 0dbe
00000230: f068 4bbd 351f 2bbd c3d0 d7be 3e0d 1a40
00000240: 4086 12bd 9837 e23d 3caf 84bc 017d 893f
00000250: 8e34 acbd 6ab9 81be 2c5d 763c b883 08bd
00000260: 9763 1840 808f 1740 6626 0a3f 5524 5b3f
00000270: 77f4 d33c 8530 d83f 6e74 a2bf ce80 0fbd
00000280: c35f ee3f c668 0e40 1c63 59bd f2ed 83bf
00000290: 91e2 80bd ba9b ac3f d36c 853f c579 343d
000002a0: 57b5 d6bf 43bb 0e40 d8fa c1bd fa69 a7bd
000002b0: 1177 9d3f 3452 8dbc 0f6d 2dbc 1731 1740
000002c0: bb27 aa3f dc22 ac3f 36a5 253f 5db7 e93e
000002d0: 685a 253f 5269 3ac0 3546 0fbc c2e1 8b3e
000002e0: feea 98bd 23e8 3bbd e40b 8dba cc7b 17c0
000002f0: f2eb f03e d41d 633e 36ea 1540 6e2b d23e
00000300: cc61 7fbd 7add f03f 38a6 b83f 21c0 89bd
00000310: e07c 9b3f 3694 3fbe de24 903e c0bb a2be

fc3.weight f4 [1, 200]
0.022764612 -0.001111606 0.28561676 -0.36947033 -0.031741746 -0.015684607 -0.26136383 -0.025860367
-0.06010647 -1.5915241 0.0008411989 -0.0014465372 0.15006408 -0.02219091 -0.011702685 -0.015539783
0.0032243968 -0.0036746971 -1.2520574 0.059711587 -0.06718716 0.1259984 -1.3950781 -1.1637795
-1.5432436 0.0042825094 0.23074001 1.381713 -0.020080505 -0.48015124 2.5417469 0.23095775
-0.020613229 -0.533042 0.00611817 0.026048498 -1.7828852 0.00061319914 0.90341634 0.022820491
0.04334245 0.015521157 0.9033929 -0.0009238548 0.013448006 0.0342489 -0.004092047 0.03170822
1.4590808 -1.0925076 0.03175292 -1.2696267 0.021652598 0.0016323385 -0.004397529 0.020343142
-0.014053374 -0.01799804 -0.8659378 -1.4570149 0.025601456 0.8784624 0.15087464 0.025551165
-0.08394965 -0.029619234 0.029291404 -1.8557497 0.028529573 1.9801514 0.27698815 -0.6092567
-1.3587507 0.071451485 0.88974595 0.009111712 -0.011201627 -0.017217584 -0.29601538 -1.1361066
-0.010065441 -0.025131218 0.35798895 -0.029928563 0.7215817 0.22139773 0.15157993 0.77916044
0.021496134 -0.1491998 0.021844452 -0.013161974 0.57263756 0.23336135 0.002464195 0.8247303
-0.19486828 -0.004768666 -0.50369555 -0.013693878 -0.040932156 -0.00591933 0.0075864187 -0.1691216
-0.4554639 0.020482842 -0.17855547 -0.009999274 -0.25612414 0.028401049 0.0014877488 0.98045015
0.01478354 0.29884067 -0.66743165 0.2593448 -0.02402564 -0.4117989 -0.03986671 -0.8784739
0.014854321 -0.027534908 1.0627048 -1.1334453 -0.97254324 0.32010418 -0.2032606 -0.0057474985
0.029036218 -1.4009823 -0.46167466 -0.020883316 0.021440255 -1.191565 -0.86818606 -1.4302616
-0.09475687 -1.1186289 0.024541598 -0.029377088 -0.024288274 -0.055908017 -0.002277695 1.1713115
0.0019747787 -0.46260604 0.009185286 1.3852199 -0.023578597 -0.21123414 0.031864684 -0.035698056
0.6487135 0.23787993 0.28670552 -4.449187 -0.009935943 -0.24563281 0.019182708 0.030487237
-0.4781518 -0.6488654 0.036368612 0.1122529 0.03290405 1.4468688 -0.030023627 0.0028968
0.037171867 0.14933048 0.02175877 -0.017752169 -0.014810548 -0.018441357 0.014407281 -0.19580652
0.08307965 2.1257102 -2.017273 0.6678781 0.4649363 0.15420666 0.011533182 0.009457247
-0.03541493 0.036696445 0.019292595 0.56437385 1.6319448 -0.7073826 0.011769582 -1.2938547
0.02682523 -1.3763305 -1.4585495 0.0007799054 0.8097082 1.9742362 -1.0619897 0.029676411
00000000: da7c ba3c 4fb3 91ba 5c3c 923e 372b bdbe
00000010: a203 02bd 017d 80bc 7bd1 85be 1fd9 d3bc
00000020: 3432 76bd 10b7 cbbf e783 5c3a bc99 bdba
00000030: 66aa 193e b6c9 b5bc 9ebc 3fbc 939a 7ebc
00000040: 6750 533b 30d3 70bb 6b43 a0bf 2394 743d
00000050: 6c99 89bd b905 013e eb91 b2bf baf6 94bf
00000060: 0289 c5bf 4b54 8c3b 1c47 6c3e f9db b03f
00000070: df7f a4bc 62d6 f5be fbab 2240 3080 6c3e
00000080: 13dd a8bc 7175 08bf ee7a c83b a963 d53c
00000090: 9535 e4bf 19bf 203a 4b46 673f 0af2 ba3c
000000a0: da87 313d 734c 7e3c c244 673f d92e 72ba
000000b0: 0655 5c3c 9348 0c3d 9416 86bb 7ae0 013d
000000c0: 29c3 ba3f 4ad7 8bbf 5a0f 023d 2183 a2bf
000000d0: ca60 b13c 31f4 d53a 2619 90bb a9a6 a63c
000000e0: 1f40 66bc a070 93bc 1aae 5dbf 777f babf
000000f0: 25ba d13c e9e2 603f e27e 1a3e ad50 d13c
00000100: cbed abbd 09a4 f2bc 87f4 ef3c 3589 edbf
00000110: dab6 e93c 9a75 fd3f 64d1 8d3e 3ff8 1bbf
00000120: 8beb adbf 2855 923d 64c6 633f 4a49 153c
00000130: 0787 37bc e40b 8dbc 548f 97be f16b 91bf
00000140: 85e9 24bc fcdf cdbc 544a b73e bf2c f5bc
00000150: 94b9 383f 16b6 623e c537 1b3e 0f77 473f
00000160: a918 b03c d5c7 18be 23f3 b23c 52a5 57bc
00000170: 6098 123f 47f6 6e3e 557e 213b 8621 533f
00000180: 8d8b 47be 7842 9cbb 31f2 00bf 4a5c 60bc
00000190: 7aa8 27bd f0f6 c1bb 7e97 f83b 362e 2dbe
000001a0: 9032 e9be a2cb a73c 3fd7 36be ffd3 23bc
000001b0: b422 83be 51a9 e83c 9100 c33a c8fe 7a3f
000001c0: a936 723c a501 993e cddc 2abf d7c8 843e
000001d0: 6bd1 c4bc 4ed7 d2be 464b 23bd aae3 60bf
000001e0: 8a5f 733c e390 e1bc b606 883f bc14 91bf
000001f0: 98f8 78bf b2e4 a33e 8c23 50be 8355 bcbb
00000200: 5ddd ed3c 6353 b3bf 9f60 ecbe 7d13 abbc
00000210: 79a3 af3c 3485 98bf 7141 5ebf d012 b7bf
00000220: e40f c2bd 3b2f 8fbf 760b c93c 38a8 f0bc
00000230: 34f8 c6bc ceff 64bd 6245 15bb 89ed 953f
00000240: 4a6b 013b b3da ecbe e27d 163c e34e b13f
00000250: e727 c1bc c34d 58be 8b84 023d 2038 12bd
00000260: 1712 263f cc96 733e 11cb 923e bd5f 8ec0
00000270: 5eca 22bc 2b87 7bbe 0e25 9d3c 5fc0 f93c
00000280: 50d0 f4be 0b1c 26bf 41f7 143d d9e4 e53d
00000290: 66c6 063d ff32 b93f 1cf4 f5bc 3dd8 3d3b
000002a0: 8741 183d 17ea 183e 733f b23c ff6c 91bc
000002b0: f1a7 72bc 5412 97bc 840c 6c3c 8181 48be
000002c0: aa25 aa3d a30b 0840 001b 01c0 0ffa 2a3f
000002d0: 210c ee3e 5ae8 1d3e acf5 3c3c 92f2 1a3c
000002e0: 3f0f 11bd 034f 163d 810b 9e3c ce7a 103f
000002f0: 91e3 d03f 0717 35bf 34d5 403c 089d a5bf
00000300: 96c0 db3c 992b b0bf c0b1 babf 9172 4c3a
00000310: 0949 4f3f c6b3 fc3f 47ef 87bf f21b f33c
