log/train_1_1k/models/620_actor.pt (torch_old, 249426 bytes, 6 tensors)

fc1.weight f4 [300, 4]
000000 be ea 44 3e bf a5 20 3c db 08 8c bf 4c 52 49 bf
       0.19230172 0.009805142 -1.0940202 -0.786412
000010 16 80 76 be 48 b7 c3 3c fd 91 a5 3f da 3b 4e be
       -0.24072298 0.023891106 1.2935177 -0.20140019
000020 82 65 94 bd 66 81 8c 3d 91 3b a8 bf 45 59 cd be
       -0.072459236 0.06860618 -1.3143178 -0.4010717
000030 6a 10 8d be a5 47 e8 bd 5c 9c 40 bf c1 91 02 3f
       -0.27551585 -0.1134179 -0.75238585 0.5100365
000040 f1 6c 75 be 89 87 7c 3e 1a ec 63 bf cd 14 87 3e
       -0.23967339 0.24661078 -0.8903214 0.26383057
000050 2b c5 3c be 9c 38 15 3e 27 9c 67 3f 94 37 35 3f
       -0.18434589 0.14572376 0.90472645 0.7078793
000060 8c dd 3d be 57 af f6 be e9 f0 85 3e 4f 5f 1f bf
       -0.18541545 -0.4818065 0.26160362 -0.62254804
000070 3e 5b d1 3e 98 1d f8 3d c6 b6 9b 3e 87 97 05 bf
       0.40889925 0.121150196 0.30412883 -0.5218434
000080 eb 48 b0 3e d7 7d 41 bd 25 d2 88 bf 9f 8d 47 3e
       0.34430632 -0.04723915 -1.0689131 0.19487618
000090 f2 28 e7 bd 42 71 fd 3e 57 1a 60 3e 94 98 46 3f
       -0.112871066 0.4950047 0.21885048 0.77576566
0000a0 79 76 a3 bd a8 18 b4 bc e2 cf 8e be a1 9c 0d be
       -0.07981581 -0.021984413 -0.27892977 -0.1382928
0000b0 e1 3b c1 3e d6 aa 7f bd b5 6e 83 3f 87 39 11 3f
       0.37740996 -0.06241878 1.026816 0.56728405
0000c0 d2 05 c7 be a3 13 08 be 0a 49 db 3e 8f fc 52 3d
       -0.38871628 -0.13288741 0.42829162 0.05151039
0000d0 14 e7 f6 bd 75 b6 93 be 92 16 61 3f 85 37 8f 3e
       -0.120557934 -0.2885014 0.87925065 0.27972046
0000e0 be 7a b7 3e 57 7b 6e 3e 6d 6c 30 3e ff 09 21 3e
       0.35835832 0.23289238 0.17228861 0.1572647
0000f0 ec b1 7f 3e 16 1b 75 3d e2 5d a3 3f 0f 72 6d bf
       0.24970216 0.059840284 1.2763026 -0.92752165
000100 f2 bc 25 be fd 1e 31 3e 7b f5 0e 3f 4d 5b 7b 3f
       -0.16185358 0.17296977 0.55843323 0.9818619
000110 7b 06 50 3e 22 7f 1d 3e d7 9d 14 3f 6d 1b 48 3f
       0.20314972 0.15380529 0.58053344 0.7816685
000120 b9 a6 59 be bf 8c 83 be 48 b5 69 bf f5 ad 1c 3e
       -0.21255006 -0.25693318 -0.9129224 0.15300734
000130 56 c1 76 be 21 5f 03 bf 12 81 de be 09 ba 01 3f
       -0.2409719 -0.5131703 -0.43457848 0.5067449
000140 47 a6 84 3e 2a 8b f2 3e 13 9a c6 3c 99 7c 14 bf
       0.2590811 0.473718 0.02424339 -0.5800262
000150 83 37 96 3e 01 9b ab bb d5 72 8c 3c 04 18 44 bf
       0.29339227 -0.0052369838 0.0171446 -0.76599145
000160 51 43 ce be b6 ec ac be 2d 03 78 bf 17 eb b7 3e
       -0.40285733 -0.33774346 -0.96879846 0.35921547
000170 89 64 de 3e d2 06 cf be 84 04 e1 be 5e 9a 98 3e
       0.43436077 -0.4043489 -0.43948758 0.29805273
000180 08 b5 04 3f 29 0f 8a bd d0 4f 83 3f 14 95 24 bf
       0.5183873 -0.06741173 1.0258732 -0.64289975
000190 83 c1 e5 3d d2 03 30 bb 03 ec 94 bf de 89 0a bf
       0.1121855 -0.0026857746 -1.1634525 -0.5411662
0001a0 f6 b7 69 3e 73 64 3a 3b 9f d9 39 bf b8 3d f9 3d
       0.22824082 0.002844122 -0.7259769 0.12169975
0001b0 8c c1 8c bd 82 e3 52 3e f0 fb 92 be 00 df 46 3f
       -0.06872854 0.205946 -0.28707838 0.7768402
0001c0 bc 76 bf 3e 19 91 a9 3e b4 21 9d 3e 41 f2 8f 3d
       0.37395275 0.33118513 0.30689776 0.07028628
0001d0 9c c4 a5 be af f2 a9 be 27 8f 80 bf f7 12 ec 3e
       -0.32376564 -0.33192965 -1.0043687 0.4610822
0001e0 2d e5 8d be b6 8d 74 3e 0e c9 9b 3f 00 15 73 3d
       -0.2771391 0.23882183 1.2170732 0.0593462
0001f0 74 6d 85 3c 4f 35 8b be aa b2 29 bf 15 e4 91 3e
       0.016287543 -0.2718911 -0.66288245 0.28494325
000200 0b ac 83 3e f3 c5 00 3e 42 4b d1 be 26 5f 12 bf
       0.25717196 0.12575512 -0.4087773 -0.57176435
000210 94 af 6a be 51 53 ff 3c 40 e9 07 3f 9c f9 be bd
       -0.2291854 0.031167658 0.53090286 -0.09324953
000220 e1 8b 0d 3e 42 b6 8c 3e 1e 64 84 3f 7c 02 da 3e
       0.13822891 0.27482802 1.0343053 0.4258002
000230 63 63 3c be e3 10 ce be 59 f5 12 3f b8 30 5d be
       -0.18397288 -0.4024726 0.5740562 -0.21600616
000240 ed 37 b0 bc 5c ec a4 be 9a 2e 05 be 7c 6b bc be
       -0.021511042 -0.32211578 -0.13006058 -0.36800754
000250 1d dd 69 be 27 f6 83 be 7c 2d 2f 3f d7 6f c3 3e
       -0.22838254 -0.25773737 0.6842878 0.38171265
000260 b7 8e 46 3e 50 25 6b be cc 95 e9 3d cc 13 c1 3d
       0.19390379 -0.22963452 0.114055246 0.09427604
000270 3e bd 92 be 60 e6 b2 3e d9 29 78 3f f8 6c 3b 3e
       -0.28660005 0.34941387 0.96938854 0.18303287
000280 be 44 7f 3c 5d b6 d6 3e e3 e2 61 bf 8e cb 0d bf
       0.015580354 0.41936007 -0.88236827 -0.55388725
000290 aa 51 75 be e9 da 11 bd 65 cf ec bd 77 4b aa 3d
       -0.23956934 -0.03560916 -0.11562995 0.08315175
0002a0 05 44 31 3d 61 b5 ce be 88 67 43 be 1f bc 69 be
       0.04327776 -0.40372756 -0.19082463 -0.22825669
0002b0 0e c6 ac 3e 76 ee d8 be eb dc ff bd 8a 7e c1 3d
       0.33744854 -0.4236943 -0.12493309 0.094479635
0002c0 a0 a9 a7 3c f2 3d 04 3f 9c 6b 0f bf 08 16 f4 bd
       0.020466626 0.5165702 -0.56023574 -0.119182646
0002d0 bc b1 98 bd 9a be 1a 3e f0 be 01 bf fd c8 b1 3f
       -0.07455775 0.15111771 -0.5068197 1.3889462
0002e0 7e 9b 8a be 41 61 ea 3e 20 15 90 3e b1 94 65 3f
       -0.27071756 0.45777324 0.28141117 0.8968001
0002f0 54 3c 40 3e f4 66 f6 be 35 1e 50 bf 25 a8 0d bd
       0.18773013 -0.48125422 -0.8129609 -0.034584183
000300 8a 17 6e 3e b9 b0 2c bb 84 1f 2d bf 40 1f 45 3f
       0.23251167 -0.0026350452 -0.67626214 0.7700081
000310 5e 86 c2 bd 19 e4 82 3e 6c 93 af bc 49 35 9f 3e
       -0.09498285 0.2556465 -0.0214326 0.3109534
000320 83 cc f0 3b 0a 93 01 bf 55 d8 13 3f fd 9d 43 3e
       0.0073485984 -0.5061499 0.5775197 0.19103236
000330 06 67 c8 bd b8 e1 ac be de 97 60 be d9 a9 19 3f
       -0.09785275 -0.3376596 -0.21932933 0.6002479
000340 9b 6d 87 3d be 34 29 3e 86 e6 59 bf 3d e1 0a bd
       0.066127025 0.16524026 -0.85117376 -0.03390621
000350 f2 5c d7 3e b4 8d 34 bd ac 6f e3 be 66 64 9b be
       0.420631 -0.04408045 -0.44421136 -0.30350035
000360 bf 47 7a be ea 44 60 be 4a ed b4 bd 21 47 c8 be
       -0.24441431 -0.21901289 -0.08834322 -0.39116767
000370 2b 55 44 be 08 83 83 bd 5c 04 5f bf 97 ce ba bd
       -0.19173114 -0.064214766 -0.87116027 -0.09121435
000380 61 69 c9 3e c3 f8 e5 bd 52 36 a7 3f 32 d6 01 3f
       0.3933821 -0.11229088 1.3063452 0.5071746
000390 09 9e df 3d 49 0c 76 3e 64 2a de be cf 9d bb 3e
       0.10918815 0.24028124 -0.43391716 0.36643836
0003a0 c7 12 5e 3e 41 02 f3 3e 1c 92 2a bf 57 3b 83 3c
       0.2168685 0.47462657 -0.66629195 0.016019506
0003b0 a4 7a ad 3e ba 10 5f 3e eb 19 af 3e 6b b7 a6 be
       0.3388263 0.21783724 0.3419946 -0.32561812
0003c0 a9 b5 ff 3c 1e 59 ef be 1a 5d 37 bd de 87 23 bd
       0.031214552 -0.4674768 -0.044766523 -0.039924495
0003d0 1f 12 bb 3d c4 c7 20 3e 82 92 7c be e2 e2 61 bf
       0.09134316 0.15701205 -0.24665263 -0.8823682
0003e0 9a 88 22 be 16 ed c4 be 0c 32 d2 be 77 91 16 3e
       -0.15872422 -0.38462132 -0.41053808 0.14703928
0003f0 9d b7 2c be a1 43 f4 3b c9 63 a7 3f 9b ce 29 bf
       -0.16866918 0.007454351 1.3077327 -0.6633088

fc1.bias f4 [300]
000000 86 f2 d5 3e 7b bc 83 bf ea 63 b3 3e e3 ae c6 be
       0.41786593 -1.0291895 0.35037166 -0.38805303
000010 58 9e 6b be 1e 8a 4b be e8 fe 09 bd c3 85 a3 be
       -0.23009622 -0.19876906 -0.033690363 -0.3193799
000020 79 a6 a6 bd 53 f4 58 bf 0f 0e a9 3f ab b9 96 bf
       -0.08137221 -0.8474781 1.3207415 -1.1775411
000030 85 ee 66 bf b9 80 ee 3e 6c 6b fc be 83 09 61 3f
       -0.902077 0.46582583 -0.49300706 0.8790514
000040 6b 88 bb bf 7e a6 85 3e 80 7d 65 3c 96 00 68 bf
       -1.4651006 0.26103586 0.014006972 -0.90625894
000050 d0 e5 bb be 8d 8d d3 3e a1 ec ba bd ad 06 79 3d
       -0.3669877 0.41318932 -0.09127165 0.060797382
000060 f0 04 3c be 12 77 a9 3e ae 13 47 3f 6b 2e 38 bf
       -0.18361259 0.33098656 0.77764404 -0.7194583
000070 3e d8 87 bf 15 0b 43 bf f9 aa eb 3e 78 94 33 3f
       -1.0612867 -0.76188785 0.4602888 0.7014842
000080 9f be 7e be 90 ef a3 bf ea ee 22 3f 9a f0 41 3f
       -0.24877404 -1.2807484 0.63645804 0.75757754
000090 78 df f6 be f3 39 5b 3f 5f 0c c9 3e 86 e4 2e be
       -0.48217368 0.856353 0.3926725 -0.17079362
0000a0 69 9c 7f 3e d8 11 28 bf 4e 9f f1 3e 2e 25 74 bf
       0.2496201 -0.6565223 0.47191852 -0.9536923
0000b0 15 9f d6 3e e3 ec 2c bf cd 03 1b 3e e1 d8 5f bd
       0.41918245 -0.6754896 0.15138169 -0.05465019
0000c0 5d 33 e7 be 12 8b 89 bf b3 7c da 3e 5c 97 73 bf
       -0.45156375 -1.0745566 0.42673263 -0.9515283
0000d0 fe 43 45 bf aa d1 ba 3e 33 f7 5d 3f 67 0a 55 3f
       -0.7705687 0.36488086 0.8670532 0.83219
0000e0 af fe 2e 3f 0f cc a7 bf 2c 1b 17 bf 2a 2f 63 bf
       0.68357366 -1.3109149 -0.59025836 -0.8874384
0000f0 1b c3 bf 3e da 66 9c 3e 02 d7 3e be 5b 15 2a bf
       0.3745354 0.3054722 -0.18636706 -0.66438836
000100 d0 5d 25 bf 57 43 a0 be c9 70 31 3e 7d ad 26 bf
       -0.6459627 -0.31301376 0.1732818 -0.6510847
000110 e4 c5 18 3f 49 cd af be c4 18 28 bf ea ec bd be
       0.5967696 -0.34336308 -0.6566279 -0.37094814
000120 55 5b b0 3e 30 30 a1 bf 57 79 d9 3e 21 a4 6e bf
       0.3444468 -1.2592831 0.42475387 -0.9321919
000130 ba 95 1f 3e b4 98 45 3f aa 2c 23 bf b0 cf 6f bf
       0.1558446 0.7718613 -0.63740027 -0.9367628
000140 32 01 a6 3f d3 13 99 bf 88 d9 bd 3e b5 be 29 3e
       1.2969115 -1.1959175 0.37080026 0.16576655
000150 1e 21 e7 3d a7 bb 8f bd cd fe 9a bf fe 5b 95 3e
       0.112856135 -0.07018214 -1.2109009 0.29171747
000160 21 de ec bb 42 ac 24 3f c8 1a b5 be 84 90 2a bf
       -0.0072286283 0.64325345 -0.35371995 -0.66626763
000170 e5 b1 6f 3f 5e 5e 52 3f c8 b4 4f 3f bf cd a3 be
       0.9363082 0.8217524 0.81135225 -0.3199291
000180 e3 3d 71 bd 9d 4f 16 3f 1a 13 be be 27 b0 43 bf
       -0.05889691 0.5871523 -0.37123948 -0.7644066
000190 6a 64 21 3f c0 b0 50 3f 1f 77 af 3e 05 23 fe 3e
       0.63043845 0.815197 0.3427057 0.49636093
0001a0 a3 a4 2f 3e a3 f3 8f be e4 55 f1 bd a3 aa 61 bf
       0.17152648 -0.28115568 -0.117839605 -0.88150996
0001b0 31 38 0a 3d 18 50 fc be b4 73 04 bc aa 8b b6 be
       0.033744995 -0.49279857 -0.008084226 -0.3565343
0001c0 ae a9 54 3f de 1b 67 bf 5d d3 03 bc 96 3d 97 bf
       0.8307141 -0.90276897 -0.008045998 -1.181567
0001d0 73 98 83 3f 63 85 fd be a6 34 45 bf 54 bc 8e bf
       1.0280899 -0.49515828 -0.7703346 -1.1151223
0001e0 d8 04 02 3f c4 90 84 3f ce c3 80 3e 3d f9 1b bf
       0.5078864 1.0356679 0.25149387 -0.6092718
0001f0 f7 cc 6b bd 60 6c 1c bf da 5d 2b 3e 02 06 ba 3d
       -0.057568517 -0.6110287 0.1673502 0.09083177
000200 58 b1 98 3f 43 39 10 3f 5b 13 c1 be 89 b8 41 bf
       1.1929121 0.56337374 -0.3771008 -0.75672203
000210 07 b6 1b 3f b2 d8 26 3f 07 45 4c bf 60 3b 8d bf
       0.60824627 0.651744 -0.7979283 -1.1033745
000220 f7 15 f5 be e1 ac 21 bf 8a d3 a6 3f 91 11 3d 3f
       -0.4786832 -0.6315442 1.3033307 0.7385493
000230 8b c8 37 bf 18 3f 9e bf 4c fe 66 bf 7f 32 39 3e
       -0.7179038 -1.2363005 -0.90231776 0.18085669
000240 44 d4 13 bf fb f5 67 3f 33 ee 31 3f ff 08 91 3f
       -0.57745767 0.9060971 0.6950409 1.133087
000250 1b ee 45 3f c8 0f e4 3e 3d ca 39 bf 01 c6 a2 3e
       0.77316445 0.4454329 -0.72574216 0.3179169
000260 5e bd 6e 3f dc 88 b4 3e 18 24 1f bf a5 0a c7 be
       0.932577 0.35260665 -0.6216445 -0.3887531
000270 f7 9d dd be cf 9b 42 3f c8 d4 63 3f 8a d0 c8 3e
       -0.4328458 0.76018995 0.88996553 0.39221603
000280 95 70 82 3e fc 06 b7 3e f9 ff 07 3f 49 f1 1f be
       0.25476518 0.35747516 0.5312496 -0.15619387
000290 a3 2b 9b be 10 a4 bf 3e 76 30 f1 bc ae 6b 52 3f
       -0.3030673 0.37429857 -0.029442053 0.82195556
0002a0 87 98 ac bd 94 97 05 3f 5d 70 a2 3f 42 f4 d2 3d
       -0.0842753 0.52184415 1.269054 0.10300495
0002b0 98 7c 11 3f 80 42 c3 be 80 3c 11 bf 07 c0 88 3d
       0.5683074 -0.38136673 -0.5673294 0.06677251
0002c0 b7 86 31 3f 05 de 1b 3f f7 f1 05 3f 02 27 6f bf
       0.69346184 0.6088565 0.52322334 -0.93418896
0002d0 ed 7b 5c bf 7b 64 2a bf ae 5d 48 3f e3 e4 20 3f
       -0.86126596 -0.6655957 0.78267944 0.62849253
0002e0 fd 0f 3a 3f 33 55 8b 3d a0 06 22 bf ac f3 89 3f
       0.72680646 0.0680336 -0.6329136 1.0777488
0002f0 40 6c 9e be bd fd b8 3e a3 50 cc be 62 cf 89 bf
       -0.30941963 0.36131087 -0.3990527 -1.0766413
000300 e3 3b 7d bf 36 21 bd 3f 6d 04 06 bf c4 8e 5d bf
       -0.98919505 1.477576 -0.52350503 -0.8654597
000310 41 7d 28 bf f8 40 c2 be 5e 6e d3 3d 77 64 13 be
       -0.6581612 -0.37940192 0.10323785 -0.14393793
000320 19 49 b3 3e a7 5f ae 3f 87 f4 7d bf ad cb b4 3d
       0.35016707 1.3622941 -0.99201244 0.088279106
000330 5b b4 78 3f 42 c5 e5 3e 2c 35 b1 be 66 04 6f 3f
       0.971502 0.44877058 -0.3461088 0.93366086
000340 aa 6d 0d bf 79 46 25 bf 9d 08 9d be 4c a0 8f bf
       -0.5524546 -0.6456066 -0.30670634 -1.1220794
000350 dc 8f 85 bf 45 fc 0f bf 64 d8 25 be 09 47 81 3e
       -1.0434527 -0.5624431 -0.16195828 0.25249508
000360 28 cb 51 3f d0 05 fb be 85 f7 22 3f 01 da 27 be
       0.81950617 -0.49027872 0.63658935 -0.16391756
000370 75 46 1b 3f 7e 99 e5 be 1c 99 56 3f b0 f7 36 bf
       0.60654384 -0.44843668 0.83827376 -0.7147169
000380 98 f2 53 3e 74 32 17 bf e8 e9 e1 be f5 9e 99 3e
       0.20698011 -0.5906136 -0.4412377 0.30004087
000390 e6 b8 65 bf 2c 16 4a 3f e6 b7 e7 be 1c 27 e7 bd
       -0.8973526 0.7894008 -0.4525749 -0.112867564
0003a0 f8 b7 d5 be e0 c8 81 bf 19 dd 80 bf 12 d8 33 3f
       -0.4174192 -1.0139427 -1.0067474 0.7025157
0003b0 1e 7e a3 be 70 31 61 bf 10 39 2f be 95 81 84 bf
       -0.31932157 -0.8796606 -0.17111611 -1.0352045
0003c0 5e b9 de 3e 8e 67 93 bf a9 83 a2 3e 75 5a 85 bf
       0.435008 -1.1515977 0.31741074 -1.041823
0003d0 13 96 0f bf 2c b4 3b bd 3b 0f 28 bf e8 dc 80 bf
       -0.5608837 -0.045826122 -0.6564824 -1.0067415
0003e0 6f 77 af 3c c8 7e 40 3f 6d 63 70 bf 4c eb cd 3e
       0.021419255 0.7519345 -0.9390171 0.4021858
0003f0 1c 8d 9c 3d 98 32 31 3e 71 7e 49 3f c7 59 22 3f
       0.07644102 0.17304456 0.7870856 0.6341824

fc2.weight f4 [200, 300]
000000 cd f6 cf 3b 6e e8 a2 3c 83 30 e2 bd 02 cf f0 3c
       0.0063465596 0.019886222 -0.11044409 0.029395584
000010 ed 45 40 bd 9b 0a 2e be 05 a3 72 3d 20 20 6f 3d
       -0.046941686 -0.16996233 0.0592375 0.058380246
000020 06 25 8d 3b 4d d2 a4 bd e5 dc 33 3e 3d c4 a6 3c
       0.004307392 -0.08047924 0.17564733 0.020357246
000030 38 dd 79 3d 54 d6 5b bc 99 54 38 3c 6e ad f8 3d
       0.061001986 -0.013417799 0.011250638 0.12142454
000040 19 bf 5e be 62 d9 e1 3a 26 8d f9 bc 47 32 ca 3b
       -0.21752585 0.0017230923 -0.030462813 0.0061705443
000050 32 83 8b 3c 65 53 27 3d dc a9 89 3c f8 9e 7c 3d
       0.017030332 0.040851016 0.016804628 0.061675042
000060 e4 8a 85 3d 63 8a b8 bd 66 8b 8d bd 5c 5e 84 be
       0.06520632 -0.0901077 -0.06911354 -0.2585324
000070 de 18 71 3d ec de 69 bd c0 b4 86 3d 00 62 46 bd
       0.058861606 -0.05709736 0.06577444 -0.048433304
000080 cb 37 25 3c 67 08 88 3d ff fd a2 3d 3b 66 33 3d
       0.010084103 0.066422276 0.07958602 0.043798666
000090 99 87 45 bc f1 e6 27 3d 4e e5 1b bd cc 5d 96 bc
       -0.012056255 0.040991727 -0.03806048 -0.018355273
0000a0 5f 9e 05 3d 50 3d 98 3d c0 6e 85 ba 6f e6 35 3b
       0.032621738 0.074335694 -0.0010180101 0.0027755757
0000b0 53 7b 0e 3d e7 db b7 be 4f 70 37 3c 57 de 4d 3d
       0.03478558 -0.3590996 0.01119621 0.050260868
0000c0 91 cc a9 3c a9 14 9b be 55 13 f1 bc d7 6b 28 bd
       0.020727428 -0.302892 -0.029428164 -0.04111847
0000d0 42 7d 06 3d d0 64 00 bd 03 ab 0a 3d d6 5e 55 bc
       0.0328343 -0.031346142 0.033854496 -0.013023099
0000e0 00 02 98 3d cc d0 74 3d b9 94 c9 3d 71 31 95 3d
       0.074222565 0.059769437 0.0984282 0.07284821
0000f0 11 c8 a3 3d 35 b8 5d bd 3f 2d 40 3c 0b 15 f8 3c
       0.07997144 -0.05413075 0.0117295375 0.030283472
000100 4e 3e 4f 3d 51 a1 0b 3d 00 bd 6b bd 72 81 4a bd
       0.050596528 0.03408939 -0.05755329 -0.049439855
000110 07 80 60 bc b0 03 1d bd 18 58 d6 bb 0f 3e 2e 3d
       -0.013702399 -0.038333595 -0.0065412633 0.042539652
000120 1e fb d5 bc 71 5a 93 be 04 3e 35 3d 74 01 31 3b
       -0.026120719 -0.2877994 0.044248596 0.0027008923
000130 3a 2b 03 3d 07 f5 0f 3e 64 4b c4 3d e4 b7 ad bc
       0.032023646 0.14058314 0.09584692 -0.02120585
000140 b4 28 09 be 9d cd 9e be 9e f1 12 bb 25 46 05 be
       -0.13394433 -0.31016245 -0.0022421847 -0.1301504
000150 41 97 fd 39 a9 14 15 3b 35 00 1a 3e 03 8e 31 3d
       0.00048368613 0.002274791 0.15039141 0.043348324
000160 4a 89 6b 3d b6 6d 84 bd 19 3d 1d bd f6 2c e8 bc
       0.057503976 -0.06466238 -0.038388345 -0.028341752
000170 6e b3 27 bb 26 44 c3 3d b1 93 3a 3d 84 c4 14 3a
       -0.0025589126 0.09534483 0.045551006 0.0005675035
000180 42 8f d6 bd c3 a8 91 3d 0d 18 ff bc 5e ec 23 bd
       -0.10476543 0.07112267 -0.031139398 -0.04002034
000190 d1 e5 2e bd ca 93 b2 3c e3 71 2f 3b 67 76 1f 3d
       -0.04269964 0.021798987 0.0026770763 0.038931277
0001a0 7a 0b d7 bc b0 16 4f be 55 17 1c bc 95 f5 bd be
       -0.02625059 -0.20223498 -0.009527047 -0.37101427
0001b0 85 95 cb bd 33 50 44 3d 99 4c 1a bb d0 4c 7a be
       -0.09940628 0.047928046 -0.002354419 -0.24443364
0001c0 6c 3d 1b 3d 17 e7 22 3d 47 29 6a bd 2e a5 88 bd
       0.037900373 0.039771166 -0.05716827 -0.066721305
0001d0 f7 81 2c bd b9 07 34 3b c0 4e cb bc a9 51 5e 3e
       -0.04211613 0.0027470423 -0.024817824 0.21710838
0001e0 10 33 17 3c 46 2f dd 3b 23 55 06 bd 8b f2 75 3c
       0.009228483 0.00675002 -0.032796036 0.01501144
0001f0 ae 0f 9d 3c da db b3 bd 96 d6 43 bd 1e f1 4b bd
       0.019172516 -0.08782168 -0.047812067 -0.049790494
000200 4b 46 28 3d 43 15 b5 bd 0d 8c f9 3b 02 e1 93 bc
       0.04108266 -0.08841946 0.0076155723 -0.018051628
000210 7c f0 0a be 0e 91 0b bd df a6 58 3e 9f 49 d5 bb
       -0.135683 -0.03407388 0.21157406 -0.0065090205
000220 14 9a 80 3d 87 ae 03 3e 18 8a c3 3c 35 03 13 3e
       0.06279388 0.12859546 0.02386956 0.14356692
000230 c1 0e 00 3d b7 2b 4b be 6b 41 98 be 4b 6b 14 bd
       0.03126407 -0.19840895 -0.2973741 -0.036235135
000240 70 bc d8 3d 3c 1f 43 3c 88 af 07 bd 2e 9c 42 bc
       0.105828166 0.011909302 -0.033126384 -0.011878056
000250 01 4d 3d bc dc 9c 42 3d 62 82 01 bd d1 af ca 3c
       -0.011554004 0.047512874 -0.031618483 0.024742039
000260 b5 cf c0 bc 1d 2f bb bc 26 62 e2 bc f6 01 09 3d
       -0.023536542 -0.022849614 -0.027634691 0.033449136
000270 d3 9b 94 3d 8b 17 a9 ba 4f c7 08 bc 41 71 40 bc
       0.072562836 -0.0012900693 -0.0083483 -0.011745752
000280 b2 22 94 3e c7 b7 9c 3d bc 0f 8e bb ad 36 9e bc
       0.2893272 0.0765224 -0.004335372 -0.01931318
000290 64 1f 3e 3d ce 87 21 bd c0 4f 8a bd f5 16 91 3a
       0.046416655 -0.039436154 -0.06753492 0.0011069464
0002a0 82 d4 6c be a2 f4 9c 3d de e9 e6 bb 82 28 cd ba
       -0.2312794 0.076638475 -0.007046922 -0.0015652331
0002b0 7a c9 39 3d fa d2 3e 3d c9 a9 39 be 66 2f 5d bd
       0.04535816 0.04658792 -0.18131174 -0.05400028
0002c0 1c 53 c7 3d 32 28 ad 3d 6c e7 f8 3b d2 c0 9c bd
       0.09732649 0.08454932 0.007595947 -0.07653965
0002d0 56 b3 30 3d 3b cd 48 bd 5c cb 91 bc 23 04 5f 3b
       0.043139778 -0.049023848 -0.017797165 0.0034029565
0002e0 8e 58 f7 bc 00 0f b9 3b f8 31 c2 3c 07 76 6c bd
       -0.030193593 0.00564754 0.023705468 -0.057729747
0002f0 71 ff 3c 3d b8 1c 95 3d ba 84 0c bc 9d d9 d2 bc
       0.046142045 0.07280868 -0.008576566 -0.025738532
000300 9a 60 26 bd 68 a4 01 bd 8f 75 9c bc 94 9d d3 3c
       -0.04061947 -0.03165093 -0.019099025 0.025831975
000310 e3 cf 19 3d 63 3c 62 3c b1 a5 7e 3d a7 72 dc bb
       0.03755177 0.013808343 0.062169734 -0.006727535
000320 b8 45 8e 3a 9b ea 2c 3e 0d b8 19 bc 2d 0f 4b 3b
       0.0010854518 0.1688637 -0.00938226 0.0030984387
000330 4a 81 80 3d 61 5a 23 bd 35 20 4f bd f8 73 2f bd
       0.0627466 -0.039881114 -0.050567824 -0.042835206
000340 1f fc e4 3c da f5 b8 be a3 33 57 3b 50 65 2b 3e
       0.027952252 -0.3612507 0.0032837174 0.16737866
000350 50 db 03 bd 1b 40 65 be 1d 32 54 bc 9c f0 90 3c
       -0.032191575 -0.22387736 -0.012951401 0.017692856
000360 4e 41 34 bd f3 b4 37 bd 79 00 4a 3d 71 6a e1 bd
       -0.044007592 -0.0448503 0.049316857 -0.1100663
000370 7c b4 10 bd 73 39 29 bd 45 3b 4c 3d 14 1b 11 bd
       -0.035328373 -0.041314553 0.04986121 -0.035426214
000380 37 4d 0a 3e 0d dc 03 bd 54 32 47 3d 8b e1 71 3d
       0.13506018 -0.03219228 0.04863198 0.059052985
000390 4c d2 4b bd 9d 19 91 3d e0 a7 6a bd 73 ac ce bd
       -0.0497611 0.070849635 -0.057289004 -0.10091486
0003a0 e7 9c 2d bc e5 d7 a3 bc 79 c2 01 bf c1 7b 9b 3c
       -0.01059649 -0.020000407 -0.50687367 0.018979909
0003b0 6c 10 88 bc a3 88 d3 3b 20 8b 72 3d d5 6f 6a bb
       -0.016609393 0.0064554974 0.05921471 -0.0035772223
0003c0 99 cf cc bb 43 8e d9 ba 78 5e 51 3d 17 20 a8 ba
       -0.0062503335 -0.0016598183 0.051115483 -0.0012826946
0003d0 38 63 ef be 21 71 2f 3d 15 b0 f4 bd d4 cc b8 bd
       -0.46755385 0.042832498 -0.119476475 -0.09023443
0003e0 a5 ac 39 bc d5 87 fc 3d e9 d3 04 be 46 b4 79 bb
       -0.011332666 0.123305954 -0.12971462 -0.0038101836
0003f0 b0 8a 6c 3d 53 b2 75 3d a3 34 8f bd dd 23 53 3d
       0.05774945 0.059984516 -0.069924615 0.051547874

fc2.bias f4 [200]
000000 a3 d0 b6 3d 7b 4c 0c bd 44 68 d4 bd 4d 12 d5 3d
       0.08926513 -0.034252625 -0.103714496 0.10403881
000010 5c e3 ec 3c 6b 5e 02 3f ff cf f9 bd ff 7d 07 3d
       0.028917007 0.5092532 -0.12197875 0.033079144
000020 66 31 97 3e 9b 8b 19 3e 42 ae 1d 3f ed d4 8e bd
       0.29529876 0.14994662 0.6159402 -0.06974206
000030 35 b7 09 bd 6f 05 90 bc 5e c0 79 3d 39 8a a6 3d
       -0.033621985 -0.017580716 0.06097447 0.08131833
000040 7d 69 47 3c db 25 17 3d 17 31 37 3b c7 83 24 bd
       0.012171146 0.036901336 0.0027952844 -0.040164735
000050 00 12 ce 38 93 b6 eb 3b 25 87 6c 3e d1 01 01 bd
       9.826198e-05 0.0071933954 0.23098429 -0.031495873
000060 2d 68 6d bd 8d c7 d0 3e aa 82 12 be 45 08 d9 bd
       -0.057960678 0.40777245 -0.14307657 -0.105972804
000070 78 38 2c 3e f0 00 80 3e c6 46 d2 ba 03 ed 83 3e
       0.16818416 0.25000715 -0.0016042821 0.25766763
000080 cd 9e d1 ba 08 4a 50 3e f8 a2 88 bd 9b 8b eb be
       -0.0015992761 0.2034074 -0.06671709 -0.46004948
000090 9f 8f 5c 3c 36 2c 13 3d 3c 09 b2 3e 8e 6a c9 3e
       0.013461976 0.035930835 0.3477267 0.39339107
0000a0 40 5f 90 3e 09 b4 c0 3e df 63 b7 bc 6f a2 d3 bc
       0.2819767 0.37637356 -0.02238649 -0.02583429
0000b0 f6 e1 aa bc 8e 13 b6 3d e4 0b 97 be b2 a7 6a 3e
       -0.0208597 0.088904485 -0.2950126 0.22915533
0000c0 1b a1 32 3d 0b ba 77 3e 54 b1 03 bd 94 c9 ce 3e
       0.043610673 0.24192064 -0.032151535 0.40388167
0000d0 96 36 67 bd 6a dc bb 3d 87 eb 6e 3d b0 cf 72 3e
       -0.05644854 0.091729 0.058330085 0.23712039
0000e0 74 e3 96 3c 64 ab a0 bc 09 2f dc 3e 83 98 99 3e
       0.018419005 -0.019612975 0.43004635 0.2999917
0000f0 c0 27 7b 3c c2 d6 56 bd be 7d df 3e 9c 11 0e bc
       0.015329301 -0.052450903 0.4365062 -0.008671191
000100 71 56 38 bd 1f 23 05 3f 69 42 80 bc a2 1b f4 3d
       -0.045004312 0.52006716 -0.015656667 0.11919333
000110 8e ee 99 3e d6 fb 48 3d 22 bf e7 3e 50 a2 9b bc
       0.30064815 0.049068294 0.4526301 -0.018998295
000120 58 c5 32 3d 1f 47 a0 3e 94 05 2a 3e 30 0c 08 3e
       0.043645233 0.3130426 0.1660369 0.13285899
000130 7a 43 ea bb c7 6c de bd 54 07 a0 bc bb 5d 21 3e
       -0.007149157 -0.108605914 -0.019534744 0.15758412
000140 9c 11 de be 33 2d 7e 3c 3c f8 8e 3e 32 b9 d1 3e
       -0.4337281 0.015513706 0.27923763 0.40961605
000150 5e cc 4c 3e a5 25 35 bd 2c fa 0d bb 0e 04 22 be
       0.19999835 -0.044225354 -0.0021664007 -0.15821859
000160 59 ea 72 3e 06 77 48 3c e0 18 12 3d 75 6f 92 3e
       0.23722209 0.012235409 0.035668254 0.2860066
000170 00 3a 2f bd 6f 12 08 bd d0 8e 3f 3e fc 91 59 ba
       -0.042779922 -0.033220705 0.18706822 -0.00082996464
000180 c4 45 82 3e ea 4d 1e be df 29 08 bd ee 31 58 3e
       0.25443852 -0.1545941 -0.033243056 0.21112797
000190 a3 41 99 3e b0 81 25 3d 2d a0 c7 3b e8 2b b3 3d
       0.2993289 0.040406883 0.0060920925 0.08748609
0001a0 d4 5d 63 bc 8a 09 d7 3c e9 9e b1 be ee 64 1a 3d
       -0.013877351 0.026249666 -0.3469155 0.03769391
0001b0 72 54 62 3e 83 ab 5b bd a8 97 80 bd 42 3a 89 3c
       0.22102526 -0.053630363 -0.06278926 0.016751412
0001c0 f7 4d 48 be 9b 01 1f ba e2 1f 0f 3e e1 df a2 3e
       -0.19560991 -0.0006065608 0.13977006 0.3181143
0001d0 41 9c 80 3c 99 6e af 3e 83 5b bb bc 28 52 b8 bc
       0.015699508 0.34264067 -0.022870785 -0.022500113
0001e0 18 81 54 bd 6b 6e 10 3e 5c ba b3 3b 4e 81 2a bd
       -0.051880926 0.14104621 0.0054848623 -0.04162722
0001f0 7f 4c 53 bd 02 e5 60 bb 32 44 f3 bc f9 f1 47 bd
       -0.051586624 -0.0034316187 -0.029695604 -0.048814747
000200 a0 14 04 3f b3 a3 d8 3c 8a 36 3a bd 75 22 3e 3d
       0.5159397 0.026445245 -0.04546217 0.04641958
000210 7b b2 8b be e0 86 f1 3c d4 36 7f 3c ff 5f 0e 3e
       -0.27284607 0.029483259 0.015577037 0.13903807
000220 72 21 42 bd 94 e4 92 3c ef 9b 2d bd 78 81 1b be
       -0.047395177 0.01793126 -0.042385038 -0.15186107
000230 58 fe 90 3e 07 58 39 3e b4 0d 0e bd 80 8c 46 bd
       0.2831905 0.18099986 -0.034681037 -0.048473835
000240 74 ab 3c bc db 79 73 3e 38 97 fa bb 40 41 9d 3d
       -0.011515487 0.23776953 -0.007647421 0.07678461
000250 bc 3c 6e 3d ed 99 e0 3d 24 ab cd be 9d c1 3e 3e
       0.05816339 0.10966859 -0.40169632 0.18628545
000260 53 41 cf bc 55 ef 7d 3d 7f 55 d2 3d 4a 34 ba 3e
       -0.025299704 0.061995823 0.10270213 0.36368018
000270 29 26 a1 bd 3d 11 7b 3e 18 81 54 b9 b5 c3 d4 be
       -0.078686066 0.24518295 -0.00020265987 -0.41555563
000280 b7 eb 65 3e 35 d5 05 bd 34 b4 6e 3e 5e 20 ac 3d
       0.224532 -0.032674033 0.2331093 0.08404611
000290 e2 22 8d 3e 42 7f 8c 3c 87 59 2d bd ca 9a e0 bb
       0.27565676 0.017150525 -0.042321708 -0.00685439
0002a0 ed 57 8e 3c a7 96 b7 3c f3 b5 0c 3d cc f9 2c bc
       0.01737591 0.022410704 0.034353208 -0.010557603
0002b0 75 f9 04 3d b3 4d bc bc 78 c6 be 3e 67 23 70 bb
       0.032464463 -0.022986269 0.37260795 -0.0036642195
0002c0 80 a5 92 bd 61 1a 2f 3f fd d4 2a 3d dd 0a 98 3e
       -0.07160473 0.68399626 0.041707028 0.29695788
0002d0 1f f8 9d 3e 2b 50 7b 3e 77 2c ae bc 13 e7 14 3e
       0.30853364 0.245423 -0.021261437 0.14541273
0002e0 27 5c 9f 3e 72 47 cf 3e a0 43 b0 3c 06 6b 0c 3e
       0.31124994 0.40484196 0.021516621 0.13712701
0002f0 3d dc 96 bd d1 14 4c be c7 cf 94 be 84 17 e3 bd
       -0.07366226 -0.19929816 -0.29064772 -0.110884696
000300 4c 66 50 bd 02 6b 9d 3e 0e da 3e 3c 43 e0 1f 3c
       -0.050878808 0.30745703 0.011648668 0.009758058
000310 b5 e0 2a 3c 24 0f d7 3d 44 68 95 be 70 51 af 3b
       0.010429551 0.10500935 -0.2918111 0.0053502843

fc3.weight f4 [2, 200]
000000 66 ad 04 3d 7d 2b ee 39 c5 0a 77 be 16 f2 aa 3a
       0.032391928 0.000454273 -0.24125202 0.0013042118
000010 12 bc c3 3c bf ee e8 3e 45 ea 8f ba 59 15 01 3d
       0.02389339 0.4549465 -0.0010979852 0.0315145
000020 f4 db a6 bf 88 4a 67 3a c2 84 1b bf 45 7e 85 bd
       -1.3035874 0.00088230567 -0.6074945 -0.065182246
000030 fb d8 74 bd 19 4d ab 3d e4 ff 0e 3e 5a fd 3e 3d
       -0.05977724 0.083643146 0.13964802 0.046628334
000040 73 68 6b 3c 41 04 61 3d 2e df ee bb f1 fb 39 3d
       0.014368164 0.054935697 -0.0072897887 0.045406286
000050 a8 5b 5b bd 35 af f6 bc f8 fa 0b 3d c9 f4 a6 3d
       -0.053554207 -0.030112842 0.03417489 0.08152158
000060 ee 24 2c 3d 71 9b cd 3e 63 7a 15 be b6 eb 4c be
       0.042027406 0.40157655 -0.14597468 -0.20011792
000070 83 00 0b be 07 06 74 3d 7d 19 81 3d 55 eb 9e be
       -0.13574414 0.05957606 0.0630369 -0.3103892
000080 9f 62 79 bd 2c fb ad 3e 6f 6a 79 bb 48 68 de bd
       -0.060885068 0.3398069 -0.0038057824 -0.10859734
000090 3b bb 82 bd f4 29 14 bd 97 9f 69 be 2d f3 06 bf
       -0.06383368 -0.036172822 -0.22814785 -0.52714807
0000a0 ba d7 5c bd 37 24 38 3e c7 83 24 3d 41 19 81 3d
       -0.05391667 0.17982565 0.040164735 0.06303645
0000b0 f4 94 8f bd 9a 0d 18 3e 74 9c e0 bd c2 7f 5b bd
       -0.070108324 0.14848939 -0.10967341 -0.053588636
0000c0 b2 cb c3 3b 4e 54 56 3e 10 e4 2e 3d 65 20 e0 3d
       0.00597521 0.20930597 0.042697966 0.10943679
0000d0 f3 7f c5 bd ed 40 19 be 4f 7a 24 be 0f 36 b3 3d
       -0.09643545 -0.14966173 -0.16062282 0.08750545
0000e0 f3 1c 1f bd 4a 6b 01 3d d2 f9 5d 3e 00 ce ea be
       -0.038845968 0.03159646 0.2167733 -0.4586029
0000f0 2b 94 82 bc 77 32 2d bd ed b3 17 3e cb 94 e1 3c
       -0.015939793 -0.042284455 0.1481473 0.02753677
000100 0b 74 af bd 1d 28 23 bf d2 72 83 3c 32 6e 86 be
       -0.08567055 -0.63733083 0.016045962 -0.26255947
000110 46 53 d4 3d 56 9f 86 3a c2 a5 80 3e c6 28 90 bd
       0.10367446 0.0010270874 0.25126463 -0.07039027
000120 e1 7a 73 3d 6e f1 83 be 17 09 ce 3c a9 a6 a8 bd
       0.05944336 -0.25770134 0.025150819 -0.08234913
000130 9f 62 79 3d 04 6b d4 bd 52 bd 81 3d c4 dd 11 bd
       0.060885068 -0.10371974 0.06334938 -0.035611883
000140 2e 7c 98 bd 82 7f fc bd cc cb 8b 3d b4 56 02 3d
       -0.074455604 -0.12329008 0.068259805 0.031820968
000150 7c 63 a9 3d 2d 05 05 3d a9 34 1d 3d bf 1c b7 bd
       0.08270928 0.03247564 0.0383803 -0.0894103
000160 20 b5 92 bf fc 4c 33 bc bb 33 b2 ba 3d 8c 57 be
       -1.1461525 -0.0109436475 -0.0013595739 -0.2104959
000170 d5 84 c7 3b de 6f 35 3d 2d 54 02 3e 2d d8 a1 3c
       0.006088833 0.044296138 0.12727423 0.019756401
000180 7a 95 64 3e e5 d2 2b be 59 33 c3 b9 aa 9f ee 3d
       0.22322646 -0.16779669 -0.00037231555 0.11651547
000190 94 90 46 be e0 ae 43 3c d4 36 7f 3d 87 0b a2 3c
       -0.1939109 0.011943549 0.062308148 0.019780887
0001a0 41 a9 4c 3d 9b 57 3b bd 91 50 b7 bc e2 7f 87 bc
       0.0499661 -0.045737844 -0.022377284 -0.016540471
0001b0 c2 41 2a bf 52 31 9c 3d bc 14 9d bd ce 3b bb bd
       -0.6650659 0.076265946 -0.076699704 -0.09142266
0001c0 4d 57 d5 bd 78 e3 dd bc 30 4d ae 3d 4d a2 f2 be
       -0.10417042 -0.027086005 0.08510816 -0.4738945
0001d0 aa 4a 8b bb 82 79 26 3d 3a a5 14 bd 06 59 06 bc
       -0.004250844 0.040643223 -0.036290385 -0.008199936
0001e0 13 49 33 3d 2e 1f 0e 3d 39 73 b9 bc a4 cc 62 3d
       0.04377086 0.034697704 -0.02263795 0.05537094
0001f0 bb bd 7e 3d 48 eb 5d 3c b5 6e 21 bd c8 fa 10 be
       0.06219266 0.013544865 -0.03941222 -0.14158165
000200 d0 1c 71 be 74 0c 50 bc 8a 1a 4d 3d 7e c2 06 bd
       -0.23546147 -0.012698282 0.050074138 -0.032900326
000210 52 62 84 be 7b 64 4f bd 43 8a 03 3d ae c0 a8 bd
       -0.25856262 -0.050632935 0.03211428 -0.08239876
000220 59 0f 82 3d 70 35 42 bd f4 e9 3c 3d ed 03 23 be
       0.063505836 -0.047414243 0.046121553 -0.15919466
000230 9b e9 71 bc e6 34 e7 3c 7f 73 37 bd 97 e1 55 bd
       -0.014765169 0.028223466 -0.04478788 -0.052217092
000240 d3 e4 0c 3c da c0 98 be 89 0d 01 3d 2e df 04 3d
       0.008599478 -0.29834634 0.03150705 0.032439403
000250 6a 19 1f be b7 27 21 3d 13 f4 24 be 5b 07 b7 bd
       -0.15537038 0.039344516 -0.16108732 -0.0893695
000260 bf db 07 3c 7b 0f 33 be 48 a8 5d 3d a1 ec 5b be
       0.008292138 -0.17486374 0.054115564 -0.21476986
000270 9c 50 95 3a ae c1 c4 be 29 6a 7b bd 61 d9 90 be
       0.0011391821 -0.38429016 -0.06138054 -0.28290847
000280 6f 03 35 be 71 f1 cb bd ee 8d cf 3d 07 06 ca be
       -0.17677091 -0.09958161 0.10134493 -0.39457723
000290 b9 48 3f be 7b 1b ff 36 f7 25 88 3d cd e3 f7 bc
       -0.18680085 7.6027914e-06 0.06647866 -0.030259991
0002a0 98 bf 54 3d 14 67 f5 38 df fe 79 3d f4 21 23 3e
       0.05194053 0.0001170171 0.06103408 0.15930921
0002b0 50 93 7a bd cf 81 dd 3c 8e 5b 1b be bf db 87 3c
       -0.061175644 0.027039437 -0.15171644 0.016584275
0002c0 07 ee 49 bc dd 03 e6 3e b6 0c 07 3d f2 b7 76 be
       -0.012324817 0.44924822 0.032971106 -0.24093607
0002d0 75 57 17 be 88 33 f9 bd c6 8b 78 3d 3f 07 4b bd
       -0.14779456 -0.12168032 0.060680173 -0.049567457
0002e0 db ed d2 be eb 53 83 be 73 6d e3 bc 7c 26 ba 3c
       -0.41197094 -0.25649962 -0.02776215 0.022723429
0002f0 b1 0f e7 bc 14 3d b5 bd 35 7d b6 bd f7 2b 87 bd
       -0.028205724 -0.0884954 -0.089106 -0.066001825
000300 28 18 89 ba f4 24 2e bd be 39 78 bd b7 b2 c0 3c
       -0.001045947 -0.04251571 -0.060601942 0.023522718
000310 02 3f 27 3d 7a 74 8e 3c d7 e4 e0 bd 18 a8 38 3d
       0.040831573 0.017389525 -0.10981148 0.04508218
000320 fd a7 47 3d a3 5e 96 3c 2f f3 07 be 83 9e 8c be
       0.04874419 0.018355673 -0.13276361 -0.27464685
000330 7d 3c 64 3b 56 f7 77 be ae 1d ef bb 81 3e 00 3d
       0.0034826093 -0.24215445 -0.0072972393 0.03130961
000340 50 30 12 3d e0 a6 88 bd 40 86 12 bd 4e bb e5 bc
       0.035690606 -0.06672454 -0.035772562 -0.028043415
000350 7e 5d 49 3d 56 1c 87 bc 0a f2 3a be ee d9 06 be
       0.049161427 -0.016493004 -0.18256393 -0.13169071
000360 2a 5e fd 3c f8 03 1c bd 02 73 57 3d 50 ad 12 3d
       0.03092869 -0.038089722 0.052599914 0.035809815
000370 b8 30 09 3d 74 55 a0 bb 68 1b 9c bc 47 56 1a bd
       0.033493727 -0.0048929993 -0.019056037 -0.037679937
000380 ce 53 2c 3d 0e 0e ef bd b5 a2 d1 bc 42 76 6a 3c
       0.04207211 -0.116726026 -0.02559028 0.014310421
000390 a1 81 89 3c e5 73 ed bd 3d 28 5b bc 5b 8c 82 bc
       0.016785445 -0.11594371 -0.013376293 -0.015936067
0003a0 9c 22 04 3d eb e6 0b bd 84 89 ec bd 61 e1 de bc
       0.03225957 -0.034155767 -0.115496665 -0.027207078
0003b0 f5 d2 c7 3b 0e 26 82 bd a1 72 e8 bc 43 8a 03 be
       0.006098146 -0.063549146 -0.028374972 -0.12845711
0003c0 40 05 e8 bd f0 95 2e be 70 fd 67 3c ef 52 5d 3d
       -0.11329126 -0.17049384 0.014159545 0.05403417
0003d0 2a ae 3f bd ad 34 64 bd c2 2c 73 bd 13 33 c5 bd
       -0.046796955 -0.055714298 -0.059368856 -0.09628882
0003e0 7f 4c d3 3c c3 a3 74 be c0 54 de ba 3b 56 c5 bd
       0.025793312 -0.23890595 -0.0016962513 -0.09635588
0003f0 cf 0f 54 bd 2b 72 16 bd 74 55 20 be e6 ee 18 be
       -0.05177289 -0.036729973 -0.15657598 -0.14934883

fc3.bias f4 [2]
000000 82 d8 2d 3e de f2 b4 bd
       0.16977122 -0.08835386
