log/train_1_1k/models/760_critic.pt (torch_old, 251025 bytes, 5 tensors)

fc1.weight f4 [300, 6]
0	0xbe06c5ff	-0.13161467
1	0x3f02fec1	0.51169974
2	0x3f331ca1	0.6996556
3	0x3e984172	0.2973743
4	0xbfc37bfb	-1.5272211
5	0x403cd6cf	2.9506109
6	0x3e8630b6	0.26209038
7	0x3db8a27a	0.09015365
8	0xbf28701e	-0.6579608
9	0x4025deb9	2.591719
10	0x3e1ee40e	0.15516683
11	0xbd101eaf	-0.035185512
12	0xbad9a2f1	-0.0016604346
13	0x3eb0eedf	0.34557244
14	0xbf846bc5	-1.0345389
15	0x3ecfe57c	0.4060477
16	0xbf707856	-0.9393362
17	0xbfb1c4a7	-1.3888139
18	0xbe1481d1	-0.14502646
19	0xbdedde9f	-0.11614727
20	0x3f5ea011	0.8696299
21	0xbf671df3	-0.90280074
22	0x3fbe94f2	1.4889205
23	0xbfb49754	-1.4108682
24	0x3eb930b1	0.3616996
25	0x3da92280	0.082585335
26	0xbfa95614	-1.3229394
27	0x3eb462fe	0.35231775
28	0xbfd4612d	-1.6592156
29	0x3eeca75c	0.46221435
30	0xbdd528ff	-0.1040821
31	0x3de6257a	0.11237617
32	0xbe303b04	-0.17210013
33	0xbefef892	-0.4979902
34	0xbfbd1001	-1.4770509
35	0x3f032fbf	0.5124473
36	0xbe317280	-0.17328835
37	0x3eb21e67	0.3478882
38	0xbe474b66	-0.19462356
39	0xbff33004	-1.8999028
40	0x3dc96003	0.09832766
41	0x3e66187f	0.22470282
42	0x3e5bba82	0.21457866
43	0x3ed3ff44	0.4140569
44	0xbdc1fc0f	-0.094719045
45	0xbe4b7c89	-0.19871725
46	0xbf7459d1	-0.9544955
47	0xc0006dbc	-2.0066977
48	0xbe17ba83	-0.14817242
49	0x3f448b83	0.7677538
50	0x3f3fe9fd	0.7496641
51	0xbf2a283e	-0.66467655
52	0x3f5264ab	0.8218486
53	0xbf1867f3	-0.59533614
54	0xbd10ed5d	-0.035382617
55	0x3e7a9733	0.2447174
56	0x3fd1f8f1	1.6404096
57	0x3ff2a4f2	1.8956587
58	0x3f343544	0.70393777
59	0x400bd86f	2.185085
60	0x3dfc2203	0.12311175
61	0x3f046b17	0.51725906
62	0x3efd5519	0.49478987
63	0x3f83f4d2	1.0309088
64	0x3eaed67c	0.34148014
65	0x3f650057	0.89453644
66	0x3ccf6012	0.025314365
67	0xbdd4c0f1	-0.10388363
68	0x3fa16ce2	1.2611353
69	0xbeba510c	-0.3638996
70	0xbf8f3090	-1.1186695
71	0x3fbb4b5b	1.4632372
72	0xbe96f53c	-0.29483974
73	0x3e7b83df	0.24562024
74	0x3f82b78e	1.0212266
75	0xbf391940	-0.72304153
76	0x3ffe8464	1.9884152
77	0xbf0887cf	-0.5333223
78	0xbd158cdc	-0.036511287
79	0x3e0ac1a1	0.13550426
80	0xbfa0f6ca	-1.2575314
81	0x3fee62fd	1.8623959
82	0xbf031fb4	-0.5122025
83	0x3e86b2eb	0.2630838
84	0xbc94935b	-0.01813667
85	0x3f367c09	0.7128301
86	0x3f1b3496	0.60627115
87	0x3eab13f0	0.3341365
88	0xbef0ed96	-0.47056264
89	0x40421e10	3.0330849
90	0xbbb248e5	-0.0054408186
91	0x3e242a95	0.16031869
92	0x3f3de5e0	0.74178886
93	0x3dfdb48d	0.12387953
94	0x3ed9d1d1	0.4254289
95	0x400ab8aa	2.167521
96	0x3e01c7ac	0.12673825
97	0x3e181820	0.14852953
98	0x3ef3726d	0.47548237
99	0x3f9effd2	1.242182
100	0xbfac727b	-1.3472437
101	0x3de52c09	0.1119004
102	0x3e577572	0.21040896
103	0xbe749cb2	-0.238879
104	0xc0082eb1	-2.1278498
105	0xbfd6a12e	-1.6767938
106	0xbfbc2f60	-1.4701958
107	0xbf780756	-0.96886194
108	0xbe1e7a1d	-0.1547627
109	0xbce7f25d	-0.02831381
110	0xbf59592d	-0.84901696
111	0xbe75724e	-0.23969385
112	0xc00cefec	-2.2021437
113	0x3cb9051e	0.022585448
114	0x3e4b5d90	0.1985991
115	0x3e81d623	0.25358686
116	0x3fcecf68	1.6157045
117	0xc0714fd4	-3.7704973
118	0x3f442b74	0.76628804
119	0xc034c7eb	-2.824702
120	0x3c9710b3	0.01844058
121	0x3c381d4a	0.011237452
122	0x3eec9895	0.4621016
123	0xbf8b6f5d	-1.089336
124	0x3eaf6b13	0.3426138
125	0xbe3e9c80	-0.18614388
126	0x3d87abf4	0.06624594
127	0xbba03872	-0.0048895413
128	0xbf6722ca	-0.9028746
129	0xbeea396b	-0.4574693
130	0xbeefc033	-0.46826324
131	0x3f323531	0.69612414
132	0xbda47054	-0.080292374
133	0xbe3cce8a	-0.18438163
134	0xbf83e46e	-1.0304086
135	0x3f021c86	0.50824773
136	0x3f356f4d	0.70872957
137	0xbfd39bd4	-1.653193
138	0x3b8d9163	0.00432031
139	0x3e9023c7	0.28152296
140	0x3eaa2e31	0.33238366
141	0x3f308668	0.6895509
142	0xbe7dfc61	-0.24803306
143	0x3f3b3d29	0.731402
144	0x3e1015f6	0.14070877
145	0x3e0cbf70	0.13744903
146	0xbf9c579b	-1.2214235
147	0x401ee57b	2.4827564
148	0xc0407eea	-3.0077462
149	0x3fd39bc8	1.6531916
150	0x3e3e1aa8	0.18564856
151	0xbcff3012	-0.031150851
152	0xbcf0ef74	-0.029411055
153	0xbccaaa5d	-0.024739439
154	0xbec90f46	-0.39269465
155	0xbf474164	-0.77834153
156	0xbd22612a	-0.039643444
157	0xbd9ce07d	-0.07660005
158	0x3f44acd3	0.7682621
159	0x3fab4109	1.3379222
160	0x3f629ca1	0.88520247
161	0x3ff33861	1.900158
162	0x3c1bc0bf	0.0095064035
163	0x3f0cdf80	0.55028534
164	0x3eac2fbf	0.33630177
165	0x3e0e1a43	0.13877206
166	0x3ea53130	0.3226409
167	0xbfaf1da3	-1.368092
168	0xbe3357fd	-0.17514034
169	0x3eb5eda0	0.35532856
170	0xbfccc289	-1.5996867
171	0xbe0c4fe5	-0.13702352
172	0xbffb1b75	-1.9617754
173	0xbef3ed53	-0.47642002
174	0xbddde1d7	-0.10834091
175	0x3f1be444	0.6089518
176	0x3fa3c830	1.2795467
177	0x3f9312ad	1.1490074
178	0x40019aa0	2.0250626
179	0xbf0ee45c	-0.558172
180	0xbc4f97f6	-0.012670508
181	0x3e7223ff	0.23646544
182	0xbdde9627	-0.10868483
183	0xc027c24d	-2.6212342
184	0xbddfba6c	-0.10924229
185	0xc023bf5e	-2.5585551
186	0x3d9a9049	0.075470515
187	0x3d6c1608	0.057638198
188	0x3f1d18e5	0.6136611
189	0xbfef2d21	-1.8685647
190	0xc0102b35	-2.2526371
191	0xbfa26b9b	-1.2689089
192	0x3bb42d2d	0.0054985494
193	0x3f93049c	1.1485782
194	0x3c00564a	0.007833073
195	0xc09d10ef	-4.908317
196	0xbee31a74	-0.4435612
197	0xc009096e	-2.1412005
198	0xbe671d88	-0.22569859
199	0x3f49346e	0.78595626
200	0x3eb22b35	0.3479859
201	0xbf7f0101	-0.99610907
202	0x3cdf4ae9	0.0272574
203	0xbfaa18e1	-1.3288842
204	0x3e4176ec	0.18893021
205	0xbe2ebeb3	-0.17064933
206	0xbf96845c	-1.1759143
207	0xbed4de58	-0.41575885
208	0xc00045b8	-2.0042553
209	0x3f931cce	1.1493165
210	0x3a73c3bc	0.0009298881
211	0x3e8fd3e1	0.28091338
212	0x3fcdea47	1.6087121
213	0xbc53279e	-0.012887863
214	0x3f01e83f	0.50745004
215	0x3fe3a265	1.7783934
216	0x3d865760	0.06559634
217	0xbe8af947	-0.2714331
218	0xbef0ae5d	-0.4700803
219	0x3f9c4fb1	1.221182
220	0xbf0b26db	-0.54356164
221	0x3f450c75	0.7697213
222	0xbdf32352	-0.11871971
223	0x3e03faec	0.12888688
224	0x3e908b58	0.2823131
225	0x3ca44f9a	0.020057488
226	0x3f58811e	0.8457202
227	0xbf86221d	-1.047916
228	0x3ee1a750	0.44072962
229	0xbc9ded63	-0.019278234
230	0x3e94a7f5	0.2903439
231	0xbe41fa66	-0.18943176
232	0xbea7f15d	-0.32801333
233	0xbedf383d	-0.43597594
234	0x3c6b4a6c	0.014361005
235	0x3b11f887	0.0022273378
236	0xbf92b44d	-1.1461273
237	0x3f07fa76	0.5311655
238	0x3db6c5e6	0.08924465
239	0x3f5aad01	0.85420233
240	0xbd698dc3	-0.05701996
241	0x3f0bae93	0.54563254
242	0xbfa7e7b0	-1.311758
243	0xbe85a6b8	-0.2610376
244	0xbf2016ba	-0.6253468
245	0x3fdb1122	1.7114604
246	0x3e2a9d2d	0.1666152
247	0x3e2bf5f8	0.16793048
248	0x3e1c8dce	0.15288469
249	0xbeaa1884	-0.3322183
250	0xbeedefc8	-0.46472
251	0x3ee43225	0.44569507
252	0xbde2a1be	-0.11066006
253	0xbd0897d0	-0.033347905
254	0xbf3a5e6d	-0.7280033
255	0xc014bc23	-2.323983

fc1.bias f4 [300]
0	0xbf6b7bdf	-0.9198589
1	0xc046d3d7	-3.1066797
2	0x3f7d9aa4	0.9906409
3	0xc03d0ae0	-2.9537888
4	0xc08710e9	-4.220814
5	0x403e7bca	2.9763055
6	0xbe84cf49	-0.25939396
7	0xbf33a4a3	-0.7017309
8	0x3e852a00	0.26008606
9	0x4064eaf4	3.5768404
10	0xc081a340	-4.051178
11	0x40752870	3.830593
12	0x40188b20	2.3834915
13	0x4052c3f4	3.29321
14	0xbebda6ae	-0.3704123
15	0x40501ec9	3.251879
16	0x4063c991	3.5591776
17	0xc0480d6b	-3.125819
18	0xc0816a7d	-4.044249
19	0x3f490f51	0.78538996
20	0x40813be8	4.038563
21	0x407965b4	3.8968325
22	0xc016049d	-2.3440316
23	0xc09a1427	-4.81496
24	0x3f583cab	0.8446757
25	0x40412e4a	3.0184503
26	0x401e32c8	2.4718494
27	0x409a69a3	4.825395
28	0xbd373a3f	-0.044733282
29	0xc01b5972	-2.4273343
30	0x408aa44c	4.332556
31	0xc0266e8e	-2.6004977
32	0xbef6661b	-0.48124775
33	0xbb8a5e19	-0.004222643
34	0xc09a3879	-4.8193936
35	0x405381f2	3.3048062
36	0xc0e0641d	-7.012221
37	0x3fbce27b	1.4756616
38	0xc056609a	-3.349646
39	0x3ff953ea	1.9478734
40	0x3fb7414c	1.4316802
41	0x405a7fb1	3.4140437
42	0x3f4f3853	0.8094532
43	0x3fa0e8b5	1.2571017
44	0xbee3092f	-0.44342944
45	0x40a17087	5.0449862
46	0xc01a96e0	-2.4154587
47	0xbe9e93f4	-0.30972254
48	0x404f1112	3.235417
49	0x3ef97fc0	0.48730278
50	0x3fa69a17	1.3015774
51	0x406590c4	3.5869608
52	0x3edef1f9	0.43543985
53	0x40129652	2.2904248
54	0xc0b82e62	-5.755662
55	0xbfcb7558	-1.5895185
56	0x3fa429bb	1.2825235
57	0x3e748b9f	0.23881386
58	0x3fdf745b	1.7457384
59	0xc0e96067	-7.293018
60	0xbe7b3b37	-0.24534307
61	0x403927f6	2.893064
62	0xbf5af554	-0.8553059
63	0x3fbfd145	1.4985739
64	0x407cd929	3.9507544
65	0x4030d108	2.7627583
66	0xc05fe517	-3.4983575
67	0xbf7e1c65	-0.99262077
68	0x4081d90d	4.0577455
69	0x40414586	3.0198684
70	0x3fbca914	1.4739099
71	0x405c55a2	3.4427266
72	0x4048edbf	3.1395109
73	0xc0130ad8	-2.2975368
74	0xc023b935	-2.5581791
75	0xbde0965b	-0.10966178
76	0x405291dc	3.2901525
77	0x3fab91a9	1.3403827
78	0x3fb8751c	1.4410739
79	0xc09896b7	-4.768398
80	0xbf0200d3	-0.5078251
81	0x3f9a920c	1.207582
82	0x3f2059f3	0.6263725
83	0x4056c61c	3.3558416
84	0x403b0f8b	2.9228237
85	0x400c4738	2.1918468
86	0xbfd780a5	-1.6836134
87	0xbf98e70a	-1.1945508
88	0x3ff94af5	1.9476
89	0xc01857e1	-2.3803637
90	0xc01ec12a	-2.4805398
91	0x401dd9a0	2.4664078
92	0x3f3f5e5b	0.7475335
93	0x4002bd95	2.0428212
94	0x3ffb9cc0	1.9657211
95	0x40061f90	2.0956764
96	0x407d7b19	3.9606383
97	0x3ebd030d	0.3691639
98	0x3fa07423	1.2535442
99	0x406451a5	3.5674832
100	0x3f4fa522	0.8111135
101	0xc0b76102	-5.730592
102	0xbfd92b73	-1.6966385
103	0x3f508c88	0.81464434
104	0xbfdd1c9b	-1.7274355
105	0x3f4a3ee7	0.7900223
106	0xc04ec320	-3.2306595
107	0x404ecd6a	3.2312875
108	0x3f4e157c	0.8050153
109	0x40625076	3.536161
110	0x402b2a7c	2.674468
111	0x40972846	4.723666
112	0x404b3625	3.1751797
113	0x40588f25	3.3837368
114	0xbee5805c	-0.44824493
115	0x40585e90	3.3807716
116	0x3f99eefb	1.2026056
117	0xc078fbc9	-3.8903677
118	0x3f573074	0.8405831
119	0x404575b5	3.0853093
120	0xbe43f03d	-0.19134612
121	0x4052f675	3.2962925
122	0xc05f971d	-3.4935982
123	0x3f289f2b	0.6586787
124	0x401620de	2.345756
125	0x3fc6cd3a	1.553138
126	0x407cd8dc	3.950736
127	0x404b0a9d	3.1725228
128	0x401dab9b	2.463599
129	0x406efdde	3.7342448
130	0xbfd4b2dd	-1.6617085
131	0x3f1cb908	0.61219835
132	0x404cd29a	3.200354
133	0xbefebe20	-0.4975443
134	0x40bd1fae	5.910117
135	0x3f24f467	0.6443543
136	0xc00e41d4	-2.2227678
137	0x407b73a2	3.9289327
138	0xc01a04ed	-2.4065506
139	0x402ffae5	2.7496884
140	0xc080c220	-4.023697
141	0xc083c4d9	-4.1177793
142	0x401e1657	2.4701135
143	0xc07d8116	-3.9610038
144	0xc0a0357e	-5.00653
145	0x403902b4	2.89079
146	0x404f4bfe	3.2390132
147	0x4025bb4a	2.5895562
148	0x406205a9	3.5315955
149	0x3f680885	0.90638
150	0xc078e6b7	-3.8890817
151	0x40342902	2.815003
152	0x405ee2f4	3.4826021
153	0x3fce05d9	1.6095535
154	0xbdd6683b	-0.10469099
155	0x407be3f7	3.9357889
156	0x3e9ce2a0	0.3064165
157	0xc0bbaf14	-5.865122
158	0x4029f47c	2.6555471
159	0x4082cb14	4.08729
160	0x3f9639ef	1.173643
161	0x400ddb03	2.2164924
162	0x408ed7ee	4.4638586
163	0x4006a7a9	2.1039832
164	0x40543ea7	3.316324
165	0xc032cb6f	-2.7936666
166	0x40733c3c	3.8005514
167	0x3f8adc22	1.0848429
168	0x40251236	2.5792365
169	0xbff609f2	-1.9221785
170	0xbeb31c8c	-0.34982717
171	0xc07d7de9	-3.96081
172	0xc007e51f	-2.1233594
173	0x40955674	4.6668034
174	0xbfd09792	-1.6296256
175	0x404f45bb	3.238631
176	0xbfc076c6	-1.5036247
177	0x409541ca	4.664281
178	0x408b24f7	4.3482623
179	0xc003fbc0	-2.0622406
180	0x3fde8a33	1.7385925
181	0x406a3843	3.659684
182	0xbfadc419	-1.3575469
183	0x40709502	3.7590947
184	0x401e1989	2.4703085
185	0x3f99c7ca	1.2014096
186	0x400c3611	2.1908
187	0xbdeb29b8	-0.114825666
188	0x401e07de	2.4692302
189	0xc0069a52	-2.103169
190	0x3fc1f7aa	1.5153706
191	0x4038ce5f	2.887596
192	0xbf9dec19	-1.2337676
193	0x3fa088d5	1.2541758
194	0x406ea283	3.728669
195	0xbf4e1cfb	-0.8051297
196	0x40949a1a	4.643811
197	0x40574bc4	3.3639994
198	0x3ef97116	0.4871909
199	0x403f0304	2.984559
200	0xbe70f190	-0.23529649
201	0x40bba39b	5.8637214
202	0xbe0686b7	-0.13137327
203	0xc0923554	-4.56901
204	0x401f5c8b	2.4900234
205	0xc00677a0	-2.1010513
206	0x3f4b1430	0.7932768
207	0x3ff51516	1.914706
208	0xbec6c8bd	-0.38825026
209	0x404ffad3	3.249684
210	0xbffbb51b	-1.9664644
211	0xbffcd459	-1.9752303
212	0xc079f3f8	-3.9055157
213	0xbf7ee9f5	-0.9957574
214	0xc0289b38	-2.6344738
215	0xc0d6a0fb	-6.707151
216	0x405b0a60	3.4225082
217	0x3f8e339a	1.1109498
218	0xc02ba7b6	-2.6821113
219	0x3faef730	1.3669186
220	0x40463cda	3.097464
221	0xc08024cf	-4.004493
222	0x401f034c	2.4845762
223	0x400ce859	2.2016814
224	0x40a93e13	5.2888274
225	0xc0dbf29b	-6.873365
226	0xbf5b3167	-0.85622257
227	0xc01bd17b	-2.4346607
228	0x40439e0d	3.0565217
229	0xbfff898f	-1.9963855
230	0xc00c11e7	-2.1885927
231	0x406cc94b	3.699786
232	0x3ec9df33	0.394281
233	0xc06615a5	-3.595071
234	0xc06ceafc	-3.7018423
235	0xc03df862	-2.968285
236	0x405f7d23	3.4920127
237	0xc05a7ff5	-3.4140599
238	0x4046fa4f	3.1090276
239	0xbf08aedb	-0.5339181
240	0x40595996	3.396093
241	0xc05e0469	-3.4690192
242	0x40712f64	3.7685175
243	0xbed59fdc	-0.41723526
244	0x4048b71e	3.1361766
245	0xc039445d	-2.8947976
246	0xc06f8fc8	-3.7431507
247	0x3d9ba4a0	0.07599759
248	0x4086582d	4.1982636
249	0x4008f6fa	2.1400743
250	0xc08d68c9	-4.419041
251	0x40134b97	2.3014886
252	0x4041a99b	3.025977
253	0xbf8f16ab	-1.1178793
254	0xbde81155	-0.11331431
255	0x3f845f5e	1.0341604

fc2.weight f4 [200, 300]
0	0xbd445770	-0.04793495
1	0xbc7e17b0	-0.015508577
2	0x3b2e59b0	0.002660375
3	0xbd9ec5bd	-0.07752559
4	0x3d30937c	0.043109402
5	0xbd0bac52	-0.034099884
6	0xbd251f06	-0.04031279
7	0xbc9f76cb	-0.019465825
8	0xbc9bcd48	-0.019018784
9	0xbbace1b8	-0.005275931
10	0xbd6c676c	-0.05771582
11	0xbd97998b	-0.07402333
12	0xbcb5a8a0	-0.022175133
13	0x3d14477a	0.036200978
14	0xbd51ad17	-0.051190462
15	0xbd32629b	-0.04355107
16	0xbbbfb0e6	-0.0058499454
17	0x3c22dc7f	0.009940266
18	0x3d0713da	0.032977916
19	0xbc5ffcc0	-0.0136711
20	0xbcdfa9bb	-0.027302613
21	0xbda6013c	-0.08105704
22	0xbdb508cc	-0.088395685
23	0x3cc54ccc	0.024084471
24	0xbd2a09dc	-0.04151331
25	0xbdb9b04c	-0.09066829
26	0xbd049747	-0.03237083
27	0x3d09c7f1	0.033637945
28	0x3c0c8afb	0.008578057
29	0x3a153000	0.00056910515
30	0xbc693ba8	-0.014235415
31	0xbd40b986	-0.04705193
32	0xbd37b1ff	-0.044847485
33	0xbcc94024	-0.024566717
34	0x3c81213e	0.015762921
35	0xbd791097	-0.060806837
36	0xbd6c22e2	-0.057650454
37	0xbceced12	-0.028921638
38	0xbcd91cec	-0.026503049
39	0xbdae4a8c	-0.085103124
40	0xbd67c9b3	-0.05658884
41	0xbd287f53	-0.04113705
42	0xbdb084c0	-0.0861907
43	0x3c624170	0.013809547
44	0xbc75d15c	-0.015003528
45	0x3c1852a5	0.009297048
46	0x3d64aac0	0.055826902
47	0xbd63dbe0	-0.05562961
48	0xbbd938dc	-0.0066290926
49	0xbd122498	-0.03567943
50	0xbb5a09a0	-0.0033269897
51	0xb9f2abde	-0.00046285888
52	0xb80af000	-3.312528e-05
53	0xbd9a5a2f	-0.075367324
54	0x3c524418	0.012833618
55	0xbda2fd8e	-0.07958518
56	0xbd321c4b	-0.043484014
57	0xbd147272	-0.036241956
58	0x3cc8f9b8	0.024533138
59	0xbd308f9b	-0.043105703
60	0xbd1f5f5b	-0.038909297
61	0x39b35c9c	0.0003421054
62	0xbc352868	-0.011056997
63	0xbc3e3430	-0.011609122
64	0xbcc029ff	-0.023457525
65	0xbd01431f	-0.031558152
66	0x3cc45ef0	0.023971051
67	0xbd78689e	-0.060646646
68	0xbdd41291	-0.10355104
69	0xbd062e0e	-0.032758765
70	0xbc5b5502	-0.013386967
71	0x3bf81e66	0.007571983
72	0xbc2f1ac0	-0.01068753
73	0xbda1ea35	-0.079059996
74	0xbdb61655	-0.08890978
75	0xbca0a77c	-0.019611113
76	0xbbfb1438	-0.0076623224
77	0xbd5c688e	-0.05381065
78	0xbaa7ac62	-0.0012792463
79	0x3c5e5de8	0.013572194
80	0xbbab9c35	-0.005237127
81	0xbd8adbc8	-0.06780201
82	0x3d08f118	0.03343305
83	0x3d06d606	0.032918952
84	0xbbfea822	-0.007771508
85	0x3ce17a0c	0.027524017
86	0xbda46b29	-0.08028252
87	0x3cd9c4c4	0.026583083
88	0xbd7d227c	-0.061800465
89	0xbc338b7c	-0.010958549
90	0xbd3528c9	-0.04422835
91	0xbd19a199	-0.037507627
92	0x3ca8ac50	0.020589978
93	0xbdb923ac	-0.09040007
94	0xbd408707	-0.047003772
95	0x3c2ac4a8	0.010422863
96	0xbd009859	-0.03139529
97	0xbd68f771	-0.056876604
98	0xbd1ea012	-0.038726874
99	0xbc15e973	-0.009149897
100	0x3ce5367e	0.027980085
101	0x3cfa2dc0	0.030539393
102	0xbae4ec46	-0.0017465435
103	0x3cdb4974	0.026768424
104	0xbd0bf2a3	-0.034166943
105	0xbc28e650	-0.010308817
106	0x3b57369a	0.0032838942
107	0xbd356fde	-0.044296138
108	0xbc8bae70	-0.017050952
109	0xbd0c2d3b	-0.034222823
110	0x3cf2c731	0.029635997
111	0xbd811559	-0.063029
112	0xbd950aca	-0.072774485
113	0xbc080a9f	-0.0083033135
114	0x3d5a2b88	0.05326417
115	0xbd431be9	-0.04763404
116	0x3d0d13b4	0.03444262
117	0xbda5265e	-0.080639586
118	0xbb8bb422	-0.004263417
119	0xbceb83cb	-0.028749367
120	0xbd182f7d	-0.037154663
121	0xbc1bc960	-0.009508461
122	0x3cf0ae84	0.02938009
123	0xbbb160ca	-0.0054131495
124	0xbcb2d5e7	-0.021830512
125	0x3cdfe719	0.027331876
126	0x3c6e622e	0.014549775
127	0xbd80c351	-0.06287254
128	0xbd16dba4	-0.03683056
129	0xbda0612c	-0.07831034
130	0xbd1c83d5	-0.038211662
131	0xbce5d6a6	-0.028056454
132	0xbd949488	-0.072548926
133	0x3d6adc4e	0.057339005
134	0x3a8effe5	0.0010910003
135	0x3c93a369	0.018022256
136	0x3d011b9e	0.03152048
137	0xbd00dac1	-0.03145862
138	0xba99e120	-0.0011740066
139	0xbd4cdc09	-0.05001453
140	0xbd1b5430	-0.037922084
141	0xbd5af5a0	-0.053456903
142	0xbd84f58d	-0.064921476
143	0x3cd0d004	0.025489815
144	0x3d250540	0.04028821
145	0xbb9aeef7	-0.004728194
146	0xbc7bc7e9	-0.0153674865
147	0xbd86e5a6	-0.06586771
148	0xbd40b707	-0.04704955
149	0x3cf7ef86	0.03026558
150	0xbca6e7f6	-0.02037428
151	0x3b4800f7	0.0030518153
152	0xbd0d07fb	-0.03443144
153	0xbceef69e	-0.02917033
154	0xbd2fb03a	-0.042892672
155	0xbda097dc	-0.07841465
156	0xbd51316d	-0.051072527
157	0x3d326722	0.043555386
158	0xbd399e31	-0.04531688
159	0xbd1ec702	-0.038764007
160	0xbcb4d51a	-0.022074271
161	0xbd594bac	-0.053050682
162	0xbdb4b914	-0.08824363
163	0xbd89ef01	-0.067350395
164	0xbd350de9	-0.04420272
165	0xbd22c17d	-0.039735306
166	0xbd62e417	-0.055393305
167	0xbd3e0e44	-0.046400324
168	0xbcb0fd86	-0.021605264
169	0xbd204ded	-0.039136816
170	0xbdacc01f	-0.08435082
171	0x3cc571bf	0.02410209
172	0xbd4d27c5	-0.050086755
173	0xbd663c80	-0.05621004
174	0x3aae5a8f	0.0013302135
175	0x3d0055f1	0.03133196
176	0xbd4bd650	-0.04976493
177	0x3d040f14	0.032240942
178	0xbd0f590b	-0.034997027
179	0xbcf77355	-0.030206362
180	0x3c8eb995	0.017422477
181	0xbd8a8bc7	-0.06764942
182	0x3d48b96e	0.049004965
183	0xbcdf5e61	-0.027266683
184	0xbd164aba	-0.03669236
185	0xbd8bd26a	-0.06827243
186	0xbc9d211e	-0.01918083
187	0xbdc1266d	-0.09431157
188	0xbc7710dd	-0.015079704
189	0xbd6dd0cb	-0.05806045
190	0xbc4ebc83	-0.012618187
191	0x3c82c30b	0.015962144
192	0x3d6a7cb0	0.057247818
193	0xbcfa2b9a	-0.030538369
194	0xbd460aa4	-0.04834999
195	0x3c8611d8	0.01636593
196	0x3bcbaf40	0.00621596
197	0xbd0720e4	-0.03299035
198	0x3b725ec8	0.0036982764
199	0xbd3135d2	-0.043264218
200	0x3c00e5b8	0.007867269
201	0xbd88a1ac	-0.066714615
202	0xbd943e2d	-0.072384216
203	0xbc2516b4	-0.010076214
204	0x3d021efa	0.031767823
205	0xbd886b1e	-0.06661056
206	0x3d1d1fce	0.03836041
207	0xbd156e0c	-0.036481902
208	0xbb158e30	-0.0022820346
209	0xbc9bf070	-0.019035548
210	0xbd722e09	-0.059125934
211	0x3cffb7bc	0.031215541
212	0xbaf2b9a0	-0.0018518455
213	0xbc9294bd	-0.01789319
214	0xbd0ee7c7	-0.03488901
215	0xbcf41414	-0.02979473
216	0xbd9302ce	-0.07178269
217	0xbcd7cb0a	-0.026341934
218	0xbd6ade60	-0.05734098
219	0x3ce755c0	0.028239131
220	0xbd9e03b2	-0.077155486
221	0xbcbd5b13	-0.023114717
222	0x38d72f55	0.00010260815
223	0xbd2d3c6e	-0.04229396
224	0xbd676130	-0.05648917
225	0xbbcc97b8	-0.006243672
226	0x3c3d9e20	0.0115733445
227	0xbd11f5c7	-0.035634782
228	0xbcecb4ae	-0.028894749
229	0x3cbc3484	0.02297426
230	0x3c653810	0.013990417
231	0xbcadb747	-0.021205558
232	0xbceaf343	-0.02868045
233	0xbd43b442	-0.04777933
234	0xbda58fef	-0.08084094
235	0x3af4b940	0.0018670931
236	0xbd93a751	-0.072096474
237	0xbc53b3c8	-0.012921281
238	0xbd892eb4	-0.06698361
239	0xbcafa7a2	-0.021442238
240	0xbd190165	-0.037354846
241	0xbd9e4a33	-0.07728996
242	0xbd4ce40c	-0.05002217
243	0xbd46852d	-0.04846685
244	0x3b9b703b	0.0047436035
245	0x3d3a6362	0.045504935
246	0xbc149300	-0.009068251
247	0xbd4bca98	-0.049753755
248	0xbd690e3e	-0.056898348
249	0x3bd55ae0	0.0065110773
250	0x3c2370ff	0.009975671
251	0x3ce30014	0.027709998
252	0xbd0ac1f2	-0.033876367
253	0x3d324242	0.04352022
254	0xbca0abfa	-0.019613255
255	0x3cf2ef38	0.029655084

fc2.bias f4 [200]
0	0xbc2eb381	-0.010662914
1	0x3e29dee4	0.16588932
2	0xbfde5464	-1.7369504
3	0x4021e8f0	2.5298424
4	0xbd176074	-0.03695722
5	0xbdc784d5	-0.097421326
6	0x3fe8dc49	1.8192226
7	0xbd9f7e9b	-0.0778782
8	0xbd30d042	-0.04316736
9	0x3eba59b2	0.36396557
10	0xbd8c7773	-0.06858721
11	0xbdbaa002	-0.0911255
12	0xbf94d41a	-1.1627228
13	0xbd744dd3	-0.05964453
14	0xbdc81945	-0.09770445
15	0x3c97e92d	0.018543804
16	0xbcd0b46d	-0.025476659
17	0xbd8c3123	-0.068453096
18	0x3e5c666b	0.21523444
19	0x3f8704e6	1.054837
20	0x40271492	2.6106305
21	0x3f872fdf	1.0561484
22	0x3f096a79	0.5367809
23	0xbbb341ba	-0.0054704817
24	0x3e86b6c5	0.26311317
25	0x3b8e6f5d	0.0043467716
26	0xbf056abd	-0.52115995
27	0x3f68c890	0.90931034
28	0xbd3c22bb	-0.04593156
29	0x4010951d	2.2591012
30	0x3f80202a	1.0009816
31	0x40052c96	2.0808463
32	0x3d0ea225	0.0348226
33	0x40014c57	2.0202844
34	0xbd2bf60e	-0.041982703
35	0xbce3909d	-0.027778918
36	0x3f5419eb	0.8285205
37	0xbfa7df4a	-1.3115017
38	0xbfa83b23	-1.3143047
39	0x3fb3b673	1.4040054
40	0x3ce43895	0.027859012
41	0xbd86aef6	-0.0657634
42	0x3f7f056a	0.99617636
43	0xbd4c6ea9	-0.04991022
44	0x3cae4fa0	0.021278203
45	0xbd59bcf4	-0.053158715
46	0xbec3f2c2	-0.38271147
47	0xbe865906	-0.26239794
48	0x3f3fce6d	0.74924356
49	0x3ccae038	0.024765119
50	0xbdccef91	-0.10006631
51	0x3e0152fe	0.12629315
52	0xbce1cb7b	-0.027562847
53	0xbd96c04c	-0.073608965
54	0x3cb7e4c8	0.022447959
55	0xbd3e9f75	-0.04653879
56	0x3cc9078e	0.024539735
57	0x3d1345a9	0.035955105
58	0x3f0fe20c	0.56204295
59	0x3f1e4a01	0.6183167
60	0xbd7a0a97	-0.061045256
61	0xbe9c833b	-0.3056887
62	0xbf8626aa	-1.0480549
63	0xbd30a54a	-0.043126382
64	0x4027c8b8	2.621626
65	0xbc094320	-0.00837782
66	0xbd0226ca	-0.031775273
67	0x3e72cd90	0.23711228
68	0xbd596aec	-0.053080484
69	0x3d340c63	0.043957125
70	0xbf988e6b	-1.1918463
71	0x3ea0ce8b	0.3140758
72	0x4010f81b	2.2651432
73	0x3f3c56af	0.7356977
74	0xbed4f6a9	-0.41594437
75	0x3d55d8d9	0.052208755
76	0xbb8e63a5	-0.0043453746
77	0xbd4f54db	-0.050618034
78	0x3fa4be60	1.2870598
79	0x40160ae0	2.3444138
80	0xbf32cffb	-0.69848603
81	0xc0206eb1	-2.506756
82	0x3f818f13	1.0121788
83	0xbd4a35c7	-0.049367692
84	0x3edecc51	0.43515256
85	0xbfdf47bd	-1.7443768
86	0x40226473	2.537381
87	0x3fdd3b3f	1.7283705
88	0x3f4dd9f2	0.80410683
89	0x3d81c13a	0.06335683
90	0xbf0f8c86	-0.56073797
91	0xbfb6f67f	-1.4293975
92	0x401d9421	2.462166
93	0xbfba90cd	-1.457544
94	0x3b7f8cc4	0.0038993815
95	0x3f32994a	0.6976515
96	0x4032c3c7	2.7931993
97	0xbc0b239a	-0.008492375
98	0x3e8923e0	0.26785183
99	0xbd0a3551	-0.033742253
100	0xbd438179	-0.047730897
101	0xbd6f6016	-0.058441244
102	0x3c66ebff	0.014094352
103	0x3fe1531d	1.7603489
104	0x400bcb74	2.1842928
105	0xbdad171f	-0.084516756
106	0x3f268769	0.6505037
107	0xbd104806	-0.035224937
108	0x3fcbd87e	1.5925443
109	0x3c90441e	0.017610606
110	0x3e1a69cf	0.15079425
111	0x3f3828c2	0.7193719
112	0x3be91a99	0.0071137664
113	0x3f9164f8	1.1358938
114	0xbe334144	-0.17505366
115	0xc00ca822	-2.197762
116	0xbdbfdfc6	-0.09368853
117	0x3f906745	1.1281515
118	0xbd37543f	-0.044758078
119	0x400e8df5	2.2274144
120	0x3c84e5ed	0.016222918
121	0xbda235ed	-0.07920442
122	0x3fe80d0f	1.8128985
123	0x3fb4e5ef	1.413267
124	0x3ef662dc	0.481223
125	0x3ea853ce	0.32876438
126	0x3fe6147d	1.7975003
127	0xbdb1baa2	-0.086781755
128	0x3eda7c5d	0.42673007
129	0x3fe540a7	1.7910355
130	0x3ff4289f	1.9074897
131	0x3c42e921	0.011896403
132	0x3ceaa13a	0.028641332
133	0x400ea87e	2.229034
134	0x3fd47069	1.6596805
135	0x3fe69a55	1.8015848
136	0x402c5f5b	2.69332
137	0x4024551c	2.5676947
138	0xbd6e622e	-0.0581991
139	0xbe0d0413	-0.13771085
140	0xbd4b68f0	-0.049660623
141	0xbd2b1f35	-0.04177781
142	0xbed7d0c3	-0.4215146
143	0x401a0d51	2.4070628
144	0xbd128640	-0.035772562
145	0x3e18fec7	0.1494094
146	0xbc84af3c	-0.01619684
147	0x3f798603	0.9747011
148	0xbdac348e	-0.084084615
149	0xbe81b96a	-0.25336772
150	0x3c765d2c	0.015036862
151	0xbd0883b8	-0.03332874
152	0x401c4738	2.4418468
153	0x401c9e28	2.447153
154	0x3f07d28e	0.53055656
155	0x3f5b2455	0.85602313
156	0x3cd3f477	0.025873406
157	0x3fd2e368	1.6475649
158	0xbfa2746e	-1.2691782
159	0xbd0f80ce	-0.035034947
160	0x3fecfa69	1.8513919
161	0x4010a045	2.259782
162	0xbd59631c	-0.053073034
163	0xbf84b6eb	-1.0368322
164	0xbd80e291	-0.06293214
165	0x3faffb1e	1.374851
166	0x3f6dff4d	0.92967683
167	0x3d3479c5	0.04406144
168	0xbfd6b557	-1.677409
169	0x4013482b	2.3012798
170	0xbdc1fad8	-0.09471673
171	0xbda769fa	-0.0817451
172	0x3f9d7711	1.2301961
173	0xbc8d5234	-0.017251112
174	0xbc2d6d0f	-0.010585084
175	0x4015422f	2.3321645
176	0x3faf28b9	1.3684303
177	0x3fad1002	1.352051
178	0x3f1a2c84	0.60224175
179	0x3efa883f	0.48932073
180	0x3f209cdf	0.62739366
181	0xc03a6952	-2.9126782
182	0xbc0f4635	-0.008744766
183	0x3e8be1c2	0.27320677
184	0xbd98eafe	-0.07466696
185	0xbd3be823	-0.04587568
186	0xba8d0be4	-0.001076099
187	0xc0177bcc	-2.366931
188	0x3eff7598	0.49894404
189	0x3e3b6ec6	0.18303975
190	0x401a9b82	2.4157414
191	0x3ed22b6e	0.4104876
192	0xbd7f61cc	-0.062349126
193	0x3ff96537	1.9484013
194	0x3fb573b4	1.4175935
195	0xbd89c021	-0.06726099
196	0x3f9879b4	1.1912141
197	0xbe242630	-0.16030192
198	0x3e9024de	0.28153127
199	0xbd816935	-0.06318895

fc3.weight f4 [1, 200]
0	0xbc0375ce	-0.008023692
1	0xba91b34f	-0.001111606
2	0x3eaa7562	0.3329268
3	0xbe74b043	-0.23895364
4	0xbd0203a2	-0.031741746
5	0xbc807d01	-0.015684607
6	0xbe44ba0f	-0.192116
7	0xbcd3d91f	-0.025860367
8	0xbd763234	-0.06010647
9	0xbfcbb710	-1.5915241
10	0x3a5c83e7	0.0008411989
11	0xbabd99bc	-0.0014465372
12	0x3e19aa66	0.15006408
13	0xbcb5c9b6	-0.02219091
14	0xbc3fbc9e	-0.011702685
15	0xbc7e9a93	-0.015539783
16	0x3b535067	0.0032243968
17	0xbb70d330	-0.0036746971
18	0xbfb322d2	-1.3995001
19	0x3d749423	0.059711587
20	0xbe74338a	-0.23847786
21	0x3e0105b9	0.1259984
22	0xbfef202e	-1.8681695
23	0xbfab2e21	-1.3373452
24	0xbfc43cf9	-1.5331107
25	0x3b8c544b	0.0042825094
26	0x3e6c471c	0.23074001
27	0x3fb0dbf9	1.381713
28	0xbca47fdf	-0.020080505
29	0xbe7168ad	-0.23575087
30	0x401c74f2	2.4446378
31	0x3e217fdb	0.15771429
32	0xbca8dd13	-0.020613229
33	0xbf043ecd	-0.51658326
34	0x3bc87aee	0.00611817
35	0x3cd563a9	0.026048498
36	0xbfd1f45d	-1.6402699
37	0x3a20bf19	0.00061319914
38	0x3f54d391	0.83135325
39	0x3cbaf20a	0.022820491
40	0x3d3187da	0.04334245
41	0x3c7e4c73	0.015521157
42	0x3f80fddd	1.0077473
43	0xba722ed9	-0.0009238548
44	0x3c5c5506	0.013448006
45	0x3d0c4893	0.0342489
46	0xbb881a3f	-0.0041535194
47	0x3d01e07a	0.03170822
48	0x3fb6c5cf	1.4279116
49	0xbf8bd74a	-1.0925076
50	0x3d020f5a	0.03175292
51	0xbf8537c4	-1.0407643
52	0x3cb160ca	0.021652598
53	0x3ad5f431	0.0016323385
54	0xbb901926	-0.004397529
55	0x3ca6a6a9	0.020343142
56	0xbc66401f	-0.014053374
57	0xbc9370a0	-0.01799804
58	0xbf46c8b8	-0.7765002
59	0xbfba78f1	-1.4568158
60	0x3cd1ba25	0.025601456
61	0x3f557c89	0.8339315
62	0x3e3c34c4	0.18379503
63	0x3cd150ad	0.025551165
64	0xbd743883	-0.059624206
65	0xbcf2a409	-0.029619234
66	0x3ceff487	0.029291404
67	0xc015cfbb	-2.3408039
68	0x3ce9b6da	0.028529573
69	0x3ff96686	1.9484413
70	0x3e744941	0.23856069
71	0xbf1bf83f	-0.6092567
72	0xbfe16d44	-1.761147
73	0x3ea2e04f	0.3181176
74	0x3f45571f	0.7708606
75	0x3c15494a	0.009111712
76	0xbc378707	-0.011201627
77	0xbc8d0be4	-0.017217584
78	0xbe978f54	-0.29601538
79	0xbfa360e5	-1.2763945
80	0xbc2b984d	-0.010473323
81	0x3b59b355	0.0033218462
82	0x3e994897	0.29938194
83	0xbcf52cbf	-0.029928563
84	0x3f1728c7	0.59046596
85	0x3e65b19f	0.22431038
86	0x3e5ea274	0.21741658
87	0x3f15b80a	0.58483946
88	0x3cb018a9	0.021496134
89	0xbe18c7d5	-0.1491998
90	0x3cb2f323	0.021844452
91	0xbc585593	-0.013203996
92	0x3f296026	0.66162336
93	0x3de80663	0.11329343
94	0x3b217e55	0.002464195
95	0x3f532186	0.8247303
96	0xbe06cf8f	-0.13165115
97	0xbb9c4278	-0.004768666
98	0xbf00f231	-0.50369555
99	0xbc605c4a	-0.013693878
100	0xbd27a87a	-0.040932156
101	0xbbc1f6f0	-0.00591933
102	0x3bf8977e	0.0075864187
103	0xbdf27cde	-0.11840223
104	0xbebad296	-0.3648879
105	0x3ca7cba2	0.020482842
106	0xbe36d73f	-0.17855547
107	0xbc23d3ff	-0.009999274
108	0xbe3906e2	-0.18069032
109	0x3ce8a951	0.028401049
110	0x3ac30091	0.0014877488
111	0x3f535dc3	0.82564944
112	0x3c7236a9	0.01478354
113	0x3eca208d	0.3947796
114	0xbf2adccd	-0.66743165
115	0x3e84c8d7	0.2593448
116	0xbcc4d16b	-0.02402564
117	0xbec1a4e7	-0.37821123
118	0xbd234b46	-0.03986671
119	0xbf91c6aa	-1.1388752
120	0x3c735f8a	0.014854321
121	0xbce190e3	-0.027534908
122	0x3f8806b6	1.0627048
123	0xbf981916	-1.1882656
124	0xbf94f1f9	-1.1636344
125	0x3e35e908	0.17764676
126	0xbd6dc431	-0.05804843
127	0xbbbc5583	-0.0057474985
128	0x3ceddd5d	0.029036218
129	0xbfd5a80b	-1.6691908
130	0xbf022299	-0.5083404
131	0xbcab137d	-0.020883316
132	0x3cafa379	0.021440255
133	0xbfbd1203	-1.4771122
134	0xbf6c8252	-0.92386353
135	0xbfc693f2	-1.5513899
136	0xbdd92ccf	-0.1060425
137	0xbf8f830e	-1.121187
138	0x3cc90b76	0.024541598
139	0xbcf0a838	-0.029377088
140	0xbcc6f834	-0.024288274
141	0xbd64ffce	-0.055908017
142	0xbb154562	-0.002277695
143	0x3f9fb5f2	1.24774
144	0x3b016b4a	0.0019747787
145	0xbed72520	-0.42020512
146	0x3c167de2	0.009185286
147	0x3fc7002c	1.5546927
148	0xbcc127e7	-0.023578597
149	0xbe584dc3	-0.21123414
150	0x3d02848b	0.031864684
151	0xbd123820	-0.035698056
152	0x3f2bab6e	0.67058456
153	0x3e52e2c8	0.20594323
154	0x3e17c442	0.1482096
155	0xc08e5fbd	-4.449187
156	0xbc22ca5e	-0.009935943
157	0xbe8f7f55	-0.28026834
158	0x3c9d4c19	0.019201325
159	0x3cf9c05f	0.030487237
160	0xbf09ebf2	-0.5387565
161	0xbf01e979	-0.50746876
162	0x3d14f741	0.036368612
163	0x3d0f8ba8	0.035045296
164	0x3d06c666	0.03290405
165	0x400518ba	2.0796342
166	0xbbd7d90b	-0.006587153
167	0x3b3dd83d	0.0028968
168	0x3d184187	0.037171867
169	0x3e1757ec	0.14779633
170	0x3cb23f73	0.02175877
171	0xbc916cff	-0.017752169
172	0xbc72a7f1	-0.014810548
173	0xbc971254	-0.018441357
174	0x3c6c0c84	0.014407281
175	0xbe1c9ddd	-0.15294595
176	0x3cd6f833	0.026241397
177	0x400b8a77	2.1803262
178	0xc00de019	-2.2168028
179	0x3f5251b0	0.82155895
180	0x3e2e34f3	0.17012386
181	0x3e1de85a	0.15420666
182	0x3c3cf5ac	0.011533182
183	0x3c1af292	0.009457247
184	0xbd110f3f	-0.03541493
185	0x3d164f03	0.036696445
186	0x3c9e0b81	0.019292595
187	0x3f107ace	0.56437385
188	0x3fe077b9	1.7536536
189	0xbeeac206	-0.45851153
190	0x3d8f068b	0.0698367
191	0xbfa59d08	-1.2938547
192	0x3cdbc096	0.02682523
193	0xbfe8d30f	-1.818941
194	0xbfc021e3	-1.5010341
195	0x3a4c7291	0.0007799054
196	0x3f14c1d5	0.58108264
197	0x402c19d7	2.6890771
198	0xbf87ef47	-1.0619897
199	0x3c4b063e	0.012391625
