log/train_1_1k/models/800_actor.pt (torch_old, 249426 bytes, 6 tensors)

fc1.weight f4 [300, 4]
000000 1a b7 35 3e ce 68 56 bb f3 78 92 bf 18 4e 43 bf
       0.17745629 -0.0032716277 -1.1443161 -0.76291037
000010 2b b0 7a be 1c 86 60 3d 4d 94 a9 3f eb 42 b4 be
       -0.24481265 0.054815397 1.3248383 -0.35207304
000020 97 00 93 bd 85 21 79 3d 31 df a8 bf a9 9d cc be
       -0.07177847 0.060822982 -1.3193113 -0.39964035
000030 28 bf 8b be de 1f d4 bd 25 eb 48 bf 7a ff 15 3f
       -0.27294278 -0.10357641 -0.784838 0.5859295
000040 31 b4 59 be b8 05 8e 3e b7 fd 73 bf ad 32 a0 3e
       -0.21260144 0.27738738 -0.95309013 0.31288663
000050 b6 c4 45 be d3 d9 0b 3e 84 3a 63 3f bc a9 40 3f
       -0.1931332 0.13657312 0.8876116 0.75258994
000060 c6 44 1f be 2d 46 02 bf 9b 48 c2 3e 45 cb 1f bf
       -0.15553579 -0.5088833 0.3794602 -0.6241954
000070 0e b6 cc 3e 2c dd 12 3e 4b d7 b5 3e 97 fa 0d bf
       0.39982647 0.14342183 0.35515818 -0.55460495
000080 86 8d b0 3e d2 03 c1 bc 35 75 87 bf 0d 89 3f 3e
       0.34482974 -0.023561392 -1.0582644 0.18704624
000090 9a 4f d9 bd 23 fb 03 3f 66 2b 8e 3e 11 16 51 3f
       -0.10610886 0.5155508 0.27767485 0.81674296
0000a0 61 8f 76 bd 8c 74 c2 bc 42 0e 7e be 66 d9 ec bd
       -0.06019533 -0.023737215 -0.24810126 -0.11564903
0000b0 21 e1 c1 3e c7 33 82 bd 98 c2 82 3f f7 65 23 3f
       0.37867072 -0.06357532 1.0215635 0.6382746
0000c0 1b f9 c1 be 3c bf 15 be a5 06 e0 3e d5 69 e7 3d
       -0.37885365 -0.14623731 0.4375507 0.11299483
0000d0 5a ce 12 bd af ff 8d be d7 4c 72 3f 80 73 b0 3e
       -0.035841323 -0.27734134 0.946485 0.3446312
0000e0 06 9e bb 3e dd e7 65 3e 85 7e 5b 3e c6 51 4e 3e
       0.36644 0.2245173 0.21434982 0.20148382
0000f0 5f 10 6c 3e 0f db 7e 3c f0 20 97 3f ba b9 74 bf
       0.2305312 0.015555157 1.1806927 -0.95595896
000100 23 8f 12 be ae ce 42 3e 2c f3 14 3f b6 bd 83 3f
       -0.14312415 0.19024155 0.5818355 1.029227
000110 b6 e3 52 3e 65 96 16 3e e5 4e 1a 3f fa 86 4d 3f
       0.20594677 0.14705808 0.60276634 0.8028408
000120 5f ad 5a be 98 9e 88 be 24 6c 62 bf 00 15 3b 3e
       -0.21355198 -0.26683497 -0.8844626 0.1826973
000130 97 b3 81 be 0c 12 02 bf dd ce b9 be a7 6f 11 3f
       -0.2533233 -0.5080879 -0.36290637 0.5681099
000140 40 73 89 3e 51 79 f0 3e ff 53 68 3d 74 18 1b bf
       0.2684574 0.46967557 0.05672073 -0.6058419
000150 e7 cf 93 3e aa fa b4 bc 14 16 cd 3b 75 b9 3a bf
       0.28869554 -0.022092182 0.0062587354 -0.72939235
000160 65 09 dc be e1 f4 9e be 12 65 67 bf 8b 1a cc 3e
       -0.42975917 -0.31046203 -0.90388596 0.39864
000170 31 bc d3 3e bc 36 df be 3b e6 f5 be e0 1a bb 3e
       0.41354516 -0.43596447 -0.48027214 0.36543941
000180 2d 3e 03 3f df a2 98 bd 80 74 79 3f b3 b7 27 bf
       0.5126675 -0.0745294 0.9744339 -0.6551468
000190 fa 10 05 3e 7b 00 06 3d cb 26 8f bf 61 6c 05 bf
       0.12994757 0.032715302 -1.1183714 -0.521185
0001a0 47 3f 69 3e 72 90 f0 3b f1 c1 35 bf 67 b0 f1 3d
       0.22778045 0.007341438 -0.70999056 0.11801224
0001b0 bb 91 69 bd a4 c4 40 3e 40 ee a5 be 7f fa 56 3f
       -0.057023745 0.18825012 -0.32408333 0.83975977
0001c0 2f fe c2 3e 33 3a a3 3e ed 49 9d 3e b3 9d d5 3d
       0.38084552 0.3188034 0.30720463 0.10430469
0001d0 ae 91 a9 be 05 12 a6 be 40 a5 7c bf 29 9e 10 3f
       -0.33118957 -0.32435623 -0.9868965 0.56491333
0001e0 5c 40 89 be 03 50 7c 3e ad 72 9b 3f d0 57 03 3e
       -0.26806915 0.24639897 1.2144371 0.12826467
0001f0 61 b0 77 b8 8a db 8d be aa a3 2f bf 84 67 85 3e
       -5.9053655e-05 -0.27706558 -0.68609107 0.2605554
000200 37 69 86 3e 30 f0 e2 3d 5d 5e d8 be 80 ff 1a bf
       0.26252148 0.110809684 -0.42259493 -0.6054611
000210 6f c5 87 be 2a fa b9 3c 54 e6 01 3f 79 20 17 be
       -0.26517817 0.022702295 0.5074208 -0.14758481
000220 79 3f 0a 3e 28 91 87 3e 34 6c 85 3f c1 e9 eb 3e
       0.13500775 0.26477933 1.0423646 0.46076778
000230 ed db 57 be 07 60 c0 be c2 d3 0b 3f 91 ec 5b be
       -0.21079989 -0.37573263 0.5461999 -0.21476962
000240 45 69 1d 39 a0 5f a5 be 6d fa 52 bd 71 9a ae be
       0.00015011903 -0.3229952 -0.051508356 -0.34102204
000250 43 5e 64 be 85 9d 73 be ef 39 2c 3f cd 87 eb 3e
       -0.22301583 -0.23790558 0.672759 0.46002045
000260 84 11 47 3e c4 8f 66 be 85 1e e3 3d cc 3a 1b 3e
       0.19440275 -0.2251578 0.110898055 0.15159148
000270 a7 70 82 be ae 03 c3 3e d3 75 79 3f 0e a1 69 3e
       -0.25476572 0.38088745 0.9744541 0.22815344
000280 49 f7 03 3d 17 6c d9 3e 48 2b 72 bf 73 0d 0a bf
       0.03221825 0.42465279 -0.9459729 -0.5392677
000290 fb a2 7e be b5 52 ea bc 10 8d d6 bd be 42 29 bb
       -0.2486686 -0.02860389 -0.10476124 -0.0025827135
0002a0 28 0c 52 3d 1a 99 d3 be ef 4e 45 be 86 17 8a be
       0.051281124 -0.41327745 -0.19268392 -0.26971072
0002b0 e0 b0 a3 3e 83 49 d9 be 9e a6 e9 bd d8 39 20 3e
       0.31970882 -0.42438897 -0.11408733 0.15647066
0002c0 b7 f5 e1 3c 5b 61 05 3f 3d 4c 1d bf d8 d7 9e bd
       0.027582986 0.5210168 -0.61444455 -0.07756013
0002d0 8f 96 c2 bd 36 fc ee 3d a4 16 e8 be 2b 4c ce 3f
       -0.09501373 0.11669199 -0.45329773 1.6116995
0002e0 54 5e 79 be 55 83 ee 3e c2 a2 45 3e b3 96 73 3f
       -0.2435239 0.46584573 0.19300368 0.95151824
0002f0 2b 39 45 3e 00 45 f2 be 09 17 58 bf 18 ba 27 bd
       0.19260089 -0.47318268 -0.8441015 -0.040948957
000300 49 1d 6c 3e 3d 76 5d 3c 02 5b 45 bf d2 4b 50 3f
       0.23058046 0.01351696 -0.7709199 0.8136569
000310 58 c0 c5 bd 79 17 82 3e b5 e9 bf 39 bb db ab 3e
       -0.09655827 0.25408533 0.00036604484 0.3356608
000320 78 9b c7 3c ec 8d 01 bf 09 5d 03 3f 15 bf 78 3e
       0.024366125 -0.5060718 0.51313835 0.24291642
000330 05 be 98 bd 0e 87 ad be dc 34 22 be f9 52 2a 3f
       -0.07458118 -0.338921 -0.15840477 0.66532856
000340 cc 2b cc 3d 56 73 1d 3e 69 5a 52 bf e0 2f bc bd
       0.09969291 0.15376028 -0.82169205 -0.09188819
000350 a7 c9 d5 3e e6 6e cd bb a2 05 fb be 75 64 88 be
       0.4175541 -0.0062693236 -0.49027735 -0.26639143
000360 83 50 80 be 05 87 42 be c0 8b 12 be e5 4e d0 be
       -0.25061426 -0.18996818 -0.14311123 -0.40685192
000370 ba e1 3f be 6e ae 6f bd 27 69 5f bf c7 3b 12 be
       -0.18738452 -0.05851596 -0.87269825 -0.14280616
000380 bd 6f ca 3e 2e a7 34 bd 42 23 a6 3f 9f 22 ea 3e
       0.39538375 -0.044104747 1.297951 0.4572954
000390 ca 81 ab 3d f6 6a 7e 3e 62 7e ea be 28 d5 bd 3e
       0.08374365 0.2484549 -0.45799547 0.37076688
0003a0 6c ef 4a 3e c1 6b f9 3e 6e ff 31 bf 02 8b a3 bb
       0.19817895 0.48715022 -0.6953038 -0.0049909363
0003b0 cf f1 a8 3e 5f dc 66 3e ea 94 a6 3e 3b 76 9c be
       0.32996985 0.22545002 0.32535487 -0.30558953
0003c0 64 73 0b 3d ba d3 f4 be 46 7b 6c 3c 34 c3 86 bd
       0.034045592 -0.47817785 0.014433688 -0.06580201
0003d0 15 41 9e 3d 7f 70 25 3e b3 4c 7e be 21 53 6a bf
       0.07727257 0.16156195 -0.24833946 -0.91533095
0003e0 41 88 22 be ef 84 c2 be d6 c0 a8 be 53 fc 78 3e
       -0.15872289 -0.37992045 -0.32959622 0.24315004
0003f0 f9 08 57 be f6 ab 0d bc aa 19 a0 3f fd e4 5b bf
       -0.20999517 -0.008646956 1.2507832 -0.85896283

fc1.bias f4 [300]
000000 b0 3f db 3e ad 83 84 bf 42 64 ad 3e 4c 28 ba be
       0.42822027 -1.0352684 0.33865553 -0.3635887
000010 16 b6 1d be 4a ef 3b be fd ec ee bc fc 35 bf be
       -0.15401492 -0.18353 -0.02916574 -0.37345874
000020 95 27 9e bd 3b 91 3d bf 39 65 af 3f c5 9c 92 bf
       -0.077223934 -0.7404973 1.3702766 -1.1454092
000030 ee f9 6b bf 3d 4a 14 3f 83 15 02 bf 7c e8 67 3f
       -0.9217824 0.5792578 -0.50814074 0.9058912
000040 33 be c9 bf 18 ea 96 3e 7b 11 64 3b 28 e6 65 bf
       -1.5761169 0.29475474 0.0034800458 -0.89804316
000050 1e 6b b5 be 61 9c e0 3e 3b ba e8 bd 79 3d a9 3d
       -0.35433286 0.43869308 -0.11363646 0.08263678
000060 77 68 74 be ac 9e b1 3e b1 2d 47 3f 04 d6 44 bf
       -0.23867975 0.3469137 0.77804095 -0.7688906
000070 d4 32 8b bf 5c 87 3a bf 53 fb 06 3f 91 4f 26 3f
       -1.0874887 -0.7286279 0.5272724 0.6496516
000080 fb 88 89 be bd 06 ae bf e3 09 27 3f a8 7e 3a 3f
       -0.2686232 -1.3595806 0.6524946 0.7284951
000090 21 a8 10 bf 55 41 5e 3f 96 fa b8 3e 73 49 d7 bd
       -0.56506544 0.8681844 0.36128682 -0.10512056
0000a0 a8 71 a7 3e 58 45 37 bf bc 99 f9 3e 2c 4d 67 bf
       0.327039 -0.71590185 0.48750103 -0.9035213
0000b0 69 a1 02 3f e9 0a 38 bf 8e ab 48 3e 21 e1 82 bc
       0.5102754 -0.7189165 0.19596693 -0.01597649
0000c0 f4 f9 c6 be 61 04 89 bf 05 6e eb 3e da 38 78 bf
       -0.38862574 -1.0704461 0.45982376 -0.9696175
0000d0 5c a6 57 bf 16 a4 ce 3e 7a 6f 61 3f 90 18 4e 3f
       -0.8423822 0.40359563 0.88060725 0.8050623
0000e0 ac ac 22 3f 71 bd a9 bf 87 9d 15 bf 75 8c 5e bf
       0.63544726 -1.3260938 -0.5844349 -0.8693307
0000f0 d0 f0 9a 3e e7 d1 9c 3e 67 01 48 be 20 b0 25 bf
       0.3026185 0.30628893 -0.19531785 -0.6472187
000100 4c 52 1c bf e4 d9 92 be 21 1b 3c 3e df 62 3f bf
       -0.61063075 -0.28681862 0.18369724 -0.7476024
000110 b5 af 25 3f 01 51 db be a2 e0 30 bf 60 c4 f1 be
       0.6472123 -0.4283524 -0.6909276 -0.47220135
000120 7c 7e bd 3e a3 d5 9d bf 82 cd f0 3e e9 3e 6d bf
       0.37010562 -1.2330822 0.4703179 -0.9267412
000130 f3 36 08 3e 57 5f 48 3f 26 ec 24 bf 1c 0f 61 bf
       0.13302211 0.7827048 -0.64422834 -0.8791368
000140 a6 ab a7 3f b5 75 a1 bf 62 68 7a 3e b1 d1 20 3d
       1.3099258 -1.2614046 0.24453881 0.039262477
000150 c9 7c ab 3d 3c 99 7f bd 14 49 a1 bf f6 0c 4d 3e
       0.0837341 -0.062401995 -1.2600427 0.20024475
000160 b9 8b c2 bc 33 9e 25 3f 19 f3 ca be a7 35 3f bf
       -0.023748266 0.6469452 -0.39638594 -0.7469124
000170 eb 1f 73 3f c8 7a 57 3f 79 56 57 3f 26 fc a2 be
       0.9497058 0.84171724 0.8411632 -0.31833
000180 8d 0d 78 bd 10 38 13 3f 6a 24 c0 be 93 84 32 bf
       -0.060559798 0.5750742 -0.37527782 -0.6973354
000190 e6 0a 29 3f 15 ff 62 3f fe d6 b4 3e 0c c4 19 3f
       0.66032255 0.88670474 0.35320276 0.6006477
0001a0 14 64 a3 3e b3 10 91 be 97 de 4d be 9b 88 70 bf
       0.3191229 -0.28333053 -0.20104443 -0.93958443
0001b0 8e 2e b6 3d 52 bb 00 bf 96 16 4c bd ba db 93 be
       0.08895598 -0.5028583 -0.049826227 -0.28878576
0001c0 65 d8 5f 3f f8 53 64 bf dd 02 86 bd 75 44 aa bf
       0.87439567 -0.89190626 -0.06543515 -1.3302141
0001d0 df 76 8f 3f 84 93 fc be d3 50 5d bf d3 88 90 bf
       1.1208152 -0.49331295 -0.8645145 -1.1291755
0001e0 34 d1 fc 3e c7 57 89 3f 11 cd 93 3e 70 62 26 bf
       0.4937836 1.0729913 0.2886739 -0.64993954
0001f0 b6 ed 2d bd bd 42 0e bf c1 c0 6a 3e ff af 1d 3d
       -0.042463027 -0.55570585 0.22925092 0.03849792
000200 33 ef a3 3f c3 cd 12 3f 33 f8 9d be a0 14 36 bf
       1.2807373 0.5734522 -0.30853423 -0.7112522
000210 34 72 2c 3f 9f f9 05 3f 44 a7 47 bf 96 2f 8e bf
       0.6736176 0.52334017 -0.779896 -1.1108272
000220 f6 e7 00 bf e6 7b 2c bf 40 ae a9 3f 60 d7 3a 3f
       -0.50353944 -0.67376554 1.3256302 0.72984886
000230 09 13 3c bf f2 18 a7 bf c1 db 62 bf 7a d6 1a 3e
       -0.73466545 -1.3054488 -0.8861657 0.15120879
000240 d2 d2 10 bf 81 38 79 3f c4 d3 3b 3f 8a bd 95 3f
       -0.56571686 0.97351843 0.73370004 1.1698468
000250 83 03 34 3f b4 3a e4 3e 73 29 41 bf 8f 82 ac 3e
       0.7031786 0.44576037 -0.7545387 0.33693358
000260 eb 7b 6e 3f 07 b7 b6 3e a0 8b 22 bf 7d 5f fb be
       0.93157834 0.35686514 -0.634943 -0.4909629
000270 a5 ba cf be 6c ff 46 3f 77 cd 6b 3f 2d 63 bf 3e
       -0.40572086 0.7773349 0.9211039 0.37380353
000280 ce f7 91 3e 78 98 ea 3e 9b 34 0b 3f 1f 5d f7 bd
       0.28509372 0.4581945 0.54377145 -0.12078308
000290 73 39 5a be 12 17 c2 3e 6c c8 70 3c 2b 2b 61 3f
       -0.21310978 0.37908226 0.014696222 0.87956494
0002a0 0e 1b 2e bd 1c 59 01 3f ce 4b 9f 3f 70 3f ff 3d
       -0.04250627 0.50526595 1.2445009 0.124632716
0002b0 2c 5c 0e 3f 2c 84 c0 be f9 11 16 bf dd 91 32 3d
       0.55609393 -0.3760084 -0.58621174 0.043596137
0002c0 5a 4b 43 3f fc 1b 3a 3f ed 26 05 3f bf a9 76 bf
       0.7628685 0.7269895 0.5201252 -0.9635276
0002d0 51 8c 66 bf 6c 15 2d bf c3 10 45 3f 26 be 21 3f
       -0.90057856 -0.6761081 0.769787 0.6318077
0002e0 b4 8f 44 3f fd d8 ae 3d 18 e2 1c bf 1f 03 83 3f
       0.76781774 0.08537481 -0.6128249 1.0235327
0002f0 1e 61 8e be ab ad a1 3e 49 d5 ce be 90 5d 8f bf
       -0.2780847 0.3157781 -0.403971 -1.1200428
000300 6e f3 88 bf 91 f9 bb 3f 06 aa 05 bf 48 4e 6b bf
       -1.0699289 1.4685537 -0.5221256 -0.9191632
000310 00 8a 26 bf 04 3e b7 be b4 51 e9 3d 68 ad 12 be
       -0.6505432 -0.35789502 0.11392537 -0.14323962
000320 6d 5d b7 3e 13 61 b1 3f 8d cf 8c bf c7 e3 d1 3d
       0.35813466 1.385775 -1.100084 0.10248523
000330 db c6 75 3f ae 21 df 3e 51 87 b1 be fa 67 83 3f
       0.96006554 0.43580383 -0.3467355 1.0266106
000340 c0 05 28 bf 10 b6 23 bf 55 9b a2 be 78 7d 8b bf
       -0.65633774 -0.6394968 -0.31759134 -1.0897665
000350 cf 2f 8b bf 9b 13 0c bf 76 ea 3c be f2 df 73 3e
       -1.0873965 -0.54717416 -0.18448815 0.23815897
000360 5d 16 51 3f 84 34 fc be d6 f7 2b 3f 93 93 72 be
       0.8167475 -0.49258816 0.6717504 -0.23689108
000370 29 19 17 3f 52 4e e6 be 26 35 5b 3f 60 9b 37 bf
       0.59022766 -0.4498163 0.85627973 -0.7172146
000380 54 a3 48 3e ed 66 1a bf 04 da d3 be b0 c2 a0 3e
       0.19593555 -0.603133 -0.4137727 0.31398535
000390 68 af 62 bf 0d 00 3d 3f c5 dd e7 be f3 fa 03 bd
       -0.885489 0.738282 -0.45286384 -0.032221746
0003a0 f0 fa d0 be d1 08 87 bf e5 18 80 bf 05 41 52 3f
       -0.4081645 -1.0549566 -1.0007597 0.8213046
0003b0 29 92 af be 50 07 75 bf 98 67 08 be 60 21 82 bf
       -0.342912 -0.95714283 -0.13320768 -1.0166435
0003c0 ac 79 f5 3e ed 4a 94 bf 9f 4f a4 3e 83 46 8a bf
       0.4794439 -1.1585366 0.32091996 -1.0802768
0003d0 1f 29 1f bf 28 69 a0 3c 78 bb 10 bf f1 87 7a bf
       -0.6217212 0.019581392 -0.56536055 -0.9786368
0003e0 3a d3 df b9 01 cf 47 3f 55 e9 79 bf 17 94 e7 3e
       -0.0004269125 0.7805024 -0.9762166 0.4523017
0003f0 03 f4 32 3d 94 e5 20 3e c6 1d 59 3f 14 60 20 3f
       0.04368974 0.15712577 0.84811056 0.62646604

fc2.weight f4 [200, 300]
000000 49 48 67 3b 0e 42 68 3c 07 ac 70 be d0 6e 18 3c
       0.0035290888 0.014175905 -0.23503123 0.0093037635
000010 50 c2 02 bb ec e8 34 bd a7 52 84 3d 2c d5 56 3d
       -0.0019952245 -0.044167444 0.06461077 0.05244939
000020 84 3d 8e bb 9f cf 91 bd a4 0f 47 3e 86 d3 04 3c
       -0.0043408293 -0.07119679 0.1943956 0.008107072
000030 c5 94 62 3d 57 34 a4 bc 58 62 c3 3b 25 0b f9 3d
       0.05531766 -0.020044489 0.005962651 0.12160329
000040 3e 7e 9a be 79 06 85 3b de e4 21 bd 36 c7 b7 3b
       -0.3017444 0.0040596095 -0.039524905 0.0056084646
000050 52 d4 7b 3c b7 2e 19 3d 1a d3 e3 3b e8 4e 78 3d
       0.015370445 0.037398066 0.0069526555 0.060622126
000060 38 51 74 3d 60 36 c2 bd 99 ca 93 bd d0 e0 a1 be
       0.05964777 -0.094830275 -0.07216377 -0.3161683
000070 25 82 57 3d 14 00 7f bd d8 4b 28 3e 67 e2 8b bd
       0.05261435 -0.062255934 0.16435182 -0.06830292
000080 7f 41 f2 3a 35 13 91 3d 34 40 aa 3d 98 5d 20 3d
       0.0018482654 0.070837416 0.08313027 0.039151758
000090 0d be 68 3b a7 ac 09 3d d2 ab 27 bd 30 c5 86 3d
       0.003551367 0.03361192 -0.040935345 0.06580579
0000a0 ab 11 51 3d 7e 68 a1 3d 71 a7 d6 3a 80 a5 16 3b
       0.05104224 0.078812584 0.0016376806 0.002298683
0000b0 10 15 67 3d 26 50 da be 57 fa 30 3d da e0 54 3d
       0.05641657 -0.42639273 0.043207493 0.051972248
0000c0 d4 c7 0a 3c 2a cf ad be 4d c6 24 bd 33 6b 0f bd
       0.008470494 -0.33947116 -0.040228177 -0.035014343
0000d0 75 68 9f 3b ff 66 12 bd df e9 c4 3c 52 06 28 bd
       0.004864747 -0.035742756 0.0240373 -0.041021653
0000e0 82 5f 8e 3d 8b 9c e4 3c eb 95 c7 3d f5 f6 86 3d
       0.069518104 0.027906677 0.097453915 0.06590072
0000f0 e1 7d 93 3d 82 51 49 bd fc a8 e5 3b c8 4b c6 3c
       0.07201744 -0.049149998 0.00700867 0.024206057
000100 b0 ab 62 3d f8 a1 0f 3d 01 c5 88 bd e2 d1 19 bd
       0.055339515 0.035066575 -0.066782005 -0.037553675
000110 21 dc 69 3d 74 86 fc bc 1e c2 ea bb fc 7d 39 3d
       0.057094697 -0.030825831 -0.007164254 0.045286164
000120 37 77 a6 bd 1d cb b6 be e3 bc ba 3c 6e 5f 01 bd
       -0.08128207 -0.35701838 0.022795146 -0.03158515
000130 23 da e5 3c d5 b0 15 3e 54 dd bb 3d 8e 69 bd bc
       0.028058117 0.14618237 0.09173074 -0.023121621
000140 f3 0c df bd 8e f6 e5 be 42 ec a2 bb 0f 2d f5 bd
       -0.10891142 -0.4491467 -0.004972012 -0.11971485
000150 6a 87 3c bb 6a d8 87 bb 93 dc 36 3e e9 ce 23 3d
       -0.0028767237 -0.0041456716 0.1785758 0.039992247
000160 ad cb 7a 3d 7f e4 37 bd 7f 41 9b bd 05 dc 06 bb
       0.061229397 -0.044895645 -0.07580852 -0.002057792
000170 9f 00 f3 3a b0 ce a4 3d 97 61 3f 3d b3 b6 c6 bb
       0.0018539614 0.08047235 0.04672393 -0.00606426
000180 78 16 76 bd 2d e1 61 3d 74 67 00 bd 38 49 35 bd
       -0.06008002 0.055146385 -0.03134866 -0.04425928
000190 d2 26 b8 bd f4 48 c1 bb 3c 64 2e 3c ef 0c c1 3c
       -0.089917794 -0.0058985893 0.010644015 0.023565738
0001a0 25 f4 0c bd a8 db 32 be 40 9f 06 bd 73 dd bd be
       -0.034412522 -0.17466605 -0.032866716 -0.37083015
0001b0 d8 c8 d9 bd 67 f2 1b 3d 6e 37 3d bc 17 89 6d be
       -0.10634011 0.03807297 -0.01154886 -0.23196827
0001c0 34 2b 02 3d b0 a9 0a 3d d6 73 ad bd 70 8c 8c bd
       0.031779483 0.033853233 -0.084693596 -0.06862724
0001d0 f5 3f 0a bd 20 b4 1f 3b ca a8 eb bc ba 80 56 3e
       -0.0337524 0.0024368837 -0.028767008 0.20947543
0001e0 62 d6 17 3c 5e f8 6b 3c 6e ba 1c bd a3 13 01 3c
       0.009267421 0.014402477 -0.03826373 0.007878217
0001f0 86 00 33 3c 79 67 ca bd 3a 8e 38 bd 02 6b 6d bd
       0.010925418 -0.09883017 -0.045057513 -0.05796338
000200 89 86 a4 3d 56 a4 a8 bd 6c 3b 79 ba 34 86 96 bc
       0.08033473 -0.082344696 -0.0009507451 -0.01837454
000210 84 8e d0 bd ec a1 82 bd d7 cf 8d 3e 00 80 8c 3c
       -0.10183433 -0.063785404 0.27697632 0.017150879
000220 20 ea 77 3d e6 73 f9 3d 8e b0 8e 3d 29 34 13 3e
       0.060526013 0.12180309 0.06967269 0.14375366
000230 0e 4b 1e 3d 1f fa 83 be a0 0b dc be cc 4e cb bc
       0.038645796 -0.25776765 -0.4297762 -0.024817847
000240 f5 44 c3 3d f4 7f 49 bc a9 6c 18 bd 6f d4 d2 bc
       0.09534637 -0.012298573 -0.037213 -0.025736062
000250 55 7a 7a bc 31 6c 5b 3d b9 6d 25 bd 3d 7f a4 3c
       -0.015287955 0.053569976 -0.040387843 0.020080203
000260 57 2a 3e bd 13 f5 de bc 61 d5 0f bd 90 f4 97 3c
       -0.046427097 -0.02721647 -0.035115603 0.018549234
000270 c6 69 92 3d bd d2 20 3c 85 77 90 bc 81 1d 40 bc
       0.07149081 0.009815869 -0.017635116 -0.011725784
000280 ed 8c 8d 3e 16 80 9a 3d 44 e5 64 bb f2 19 aa bc
       0.2764658 0.07543962 -0.0034926692 -0.020764325
000290 a0 db 31 3d 05 9a 36 bd 96 e5 4f bc 3b a6 4a bb
       0.04342234 -0.04458048 -0.012689015 -0.0030921835
0002a0 e3 bf 6e be 7d 39 9e 3d 3b ba 9e bc d9 4f 91 bb
       -0.23315386 0.07725809 -0.019375911 -0.0044345674
0002b0 f6 36 36 3d 3c b8 2f 3d 50 f1 86 be 44 af 6f bd
       0.04448601 0.04290031 -0.26355982 -0.058516756
0002c0 5c ad cf 3d ce 5d 4c 3e f6 9b 69 3b 42 7e 7f bd
       0.101404876 0.19957659 0.0035645938 -0.06237627
0002d0 33 5c 22 3d d6 1c 00 bd 5f 3e c4 bc 66 40 b7 3b
       0.03963871 -0.0312775 -0.023955522 0.0055923937
0002e0 6e e9 1f bd 6a a6 eb 3a 9c 29 b1 3c e4 63 d9 bd
       -0.039040975 0.0017978672 0.021626286 -0.10614756
0002f0 e1 06 26 3d 87 cf 98 3d ad ae 3b bc 26 2f d5 bb
       0.040533904 0.07461458 -0.01145522 -0.0065058647
000300 0c 37 43 bd 55 b0 b1 bc df 8d fa bc 38 8e b5 3c
       -0.04765992 -0.021690527 -0.030585228 0.022162542
000310 51 f8 17 3d 5b 21 a5 3b cc bc 74 3d 52 95 13 bc
       0.037102047 0.0050393767 0.059750363 -0.009007769
000320 6b 83 89 bb f3 68 35 3e 25 49 21 bd 84 b5 cf 3a
       -0.0041965744 0.17715816 -0.039376397 0.0015846943
000330 fa 63 0f 3d e3 d6 89 bd 94 40 5e bd 63 10 80 bd
       0.035007454 -0.067304395 -0.054260805 -0.062531255
000340 43 cb 31 3d 20 8c ae be 78 78 8e bb c5 94 7d 3e
       0.043406736 -0.34091282 -0.004347857 0.24763782
000350 95 f1 2b bd 95 06 52 be 39 d6 95 bc fc d9 62 3c
       -0.041978437 -0.20510323 -0.018290626 0.013845917
000360 1a 5d 31 bd 13 42 1b bd 4b 4b 51 3d eb a1 17 be
       -0.04330168 -0.03790481 0.051097196 -0.1480786
000370 89 7c c4 bc d3 d7 35 bd 82 76 20 3d 2b 63 3b bd
       -0.023985164 -0.04439528 0.039175518 -0.04574887
000380 c7 3f 0c 3e b2 ff 25 bd 10 d8 f9 3d e6 11 60 3d
       0.13696204 -0.040527053 0.12199414 0.05470457
000390 67 7a 83 bd 2c 17 83 3d eb 9c 6e bd 1a f8 9d bd
       -0.06419831 0.06400904 -0.058255117 -0.07713337
0003a0 ff d8 d7 bc da 78 14 bd 40 fe 07 bf 95 e0 ac 3b
       -0.026348589 -0.036248066 -0.5312233 0.0052757957
0003b0 cd 09 d5 bc a7 1b 80 3c 10 0e 66 3d ef 3e 70 3a
       -0.02600565 0.015638186 0.056165755 0.0009164651
0003c0 e5 c7 f3 bb ec 01 4f 3c 3f aa 50 3d 97 16 bc ba
       -0.007439601 0.012634736 0.05094361 -0.0014349994
0003d0 af 79 f3 be 17 fc 10 3d aa 58 e7 bd 46 2e 86 bd
       -0.47553775 0.03539666 -0.11296208 -0.06551795
0003e0 ae a2 04 bc 6d b7 08 3e 3c c3 34 be b6 7e 1a bc
       -0.0080954265 0.13351221 -0.17652601 -0.009429624
0003f0 9f 23 66 3d 19 3c 5f 3d 2a d9 fc 3c 46 9e 39 3d
       0.056186315 0.054500673 0.03086527 0.045316957

fc2.bias f4 [200]
000000 a4 5a d1 3d 7b 4c 0c bd d0 71 fe bd c8 f1 a1 3d
       0.102223665 -0.034252625 -0.12424052 0.07907444
000010 5c e3 ec 3c 74 6c 05 3f ff cf f9 bd ff 7d 07 3d
       0.028917007 0.5211861 -0.12197875 0.033079144
000020 5e 6c 89 3e 16 44 2b 3e 32 e0 15 3f ed d4 8e bd
       0.2684049 0.16725191 0.5854522 -0.06974206
000030 33 7c 6e bd ee b1 c4 bc 5e c0 79 3d 46 65 96 3d
       -0.058223914 -0.024010625 0.06097447 0.07343535
000040 7d 69 47 3c db 25 17 3d 17 31 37 3b c7 83 24 bd
       0.012171146 0.036901336 0.0027952844 -0.040164735
000050 00 12 ce 38 93 b6 eb 3b 5c 43 69 3e d1 01 01 bd
       9.826198e-05 0.0071933954 0.22779602 -0.031495873
000060 2d 68 6d bd 42 1a cf 3e 15 eb 09 be ce b1 5d 3a
       -0.057960678 0.4044972 -0.13468583 0.0008456976
000070 e7 3e 3f 3e 15 46 82 3e 6d 51 bd 3b c0 d2 58 3e
       0.18676339 0.25444093 0.005777529 0.21174145
000080 cd 9e d1 ba 08 4a 50 3e f8 a2 88 bd 9b 8b eb be
       -0.0015992761 0.2034074 -0.06671709 -0.46004948
000090 9f 8f 5c 3c 06 45 dd 3c a0 b7 ab 3e 9b e8 cb 3e
       0.013461976 0.027010452 0.33538532 0.398259
0000a0 9a 1e a1 3e 45 89 c7 3e df 63 b7 bc 6f a2 d3 bc
       0.3146866 0.38971916 -0.02238649 -0.02583429
0000b0 f6 e1 aa bc 57 ef 06 3e 04 2f 45 be 40 5a 80 3e
       -0.0208597 0.13177238 -0.19256216 0.25068855
0000c0 1b a1 32 3d 65 4a 87 3e 54 b1 03 bd 3d 52 c6 3e
       0.043610673 0.26423946 -0.032151535 0.38734618
0000d0 eb 8d 53 bc 6a dc bb 3d 03 4f ca 3d fb a1 60 3e
       -0.012912254 0.091729 0.098783515 0.2193679
0000e0 74 e3 96 3c 64 ab a0 bc f9 d3 cf 3e 70 f4 93 3e
       0.018419005 -0.019612975 0.4059141 0.2889743
0000f0 c0 27 7b 3c c2 d6 56 bd 68 c5 d6 3e 9c 11 0e bc
       0.015329301 -0.052450903 0.41947484 -0.008671191
000100 a6 89 60 3d 8a 01 03 3f 69 42 80 bc 4a 61 ba 3d
       0.05481877 0.51174223 -0.015656667 0.09100588
000110 11 44 9c 3e d6 fb 48 3d 83 65 e8 3e 50 a2 9b bc
       0.3052068 0.049068294 0.45389947 -0.018998295
000120 8a b8 32 3d 65 47 9f 3e 3e c9 20 3e 5a a8 39 3e
       0.04363302 0.31109157 0.15701768 0.18130627
000130 7a 43 ea bb 8e 31 10 be 54 07 a0 bc 1a 76 19 3e
       -0.007149157 -0.14081404 -0.019534744 0.14986458
000140 f8 1f d0 be 33 2d 7e 3c 56 f8 9e 3e cd a3 d9 3e
       -0.4064939 0.015513706 0.3104884 0.42507783
000150 0a 2d 39 3e a5 25 35 bd 2c fa 0d bb 80 27 92 bd
       0.18083587 -0.044225354 -0.0021664007 -0.0713644
000160 59 ea 72 3e 06 77 48 3c e0 18 12 3d bf 38 b2 3e
       0.23722209 0.012235409 0.035668254 0.3480892
000170 00 3a 2f bd 6f 12 08 bd 60 3e 41 3e fc 91 59 ba
       -0.042779922 -0.033220705 0.1887145 -0.00082996464
000180 2c 48 87 3e ea 4d 1e be df 29 08 bd 33 b5 71 3e
       0.2642225 -0.1545941 -0.033243056 0.23604278
000190 58 e0 9c 3e b0 81 25 3d 2d a0 c7 3b c4 8a 9f 3d
       0.3063991 0.040406883 0.0060920925 0.07790139
0001a0 d4 5d 63 bc 8a 09 d7 3c 8b 7c ab be ee 64 1a 3d
       -0.013877351 0.026249666 -0.33493456 0.03769391
0001b0 86 4c 80 3e 7d cb 1d bd dd 04 7c bd c9 35 22 3d
       0.25058383 -0.03852414 -0.061528075 0.039602075
0001c0 a7 54 53 be 9b 01 1f ba 75 ff e4 3d 83 c3 ba 3e
       -0.20637761 -0.0006065608 0.11181537 0.3647729
0001d0 41 9c 80 3c ee 1e be 3e 83 5b bb bc 28 52 b8 bc
       0.015699508 0.37132972 -0.022870785 -0.022500113
0001e0 18 81 54 bd e1 f9 07 3e 5c ba b3 3b b7 40 37 bd
       -0.051880926 0.13278915 0.0054848623 -0.04473945
0001f0 7f 4c 53 bd 02 e5 60 bb 32 44 f3 bc d5 05 4b 3d
       -0.051586624 -0.0034316187 -0.029695604 0.04956611
000200 f4 ca 02 3f b3 a3 d8 3c 8a 36 3a bd 75 22 3e 3d
       0.5109093 0.026445245 -0.04546217 0.04641958
000210 44 b3 bc be e0 86 f1 3c d4 36 7f 3c 6a bf 2d 3e
       -0.3685552 0.029483259 0.015577037 0.1696755
000220 69 60 42 bd 94 e4 92 3c ef 9b 2d bd 7f 57 ca bd
       -0.047455225 0.01793126 -0.042385038 -0.0987997
000230 d9 af 8c 3e 10 c4 2f 3e b4 0d 0e bd 80 8c 46 bd
       0.2747791 0.17164636 -0.034681037 -0.048473835
000240 74 ab 3c bc e4 26 72 3e 38 97 fa bb 4d 28 8c 3d
       -0.011515487 0.23647648 -0.007647421 0.06843624
000250 4a cf 77 3d 6b 05 d0 3d 24 cc d7 be 22 e2 58 3e
       0.06050042 0.101572834 -0.42147934 0.21180013
000260 53 41 cf bc f5 c2 a2 3c c8 83 c1 3d 18 f0 cc 3e
       -0.025299704 0.019868353 0.094489634 0.40026927
000270 29 26 a1 bd c8 bb 81 3e 18 81 54 b9 57 cb fa be
       -0.078686066 0.25338578 -0.00020265987 -0.4898326
000280 ec 1f 64 3e 57 88 19 bc c2 0e 6a 3e 81 c8 26 3e
       0.22277802 -0.009370885 0.22857192 0.16287424
000290 03 c8 93 3e 42 7f 8c 3c 87 59 2d bd ca 9a e0 bb
       0.28863534 0.017150525 -0.042321708 -0.00685439
0002a0 ed 57 8e 3c a7 96 b7 3c f3 b5 0c 3d 0e 23 4e 3c
       0.01737591 0.022410704 0.034353208 0.0125816
0002b0 75 f9 04 3d b3 4d bc bc b5 9d bc 3e 67 23 70 bb
       0.032464463 -0.022986269 0.3683907 -0.0036642195
0002c0 80 a5 92 bd 5d 64 3b 3f fd d4 2a 3d d2 50 a2 3e
       -0.07160473 0.7320002 0.041707028 0.31702286
0002d0 ba 12 9f 3e e8 38 75 3e 77 2c ae bc 00 93 0e 3e
       0.31068975 0.2394749 -0.021261437 0.13923264
0002e0 dc 5b 9b 3e da 88 ce 3e a0 43 b0 3c c6 d4 02 3e
       0.3034352 0.40338784 0.021516621 0.12776479
0002f0 23 9a 70 bd d1 14 4c be 75 e6 93 be 84 17 e3 bd
       -0.058740746 -0.19929816 -0.28886762 -0.110884696
000300 4c 66 50 bd b8 b7 9d 3e 0e da 3e 3c 43 e0 1f 3c
       -0.050878808 0.3080423 0.011648668 0.009758058
000310 a5 cb ee 3b fd 89 c2 3d c3 7f 91 be 70 51 af 3b
       0.00728746 0.094989754 -0.28417787 0.0053502843

fc3.weight f4 [2, 200]
000000 36 15 01 3d 7d 2b ee 39 39 56 df be 6b 19 0d 3d
       0.03151437 0.000454273 -0.4362047 0.03444807
000010 12 bc c3 3c 51 0e e9 3e 45 ea 8f ba 59 15 01 3d
       0.02389339 0.45518735 -0.0010979852 0.0315145
000020 d7 8d a7 bf fc 00 05 3d 88 77 16 bf 45 7e 85 bd
       -1.3090161 0.032471642 -0.5877614 -0.065182246
000030 02 9f 52 bd 1b 79 cb 3d e4 ff 0e 3e f2 4f 2e 3d
       -0.051421173 0.099352084 0.13964802 0.04255671
000040 73 68 6b 3c 41 04 61 3d 2e df ee bb f1 fb 39 3d
       0.014368164 0.054935697 -0.0072897887 0.045406286
000050 a8 5b 5b bd 35 af f6 bc 3d a5 00 3d c9 f4 a6 3d
       -0.053554207 -0.030112842 0.031407584 0.08152158
000060 ee 24 2c 3d 60 fd cb 3e 9a be 10 be eb 11 9d be
       0.042027406 0.39841747 -0.14135209 -0.30677733
000070 6e b8 0e be 4c 3e a2 3d 34 7f a9 3d 59 f5 b8 be
       -0.13937542 0.079220384 0.08276215 -0.36124685
000080 9f 62 79 bd 2c fb ad 3e 6f 6a 79 bb 48 68 de bd
       -0.060885068 0.3398069 -0.0038057824 -0.10859734
000090 3b bb 82 bd 27 b8 35 bd 9e b4 64 be 59 7d 07 bf
       -0.06383368 -0.044365074 -0.22334525 -0.5292564
0000a0 d4 28 65 bd aa a0 3b 3e c7 83 24 3d 41 19 81 3d
       -0.05594714 0.18323007 0.040164735 0.06303645
0000b0 f4 94 8f bd 48 63 1d 3e 8c f2 e3 bd a0 ab 66 bd
       -0.070108324 0.15369904 -0.111302465 -0.056316018
0000c0 b2 cb c3 3b 55 f9 58 3e 10 e4 2e 3d 14 9b e5 3d
       0.00597521 0.21188863 0.042697966 0.112112194
0000d0 3c f7 13 be ed 40 19 be cb a3 5a be 02 69 b1 3d
       -0.14449781 -0.14966173 -0.21351545 0.08662607
0000e0 f3 1c 1f bd 4a 6b 01 3d 2e 6c 51 3e b0 c7 da be
       -0.038845968 0.03159646 0.20451424 -0.42730474
0000f0 2b 94 82 bc 77 32 2d bd 7b 51 0d 3e cb 94 e1 3c
       -0.015939793 -0.042284455 0.13800614 0.02753677
000100 cc fc 0b be 9f cc 2e bf d2 72 83 3c c3 54 83 be
       -0.13670653 -0.68280977 0.016045962 -0.25650606
000110 b7 af c8 3d 56 9f 86 3a 1b d9 85 3e c6 28 90 bd
       0.0979914 0.0010270874 0.261422 -0.07039027
000120 e1 7a 73 3d 37 fe a7 be 05 04 ac 3c e6 78 af bd
       0.05944336 -0.32811138 0.02099801 -0.085679814
000130 9f 62 79 3d 27 2d f6 bd 52 bd 81 3d 11 95 bd bd
       0.060885068 -0.12020331 0.06334938 -0.09256948
000140 fb 50 3d bd 82 7f fc bd 0f d1 95 3d b2 7d d2 3c
       -0.046219807 -0.12329008 0.073152654 0.025694702
000150 1d f1 be 3d 2d 05 05 3d a9 34 1d 3d 19 36 ea bd
       0.093233325 0.03247564 0.0383803 -0.114360996
000160 20 b5 92 bf fc 4c 33 bc bb 33 b2 ba 79 d8 84 be
       -1.1461525 -0.0109436475 -0.0013595739 -0.25946406
000170 d5 84 c7 3b de 6f 35 3d 4b 81 00 3e 2d d8 a1 3c
       0.006088833 0.044296138 0.12549321 0.019756401
000180 4d 79 a4 3e e5 d2 2b be 59 33 c3 b9 e8 f5 eb 3d
       0.32123795 -0.16779669 -0.00037231555 0.11521512
000190 7a 00 9d be e0 ae 43 3c d4 36 7f 3d 76 57 78 3c
       -0.30664426 0.011943549 0.062308148 0.015157571
0001a0 41 a9 4c 3d 9b 57 3b bd ab 3c 8a bc e2 7f 87 bc
       0.0499661 -0.045737844 -0.016874632 -0.016540471
0001b0 6c 48 28 bf 5f a3 9a 3d a0 48 9b bd d6 fd b2 bd
       -0.65735507 0.07550692 -0.075822115 -0.087398216
0001c0 42 44 d8 bd 78 e3 dd bc f8 0f a5 3d 05 50 07 bf
       -0.10559894 -0.027086005 0.080596864 -0.52856475
0001d0 aa 4a 8b bb f1 85 3e 3d 3a a5 14 bd 06 59 06 bc
       -0.004250844 0.046514455 -0.036290385 -0.008199936
0001e0 13 49 33 3d 04 ab f6 3c 39 73 b9 bc 81 34 57 3d
       0.04377086 0.030110843 -0.02263795 0.052540306
0001f0 bb bd 7e 3d 48 eb 5d 3c b5 6e 21 bd 00 fe 5c be
       0.06219266 0.013544865 -0.03941222 -0.21581268
000200 64 97 73 be 74 0c 50 bc 8a 1a 4d 3d 7e c2 06 bd
       -0.2378822 -0.012698282 0.050074138 -0.032900326
000210 4e bb e5 be 7b 64 4f bd 43 8a 03 3d c3 56 bb bd
       -0.44869465 -0.050632935 0.03211428 -0.09147408
000220 59 0f 82 3d 70 35 42 bd f4 e9 3c 3d f8 6b fc bd
       0.063505836 -0.047414243 0.046121553 -0.12325281
000230 9f 6a 84 bb ba 88 c4 3c 7f 73 37 bd 97 e1 55 bd
       -0.0040410305 0.023990978 -0.04478788 -0.052217092
000240 d3 e4 0c 3c 6d ef 99 be 89 0d 01 3d d5 a3 f3 3c
       0.008599478 -0.3006548 0.03150705 0.029741207
000250 b8 41 21 be 79 fc 0f 3d c2 6f 29 be 28 0d c1 bd
       -0.15747726 0.035152886 -0.16546538 -0.094263375
000260 bf db 07 3c e6 bc 2f be 69 29 52 3d 7d fb 5e be
       0.008292138 -0.17161903 0.051309023 -0.21775623
000270 9c 50 95 3a 84 be d5 be 29 6a 7b bd b9 6c c2 be
       0.0011391821 -0.41746914 -0.06138054 -0.37973574
000280 16 bc 36 be 9c a0 c3 bd bc bd ce 3d d5 07 c7 be
       -0.17845187 -0.09552118 0.10094783 -0.38873163
000290 a1 08 29 be 7b 1b ff 36 f7 25 88 3d cd e3 f7 bc
       -0.16507198 7.6027914e-06 0.06647866 -0.030259991
0002a0 98 bf 54 3d 14 67 f5 38 df fe 79 3d 1b 0f 2e 3e
       0.05194053 0.0001170171 0.06103408 0.1699795
0002b0 50 93 7a bd cf 81 dd 3c 60 a2 1d be bf db 87 3c
       -0.061175644 0.027039437 -0.15393972 0.016584275
0002c0 07 ee 49 bc b1 42 f3 3e b6 0c 07 3d b9 41 81 be
       -0.012324817 0.4751182 0.032971106 -0.25245455
0002d0 aa e1 17 be 7a 7c 43 be c6 8b 78 3d f2 eb 46 bd
       -0.14832178 -0.19090453 0.060680173 -0.04856486
0002e0 85 da d7 be b5 53 89 be 73 6d e3 bc fd 36 92 3c
       -0.42158905 -0.26821676 -0.02776215 0.017848486
0002f0 66 75 b6 bc 14 3d b5 bd b3 3f b5 bd f7 2b 87 bd
       -0.022272777 -0.0884954 -0.0885004 -0.066001825
000300 28 18 89 ba b7 7f 42 bd be 39 78 bd b7 b2 c0 3c
       -0.001045947 -0.04748508 -0.060601942 0.023522718
000310 60 40 1d 3d e1 c0 49 3c 5c ed 14 be 18 a8 38 3d
       0.03839147 0.012314052 -0.1454367 0.04508218
000320 fd a7 47 3d a3 5e 96 3c 2f f3 07 be 83 9e 8c be
       0.04874419 0.018355673 -0.13276361 -0.27464685
000330 7d 3c 64 3b 56 f7 77 be ae 1d ef bb 81 3e 00 3d
       0.0034826093 -0.24215445 -0.0072972393 0.03130961
000340 50 30 12 3d e0 a6 88 bd 40 86 12 bd 4e bb e5 bc
       0.035690606 -0.06672454 -0.035772562 -0.028043415
000350 7e 5d 49 3d 56 1c 87 bc 0a f2 3a be ee d9 06 be
       0.049161427 -0.016493004 -0.18256393 -0.13169071
000360 2a 5e fd 3c f8 03 1c bd 02 73 57 3d 50 ad 12 3d
       0.03092869 -0.038089722 0.052599914 0.035809815
000370 b8 30 09 3d 74 55 a0 bb 68 1b 9c bc 47 56 1a bd
       0.033493727 -0.0048929993 -0.019056037 -0.037679937
000380 ce 53 2c 3d 0e 0e ef bd b5 a2 d1 bc 42 76 6a 3c
       0.04207211 -0.116726026 -0.02559028 0.014310421
000390 a1 81 89 3c e5 73 ed bd 3d 28 5b bc 5b 8c 82 bc
       0.016785445 -0.11594371 -0.013376293 -0.015936067
0003a0 9c 22 04 3d eb e6 0b bd 84 89 ec bd 61 e1 de bc
       0.03225957 -0.034155767 -0.115496665 -0.027207078
0003b0 f5 d2 c7 3b 0e 26 82 bd a1 72 e8 bc 43 8a 03 be
       0.006098146 -0.063549146 -0.028374972 -0.12845711
0003c0 40 05 e8 bd f0 95 2e be 70 fd 67 3c ef 52 5d 3d
       -0.11329126 -0.17049384 0.014159545 0.05403417
0003d0 2a ae 3f bd ad 34 64 bd c2 2c 73 bd 13 33 c5 bd
       -0.046796955 -0.055714298 -0.059368856 -0.09628882
0003e0 7f 4c d3 3c c3 a3 74 be c0 54 de ba 3b 56 c5 bd
       0.025793312 -0.23890595 -0.0016962513 -0.09635588
0003f0 cf 0f 54 bd 2b 72 16 bd 74 55 20 be e6 ee 18 be
       -0.05177289 -0.036729973 -0.15657598 -0.14934883

fc3.bias f4 [2]
000000 2e 04 27 3e de f2 b4 bd
       0.16310188 -0.08835386
