log/train_1_1k/models/820_critic.pt (torch_old, 251025 bytes, 5 tensors)

fc1.weight f4 [300, 6]
-0.08760387 0.5056745 0.7464406 0.29988492 -1.5081753 3.0157008 0.28112766 0.10212124
-0.58913034 2.8261235 -0.047103655 0.097360976 -0.013233824 0.30279014 -0.8623489 0.4402374
-0.8508564 -1.5294756 -0.08336767 -0.10606406 0.8106808 -0.7833809 1.4887186 -1.3573784
0.37230775 0.095954716 -1.0432742 0.45937005 -1.772903 0.6355916 -0.11418558 0.11866126
-0.124018945 -0.3993528 -1.5804598 0.4726482 -0.18451504 0.37631413 -0.29441598 -1.8957703
-0.03189585 0.22817227 0.23030509 0.41765648 -0.27499366 -0.09619948 -0.95941234 -1.9741982
-0.19142446 0.6926407 0.96530765 -0.72196937 0.84325236 -0.6215097 -0.034005158 0.25657356
1.5655575 2.1344094 0.7001124 2.199551 0.17990562 0.5455121 0.34487754 1.0706499
0.40209043 0.8033409 -0.00949774 -0.057494238 1.5111293 -0.14300106 -1.3213266 1.7064328
-0.26152924 0.27706313 0.8289996 -0.73993605 2.2468615 -0.58067805 0.006928083 0.16773072
-1.3105088 1.9567066 -0.53813595 0.20591462 -0.04011175 0.7351787 0.46103996 0.28160563
-0.34188804 2.9720032 0.0020031997 0.15116024 0.9670929 0.19200428 0.4088637 2.27689
0.11908598 0.17591286 0.522631 1.1379477 -1.3224916 0.11742255 0.20381719 -0.23809919
-2.131995 -1.724975 -1.2498705 -0.93636215 -0.15460096 -0.03178417 -0.8836398 -0.2723314
-2.2357848 0.11217734 0.22429244 0.2922831 1.5074152 -3.7789602 0.7263903 -2.8301976
0.006502835 0.011801279 0.44952515 -1.0814197 0.31009713 -0.18294999 0.07484487 -0.0021354568
-0.89603376 -0.43477446 -0.5160012 0.68307513 -0.038827267 -0.21737182 -0.9556936 0.57227385
0.7795012 -1.5947521 0.008045961 0.255323 0.19877373 0.75859815 -0.28829312 0.84557194
0.1480278 0.09398673 -1.4253125 2.5764856 -2.913639 1.7839909 0.19741121 -0.010113344
-0.03044675 0.00048403323 -0.4401865 -0.74470645 -0.037031643 -0.08120398 0.902531 1.5093994
0.83620137 2.0742943 0.021016568 0.5920756 0.49568135 0.17967887 0.36367726 -1.2383817
-0.15250939 0.3119169 -1.6252679 -0.19058453 -2.0568488 -0.5988062 -0.099952914 0.61383677
1.3270457 1.1376923 2.1164265 -0.5013727 0.008075599 0.24358988 -0.08375853 -2.6496918
-0.22258241 -2.543524 0.08014538 0.058095586 0.5820648 -1.8374416 -2.2194211 -1.1567748
0.01903794 1.2029923 0.080142625 -4.861537 -0.4277191 -2.1037421 -0.2347665 0.79244107
0.39665136 -1.0656123 -0.08261896 -1.3585018 0.20339912 -0.20329598 -1.1452104 -0.4384041
-2.1195893 1.2237716 0.03429637 0.28376228 1.8286989 0.042908285 0.43998954 1.8037202
0.087252386 -0.27320328 -0.49078834 1.061152 -0.7157523 0.769533 -0.12685217 0.1327218
0.3469497 -0.012816219 0.8480535 -0.96879727 0.40061554 -0.03645803 0.18257062 -0.16497956
-0.42972833 -0.42600214 -0.013617084 0.023809237 -1.1527638 0.646986 0.475167 0.9539068
-0.006364536 0.5630868 -1.3129779 -0.28946948 -0.7594494 1.903737 0.16644855 0.15764238
0.08511736 -0.26541388 -0.43831843 0.54740024 -0.10207491 -0.04321387 -0.73102677 -2.4490473
00000000: a869 b3bd e273 013f bb16 3f3f 848a 993e
00000010: e30b c1bf 3e01 4140 f7ef 8f3e f124 d13d
00000020: 3fd1 16bf 35df 3440 c3ef 40bd 3165 c73d
00000030: aed2 58bc 4f07 9b3e e6c2 5cbf cc66 e13e
00000040: bad1 59bf dbc5 c3bf abbc aabd 1d38 d9bd
00000050: c788 4f3f a78b 48bf 558e be3f 93be adbf
00000060: 1f9f be3e e883 c43d 028a 85bf 8d32 eb3e
00000070: 7cee e2bf 22b6 223f 21da e9bd ad04 f33d
00000080: a5fd fdbd f877 ccbe 824c cabf f2fe f13e
00000090: 83f1 3cbe 3fac c03e b1bd 96be 9aa8 f2bf
000000a0: 39a5 02bd fea5 693e 19d5 6b3e 12d7 d53e
000000b0: f8cb 8cbe 3c04 c5bd 0c9c 75bf 87b2 fcbf
000000c0: c604 44be e750 313f 671e 773f fcd2 38bf
000000d0: 63df 573f 421b 1fbf fe48 0bbd 9c5d 833e
000000e0: 3064 c83f 2a9a 0840 913a 333f 72c5 0c40
000000f0: 2e39 383e aea6 0b3f ca93 b03e 0e0b 893f
00000100: ccde cd3e c0a7 4d3f 699c 1bbc 147f 6bbd
00000110: af6c c13f df6e 12be 3b21 a9bf 646c da3f
00000120: 29e7 85be 38db 8d3e 5139 543f 736c 3dbf
00000130: 94cc 0f40 51a7 14bf f904 e33b 9ac1 2b3e
00000140: c1be a7bf 5d75 fa3f 47c3 09bf 48db 523e
00000150: 384c 24bd ac34 3c3f 6e0d ec3e 9d2e 903e
00000160: f30b afbe 4d35 3e40 1d48 033b c0c9 1a3e
00000170: 6693 773f c59c 443e 9556 d13e 91b8 1140
00000180: 5ae3 f33d 8022 343e 25cb 053f 45a8 913f
00000190: 6847 a9bf 3c7b f03d 74b5 503e 46d0 73be
000001a0: 9b72 08c0 fbcb dcbf c2fb 9fbf 6eb5 6fbf
000001b0: b74f 1ebe 1e30 02bd 3836 62bf 056f 8bbe
000001c0: 1917 0fc0 3cbd e53d ebac 653e 21a6 953e
000001d0: fbf2 c03f 7cda 71c0 b7f4 393f f521 35c0
000001e0: bc15 d53b 275a 413c 2928 e63e f66b 8abf
000001f0: 0dc5 9e3e 3e57 3bbe 4448 993d 05f3 0bbb
00000200: 7862 65bf c29a debe a818 04bf 03de 2e3f
00000210: 5709 1fbd b896 5ebe 56a8 74bf 8a80 123f
00000220: 648d 473f d620 ccbf 35d3 033c b2b9 823e
00000230: 578b 4b3e 7d33 423f 289b 93be 6777 583f
00000240: 9994 173e 1d7c c03d a470 b6bf 24e5 2440
00000250: 1079 3ac0 d059 e43f 2a26 4a3e 70b2 25bc
00000260: 766b f9bc d7c5 fd39 2060 e1be 15a5 3ebf
00000270: 7eae 17bd 464e a6bd 460c 673f 0034 c13f
00000280: 4b11 563f 3dc1 0440 f02a ac3c 4492 173f
00000290: f2c9 fd3e bdfd 373e e833 ba3e 4b83 9ebf
000002a0: 6c2b 1cbe 92b3 9f3e c708 d0bf 9728 43be
000002b0: 69a3 03c0 5d4b 19bf 1db4 ccbd 6824 1d3f
000002c0: a2dc a93f e79f 913f 8873 0740 f659 00bf
000002d0: 844f 043c a06f 793e 9889 abbd 8d94 29c0
000002e0: a5ec 63be 19c9 22c0 4323 a43d a3f5 6d3d
000002f0: 3302 153f 4931 ebbf ff0a 0ec0 3211 94bf
00000300: 74f5 9b3c a7fb 993f d121 a43d b691 9bc0
00000310: fffd dabe b6a3 06c0 a166 70be 6bdd 4a3f
00000320: e315 cb3e fc65 88bf 2134 a9bd 63e3 adbf
00000330: dc47 503e d22c 50be 4196 92bf 8176 e0be
00000340: 5aa7 07c0 8ca4 9c3f 5a7a 0c3d 4a49 913e
00000350: ce12 ea3f 99c0 2f3d 4f46 e13e 4ee0 e63f
00000360: 61b1 b23d 4de1 8bbe 9c48 fbbe d4d3 873f
00000370: 8b3b 37bf 1d00 453f 89e5 01be 39e8 073e
00000380: 64a3 b13e 1efb 51bc 091a 593f 1903 78bf
00000390: 7b1d cd3e 0455 15bd cbf3 3a3e 67f0 28be
000003a0: 5a05 dcbe f41c dabe 311a 5fbc 970b c33c
000003b0: c48d 93bf e0a0 253f 1749 f33e 3c33 743f
000003c0: 998d d0bb 7526 103f a90f a8bf 5835 94be
000003d0: 476b 42bf a7ad f33f 7d71 2a3e 016d 213e
000003e0: 0352 ae3d 54e4 87be 466b e0be 6c22 0c3f
000003f0: a70c d1bd 0701 31bd 9224 3bbf 31bd 1cc0

fc1.bias f4 [300]
-0.9662945 -3.1475363 1.087683 -3.1017916 -4.2588153 2.9596808 -0.31645128 -0.85621023
0.32487592 3.564502 -3.9865494 3.7052631 2.283018 3.2758987 -0.33323494 3.1735806
3.5525975 -3.2616155 -4.040351 0.76254445 4.037699 3.870781 -2.4038382 -4.921145
0.8330876 2.9674535 2.3823698 4.7868156 -0.019481651 -2.468471 4.3489666 -2.668999
-0.5948728 0.06221373 -4.8933954 3.2471037 -7.028635 1.5305492 -3.4383292 1.9214953
1.1872139 3.4255607 0.80622053 1.3434044 -0.45814493 5.218993 -2.7580068 -0.4451633
3.2158802 0.5679391 1.3765659 3.608815 0.40548596 2.2490973 -5.588056 -1.5783347
1.249071 0.3684426 1.7481445 -7.387506 -0.30670446 2.9494383 -0.74094105 1.6379628
3.9432507 2.7084424 -3.5381842 -0.97888607 4.048031 3.0086288 1.4857379 3.4130552
3.1532218 -2.2563057 -2.6513526 -0.09959288 3.4619493 1.2947339 1.3938687 -4.8238134
-0.5166627 1.0563437 0.7248038 3.327745 2.9326403 2.1085699 -1.6735286 -1.0893905
1.967772 -2.4270046 -2.5040271 2.4884045 0.89624476 2.0005946 1.9853476 2.1683452
3.8904355 0.51223224 1.2588923 3.5220451 0.7924291 -5.7435703 -1.790013 0.80661756
-1.6406889 0.7013105 -3.2976346 3.2019556 0.82508117 3.518338 2.685833 4.702121
3.13371 3.3557062 -0.46142122 3.3712108 1.1838515 -3.90649 0.84218407 3.1056433
-0.13751169 3.3148077 -3.5013657 0.73973703 2.3717475 1.5428733 3.940198 3.159869
2.4692872 3.7201204 -1.5528066 0.5749208 3.1746755 -0.520566 5.903731 0.64045703
-2.1568575 3.9169564 -2.3949816 2.7234857 -4.0102606 -4.081415 2.476801 -3.9622269
-4.997398 2.8851554 3.2655306 2.5478263 3.5398333 0.90022963 -3.8966694 2.7632964
3.4652178 1.6415489 -0.06820929 3.94106 0.15148702 -5.7823763 2.663785 4.077947
1.1994823 2.2053041 4.4530597 2.0408125 3.3134873 -2.6692297 3.768114 1.0843447
2.527999 -1.8957238 -0.3425614 -4.055748 -2.167297 4.682568 -1.6728277 3.2730687
-1.534813 4.6329527 4.34811 -2.1482794 1.6688229 3.6475089 -1.3095708 3.7391932
2.4405575 1.1235703 2.120052 -0.19377422 2.512167 -2.1894875 1.4593215 2.866553
-1.2536497 1.359262 3.8193567 -0.79717493 4.6397367 3.3497336 0.3896527 2.9026065
-0.28194526 5.879746 -0.18659773 -4.6015134 2.4985297 -2.1720967 0.8095094 1.9074484
-0.45304066 3.1970456 -2.036736 -1.9734911 -3.9948676 -1.0415668 -2.6836972 -6.761396
3.404652 0.8167188 -2.8413608 1.416464 3.0825026 -4.020743 2.4821315 2.1333306
5.276986 -6.900268 -0.8312024 -2.5011132 2.9881577 -1.9766864 -2.2408323 3.7671716
0.4622071 -3.6209729 -3.6796994 -3.0496879 3.4767256 -3.4071608 3.086146 -0.529036
3.4258146 -3.5009234 3.7706003 -0.4200412 3.105587 -2.9290802 -3.5876648 0.23145145
4.098539 2.0948596 -4.4053674 2.276859 2.9995413 -1.050961 -0.05371029 0.93027085
00000000: 145f 77bf 3c71 49c0 3239 8b3f c183 46c0
00000010: 3748 88c0 696b 3d40 e705 a2be 9830 5bbf
00000020: 2356 a63e cd20 6440 a023 7fc0 0823 6d40
00000030: f81c 1240 53a8 5140 c59d aabe f21b 4b40
00000040: c25d 6340 4fbe 50c0 8e4a 81c0 1d36 433f
00000050: d534 8140 e0ba 7740 7cd8 19c0 057a 9dc0
00000060: 3b45 553f c2ea 3d40 bf78 1840 982d 9940
00000070: fc97 9fbc 6efb 1dc0 bc2a 8b40 e1d0 2ac0
00000080: 9549 18bf d3d3 7e3d b296 9cc0 8cd0 4f40
00000090: 94ea e0c0 09e9 c33f 960d 5cc0 8ff3 f53f
000000a0: a0f6 973f 633c 5b40 7864 4e3f adf4 ab3f
000000b0: f991 eabe fe01 a740 2f83 30c0 72ec e3be
000000c0: fbd0 4d40 7564 113f 5033 b03f d3f6 6640
000000d0: db9b cf3e 36f1 0f40 5bd1 b2c0 df06 cabf
000000e0: 8fe1 9f3f 82a4 bc3e 33c3 df3f 7366 ecc0
000000f0: 5e08 9dbe 99c3 3c40 50ae 3dbf c4a8 d13f
00000100: 385e 7c40 1f57 2d40 9c71 62c0 4798 7abf
00000110: 7889 8140 608d 4040 a92c be3f 7f6f 5a40
00000120: 63ce 4940 5067 10c0 c3af 29c0 5af7 cbbd
00000130: 9490 5d40 d7b9 a53f 4a6a b23f ae5c 9ac0
00000140: 0244 04bf 4536 873f be8c 393f c6f9 5440
00000150: 61b0 3b40 cff2 0640 2f36 d6bf 2671 8bbf
00000160: f4df fb3f 0b54 1bc0 fb41 20c0 0542 1f40
00000170: 4c70 653f be09 0040 df1f fe3f 2bc6 0a40
00000180: e5fc 7840 a721 033f 6223 a13f 3069 6140
00000190: a2dc 4a3f 54cb b7c0 251f e5bf 7d7e 4e3f
000001a0: 1802 d2bf 1689 333f 720c 53c0 d7ec 4c40
000001b0: 8538 533f 732c 6140 b0e4 2b40 c677 9640
000001c0: b48e 4840 e4c3 5640 673f ecbe ebc1 5740
000001d0: 7288 973f ef03 7ac0 6099 573f dcc2 4640
000001e0: ddcf 0cbe cf25 5440 6016 60c0 685f 3d3f
000001f0: b6ca 1740 df7c c53f 342c 7c40 4b3b 4a40
00000200: cd08 1e40 7416 6e40 5ec2 c6bf 022e 133f
00000210: e22d 4b40 d043 05bf 5deb bc40 fef4 233f
00000220: f409 0ac0 6aaf 7a40 6147 19c0 974d 2e40
00000230: 0e54 80c0 f49a 82c0 e883 1e40 2095 7dc0
00000240: afea 9fc0 63a6 3840 74fe 5040 960f 2340
00000250: a18c 6240 7375 663f 0863 79c0 d9d9 3040
00000260: 21c6 5d40 461e d23f 50b1 8bbd 543a 7c40
00000270: 6a1f 1b3e 3a09 b9c0 747b 2a40 8b7e 8240
00000280: a388 993f b423 0d40 777f 8e40 ac9c 0240
00000290: 2d10 5440 a9d4 2ac0 c828 7140 cfcb 8a3f
000002a0: bcca 2140 14a7 f2bf 3564 afbe b0c8 81c0
000002b0: feb4 0ac0 99d7 9540 381f d6bf f579 5140
000002c0: c174 c4bf 2641 9440 b823 8b40 697d 09c0
000002d0: fd9b d53f c970 6940 04a0 a7bf f14e 6f40
000002e0: 1832 1c40 27d1 8f3f efae 0740 c06c 46be
000002f0: 58c7 2040 9020 0cc0 0ccb ba3f 9b75 3740
00000300: 9877 a0bf 4cfc ad3f 5770 7440 a813 4cbf
00000310: b978 9440 0962 5640 8f80 c73e 4ec4 3940
00000320: 215b 90be e126 bc40 7a13 3fbe 993f 93c0
00000330: e9e7 1f40 a203 0bc0 023c 4f3f 4527 f43f
00000340: f2f4 e7be 659c 4c40 e259 02c0 5b9b fcbf
00000350: e9ab 7fc0 1052 85bf b2c1 2bc0 5b5d d8c0
00000360: d2e5 5940 7c14 513f dbd8 35c0 b14e b53f
00000370: b947 4540 eda9 80c0 3edb 1e40 7d88 0840
00000380: 12dd a840 ffce dcc0 aec9 54bf 3d12 20c0
00000390: fa3d 3f40 0f04 fdbf cc69 0fc0 5719 7140
000003a0: 69a6 ec3e 05be 67c0 3280 6bc0 162e 43c0
000003b0: ac82 5e40 ec0e 5ac0 6b83 4540 e76e 07bf
000003c0: 8c40 5b40 210f 60c0 8451 7140 a40f d7be
000003d0: f0c1 4640 0d76 3bc0 4d9c 65c0 9c01 6d3e
000003e0: 3b27 8340 2e12 0640 c5f8 8cc0 0fb8 1140
000003f0: 7cf8 3f40 e485 86bf 52ff 5bbd 3b26 6e3f

fc2.weight f4 [200, 300]
-0.04793495 -0.015508577 0.002660375 -0.07772174 0.043109402 -0.034099884 -0.04031279 -0.019465825
-0.019018784 -0.005275931 -0.05771582 -0.07421992 -0.022175133 0.036200978 -0.051190462 -0.04355107
-0.0058499454 0.009740362 0.032977916 -0.0136711 -0.02750138 -0.08125336 -0.088592276 0.024084471
-0.04151331 -0.09086473 -0.03256877 0.033637945 0.008578057 0.00056910515 -0.014235415 -0.04705193
-0.044847485 -0.024566717 0.015563997 -0.060806837 -0.057848915 -0.028921638 -0.026702294 -0.085299075
-0.05658884 -0.04113705 -0.086386874 0.013809547 -0.015003528 0.009297048 0.055826902 -0.05562961
-0.0068292436 -0.03567943 -0.0033269897 -0.0006630229 -3.312528e-05 -0.075367324 0.012833618 -0.07977812
-0.043484014 -0.036241956 0.024533138 -0.043105703 -0.038909297 0.0003421054 -0.011056997 -0.011808857
-0.023457525 -0.031756647 0.023971051 -0.060646646 -0.10374695 -0.032758765 -0.0135867745 0.007571983
-0.01068753 -0.07925657 -0.089106366 -0.019611113 -0.0076623224 -0.05381065 -0.0012792463 0.013572194
-0.005237127 -0.0679986 0.03343305 0.032918952 -0.007970828 0.027524017 -0.08047849 0.026583083
-0.061998945 -0.010958549 -0.04422835 -0.037706014 0.020589978 -0.090596505 -0.047003772 0.010422863
-0.03139529 -0.056876604 -0.0389242 -0.009149897 0.027980085 0.030539393 -0.0017465435 0.026768424
-0.034166943 -0.010308817 0.0030835322 -0.044296138 -0.017050952 -0.034222823 0.029635997 -0.063029
-0.072774485 -0.0083033135 0.05326417 -0.04763404 0.03444262 -0.08083612 -0.004263417 -0.028749367
-0.037154663 -0.009508461 0.02938009 -0.0054131495 -0.022028858 0.027331876 0.014549775 -0.06287254
-0.03683056 -0.07831034 -0.0384101 -0.028056454 -0.07274468 0.057339005 0.0010910003 0.018022256
0.03152048 -0.03145862 -0.0011740066 -0.05001453 -0.037922084 -0.053456903 -0.064921476 0.025489815
0.04028821 -0.0049274587 -0.0153674865 -0.06586771 -0.047246605 0.03026558 -0.02037428 0.002852794
-0.03443144 -0.02917033 -0.042892672 -0.07841465 -0.051072527 0.043555386 -0.04531688 -0.038764007
-0.022074271 -0.053050682 -0.08843581 -0.067350395 -0.044400446 -0.039933767 -0.055591363 -0.046400324
-0.021803474 -0.039136816 -0.08454656 0.023902701 -0.050086755 -0.05640721 0.0011299998 0.03133196
-0.04976493 0.032240942 -0.035195135 -0.030206362 0.017422477 -0.06782724 0.049004965 -0.027266683
-0.036890164 -0.068468 -0.019380141 -0.09450811 -0.015079704 -0.058258705 -0.012618187 0.015962144
0.057247818 -0.030538369 -0.04834999 0.01636593 0.00621596 -0.033187177 0.003497976 -0.043264218
0.007867269 -0.0669108 -0.07258077 -0.010076214 0.031767823 -0.066806495 0.03836041 -0.036481902
-0.0022820346 -0.019035548 -0.059320427 0.031215541 -0.0018518455 -0.018091176 -0.0350871 -0.02979473
-0.071977265 -0.026341934 -0.05734098 0.028239131 -0.077155486 -0.0233141 1.26643645e-05 -0.04229396
-0.05648917 -0.006243672 0.0115733445 -0.035832167 -0.029093962 0.02297426 0.013990417 -0.021205558
-0.02868045 -0.04777933 -0.08103729 0.0018670931 -0.072096474 -0.012921281 -0.06717903 -0.021442238
-0.037553273 -0.07748331 -0.050219424 -0.04846685 0.004543748 0.045504935 -0.009268177 -0.049753755
-0.0570964 0.0065110773 0.009775753 0.027709998 -0.033876367 0.04352022 -0.019613255 0.029655084
00000000: 7057 44bd b017 7ebc b059 2e3b 932c 9fbd
00000010: 7c93 303d 52ac 0bbd 061f 25bd cb76 9fbc
00000020: 48cd 9bbc b8e1 acbb 6c67 6cbd 9d00 98bd
00000030: a0a8 b5bc 7a47 143d 17ad 51bd 9b62 32bd
00000040: e6b0 bfbb 0a96 1f3c da13 073d c0fc 5fbc
00000050: 934a e1bc 2968 a6bd de6f b5bd cc4c c53c
00000060: dc09 2abd 4a17 babd d566 05bd f1c7 093d
00000070: fb8a 0c3c 0030 153a a83b 69bc 86b9 40bd
00000080: ffb1 37bd 2440 c9bc 2300 7f3c 9710 79bd
00000090: fcf2 6cbd 12ed ecbc c5be dabc 48b1 aebd
000000a0: b3c9 67bd 537f 28bd 9aeb b0bd 7041 623c
000000b0: 5cd1 75bc a552 183c c0aa 643d e0db 63bd
000000c0: d9c7 dfbb 9824 12bd a009 5abb b7ce 2dba
000000d0: 00f0 0ab8 2f5a 9abd 1844 523c b662 a3bd
000000e0: 4b1c 32bd 7272 14bd b8f9 c83c 9b8f 30bd
000000f0: 5b5f 1fbd 9c5c b339 6828 35bc f079 41bc
00000100: ff29 c0bc 4213 02bd f05e c43c 9e68 78bd
00000110: 4879 d4bd 0e2e 06bd 109b 5ebc 661e f83b
00000120: c01a 2fbc 4551 a2bd 667d b6bd 7ca7 a0bc
00000130: 3814 fbbb 8e68 5cbd 62ac a7ba e85d 5e3c
00000140: 359c abbb da42 8bbd 18f1 083d 06d6 063d
00000150: 1398 02bc 0c7a e13c e8d1 a4bd c4c4 d93c
00000160: 9bf2 7dbd 7c8b 33bc c928 35bd 9f71 1abd
00000170: 50ac a83c a98a b9bd 0787 40bd a8c4 2a3c
00000180: 5998 00bd 71f7 68bd fb6e 1fbd 73e9 15bc
00000190: 7e36 e53c c02d fa3c 46ec e4ba 7449 db3c
000001a0: a3f2 0bbd 50e6 28bc 1615 4a3b de6f 35bd
000001b0: 70ae 8bbc 3b2d 0cbd 31c7 f23c 5915 81bd
000001c0: ca0a 95bd 9f0a 08bc 882b 5a3d e91b 43bd
000001d0: b413 0d3d 688d a5bd 22b4 8bbb cb83 ebbc
000001e0: 7d2f 18bd 60c9 1bbc 84ae f03c ca60 b1bb
000001f0: dd75 b4bc 19e7 df3c 2e62 6e3c 51c3 80bd
00000200: a4db 16bd 2c61 a0bd e953 1dbd a6d6 e5bc
00000210: 2afb 94bd 4edc 6a3d e5ff 8e3a 69a3 933c
00000220: 9e1b 013d c1da 00bd 20e1 99ba 09dc 4cbd
00000230: 3054 1bbd a0f5 5abd 8df5 84bd 04d0 d03c
00000240: 4005 253d 8576 a1bb e9c7 7bbc a6e5 86bd
00000250: a885 41bd 86ef f73c f6e7 a6bc f1f5 3a3b
00000260: fb07 0dbd 9ef6 eebc 3ab0 2fbd dc97 a0bd
00000270: 6d31 51bd 2267 323d 319e 39bd 02c7 1ebd
00000280: 1ad5 b4bc ac4b 59bd d51d b5bd 01ef 89bd
00000290: 3edd 35bd 9791 23bd c5b3 63bd 440e 3ebd
000002a0: 339d b2bc ed4d 20bd bf26 adbd 99cf c33c
000002b0: c527 4dbd 3f0b 67bd 801c 943a f155 003d
000002c0: 50d6 4bbd 140f 043d c628 10bd 5573 f7bc
000002d0: 95b9 8e3c 02e9 8abd 6eb9 483d 615e dfbc
000002e0: 241a 17bd f338 8cbd 1ac3 9ebc 788d c1bd
000002f0: dd10 77bc aea0 6ebd 83bc 4ebc 0bc3 823c
00000300: b07c 6a3d 9a2b fabc a40a 46bd d811 863c
00000310: 40af cb3b 47ef 07bd 4d3e 653b d235 31bd
00000320: b8e5 003c 8808 89bd 3aa5 94bd b416 25bc
00000330: fa1e 023d d8d1 88bd ce1f 1d3d 0c6e 15bd
00000340: 308e 15bb 70f0 9bbc faf9 72bd bcb7 ff3c
00000350: a0b9 f2ba f233 94bc 7eb7 0fbd 1414 f4bc
00000360: d168 93bd 0acb d7bc 60de 6abd c055 e73c
00000370: b203 9ebd 36fd bebc 0879 5437 6e3c 2dbd
00000380: 3061 67bd b897 ccbb 209e 3d3c c0c4 12bd
00000390: 7656 eebc 8434 bc3c 1038 653c 47b7 adbc
000003a0: 43f3 eabc 42b4 43bd e1f6 a5bd 40b9 f43a
000003b0: 51a7 93bd c8b3 53bc 2995 89bd a2a7 afbc
000003c0: 76d1 19bd 92af 9ebd e2b2 4dbd 2d85 46bd
000003d0: b9e3 943b 6263 3a3d 8dd9 17bc 98ca 4bbd
000003e0: eadd 69bd e05a d53b 7b2a 203c 1400 e33c
000003f0: f2c1 0abd 4242 323d faab a0bc 38ef f23c

fc2.bias f4 [200]
-0.0108598275 0.16588932 -1.7703849 2.543153 -0.03695722 -0.097421326 1.7974774 -0.0778782
-0.04316736 0.36396557 -0.06858721 -0.0911255 -1.1627228 -0.05964453 -0.09770445 0.018543804
-0.025476659 -0.068453096 0.21534574 1.054837 2.6164644 1.0561484 0.5496537 -0.017169604
0.26311317 0.0043467716 -0.52115995 0.90931034 -0.04593156 2.2241538 1.0010729 2.0602899
0.0348226 2.0147045 -0.041982703 -0.027778918 0.8346099 -1.3115017 -1.3263531 1.4040054
0.0010180094 -0.0657634 0.96713597 -0.04991022 0.021278203 -0.053158715 -0.38271147 -0.26239794
0.74867374 0.07536165 -0.10006631 0.11942664 -0.027562847 -0.073608965 0.022447959 -0.04653879
0.024539735 0.035955105 0.57364136 0.6183167 -0.061045256 -0.28636342 -1.0002974 -0.043126382
2.6000834 -0.00837782 -0.031775273 0.19074805 -0.053080484 0.043957125 -1.1894358 0.3140758
2.287221 0.7902891 -0.33625087 0.052208755 -0.0043453746 -0.050618034 1.2559106 2.3777282
-0.69848603 -2.5078382 1.0276169 -0.049367692 0.4694094 -1.7262316 2.5766795 1.7565539
0.80410683 0.06335683 -0.56073797 -1.4293975 2.4553318 -1.4406681 0.0038993815 0.6976515
2.7875364 -0.008492375 0.26785183 -0.033742253 -0.047730897 -0.058441244 0.014094352 1.6894715
2.1841342 -0.084516756 0.6505037 -0.035224937 1.5749322 0.017610606 0.15079425 0.71722823
0.0071137664 1.1874963 -0.17505366 -2.197762 -0.09368853 1.1682571 -0.044758078 2.2313244
0.016222918 -0.07920442 1.8128985 1.3907878 0.4758911 0.3278103 1.776519 -0.086781755
0.42673007 1.752452 1.9331323 0.011896403 0.028641332 2.2033217 1.6806481 1.7922442
2.7181356 2.5584593 -0.0581991 -0.13771085 -0.049660623 -0.04177781 -0.4215146 2.4182808
-0.035772562 0.09890773 -0.01619684 0.9802035 -0.084084615 -0.25336772 0.015036862 -0.03332874
2.4344287 2.4517558 0.5198916 0.85602313 -0.0056885304 1.6620739 -1.2691782 -0.035034947
1.8858703 2.2544837 -0.053073034 -1.0494268 -0.06293214 1.3562917 0.7038068 0.04406144
-1.677409 2.3111627 -0.09471673 -0.0817451 1.2301961 -0.017251112 -0.010585084 2.3550649
1.3747201 1.3337541 0.60504013 0.5150098 0.6145992 -2.9126782 -0.008744766 0.27320677
-0.07466696 -0.04587568 -0.001076099 -2.366931 0.4789045 0.14843653 2.4496756 0.4104876
-0.062349126 1.932426 1.436497 -0.06726099 1.1724085 -0.16282602 0.28153127 0.12607433
00000000: 6bed 31bc e4de 293e f99b e2bf 05c3 2240
00000010: 7460 17bd d584 c7bd bd13 e63f 9b7e 9fbd
00000020: 42d0 30bd b259 ba3e 7377 8cbd 02a0 babd
00000030: 1ad4 94bf d34d 74bd 4519 c8bd 2de9 973c
00000040: 6db4 d0bc 2331 8cbd 9883 5c3e e604 873f
00000050: 2774 2740 df2f 873f 1bb6 0c3f 45a7 8cbc
00000060: c5b6 863e 5d6f 8e3b bd6a 05bf 90c8 683f
00000070: bb22 3cbd 8958 0e40 2823 803f cadb 0340
00000080: 25a2 0e3d ebf0 0040 0ef6 2bbd 9d90 e3bc
00000090: ffa8 553f 4adf a7bf f0c5 a9bf 73b6 b33f
000000a0: ba6e 853a f6ae 86bd 3996 773f a96e 4cbd
000000b0: a04f ae3c f4bc 59bd c2f2 c3be 0659 86be
000000c0: 15a9 3f3f 3557 9a3d 91ef ccbd f495 f43d
000000d0: 7bcb e1bc 4cc0 96bd c8e4 b73c 759f 3ebd
000000e0: 8e07 c93c a945 133d 29da 123f 014a 1e3f
000000f0: 970a 7abd 3a9e 92be bf09 80bf 4aa5 30bd
00000100: c467 2640 2043 09bc ca26 02bd 7553 433e
00000110: ec6a 59bd 630c 343d 6f3f 98bf 8bce a03e
00000120: d461 1240 6350 4a3f 1329 acbe d9d8 553d
00000130: a563 8ebb db54 4fbd aec1 a03f b32c 1840
00000140: fbcf 32bf 6c80 20c0 f388 833f c735 4abd
00000150: 6e56 f03e 28f5 dcbf 51e8 2440 c2d6 e03f
00000160: f2d9 4d3f 3ac1 813d 868c 0fbf 7ff6 b6bf
00000170: 2824 1d40 d067 b8bf c48c 7f3b 4a99 323f
00000180: ff66 3240 9a23 0bbc e023 893e 5135 0abd
00000190: 7981 43bd 1660 6fbd ffeb 663c 9a40 d83f
000001a0: dbc8 0b40 1f17 adbd 6987 263f 0648 10bd
000001b0: 6197 c93f 1e44 903c cf69 1a3e 459c 373f
000001c0: 991a e93b e1ff 973f 4441 33be 22a8 0cc0
000001d0: c6df bfbd 7389 953f 3f54 37bd 05ce 0e40
000001e0: ede5 843c ed35 a2bd 0f0d e83f 5605 b23f
000001f0: 00a8 f33e c0d6 a73e f964 e33f a2ba b1bd
00000200: 5d7c da3e 5950 e03f e170 f73f 21e9 423c
00000210: 3aa1 ea3c 3903 0d40 7a1f d73f 4268 e53f
00000220: eff5 2d40 ccbd 2340 2e62 6ebd 1304 0dbe
00000230: f068 4bbd 351f 2bbd c3d0 d7be 1dc5 1a40
00000240: 4086 12bd 2390 ca3d 3caf 84bc 9eee 7a3f
00000250: 8e34 acbd 6ab9 81be 2c5d 763c b883 08bd
00000260: aecd 1b40 91e9 1c40 9e17 053f 5524 5b3f
00000270: da66 babb d6be d43f 6e74 a2bf ce80 0fbd
00000280: 3364 f13f 7649 1040 1c63 59bd 9e53 86bf
00000290: 91e2 80bd f79a ad3f af2c 343f c579 343d
000002a0: 57b5 d6bf 17ea 1340 d8fa c1bd fa69 a7bd
000002b0: 1177 9d3f 3452 8dbc 0f6d 2dbc 62b9 1640
000002c0: d4f6 af3f 74b8 aa3f e9e3 1a3f afd7 033f
000002d0: 6056 1d3f 5269 3ac0 3546 0fbc c2e1 8b3e
000002e0: feea 98bd 23e8 3bbd e40b 8dba cc7b 17c0
000002f0: f832 f53e bfff 173e 7cc7 1c40 6e2b d23e
00000300: cc61 7fbd bc59 f73f 22df b73f 21c0 89bd
00000310: 7b11 963f ddbb 26be de24 903e a119 013e

fc3.weight f4 [1, 200]
-0.008218562 -0.001111606 0.30886126 -0.22108766 -0.031741746 -0.015684607 -0.16824266 -0.025860367
-0.06010647 -1.5915241 0.0008411989 -0.0014465372 0.15006408 -0.02219091 -0.011702685 -0.015539783
0.0032243968 -0.0036746971 -1.3358815 0.059711587 -0.23703125 0.1259984 -1.9534858 -1.378517
-1.5331107 0.0042825094 0.23074001 1.381713 -0.020080505 -0.1623332 2.2977886 0.09127525
-0.020613229 -0.4705289 0.00611817 0.026048498 -1.5811434 0.00061319914 0.77199084 0.022820491
0.01483821 0.015521157 1.0978036 -0.0009238548 0.013448006 0.0342489 -0.0041535194 0.03170822
1.4273708 -1.1696755 0.03175292 -1.037313 0.021652598 0.0016323385 -0.004397529 0.020343142
-0.014053374 -0.01799804 -0.7443811 -1.4568158 0.025601456 0.8651046 0.1926509 0.025551165
-0.046258703 -0.029619234 0.029291404 -2.2784364 0.028529573 1.9484413 0.21261686 -0.6092567
-1.9460882 0.50541735 0.75875604 0.009111712 -0.011201627 -0.017217584 -0.26487955 -1.3985549
-0.010473323 0.004492991 0.25009587 -0.029928563 0.5421404 0.16888928 0.23253493 0.50411075
0.021496134 -0.1491998 0.021844452 -0.013203996 0.6740005 0.05566309 0.002464195 0.8247303
-0.109180026 -0.004768666 -0.50369555 -0.013693878 -0.040932156 -0.00591933 0.0075864187 -0.07538521
-0.3031418 0.020482842 -0.17855547 -0.009999274 -0.14039695 0.028401049 0.0014877488 0.7514781
0.01478354 0.40807724 -0.66743165 0.2593448 -0.02402564 -0.45934296 -0.03986671 -1.087131
0.014854321 -0.027534908 1.0627048 -1.1554536 -1.1484529 0.13289641 -0.024269195 -0.0057474985
0.029036218 -1.6910931 -0.45211914 -0.020883316 0.021440255 -1.3665512 -0.8880195 -1.5928143
-0.1134057 -1.14999 0.024541598 -0.029377088 -0.024288274 -0.055908017 -0.002277695 1.17061
0.0019747787 -0.49280044 0.009185286 1.5601739 -0.023578597 -0.21123414 0.031864684 -0.035698056
0.5881959 0.18519679 0.13287531 -4.449187 0.020662239 -0.2950721 0.019201325 0.030487237
-0.58822227 -0.5098764 0.036368612 0.019219775 0.03290405 2.0978322 -0.015331199 0.0028968
0.037171867 0.14177895 0.02175877 -0.017752169 -0.014810548 -0.018441357 0.014407281 -0.14334662
0.017136557 2.0047686 -2.257073 0.96338713 0.11003027 0.15420666 0.011533182 0.009457247
-0.03541493 0.036696445 0.019292595 0.56437385 1.8039951 -0.34534585 0.06968864 -1.2938547
0.02682523 -1.7622645 -1.6075704 0.0007799054 0.4931714 2.8251262 -1.0619897 0.005787145
00000000: 26a7 06bc 4fb3 91ba 1023 9e3e ce64 62be
00000010: a203 02bd 017d 80bc ce47 2cbe 1fd9 d3bc
00000020: 3432 76bd 10b7 cbbf e783 5c3a bc99 bdba
00000030: 66aa 193e b6c9 b5bc 9ebc 3fbc 939a 7ebc
00000040: 6750 533b 30d3 70bb 2afe aabf 2394 743d
00000050: 52b8 72be b905 013e d30b fabf 3f73 b0bf
00000060: f93c c4bf 4b54 8c3b 1c47 6c3e f9db b03f
00000070: df7f a4bc ad3a 26be f80e 1340 85ee ba3d
00000080: 13dd a8bc 2ae9 f0be ee7a c83b a963 d53c
00000090: e862 cabf 19bf 203a 31a1 453f 0af2 ba3c
000000a0: f71b 733c 734c 7e3c d484 8c3f d92e 72ba
000000b0: 0655 5c3c 9348 0c3d 3f1a 88bb 7ae0 013d
000000c0: 16b4 b63f edb7 95bf 5a0f 023d acc6 84bf
000000d0: ca60 b13c 31f4 d53a 2619 90bb a9a6 a63c
000000e0: 1f40 66bc a070 93bc c38f 3ebf f178 babf
000000f0: 25ba d13c 7f77 5d3f 4746 453e ad50 d13c
00000100: c479 3dbd 09a4 f2bc 87f4 ef3c e7d1 11c0
00000110: dab6 e93c 8666 f93f 3cb8 593e 3ff8 1bbf
00000120: 6b19 f9bf 0863 013f d63d 423f 4a49 153c
00000130: 0787 37bc e40b 8dbc 4b9e 87be d903 b3bf
00000140: 4d98 2bbc f139 933b 910c 803e bf2c f5bc
00000150: b7c9 0a3f 50f1 2c3e a31d 6e3e 670d 013f
00000160: a918 b03c d5c7 18be 23f3 b23c 9355 58bc
00000170: 4c8b 2c3f fbfe 633d 557e 213b 8621 533f
00000180: c799 dfbd 7842 9cbb 31f2 00bf 4a5c 60bc
00000190: 7aa8 27bd f0f6 c1bb 7e97 f83b 9063 9abd
000001a0: 6735 9bbe a2cb a73c 3fd7 36be ffd3 23bc
000001b0: 38c4 0fbe 51a9 e83c 9100 c33a de60 403f
000001c0: a936 723c 80ef d03e cddc 2abf d7c8 843e
000001d0: 6bd1 c4bc 002f ebbe 464b 23bd 1c27 8bbf
000001e0: 8a5f 733c e390 e1bc b606 883f e7e5 93bf
000001f0: 8100 93bf ff15 083e 31d0 c6bc 8355 bcbb
00000200: 5ddd ed3c bd75 d8bf 297c e7be 7d13 abbc
00000210: 79a3 af3c 26eb aebf 3f55 63bf 57e1 cbbf
00000220: 3f41 e8bd df32 93bf 760b c93c 38a8 f0bc
00000230: 34f8 c6bc ceff 64bd 6245 15bb 8cd6 953f
00000240: 4a6b 013b 5750 fcbe e27d 163c c7b3 c73f
00000250: e727 c1bc c34d 58be 8b84 023d 2038 12bd
00000260: 0294 163f 3aa4 3d3e 7710 083e bd5f 8ec0
00000270: db43 a93c b113 97be 194c 9d3c 5fc0 f93c
00000280: bc95 16bf 4287 02bf 41f7 143d ca72 9d3c
00000290: 66c6 063d e242 0640 b62f 7bbc 3dd8 3d3b
000002a0: 8741 183d 802e 113e 733f b23c ff6c 91bc
000002b0: f1a7 72bc 5412 97bc 840c 6c3c 75c9 12be
000002c0: f761 8c3c 214e 0040 e273 10c0 8aa0 763f
000002d0: 8d57 e13d 5ae8 1d3e acf5 3c3c 92f2 1a3c
000002e0: 3f0f 11bd 034f 163d 810b 9e3c ce7a 103f
000002f0: 50e9 e63f 2cd1 b0be ebb8 8e3d 089d a5bf
00000300: 96c0 db3c e291 e1bf dec4 cdbf 9172 4c3a
00000310: f680 fc3e dece 3440 47ef 87bf 17a2 bd3b
