log/train_1_1k/models/860_critic.pt (torch_old, 251025 bytes, 5 tensors)

fc1.weight f4 [300, 6]
0	0xbdd4f4de	-0.10398267
1	0x3ef59bac	0.4797033
2	0x3f285631	0.6575652
3	0x3e745a21	0.23862506
4	0xbfb6c9b9	-1.4280311
5	0x403cef75	2.9521153
6	0x3e59f8a8	0.21286261
7	0x3d01281b	0.03153239
8	0xbf2f581f	-0.6849384
9	0x404f39c0	3.2378998
10	0x3f1d5dd3	0.6147129
11	0x3f244762	0.6417142
12	0xbd0508dd	-0.032479156
13	0x3e8a5981	0.2702141
14	0xbf188a17	-0.5958571
15	0x3f0d38a7	0.5516457
16	0xbf761bcf	-0.9613618
17	0xbfd8de9d	-1.6942936
18	0xbe17d4cd	-0.14827271
19	0xbe5fbc93	-0.21849279
20	0x3f5775f3	0.8416435
21	0xbf25147b	-0.64484376
22	0x3ffaec62	1.9603388
23	0xbf96e739	-1.1789314
24	0x3ebf44ea	0.37357265
25	0x3db6f04d	0.089325525
26	0xbf48ca74	-0.7843392
27	0x3eed06fd	0.46294394
28	0xc00eeb15	-2.2330983
29	0x3f332810	0.69983006
30	0xbe065638	-0.13118827
31	0x3d7cae97	0.06168994
32	0xbe35b0bd	-0.17743202
33	0xbeb4ff97	-0.3535125
34	0xbfd651ec	-1.674375
35	0x3f0604ca	0.5235106
36	0xbe13b191	-0.14423205
37	0x3ea0067c	0.31254947
38	0xbe5493d6	-0.2075952
39	0xbff11442	-1.8834307
40	0xbe9aac88	-0.30209756
41	0x3e9d5e60	0.30736065
42	0x3e0aff23	0.1357389
43	0x3eb8dc8c	0.36105764
44	0xbf0ae971	-0.54262453
45	0x3e4f2336	0.20228276
46	0xbf661c8d	-0.89887315
47	0xbfd6333f	-1.6734389
48	0xbdfe55f8	-0.12418741
49	0x3f3cf649	0.738133
50	0x3f686906	0.90785253
51	0xbf15dafc	-0.5853727
52	0x3f4995ff	0.787445
53	0xbebe274f	-0.37139365
54	0xbbb13639	-0.005408075
55	0x3e974d98	0.29551387
56	0x3fd91d34	1.6962037
57	0x40094e78	2.1454144
58	0x3f889234	1.0669618
59	0x400daeb7	2.2137887
60	0x3e54efce	0.20794603
61	0x3f19d386	0.60088384
62	0x3e2df688	0.16988575
63	0x3f90d567	1.1315125
64	0x3f97c212	1.18561
65	0x3f619510	0.88118076
66	0x3b7adcd7	0.0038278603
67	0xbc9853ac	-0.018594585
68	0x40157bb6	2.3356757
69	0x3e5b1461	0.21394493
70	0xc01cc208	-2.4493427
71	0x40118382	2.2736516
72	0xbe83c313	-0.25734767
73	0x3ecdc69a	0.40190583
74	0x3f510693	0.81650656
75	0xbf11a6f4	-0.56895375
76	0x401fe091	2.4980814
77	0xbf0a97a3	-0.5413763
78	0x3d8cc764	0.06873968
79	0x3e27d55e	0.16389987
80	0xbfb28649	-1.394723
81	0x3fee4fab	1.8618063
82	0xbec92594	-0.39286482
83	0x3d631697	0.055441465
84	0xbe442781	-0.19155695
85	0x3f3427dc	0.7037332
86	0x3e9ec725	0.3101131
87	0x3d8c8537	0.06861346
88	0xbe6fa759	-0.23403682
89	0x402cfece	2.703052
90	0x3cd54d6b	0.026037892
91	0x3e473b55	0.19456227
92	0x3f468a99	0.77555233
93	0x3ec542f4	0.38527644
94	0x3ee9fe41	0.45701793
95	0x4028d9df	2.6382978
96	0x3e254683	0.1614018
97	0x3e87e575	0.2654225
98	0x3f46e563	0.77693766
99	0x3f98f14b	1.1948637
100	0xbf9c1077	-1.2192525
101	0x3e12ba6c	0.14328927
102	0x3e1c558c	0.15267009
103	0xbe9ffe98	-0.31248927
104	0xc016bb8c	-2.355197
105	0xbfbcf470	-1.4762096
106	0xbfc3e84f	-1.530527
107	0xbf30bb0a	-0.690354
108	0xbe58b6b4	-0.21163446
109	0x3d8ab62a	0.06773026
110	0xbf400c03	-0.7501833
111	0xbeaf2ce6	-0.34213942
112	0xc0178c3b	-2.367934
113	0x3e35b562	0.17744973
114	0x3e3062bc	0.17225164
115	0x3e24df7c	0.16100878
116	0x3fbfe816	1.4992702
117	0xc065ede5	-3.592645
118	0x3f9146be	1.1349714
119	0xc02db41c	-2.714118
120	0x3cc45ef6	0.023971062
121	0x3c58691c	0.013208654
122	0x3ea8c03d	0.32959166
123	0xbf7ad210	-0.9797678
124	0x3e0e827a	0.1391696
125	0xbd06fe30	-0.032957256
126	0x3d824510	0.06360829
127	0xbc804bc6	-0.015661132
128	0xbf34d867	-0.70642704
129	0xbf0ca274	-0.54935384
130	0x3da43e64	0.080197126
131	0x3f2481df	0.6426067
132	0xbc17655d	-0.0092404755
133	0xbed7e0c5	-0.42163673
134	0xbf2552f8	-0.64579725
135	0x3f15e37e	0.5855025
136	0x3f91c401	1.1387941
137	0xbfde402c	-1.7363334
138	0xbb899225	-0.00419833
139	0x3e6128df	0.21988247
140	0x3d51912b	0.051163834
141	0x3fa41999	1.2820312
142	0xbefa04a9	-0.4883168
143	0x3fa2866f	1.2697276
144	0x3dda5294	0.10660282
145	0x3d3fbc14	0.046810225
146	0xbfd3abb5	-1.6536776
147	0x402044a3	2.5041893
148	0xc049c3e4	-3.1525812
149	0x3feb8f95	1.8403193
150	0x3da57e72	0.08080758
151	0xbdd30d45	-0.10305265
152	0x3e913bb7	0.2836587
153	0x3e3f0d8a	0.18657508
154	0xbee342bb	-0.4438685
155	0xbf058a89	-0.5216451
156	0xbd5629b5	-0.05228587
157	0xbe27b5bd	-0.16377921
158	0x3fa4ef98	1.2885618
159	0x3fcd922d	1.6060234
160	0x3f4857a9	0.7825876
161	0x400f4bd0	2.2390022
162	0x3ced0897	0.02893476
163	0x3f210e1a	0.6291214
164	0x3ec76eed	0.38951817
165	0x3e7b14e6	0.24519691
166	0x3e90cd76	0.28281754
167	0xbf88f7c8	-1.0700617
168	0xbe112a33	-0.14176254
169	0x3e904ddd	0.28184405
170	0xbfb6a045	-1.426766
171	0x3d36ded3	0.044646095
172	0xc00d70f3	-2.2100189
173	0xbf1d20a3	-0.61377925
174	0xbcbfef3e	-0.02342951
175	0x3f2350f1	0.6379538
176	0x3f82fca2	1.0233347
177	0x3f97c8df	1.1858176
178	0x4018b2e1	2.385918
179	0xbeff7b9c	-0.49898994
180	0x3d553e77	0.052061524
181	0x3e87d440	0.2652912
182	0xbe85532d	-0.2604002
183	0xc02b7027	-2.6787202
184	0xbe9a37ea	-0.30120784
185	0xc026b93c	-2.6050558
186	0x3e1ff43e	0.15620515
187	0x3e1619cf	0.14658283
188	0x3f775b6f	0.9662389
189	0xbfd6f116	-1.6792324
190	0xbffe3cc1	-1.9862291
191	0xbf6f2226	-0.9341148
192	0x3d28baee	0.041193895
193	0x3fa9526d	1.3228279
194	0x3e41d3d9	0.1892847
195	0xc09750b1	-4.7286
196	0x3e899772	0.26873356
197	0xc00f04d5	-2.23467
198	0xbdcfa4f9	-0.10138888
199	0x3f67faab	0.90616864
200	0x3eb51295	0.3536574
201	0xbf66888c	-0.90052104
202	0xbdb4f558	-0.08835858
203	0xbf8c343b	-1.095344
204	0x3ecde36c	0.40212572
205	0xbe7b2d88	-0.24529088
206	0xbf734f0e	-0.950425
207	0xbe2acc0c	-0.166794
208	0xbfef9fa6	-1.8720596
209	0x3fbed128	1.490758
210	0x3d06476c	0.032782957
211	0x3e95252c	0.29129922
212	0x3fb53da7	1.415944
213	0x3e8995a9	0.26871994
214	0x3ebad113	0.36487636
215	0x4007a5ba	2.1194901
216	0x3e2981c8	0.16553414
217	0xbe9fd971	-0.31220582
218	0xbe88ad1f	-0.2669458
219	0x3f8c6809	1.0969249
220	0xbf917edb	-1.1366838
221	0x3f5a8439	0.85358006
222	0xbdfba47d	-0.12287233
223	0x3e089dfb	0.13341515
224	0x3e0b21b0	0.1358707
225	0x3e1ad695	0.15120919
226	0x3f5c2071	0.85987
227	0xbf472f3e	-0.7780646
228	0x3e92d012	0.2867437
229	0xbe095a17	-0.13413273
230	0x3dd06df7	0.10177224
231	0x3b8a4beb	0.004220476
232	0xbe72ec81	-0.23723032
233	0xbef32cf6	-0.4749524
234	0x3dc3aab6	0.09554045
235	0x3ddfb369	0.10922892
236	0xbfb3df91	-1.4052602
237	0x3f8967f5	1.073485
238	0x3f39303d	0.7233923
239	0x3fa6d2b6	1.3033054
240	0x3cf6bef7	0.030120356
241	0x3f17f877	0.593635
242	0xbf0b5864	-0.5443175
243	0xbce95ba9	-0.02848609
244	0xbed8f149	-0.42371586
245	0x4009e3cc	2.1545286
246	0x3d52a9c5	0.051431436
247	0x3cfd02b0	0.03088507
248	0x3ec1255a	0.3772381
249	0xbe1b58ff	-0.15170668
250	0xbecd90c2	-0.40149504
251	0x3f226ab1	0.6344405
252	0xbdb8de59	-0.090267844
253	0xbd5efa82	-0.05443812
254	0xbf1bd4f2	-0.60871804
255	0xc020d4ff	-2.5130002

fc1.bias f4 [300]
0	0xbf8db1e8	-1.1069918
1	0xc06d15e4	-3.704461
2	0x3f8dbd9e	1.1073492
3	0xc0553f0a	-3.3319726
4	0xc086d237	-4.213161
5	0x403c36eb	2.940852
6	0xbea9221c	-0.33033836
7	0xbf8a5a54	-1.0808816
8	0x3e85c853	0.26129398
9	0x40718bd0	3.7741585
10	0xc086f38a	-4.217229
11	0x404fce52	3.2469678
12	0x400a19ea	2.1578317
13	0x405e1c0c	3.4704618
14	0xbe00ee02	-0.12590793
15	0x40433f89	3.0507529
16	0x4061167e	3.5169978
17	0xc058f2e1	-3.3898242
18	0xc07da6eb	-3.9633129
19	0x3f40dbad	0.753352
20	0x407e6460	3.9748764
21	0x40824628	4.071064
22	0xc024c634	-2.5745974
23	0xc0a8e097	-5.2774158
24	0x3f69ff18	0.9140487
25	0x4028ca6f	2.6373556
26	0x4021770d	2.5228913
27	0x409ad233	4.838159
28	0xbd1962c0	-0.03744769
29	0xc01bce5f	-2.434471
30	0x408db9ff	4.4289546
31	0xc040a26e	-3.009914
32	0xbf6456cf	-0.8919496
33	0xbd9a45bb	-0.07532831
34	0xc0a3da69	-5.1204114
35	0x40481f35	3.1269047
36	0xc0e4fbad	-7.155722
37	0x3fad05a3	1.3517345
38	0xc0691890	-3.6421242
39	0x3fe714f2	1.8053267
40	0x3f457acf	0.77140516
41	0x4059c680	3.4027405
42	0x3f28609f	0.6577243
43	0x3f9870d9	1.1909438
44	0xbeecd813	-0.46258602
45	0x40a658ea	5.198354
46	0xc05968bc	-3.3970175
47	0xbedcf57e	-0.43156046
48	0x404a8294	3.1642199
49	0x3ea38c2d	0.31942883
50	0x3fba4f61	1.4555475
51	0x407693a2	3.8527608
52	0x3eaf9a96	0.34297627
53	0x4008290b	2.127505
54	0xc0ace83d	-5.4033494
55	0xbfc50d1b	-1.5394624
56	0x3fa55937	1.2917851
57	0x3ee77af4	0.45210993
58	0x3fe4bbb9	1.7869788
59	0xc0fadb9f	-7.839309
60	0xbedb1605	-0.42790237
61	0x40347454	2.8196
62	0xbf5f0172	-0.8711158
63	0x3ff20427	1.8907517
64	0x407b60f5	3.9277928
65	0x40266744	2.6000528
66	0xc05bfb8a	-3.4372277
67	0xbf9b3b8b	-1.2127546
68	0x407f9b52	3.993855
69	0x4045f37b	3.0929859
70	0x3f9e1e95	1.2353083
71	0x405b9c73	3.431424
72	0x404f4b1f	3.23896
73	0xc01fdfec	-2.498042
74	0xc037bfd6	-2.8710837
75	0xbda59462	-0.080849424
76	0x406fc61e	3.746467
77	0x3fa20b62	1.2659724
78	0x3fa00972	1.2502882
79	0xc09b9670	-4.862114
80	0xbf03f672	-0.5154792
81	0x3fa9c9cb	1.3264707
82	0x3f1e7efa	0.619125
83	0x40658732	3.5863767
84	0x40316fd7	2.7724512
85	0x40023492	2.0344586
86	0xbfc7423e	-1.556709
87	0xbf95632b	-1.1670889
88	0x4000c8c6	2.0122542
89	0xc010242f	-2.2522085
90	0xc004ab38	-2.0729504
91	0x400b869e	2.1800914
92	0x3f8866c3	1.065636
93	0x3ff731fe	1.9312131
94	0x3ffe65e0	1.987484
95	0x400a3872	2.1596951
96	0x40698db5	3.649274
97	0x3f3e551f	0.74348634
98	0x3fb32274	1.3994889
99	0x406424e0	3.5647507
100	0x3f5288f6	0.82240236
101	0xc0b6d665	-5.713671
102	0xc002158c	-2.032565
103	0x3f1f7872	0.6229316
104	0xbfb98466	-1.449353
105	0x3f2d16cc	0.6761291
106	0xc04e3b05	-3.2223523
107	0x404a0a74	3.156888
108	0x3f57217a	0.84035456
109	0x4067d4a7	3.6223543
110	0x403165dc	2.771842
111	0x40947561	4.6393285
112	0x4046b493	3.1047714
113	0x405592b9	3.3370802
114	0xbf0e3be0	-0.5556011
115	0x40552801	3.3305666
116	0x3f90f9a3	1.1326183
117	0xc08942cc	-4.289404
118	0x3f7582c4	0.9590266
119	0x404df0d5	3.2178242
120	0xbdf5413e	-0.119753346
121	0x4052adcc	3.2918577
122	0xc05a07e3	-3.4067314
123	0x3f75af92	0.95971024
124	0x401f34ba	2.4875932
125	0x3fb55ccf	1.4168948
126	0x4081d216	4.0568953
127	0x4034b1ad	2.8233445
128	0x400ac6a3	2.1683738
129	0x40772b5e	3.862022
130	0xbfd59467	-1.6685914
131	0x3f03422f	0.51272863
132	0x404710aa	3.110392
133	0xbf2de894	-0.6793301
134	0x40bbca59	5.8684506
135	0x3f0f9945	0.56093246
136	0xc001a338	-2.025587
137	0x40774e8e	3.8641696
138	0xc025f0a4	-2.5928125
139	0x4039679d	2.896949
140	0xc08487fc	-4.1415997
141	0xc083b501	-4.115845
142	0x401d01d9	2.4532378
143	0xc0770e8e	-3.8602633
144	0xc0a57145	-5.170077
145	0x403b475a	2.92623
146	0x405a692b	3.412669
147	0x401fdc62	2.497826
148	0x405a5eb3	3.41203
149	0x3f6a830c	0.9160621
150	0xc0782ebc	-3.8778524
151	0x4011bc4f	2.2771184
152	0x40585ddb	3.3807285
153	0x3fd75bfa	1.6824944
154	0xbdda7bd4	-0.106681496
155	0x40844a5d	4.1340775
156	0x3f0e9534	0.55696416
157	0xc0ba7e50	-5.827919
158	0x402e0f9a	2.7197022
159	0x4083b835	4.116236
160	0x3f9753a4	1.18224
161	0x400e83d2	2.2267957
162	0x408ba929	4.3643994
163	0x4000b993	2.0113266
164	0x4069bf14	3.6522875
165	0xc033c8c6	-2.8091292
166	0x406c44a8	3.6916904
167	0x3f98ce84	1.1938024
168	0x401c61e1	2.443474
169	0xc002fbe7	-2.046625
170	0xbf000ebc	-0.5002248
171	0xc08e45fb	-4.4460425
172	0xc011b613	-2.276738
173	0x409448f9	4.633908
174	0xbfe36f24	-1.7768292
175	0x404e20ed	3.2207596
176	0xbfd69d8e	-1.6766832
177	0x40908b7e	4.517028
178	0x408a3f2d	4.320212
179	0xc003eeb5	-2.0614445
180	0x3fb19f53	1.3876747
181	0x4068ef12	3.6395917
182	0xbf9c5601	-1.2213746
183	0x406c5b89	3.6930869
184	0x40190f95	2.391576
185	0x3fa1a89e	1.2629583
186	0x3ffaa57e	1.9581754
187	0xbe97d794	-0.2965666
188	0x402c0681	2.687897
189	0xc01768a5	-2.365762
190	0x3fb98f88	1.4496927
191	0x403270c6	2.7881331
192	0xbfb2cc9f	-1.3968695
193	0x3fa2e759	1.2726852
194	0x406ecab1	3.7311213
195	0xbf864d61	-1.0492364
196	0x40941551	4.627602
197	0x40524aaa	3.2858071
198	0x3f18f52e	0.59749115
199	0x40387100	2.881897
200	0xbe97888c	-0.29596364
201	0x40bbc9fc	5.8684063
202	0xbf2594ff	-0.64680475
203	0xc0987706	-4.764529
204	0x40214927	2.5200899
205	0xc009c632	-2.152722
206	0x3f4f6273	0.81009597
207	0x3ff84f02	1.9399111
208	0xbee640f3	-0.44971427
209	0x402dc4f0	2.715145
210	0xbff0c866	-1.8811157
211	0xbffb7329	-1.9644519
212	0xc084a79c	-4.14546
213	0xbfd0af15	-1.6303431
214	0xc03dba22	-2.9644856
215	0xc0df1f63	-6.9725814
216	0x40603ee0	3.5038376
217	0x3f558d12	0.8341838
218	0xc0460f51	-3.0946848
219	0x3fbd3323	1.4781231
220	0x405279d8	3.2886868
221	0xc083f31c	-4.1234264
222	0x401ec790	2.4809303
223	0x3fe36ecc	1.7768188
224	0x40a843a9	5.2582593
225	0xc0df02dd	-6.9690995
226	0xbed02d96	-0.4065978
227	0xc0257019	-2.584967
228	0x403a1d60	2.908043
229	0xbff544cb	-1.9161619
230	0xc0172fa5	-2.362283
231	0x407dddba	3.966658
232	0x3f7869e8	0.970366
233	0xc056e49d	-3.3577034
234	0xc073e638	-3.8109264
235	0xc048f718	-3.1400814
236	0x40667017	3.6005914
237	0xc05c4f69	-3.4423468
238	0x404c76e9	3.1947577
239	0xbf105b1a	-0.5638901
240	0x4053b17c	3.3077078
241	0xc05f49b6	-3.488874
242	0x406e4f07	3.7235734
243	0xbdc91223	-0.098179124
244	0x404bc44a	3.1838555
245	0xc03118d1	-2.7671397
246	0xc067d6a3	-3.6224754
247	0x3e2f1e2e	0.17101356
248	0x407e3f1b	3.9726017
249	0x4007baa4	2.1207666
250	0xc094d525	-4.6510186
251	0x40148e90	2.3212013
252	0x4038c72b	2.8871562
253	0xbf7b5d07	-0.98188823
254	0xbdb7b0d3	-0.089692734
255	0x3f71cf3f	0.9445686

fc2.weight f4 [200, 300]
0	0xbd445770	-0.04793495
1	0xbc7e17b0	-0.015508577
2	0x3b2e59b0	0.002660375
3	0xbd9f2c93	-0.07772174
4	0x3d30937c	0.043109402
5	0xbd0bac52	-0.034099884
6	0xbd251f06	-0.04031279
7	0xbc9f76cb	-0.019465825
8	0xbc9bcd48	-0.019018784
9	0xbbace1b8	-0.005275931
10	0xbd6c676c	-0.05771582
11	0xbd98009d	-0.07421992
12	0xbcb5a8a0	-0.022175133
13	0x3d14477a	0.036200978
14	0xbd51ad17	-0.051190462
15	0xbd32629b	-0.04355107
16	0xbbbfb0e6	-0.0058499454
17	0x3c1f960a	0.009740362
18	0x3d0713da	0.032977916
19	0xbc5ffcc0	-0.0136711
20	0xbce14a93	-0.02750138
21	0xbda66829	-0.08125336
22	0xbdb56fde	-0.088592276
23	0x3cc54ccc	0.024084471
24	0xbd2a09dc	-0.04151331
25	0xbdba174a	-0.09086473
26	0xbd0566d5	-0.03256877
27	0x3d09c7f1	0.033637945
28	0x3c0c8afb	0.008578057
29	0x3a153000	0.00056910515
30	0xbc693ba8	-0.014235415
31	0xbd40b986	-0.04705193
32	0xbd37b1ff	-0.044847485
33	0xbcc94024	-0.024566717
34	0x3c7f0023	0.015563997
35	0xbd791097	-0.060806837
36	0xbd6cf2fc	-0.057848915
37	0xbceced12	-0.028921638
38	0xbcdabec5	-0.026702294
39	0xbdaeb148	-0.085299075
40	0xbd67c9b3	-0.05658884
41	0xbd287f53	-0.04113705
42	0xbdb0eb9a	-0.086386874
43	0x3c624170	0.013809547
44	0xbc75d15c	-0.015003528
45	0x3c1852a5	0.009297048
46	0x3d64aac0	0.055826902
47	0xbd63dbe0	-0.05562961
48	0xbbdfc7d9	-0.0068292436
49	0xbd122498	-0.03567943
50	0xbb5a09a0	-0.0033269897
51	0xba2dceb7	-0.0006630229
52	0xb80af000	-3.312528e-05
53	0xbd9a5a2f	-0.075367324
54	0x3c524418	0.012833618
55	0xbda362b6	-0.07977812
56	0xbd321c4b	-0.043484014
57	0xbd147272	-0.036241956
58	0x3cc8f9b8	0.024533138
59	0xbd308f9b	-0.043105703
60	0xbd1f5f5b	-0.038909297
61	0x39b35c9c	0.0003421054
62	0xbc352868	-0.011056997
63	0xbc4179f0	-0.011808857
64	0xbcc029ff	-0.023457525
65	0xbd021342	-0.031756647
66	0x3cc45ef0	0.023971051
67	0xbd78689e	-0.060646646
68	0xbdd47948	-0.10374695
69	0xbd062e0e	-0.032758765
70	0xbc5e9b10	-0.0135867745
71	0x3bf81e66	0.007571983
72	0xbc2f1ac0	-0.01068753
73	0xbda25145	-0.07925657
74	0xbdb67d66	-0.089106366
75	0xbca0a77c	-0.019611113
76	0xbbfb1438	-0.0076623224
77	0xbd5c688e	-0.05381065
78	0xbaa7ac62	-0.0012792463
79	0x3c5e5de8	0.013572194
80	0xbbab9c35	-0.005237127
81	0xbd8b42da	-0.0679986
82	0x3d08f118	0.03343305
83	0x3d06d606	0.032918952
84	0xbc029813	-0.007970828
85	0x3ce17a0c	0.027524017
86	0xbda4d1e8	-0.08047849
87	0x3cd9c4c4	0.026583083
88	0xbd7df29b	-0.061998945
89	0xbc338b7c	-0.010958549
90	0xbd3528c9	-0.04422835
91	0xbd1a719f	-0.037706014
92	0x3ca8ac50	0.020589978
93	0xbdb98aa9	-0.090596505
94	0xbd408707	-0.047003772
95	0x3c2ac4a8	0.010422863
96	0xbd009859	-0.03139529
97	0xbd68f771	-0.056876604
98	0xbd1f6efb	-0.0389242
99	0xbc15e973	-0.009149897
100	0x3ce5367e	0.027980085
101	0x3cfa2dc0	0.030539393
102	0xbae4ec46	-0.0017465435
103	0x3cdb4974	0.026768424
104	0xbd0bf2a3	-0.034166943
105	0xbc28e650	-0.010308817
106	0x3b4a1516	0.0030835322
107	0xbd356fde	-0.044296138
108	0xbc8bae70	-0.017050952
109	0xbd0c2d3b	-0.034222823
110	0x3cf2c731	0.029635997
111	0xbd811559	-0.063029
112	0xbd950aca	-0.072774485
113	0xbc080a9f	-0.0083033135
114	0x3d5a2b88	0.05326417
115	0xbd431be9	-0.04763404
116	0x3d0d13b4	0.03444262
117	0xbda58d68	-0.08083612
118	0xbb8bb422	-0.004263417
119	0xbceb83cb	-0.028749367
120	0xbd182f7d	-0.037154663
121	0xbc1bc960	-0.009508461
122	0x3cf0ae84	0.02938009
123	0xbbb160ca	-0.0054131495
124	0xbcb475dd	-0.022028858
125	0x3cdfe719	0.027331876
126	0x3c6e622e	0.014549775
127	0xbd80c351	-0.06287254
128	0xbd16dba4	-0.03683056
129	0xbda0612c	-0.07831034
130	0xbd1d53e9	-0.0384101
131	0xbce5d6a6	-0.028056454
132	0xbd94fb2a	-0.07274468
133	0x3d6adc4e	0.057339005
134	0x3a8effe5	0.0010910003
135	0x3c93a369	0.018022256
136	0x3d011b9e	0.03152048
137	0xbd00dac1	-0.03145862
138	0xba99e120	-0.0011740066
139	0xbd4cdc09	-0.05001453
140	0xbd1b5430	-0.037922084
141	0xbd5af5a0	-0.053456903
142	0xbd84f58d	-0.064921476
143	0x3cd0d004	0.025489815
144	0x3d250540	0.04028821
145	0xbba17685	-0.0049274587
146	0xbc7bc7e9	-0.0153674865
147	0xbd86e5a6	-0.06586771
148	0xbd4185a8	-0.047246605
149	0x3cf7ef86	0.03026558
150	0xbca6e7f6	-0.02037428
151	0x3b3af5f1	0.002852794
152	0xbd0d07fb	-0.03443144
153	0xbceef69e	-0.02917033
154	0xbd2fb03a	-0.042892672
155	0xbda097dc	-0.07841465
156	0xbd51316d	-0.051072527
157	0x3d326722	0.043555386
158	0xbd399e31	-0.04531688
159	0xbd1ec702	-0.038764007
160	0xbcb4d51a	-0.022074271
161	0xbd594bac	-0.053050682
162	0xbdb51dd5	-0.08843581
163	0xbd89ef01	-0.067350395
164	0xbd35dd3e	-0.044400446
165	0xbd239197	-0.039933767
166	0xbd63b3c5	-0.055591363
167	0xbd3e0e44	-0.046400324
168	0xbcb29d33	-0.021803474
169	0xbd204ded	-0.039136816
170	0xbdad26bf	-0.08454656
171	0x3cc3cf99	0.023902701
172	0xbd4d27c5	-0.050086755
173	0xbd670b3f	-0.05640721
174	0x3a941c80	0.0011299998
175	0x3d0055f1	0.03133196
176	0xbd4bd650	-0.04976493
177	0x3d040f14	0.032240942
178	0xbd1028c6	-0.035195135
179	0xbcf77355	-0.030206362
180	0x3c8eb995	0.017422477
181	0xbd8ae902	-0.06782724
182	0x3d48b96e	0.049004965
183	0xbcdf5e61	-0.027266683
184	0xbd171a24	-0.036890164
185	0xbd8c38f3	-0.068468
186	0xbc9ec31a	-0.019380141
187	0xbdc18d78	-0.09450811
188	0xbc7710dd	-0.015079704
189	0xbd6ea0ae	-0.058258705
190	0xbc4ebc83	-0.012618187
191	0x3c82c30b	0.015962144
192	0x3d6a7cb0	0.057247818
193	0xbcfa2b9a	-0.030538369
194	0xbd460aa4	-0.04834999
195	0x3c8611d8	0.01636593
196	0x3bcbaf40	0.00621596
197	0xbd07ef47	-0.033187177
198	0x3b653e4d	0.003497976
199	0xbd3135d2	-0.043264218
200	0x3c00e5b8	0.007867269
201	0xbd890888	-0.0669108
202	0xbd94a53a	-0.07258077
203	0xbc2516b4	-0.010076214
204	0x3d021efa	0.031767823
205	0xbd88d1d8	-0.066806495
206	0x3d1d1fce	0.03836041
207	0xbd156e0c	-0.036481902
208	0xbb158e30	-0.0022820346
209	0xbc9bf070	-0.019035548
210	0xbd72f9fa	-0.059320427
211	0x3cffb7bc	0.031215541
212	0xbaf2b9a0	-0.0018518455
213	0xbc9433f2	-0.018091176
214	0xbd0fb77e	-0.0350871
215	0xbcf41414	-0.02979473
216	0xbd9368d1	-0.071977265
217	0xbcd7cb0a	-0.026341934
218	0xbd6ade60	-0.05734098
219	0x3ce755c0	0.028239131
220	0xbd9e03b2	-0.077155486
221	0xbcbefd36	-0.0233141
222	0x375465bf	1.2659874e-05
223	0xbd2d3c6e	-0.04229396
224	0xbd676130	-0.05648917
225	0xbbcc97b8	-0.006243672
226	0x3c3d9e20	0.0115733445
227	0xbd12c4c0	-0.035832167
228	0xbcee5676	-0.029093962
229	0x3cbc3484	0.02297426
230	0x3c653810	0.013990417
231	0xbcadb747	-0.021205558
232	0xbceaf343	-0.02868045
233	0xbd43b442	-0.04777933
234	0xbda5f6e1	-0.08103729
235	0x3af4b940	0.0018670931
236	0xbd93a751	-0.072096474
237	0xbc53b3c8	-0.012921281
238	0xbd899529	-0.06717903
239	0xbcafa7a2	-0.021442238
240	0xbd19d176	-0.037553273
241	0xbd9eaf92	-0.07748331
242	0xbd4db2e2	-0.050219424
243	0xbd46852d	-0.04846685
244	0x3b94e3b9	0.004543748
245	0x3d3a6362	0.045504935
246	0xbc17d98d	-0.009268177
247	0xbd4bca98	-0.049753755
248	0xbd69ddea	-0.0570964
249	0x3bd55ae0	0.0065110773
250	0x3c202a7b	0.009775753
251	0x3ce30014	0.027709998
252	0xbd0ac1f2	-0.033876367
253	0x3d324242	0.04352022
254	0xbca0abfa	-0.019613255
255	0x3cf2ef38	0.029655084

fc2.bias f4 [200]
0	0xbc31ed6b	-0.0108598275
1	0x3e29dee4	0.16588932
2	0xbfcf755d	-1.6207691
3	0x401ca6f8	2.447691
4	0xbd176074	-0.03695722
5	0xbdc784d5	-0.097421326
6	0x3fe2b231	1.771063
7	0xbd9f7e9b	-0.0778782
8	0xbd30d042	-0.04316736
9	0x3eba59b2	0.36396557
10	0xbd8c7773	-0.06858721
11	0xbdbaa002	-0.0911255
12	0xbf94d41a	-1.1627228
13	0xbd744dd3	-0.05964453
14	0xbdc81945	-0.09770445
15	0x3c97e92d	0.018543804
16	0xbcd0b46d	-0.025476659
17	0xbd8c3123	-0.068453096
18	0x3e7fa8c5	0.24966724
19	0x3f8704e6	1.054837
20	0x401f7d15	2.4920094
21	0x3f872fdf	1.0561484
22	0x3f1d0619	0.6133743
23	0xbd453339	-0.048144553
24	0x3e86b6c5	0.26311317
25	0x3b8e6f5d	0.0043467716
26	0xbf0b1012	-0.54321396
27	0x3f68c890	0.90931034
28	0xbd3c22bb	-0.04593156
29	0x400cab9a	2.1979737
30	0x3f802328	1.0010729
31	0x40072f1a	2.1122499
32	0x3d0ea225	0.0348226
33	0x4001d2d0	2.028492
34	0xbd2bf60e	-0.041982703
35	0xbce3909d	-0.027778918
36	0x3f55a610	0.83456516
37	0xbfad3e2f	-1.3534602
38	0xbfb1614c	-1.3857818
39	0x3fb3b673	1.4040054
40	0x3a346254	0.0006881107
41	0xbd86aef6	-0.0657634
42	0x3f6b1c63	0.9184019
43	0xbd4c6ea9	-0.04991022
44	0x3bef96c6	0.0073116748
45	0xbd59bcf4	-0.053158715
46	0xbec3f2c2	-0.38271147
47	0xbe865906	-0.26239794
48	0x3f3fa915	0.74867374
49	0x3d83ee67	0.06441956
50	0xbdccef91	-0.10006631
51	0x3df4903a	0.119415715
52	0xbce1cb7b	-0.027562847
53	0xbd96c04c	-0.073608965
54	0x3cb7e4c8	0.022447959
55	0xbd3e9f75	-0.04653879
56	0x3cc9078e	0.024539735
57	0x3d1345a9	0.035955105
58	0x3f1dd9fc	0.6166074
59	0x3f1afe3e	0.6054419
60	0xbd7a0a97	-0.061045256
61	0xbe635a5a	-0.22202435
62	0xbf68b32a	-0.9089838
63	0xbd30a54a	-0.043126382
64	0x4019cabc	2.402999
65	0xbc094320	-0.00837782
66	0xbd0226ca	-0.031775273
67	0x3e31f923	0.17380194
68	0xbd596aec	-0.053080484
69	0x3d340c63	0.043957125
70	0xbf9a879a	-1.2072632
71	0x3ea0ce8b	0.3140758
72	0x4014072c	2.3129377
73	0x3f595110	0.84889317
74	0xbebfc338	-0.37453628
75	0x3d55d8d9	0.052208755
76	0xbd133221	-0.03593648
77	0xbd4f54db	-0.050618034
78	0x3fa0af4b	1.2553495
79	0x40152dbc	2.3309164
80	0xbf32cffb	-0.69848603
81	0xc0225cfd	-2.5369256
82	0x3f8c1aef	1.094572
83	0xbd4a35c7	-0.049367692
84	0x3ef0f72f	0.47063586
85	0xbfd2eb8c	-1.6478133
86	0x4027685d	2.6157448
87	0x3fd43c46	1.6580894
88	0x3f4dd9f2	0.80410683
89	0x3d81c13a	0.06335683
90	0xbf0f8c86	-0.56073797
91	0xbfbc325b	-1.4702867
92	0x401ba145	2.431718
93	0xbfaf9959	-1.3718673
94	0x3b7f8cc4	0.0038993815
95	0x3f32994a	0.6976515
96	0x403605ae	2.8440967
97	0xbc0b239a	-0.008492375
98	0x3e8923e0	0.26785183
99	0xbd0a3551	-0.033742253
100	0xbd438179	-0.047730897
101	0xbd6f6016	-0.058441244
102	0x3c66ebff	0.014094352
103	0x3fd20c29	1.6409961
104	0x4011b150	2.2764473
105	0xbdad171f	-0.084516756
106	0x3f268769	0.6505037
107	0xbd8904a0	-0.06690335
108	0x3fc922aa	1.5713704
109	0x3c90441e	0.017610606
110	0x3e1a69cf	0.15079425
111	0x3f3e888a	0.7442709
112	0x3be91a99	0.0071137664
113	0x3fa19121	1.2622415
114	0xbe334144	-0.17505366
115	0xc00eaddd	-2.2293618
116	0xbdbfdfc6	-0.09368853
117	0x3f94b32e	1.1617181
118	0xbd37543f	-0.044758078
119	0x40110b9c	2.2663336
120	0x3c84e5ed	0.016222918
121	0xbda235ed	-0.07920442
122	0x3fe80d0f	1.8128985
123	0x3fb242a8	1.3926592
124	0x3efea734	0.4973694
125	0x3e92a094	0.28638136
126	0x3fddc036	1.7324283
127	0xbdb1baa2	-0.086781755
128	0x3eda7c5d	0.42673007
129	0x3fd756ba	1.6823342
130	0x3fdd6430	1.72962
131	0x3c42e921	0.011896403
132	0x3ceaa13a	0.028641332
133	0x400fe63d	2.2484276
134	0x3fd95f29	1.6982166
135	0x3fe9bb12	1.8260214
136	0x4033bd36	2.8084235
137	0x40235eda	2.5526643
138	0xbd6e622e	-0.0581991
139	0xbe0d0413	-0.13771085
140	0xbd4b68f0	-0.049660623
141	0xbd2b1f35	-0.04177781
142	0xbee7ef7f	-0.4529991
143	0x401be182	2.435639
144	0xbd128640	-0.035772562
145	0xbd00d6d9	-0.031454895
146	0xbc84af3c	-0.01619684
147	0x3f645162	0.8918668
148	0xbdac348e	-0.084084615
149	0xbe81b96a	-0.25336772
150	0x3c765d2c	0.015036862
151	0xbd0883b8	-0.03332874
152	0x4017a878	2.3696575
153	0x4017180e	2.3608432
154	0x3f03516d	0.5129612
155	0x3f5b2455	0.85602313
156	0xbbbf91a6	-0.00584622
157	0x3fd1d39b	1.6392702
158	0xbfa2746e	-1.2691782
159	0xbd0f80ce	-0.035034947
160	0x3fed4495	1.8536555
161	0x401157c8	2.2709827
162	0xbd59631c	-0.053073034
163	0xbfaea79c	-1.36449
164	0xbd80e291	-0.06293214
165	0x3fa3ebf3	1.2806381
166	0x3f28fe31	0.66012865
167	0x3d3479c5	0.04406144
168	0xbfd6b557	-1.677409
169	0x400d5f4d	2.2089417
170	0xbdc1fad8	-0.09471673
171	0xbda769fa	-0.0817451
172	0x3f9d7711	1.2301961
173	0xbc8d5234	-0.017251112
174	0xbc2d6d0f	-0.010585084
175	0x401fa955	2.4947102
176	0x3f9a8465	1.2071654
177	0x3fa775e7	1.3082856
178	0x3f221a3e	0.6332129
179	0x3f07a619	0.5298782
180	0x3f569f7a	0.8383709
181	0xc03a6952	-2.9126782
182	0xbc0f4635	-0.008744766
183	0x3e8be1c2	0.27320677
184	0xbd98eafe	-0.07466696
185	0xbd3be823	-0.04587568
186	0xba8d0be4	-0.001076099
187	0xc0177bcc	-2.366931
188	0x3f010c3c	0.50409293
189	0x3e390a98	0.18070447
190	0x401fdb87	2.497774
191	0x3ed22b6e	0.4104876
192	0xbd7f61cc	-0.062349126
193	0x40015f07	2.021425
194	0x3fb8de7a	1.4442894
195	0xbd89c021	-0.06726099
196	0x3f9be00f	1.2177752
197	0xbe4809bf	-0.19534968
198	0x3e9024de	0.28153127
199	0x3eb73772	0.3578449

fc3.weight f4 [1, 200]
0	0xbc06a726	-0.008218562
1	0xba91b34f	-0.001111606
2	0x3e4636e7	0.19356881
3	0xbe7cf9ca	-0.24704662
4	0xbd0203a2	-0.031741746
5	0xbc807d01	-0.015684607
6	0xbe32c8ac	-0.17459363
7	0xbcd3d91f	-0.025860367
8	0xbd763234	-0.06010647
9	0xbfcbb710	-1.5915241
10	0x3a5c83e7	0.0008411989
11	0xbabd99bc	-0.0014465372
12	0x3e19aa66	0.15006408
13	0xbcb5c9b6	-0.02219091
14	0xbc3fbc9e	-0.011702685
15	0xbc7e9a93	-0.015539783
16	0x3b535067	0.0032243968
17	0xbb70d330	-0.0036746971
18	0xbf88a5a5	-1.0675551
19	0x3d749423	0.059711587
20	0xbdfc576c	-0.12321362
21	0x3e0105b9	0.1259984
22	0xbfc96524	-1.5733991
23	0xbfbf4e6d	-1.4945809
24	0xbfc43cf9	-1.5331107
25	0x3b8c544b	0.0042825094
26	0x3e5651f0	0.20929694
27	0x3fb0dbf9	1.381713
28	0xbca47fdf	-0.020080505
29	0xbdd4ebcc	-0.10396537
30	0x40130ef8	2.2977886
31	0x3cf231a7	0.029564692
32	0xbca8dd13	-0.020613229
33	0xbf208195	-0.62697726
34	0x3bc87aee	0.00611817
35	0x3cd563a9	0.026048498
36	0xbfca5f4e	-1.5810335
37	0xbd1f3463	-0.03886832
38	0x3ebe9fe0	0.3723135
39	0x3cbaf20a	0.022820491
40	0x3c6d605c	0.014488306
41	0x3c7e4c73	0.015521157
42	0x3facbd31	1.3495237
43	0xba722ed9	-0.0009238548
44	0x3c183b34	0.009291459
45	0x3d0c4893	0.0342489
46	0xbb881a3f	-0.0041535194
47	0x3d01e07a	0.03170822
48	0x3fb6b416	1.4273708
49	0xbfdb92bd	-1.7154156
50	0x3d020f5a	0.03175292
51	0xbf84c6ac	-1.037313
52	0x3cb160ca	0.021652598
53	0x3ad5f431	0.0016323385
54	0xbb901926	-0.004397529
55	0x3ca6a6a9	0.020343142
56	0xbc66401f	-0.014053374
57	0xbc9370a0	-0.01799804
58	0xbf505854	-0.8138478
59	0xbfb78ed6	-1.4340465
60	0x3cd1ba25	0.025601456
61	0x3f7a5c66	0.9779724
62	0x3e41da72	0.18930987
63	0x3cd150ad	0.025551165
64	0xbd030013	-0.031982493
65	0xbcf2a409	-0.029619234
66	0x3ceff487	0.029291404
67	0xc018eee6	-2.3895812
68	0x3ce9b6da	0.028529573
69	0x3ff96686	1.9484413
70	0x3e8b8dfb	0.2725676
71	0xbf1bf83f	-0.6092567
72	0xc01ec679	-2.4808638
73	0x3fc0d114	1.5063806
74	0x3e923b0c	0.28560674
75	0x3c15494a	0.009111712
76	0x3ca7fe6a	0.020507056
77	0xbc8d0be4	-0.017217584
78	0xbe874f1e	-0.2642755
79	0xbfa4cdfc	-1.2875361
80	0xbc2b984d	-0.010473323
81	0xbcde6460	-0.027147472
82	0x3e223ab8	0.15842712
83	0xbcf52cbf	-0.029928563
84	0x3e92da9a	0.28682405
85	0x3dbed336	0.09317629
86	0x3e479d7f	0.19493674
87	0x3e838954	0.2569071
88	0x3cb018a9	0.021496134
89	0xbe18c7d5	-0.1491998
90	0x3cb2f323	0.021844452
91	0x3c7478cb	0.014921377
92	0x3f504006	0.8134769
93	0xbcb69464	-0.022287555
94	0x3b217e55	0.002464195
95	0x3f532186	0.8247303
96	0xbd877ff8	-0.06616205
97	0xbb9c4278	-0.004768666
98	0xbf00f231	-0.50369555
99	0xbc605c4a	-0.013693878
100	0xbd27a87a	-0.040932156
101	0xbbc1f6f0	-0.00591933
102	0x3bf8977e	0.0075864187
103	0xbea8baf1	-0.32955125
104	0xbebf2d0c	-0.37339056
105	0x3ca7cba2	0.020482842
106	0xbe36d73f	-0.17855547
107	0x3cb2435b	0.021760633
108	0xbdd685e4	-0.10474756
109	0x3ce8a951	0.028401049
110	0x3ac30091	0.0014877488
111	0x3f6ca6d4	0.9244206
112	0x3c7236a9	0.01478354
113	0x3ed1ae02	0.4095307
114	0xbf2adccd	-0.66743165
115	0x3e690ee0	0.2275958
116	0xbcc4d16b	-0.02402564
117	0xbf055c67	-0.5209412
118	0xbd234b46	-0.03986671
119	0xbf40afce	-0.75268257
120	0x3c735f8a	0.014854321
121	0xbce190e3	-0.027534908
122	0x3f8806b6	1.0627048
123	0xbf891a89	-1.0711223
124	0xbf9adcfd	-1.209869
125	0x3da63538	0.081156194
126	0xbdd3205c	-0.103089064
127	0xbbbc5583	-0.0057474985
128	0x3ceddd5d	0.029036218
129	0xc001ac8e	-2.026157
130	0xbe2e3931	-0.17014004
131	0xbcab137d	-0.020883316
132	0x3cafa379	0.021440255
133	0xc006fddf	-2.109245
134	0xbf92e4d1	-1.1476079
135	0xbfdd8bef	-1.7308329
136	0xbdf51da6	-0.119685456
137	0xbf98b51f	-1.1930274
138	0x3cc90b76	0.024541598
139	0xbcf0a838	-0.029377088
140	0xbcc6f834	-0.024288274
141	0xbd64ffce	-0.055908017
142	0x3cef9838	0.029247388
143	0x3f761702	0.9612886
144	0x3b016b4a	0.0019747787
145	0xbf0a1610	-0.53939915
146	0x3c167de2	0.009185286
147	0x3fb971f4	1.4487901
148	0xbcc127e7	-0.023578597
149	0xbe584dc3	-0.21123414
150	0x3d02848b	0.031864684
151	0xbd123820	-0.035698056
152	0x3f105706	0.5638279
153	0x3e885e33	0.26634368
154	0x3d1409e8	0.03614226
155	0xc08e5fbd	-4.449187
156	0x3caa82f4	0.020814396
157	0xbed5890d	-0.41706124
158	0x3c9d4c19	0.019201325
159	0x3cf9c05f	0.030487237
160	0xbf0f923d	-0.56082517
161	0xbf06f983	-0.52724475
162	0x3d14f741	0.036368612
163	0xbce7d3bf	-0.02829921
164	0x3d06c666	0.03290405
165	0x400ff1c9	2.2491324
166	0xbf1f6447	-0.62262386
167	0x3b3dd83d	0.0028968
168	0x3d184187	0.037171867
169	0x3db92cf7	0.090417795
170	0x3cb23f73	0.02175877
171	0xbc916cff	-0.017752169
172	0xbc72a7f1	-0.014810548
173	0xbc971254	-0.018441357
174	0x3c6c0c84	0.014407281
175	0xbef28f71	-0.47375062
176	0x3cb5ff5d	0.022216493
177	0x3fe1f129	1.7651721
178	0xbfd0a930	-1.6301632
179	0x3fc43deb	1.5331396
180	0x3cb4d34f	0.022073416
181	0x3e1de85a	0.15420666
182	0x3c3cf5ac	0.011533182
183	0x3c1af292	0.009457247
184	0xbd110f3f	-0.03541493
185	0x3d164f03	0.036696445
186	0x3c9e0b81	0.019292595
187	0x3f107ace	0.56437385
188	0x3fe4b8c8	1.7868891
189	0xbe968cf7	-0.29404423
190	0x3d9d2d40	0.076746464
191	0xbfa59d08	-1.2938547
192	0x3cdbc096	0.02682523
193	0xbff315f6	-1.8991077
194	0xbfcc0ef2	-1.5942061
195	0x3a4c7291	0.0007799054
196	0x3ec88a0d	0.39167824
197	0x40345588	2.8177204
198	0xbf87ef47	-1.0619897
199	0x3dc0257e	0.09382151
