log/train_2_1k800/models/1140_actor.pt (torch_old, 249426 bytes, 6 tensors)

fc1.weight f4 [300, 4]
0	0x3e083978	0.13303173
1	0xbdc3ae30	-0.09554708
2	0xbf99bf6d	-1.2011544
3	0xbf406d4f	-0.7516679
4	0xbe7b65f4	-0.24550611
5	0x3d439ca2	0.0477568
6	0x3fa4d4cc	1.287744
7	0xbe4ee029	-0.20202698
8	0xbd471c10	-0.048610747
9	0x3d5f26d4	0.05448039
10	0xbfbf323c	-1.4937205
11	0xbed544b9	-0.41653994
12	0xbe8abd58	-0.27097583
13	0xbd8688ca	-0.06569059
14	0xbf62d4ed	-0.8860615
15	0x3f193c57	0.59857696
16	0xbe574fef	-0.21026586
17	0x3e6b4ba7	0.22978078
18	0xbf6fabe3	-0.93621653
19	0x3e8549a9	0.2603276
20	0xbe161c03	-0.14659123
21	0x3e1f3e12	0.15551022
22	0x3f83fc43	1.0311359
23	0x3f320e15	0.6955274
24	0xbdd54551	-0.10413612
25	0xbf12b948	-0.57313967
26	0x3ec8e542	0.3923741
27	0xbf2a2a42	-0.6647073
28	0x3edb243e	0.42801088
29	0x3da12ee0	0.07870269
30	0x3ecc8c1f	0.39950654
31	0xbf0ef65e	-0.55844676
32	0x3e936d39	0.28794268
33	0xbe217533	-0.15767364
34	0xbf71515a	-0.9426476
35	0x3ea52ac4	0.3225919
36	0xbc5003e7	-0.012696243
37	0x3f050bcc	0.51971126
38	0x3eb8e255	0.36110178
39	0x3f2adda8	0.6674447
40	0xbd856172	-0.06512727
41	0xbc501e73	-0.012702572
42	0xbd1ad786	-0.037803195
43	0xbdf52243	-0.119694255
44	0x3ebc12b5	0.36733022
45	0xbdcb61e4	-0.099307805
46	0x3f828168	1.0195742
47	0x3f0c5e41	0.5483132
48	0xbec6b99d	-0.38813487
49	0xbdcab6f2	-0.09898175
50	0x3ef47254	0.47743475
51	0x3d9b1aa3	0.0757344
52	0xbd8e8119	-0.06958217
53	0xbe9bceb9	-0.30431154
54	0x3f75a5e5	0.9595626
55	0x3f1cee96	0.61301553
56	0x3ece880e	0.40338176
57	0x3df2059b	0.118174754
58	0x3e6a3aaa	0.22873941
59	0x3dba16f7	0.090864114
60	0x3e376c2f	0.17912363
61	0xbcbcf247	-0.023064746
62	0x3f9795e0	1.1842613
63	0xbf822e88	-1.017045
64	0xbdc81bc9	-0.097709246
65	0x3e696b4e	0.2279484
66	0x3ee2b1ed	0.44276372
67	0x3f77dae9	0.96818405
68	0x3e3a445c	0.1819014
69	0x3db9a590	0.09064782
70	0x3f2a3855	0.66492206
71	0x3f4b6b8d	0.79460984
72	0xbe3a7b26	-0.1821104
73	0xbe8b18ac	-0.2716726
74	0xbfaa50ef	-1.3305949
75	0x3cc4b4c2	0.024011973
76	0xbe8dd08b	-0.27698168
77	0xbeef2d4e	-0.46714252
78	0xbeb2d65c	-0.34929168
79	0x3f17088c	0.58997416
80	0x3e828b82	0.2549706
81	0x3ef8aafc	0.4856795
82	0xbd83ef2e	-0.06442104
83	0xbf2b5856	-0.66931665
84	0x3e8e686b	0.2781404
85	0xbd4f6c58	-0.050640434
86	0xbc9470bf	-0.018120168
87	0xbf4809cf	-0.78139967
88	0xbece860d	-0.40336648
89	0xbea62bd0	-0.324553
90	0xbf6b1a49	-0.9183698
91	0x3ed80069	0.42187813
92	0x3eb6ee07	0.35728475
93	0xbedf6865	-0.43634334
94	0xbee51e52	-0.44749695
95	0x3e911eb1	0.28343728
96	0x3f025d75	0.50923854
97	0xbe092310	-0.13392282
98	0x3f66165f	0.89877886
99	0xbf398004	-0.7246096
100	0x3e276b7a	0.16349593
101	0x3cfe0789	0.031009452
102	0xbf8a0e39	-1.078559
103	0xbee86972	-0.45392948
104	0x3e602c31	0.21891858
105	0xbbc0060d	-0.0058600963
106	0xbf332482	-0.6997758
107	0x3df09812	0.11747755
108	0x3d3abb71	0.045588914
109	0x3e6664bb	0.22499363
110	0xbed95319	-0.4244621
111	0x3f52c5d9	0.8233314
112	0x3ec9dca2	0.39426142
113	0x3e6e4453	0.23268251
114	0x3eb2bb7b	0.3490866
115	0x3d010aac	0.031504318
116	0xbea17689	-0.31535748
117	0xbe77950f	-0.24177955
118	0xbfb2b621	-1.3961831
119	0x3f1ca0c0	0.61182785
120	0xbe802aed	-0.2503275
121	0x3e7506b3	0.23928337
122	0x3faeef63	1.3666805
123	0x3dd76db6	0.105189726
124	0xbd725b6c	-0.059169218
125	0xbe92fe59	-0.28709677
126	0xbf011ef4	-0.50437856
127	0x3e8ccd63	0.27500448
128	0x3e8fa8af	0.28058383
129	0x3d4724d9	0.048619125
130	0xbee0164b	-0.43767008
131	0xbf0c7418	-0.54864645
132	0xbe8aea3b	-0.2713183
133	0x3c8556d4	0.016276754
134	0x3f030d23	0.5119192
135	0x3c69e862	0.014276596
136	0x3df16845	0.11787466
137	0x3e8bb623	0.27287397
138	0x3f8b5480	1.0885162
139	0x3eea5f85	0.45776
140	0xbe52776d	-0.2055337
141	0xbec7df13	-0.3903738
142	0x3f2030a7	0.6257424
143	0xbdc0d3e7	-0.09415417
144	0xbca6c06f	-0.020355431
145	0xbea75a01	-0.32685855
146	0xbd0234f1	-0.03178877
147	0xbeb3d1f8	-0.3512113
148	0xbe71f101	-0.23627092
149	0xbe1067ad	-0.14102049
150	0x3f66f853	0.9022266
151	0x3f0fcf82	0.56176007
152	0x3e3a7027	0.18206845
153	0xbe3b2da7	-0.18279134
154	0x3e54cca8	0.20781195
155	0x3e158f1b	0.14605372
156	0xbe49e162	-0.19714883
157	0x3ec9058e	0.3926205
158	0x3f8c73a2	1.0972788
159	0x3e2dab7d	0.16959949
160	0x3c840837	0.016117198
161	0x3edf4d6f	0.43613765
162	0xbf6796a0	-0.9046421
163	0xbf277a58	-0.65421057
164	0xbe8703e7	-0.26370165
165	0x3a389b54	0.00070421887
166	0xbe023a7e	-0.12717625
167	0x3d6835de	0.056691997
168	0x3d13bc7d	0.03606843
169	0xbed80c19	-0.4219673
170	0xbe718614	-0.23586303
171	0xbea36eac	-0.31920373
172	0x3ea4b136	0.3216645
173	0xbea7041a	-0.32620317
174	0x3bc742d3	0.006080964
175	0x3ddc60ed	0.107606746
176	0x3d393f4f	0.04522639
177	0x3f04df59	0.519033
178	0xbf2856b3	-0.6575729
179	0xbe5717f8	-0.21005237
180	0xbe38b2b6	-0.18036923
181	0x3dcedb41	0.10100413
182	0xbec04847	-0.37555143
183	0x3fc819e0	1.5632896
184	0xbe016d5a	-0.1263937
185	0x3efaa831	0.48956445
186	0x3e8f1227	0.27943537
187	0x3f7ae5c3	0.9800684
188	0x3e5df416	0.21675143
189	0xbeea32ac	-0.45741785
190	0xbf5ebfcd	-0.87011415
191	0xbd0b22d1	-0.03396875
192	0x3e6e9ec5	0.23302753
193	0x3ba198a6	0.004931527
194	0xbf1c14c0	-0.6096916
195	0x3f58fac7	0.84757656
196	0x3d5f1c65	0.05447044
197	0x3e82b487	0.25528356
198	0xbeb40cf0	-0.3516612
199	0x3ea1d66c	0.31608903
200	0xbd1d3011	-0.038375918
201	0xbf0175d4	-0.50570416
202	0x3f02de9b	0.5112092
203	0x3e9bb2b9	0.30409792
204	0xbdf5f000	-0.12008667
205	0xbe9868bb	-0.29767403
206	0xbeac86f6	-0.33696717
207	0x3f26e8bf	0.6519889
208	0x3de21bf2	0.110404864
209	0x3e21d5bc	0.1580419
210	0xbf2b08af	-0.66810125
211	0xbdf86d50	-0.12130225
212	0x3ebcd71d	0.36882868
213	0x3d30fcce	0.043209843
214	0xbec011f8	-0.3751371
215	0xbe657bde	-0.22410533
216	0xbe8b21e6	-0.271743
217	0xbda62874	-0.081131846
218	0xbe3505a5	-0.17677934
219	0xbedeaad7	-0.43489715
220	0xbe3075e9	-0.17232479
221	0xbda03264	-0.07822111
222	0xbf5af189	-0.85524803
223	0xbdefb3a1	-0.11704183
224	0x3eac41d2	0.33643967
225	0xbdcb6915	-0.09932152
226	0x3fb2495e	1.392864
227	0x3f082f4b	0.53197163
228	0x3d17ab0b	0.037028354
229	0x3e94b56b	0.2904466
230	0xbebac2d0	-0.36476755
231	0x3e9f7afd	0.3114852
232	0x3e392894	0.18081886
233	0x3f054f61	0.5207425
234	0xbf15d05d	-0.5852106
235	0xbdf5999c	-0.11992189
236	0x3ea8a0c7	0.32935163
237	0x3e540c87	0.20707904
238	0x3f0af678	0.5428233
239	0xbe706bed	-0.2347867
240	0x3d0b7774	0.034049466
241	0xbf02c0e2	-0.51075566
242	0xbdfd4e1e	-0.12368415
243	0xbc82397b	-0.01589655
244	0x3d9aef14	0.07565132
245	0x3e158426	0.14601192
246	0xbecb8eaa	-0.39757282
247	0xbf730ae1	-0.94938475
248	0xbe45afbc	-0.19305319
249	0xbea2460b	-0.31694064
250	0xbefc478a	-0.4927333
251	0x3e7d9db0	0.24767184
252	0xbe5cd2bc	-0.21564764
253	0xbbdc1f8a	-0.006717627
254	0x3fac3b96	1.3455684
255	0xbf2d01fb	-0.67581147

fc1.bias f4 [300]
0	0x3ef7d44b	0.48404154
1	0xbf84812f	-1.0351924
2	0x3ec8af79	0.39196375
3	0xbecca79c	-0.39971626
4	0xbe2587c7	-0.16165076
5	0xbe6dd68e	-0.23226377
6	0xbca3a08a	-0.019974012
7	0xbe8aed5e	-0.27134222
8	0xbe4fad28	-0.20280898
9	0xbf6dfced	-0.9296406
10	0x3fb243f6	1.392699
11	0xbf97c5b8	-1.1857214
12	0xbf60401d	-0.8759783
13	0x3ec646c7	0.38725874
14	0xbf004323	-0.5010244
15	0x3f73be32	0.9521209
16	0xbfd90b1e	-1.6956518
17	0x3e877f97	0.2646453
18	0x3e042287	0.12903796
19	0xbf77397e	-0.965721
20	0xbebd6ca8	-0.3699696
21	0x3ecc41a8	0.39893842
22	0xbe5c881a	-0.21536294
23	0x3cfde071	0.030990811
24	0xbe2d672e	-0.16933891
25	0x3ebd072d	0.36919537
26	0x3f43beea	0.76463187
27	0xbf58e8bf	-0.8473014
28	0xbf96d97d	-1.1785122
29	0xbf4969ab	-0.7867686
30	0x3f05df48	0.52293825
31	0x3f2363dc	0.6382425
32	0xbe87639a	-0.26443177
33	0xbfc0198c	-1.5007796
34	0x3f0b590c	0.5443275
35	0x3f2bb5fc	0.6707456
36	0xbf19c5d6	-0.600675
37	0x3f5e1059	0.86743695
38	0x3e8c03a4	0.27346528
39	0xbe1392d3	-0.14411478
40	0x3eb676ae	0.3563742
41	0xbf351d1e	-0.70747554
42	0x3efaaceb	0.4896005
43	0xbf705024	-0.93872285
44	0x3efb03a0	0.49026203
45	0xbf6532c6	-0.895306
46	0x3dc8f04d	0.09811459
47	0xbdd5adc2	-0.10433532
48	0xbeeea52b	-0.46610388
49	0xbf9e735d	-1.2378956
50	0x3eddeba0	0.4334383
51	0xbf83a638	-1.0285101
52	0xbf503210	-0.8132639
53	0x3eb438d7	0.35199615
54	0x3f77e36d	0.968314
55	0x3f4fcf4a	0.81175673
56	0x3efa0e7c	0.48839176
57	0xbfaa8346	-1.3321311
58	0xbf242f84	-0.64135003
59	0xbf7d24e1	-0.988844
60	0x3e97854b	0.29593882
61	0x3ea49cb6	0.3215081
62	0xbe71e3cc	-0.23622054
63	0xbf15360e	-0.58285606
64	0xbf23b378	-0.6394572
65	0xbeaef2bc	-0.34169567
66	0xbd877726	-0.06614523
67	0xbf4ba95d	-0.795553
68	0x3f27db0c	0.65568614
69	0xbef0c555	-0.47025552
70	0xbf3a4e81	-0.7277604
71	0xbec4843d	-0.3838214
72	0x3f095e4c	0.5365951
73	0xbfa1d654	-1.2643533
74	0x3ef100b3	0.47070846
75	0xbf7e6b62	-0.99382603
76	0x3e17ccc8	0.14824212
77	0x3f76069e	0.9610385
78	0xbf32d1e0	-0.69851494
79	0xbf88d46a	-1.0689824
80	0x3faa046a	1.3282597
81	0xbfb1ee23	-1.3900799
82	0x3e594258	0.21216714
83	0xbcbb89f1	-0.022892924
84	0xbc215341	-0.009846509
85	0xbe9c9667	-0.30583498
86	0xbfac154f	-1.3444003
87	0x3e7fe2d7	0.24988876
88	0xbcb0f393	-0.02160052
89	0x3f31a07a	0.6938549
90	0xbf0703aa	-0.52739966
91	0xbf4c1b52	-0.7972919
92	0x3f811b7d	1.0086514
93	0x3f78189e	0.9691256
94	0x3f6254a7	0.8841042
95	0xbe88a2cd	-0.26686707
96	0xbe233ad5	-0.15940411
97	0x3f350a2b	0.7071864
98	0xbee4388d	-0.44574395
99	0xbf49b203	-0.7878725
100	0x3f1feb06	0.6246799
101	0x3f62fb82	0.8866502
102	0x3ec1230a	0.37722045
103	0x3f371fdd	0.71532995
104	0x3eb14689	0.34624127
105	0xbecc86ee	-0.39946693
106	0xbea12793	-0.31475505
107	0xbf7fe462	-0.9995786
108	0xbd5272b0	-0.051378906
109	0xbef533e4	-0.47891152
110	0xbd75e726	-0.060034893
111	0xbeaea2d2	-0.34108597
112	0x3f867d16	1.0506923
113	0xbf6f41f0	-0.9345999
114	0x3c2ab292	0.010418551
115	0xbfb41091	-1.4067556
116	0x3f989dbf	1.192314
117	0xbef0d14d	-0.47034684
118	0xbf6a73d2	-0.9158298
119	0xbf9fbdde	-1.2479818
120	0x3f0e9c11	0.5570689
121	0x3f8c341e	1.0953405
122	0x3e229b40	0.15879536
123	0xbf231e07	-0.63717693
124	0x3db8669e	0.09003948
125	0xbf228027	-0.63476795
126	0x3e9c4fe9	0.30529717
127	0x3dc80687	0.0976687
128	0x3faa4fa7	1.3305558
129	0x3f26a619	0.65097195
130	0xbebf9ae7	-0.3742287
131	0xbf405ed8	-0.7514472
132	0x3f4ebcc7	0.807568
133	0x3f08f219	0.5349441
134	0xbf4c4f4b	-0.7980849
135	0xbf893f98	-1.0722532
136	0xbeec4b3c	-0.4615115
137	0xbf076b82	-0.5289842
138	0x3fbaf7ab	1.4606832
139	0x3f346cd4	0.7047856
140	0xbf51553d	-0.8177069
141	0xbfa5473a	-1.2912362
142	0xbf818a7e	-1.012039
143	0x3e551976	0.20810494
144	0xbf24d1ef	-0.64382833
145	0x3f810ec5	1.0082632
146	0x3f358682	0.7090837
147	0x3f863be2	1.0487025
148	0x3f271c1a	0.65277255
149	0x3f0350a9	0.5129495
150	0xbf2fddb9	-0.68697697
151	0x3eb144e6	0.34622878
152	0x3f79e62e	0.9761685
153	0x3eb92f46	0.3616888
154	0xbf0ea17e	-0.5571517
155	0xbf08bdea	-0.53414786
156	0xbee96eda	-0.45592386
157	0x3f5dfeb6	0.86716783
158	0x3f737981	0.95107275
159	0x3ea74493	0.32669505
160	0x3e857408	0.26065087
161	0x3eab5fe7	0.33471605
162	0x3f1ec905	0.6202548
163	0xbe0b779a	-0.13619843
164	0xbe50263d	-0.20327087
165	0x3eb310c2	0.34973723
166	0x3d1ef49e	0.038807504
167	0x3f71a703	0.94395465
168	0x3b5b37f8	0.0033450108
169	0x3f291d00	0.66059875
170	0x3fcb0ee6	1.5863922
171	0x3d97b38a	0.07407291
172	0x3f139913	0.5765545
173	0xbed11a02	-0.40840155
174	0xbf27ee79	-0.65598255
175	0x3da0b058	0.07846135
176	0x3f0d40d1	0.55177027
177	0x3f5e99f6	0.86953676
178	0x3ee8329b	0.4535111
179	0xbf860858	-1.0471296
180	0xbf5fdd04	-0.8744662
181	0xbf50ea8c	-0.8160789
182	0x3f3f55e6	0.74740446
183	0x3f21ee2e	0.6325406
184	0x3f44e0f8	0.76905775
185	0x3d7e9935	0.06215783
186	0xbf326d61	-0.6969815
187	0x3f828e83	1.0199741
188	0xbe7c4724	-0.24636513
189	0x3ec018dc	0.37518966
190	0xbea72c42	-0.32650954
191	0xbf9627c8	-1.173089
192	0xbf9455ca	-1.1588681
193	0x3fb90adb	1.4456438
194	0xbefccc86	-0.4937479
195	0xbf7883c9	-0.9707609
196	0xbf4167d7	-0.7554907
197	0xbea2bde1	-0.3178549
198	0x3e2858c6	0.16440114
199	0xbdcbc710	-0.099500775
200	0x3e8350f9	0.25647715
201	0x3fb388a3	1.4026073
202	0xbf900dce	-1.1254213
203	0x3d025eb0	0.031828582
204	0x3f784e48	0.9699445
205	0x3ef9ca91	0.48787358
206	0xbeee77e2	-0.46575838
207	0x3f921cdb	1.1415056
208	0xbf355893	-0.7083828
209	0xbf63d14f	-0.88991255
210	0xbea31e87	-0.31859228
211	0xbf8f6bba	-1.120475
212	0xbf86f9d9	-1.0544997
213	0xbf562925	-0.8365653
214	0xbe16bed9	-0.1472124
215	0x3ea85627	0.3287823
216	0x3f62c3a2	0.8857976
217	0xbee8490a	-0.45368224
218	0x3f47d074	0.7805245
219	0xbead0aa3	-0.33797178
220	0x3f0721d3	0.52785987
221	0xbf0b0c72	-0.54315865
222	0x3f64b28a	0.8933493
223	0xbf3a47f7	-0.7276606
224	0x3defe6f3	0.11713972
225	0xbf1ed006	-0.6203617
226	0xbed913f5	-0.42398039
227	0x3e86f0d4	0.26355612
228	0xbf50ef5a	-0.8161522
229	0x3f55266b	0.83261746
230	0xbf0f74dd	-0.56037694
231	0xbe511136	-0.20416722
232	0xbea8f314	-0.32997954
233	0xbf55bc19	-0.8349014
234	0xbf949fac	-1.1611228
235	0x3f5c5aea	0.86076224
236	0xbf0b1c79	-0.5434032
237	0xbf80459a	-1.0021241
238	0xbdab656b	-0.08368953
239	0xbf8387a6	-1.0275772
240	0x3f0a76d4	0.5408757
241	0xbf97b87a	-1.1853173
242	0x3ece361a	0.4027565
243	0xbfa55073	-1.2915176
244	0xbf3740fe	-0.71583545
245	0xbe3d2722	-0.18471959
246	0xbf51e4a9	-0.8198953
247	0xbf856cac	-1.0423789
248	0x3decc4f3	0.115610026
249	0x3f4a1f1d	0.78953725
250	0xbf84fedf	-1.039028
251	0x3edb8077	0.42871448
252	0xbd52818e	-0.051393084
253	0x3e3363ba	0.17518511
254	0x3f653f99	0.8955017
255	0x3f0d7d5f	0.55269426

fc2.weight f4 [200, 300]
0	0xbc5af264	-0.0133634545
1	0x3cdfabfb	0.027303686
2	0xbec54658	-0.3853023
3	0xbca81ad8	-0.020520613
4	0x3da6882f	0.08131444
5	0xbc3e14bd	-0.011601624
6	0x3d7725bf	0.06033873
7	0x3d849091	0.06472886
8	0xbce7e394	-0.02830676
9	0xbdb31d00	-0.08745766
10	0x3e4eb376	0.20185646
11	0x3c6a305d	0.014293757
12	0x3d48b956	0.049004875
13	0xbc51585a	-0.012777412
14	0x3c1f0a43	0.009707036
15	0x3e0cc146	0.13745603
16	0xbeee2f65	-0.46520534
17	0xbb801f4b	-0.0039099804
18	0xbd953251	-0.07284988
19	0xbd1a0745	-0.03760459
20	0x3ce71429	0.028207855
21	0x3d0e0094	0.03466852
22	0xbc8b2aa4	-0.016988106
23	0x3cf8b38a	0.030359048
24	0x3d867469	0.06565172
25	0xbdd31295	-0.103062786
26	0xbdc23f0e	-0.09484683
27	0xbeeea50c	-0.46610296
28	0x3d878ee8	0.06619054
29	0xbde8ea07	-0.11372762
30	0x3e5b9436	0.21443257
31	0xbdf93eb6	-0.12170164
32	0x3c3d7602	0.01156378
33	0x3d845dfe	0.0646324
34	0x3d9fc73c	0.07801673
35	0x3d244d98	0.04011306
36	0xbd3bbe4f	-0.04583579
37	0x3d5bb97f	0.0536437
38	0xbd82cb8d	-0.063864805
39	0x3d90bd52	0.0706736
40	0x3d3322d9	0.043734405
41	0x3d8e8a74	0.069600016
42	0xbcdbcec8	-0.026832
43	0xbc841935	-0.0161253
44	0x3d1f7732	0.038932033
45	0xbf20b361	-0.6277371
46	0xbe26a095	-0.16272195
47	0x3b13267d	0.002245336
48	0xbcb071d8	-0.02153866
49	0xbecd7977	-0.40131733
50	0xbd924b29	-0.07143242
51	0xbdfd4929	-0.1236747
52	0x3c0ab221	0.008465321
53	0xbd2d6cbe	-0.042340033
54	0x3d13426d	0.03595202
55	0xbd272861	-0.040809993
56	0x3d82e660	0.06391597
57	0xbd6cc57e	-0.05780553
58	0x3dc2768d	0.09495268
59	0x3dac96e2	0.08427216
60	0x3d01df93	0.031707358
61	0xbd06ffab	-0.032958668
62	0xbcc9f60e	-0.02465346
63	0x3d0af262	0.03392256
64	0x3c2f6bbe	0.01070684
65	0xbc9a60b0	-0.018844932
66	0xbdb7619e	-0.08954166
67	0xbdb9c3a5	-0.09070519
68	0x3d928877	0.07154935
69	0xbda28509	-0.07935531
70	0xbd74132f	-0.059588607
71	0x3c186104	0.009300474
72	0xbdd63c80	-0.10460758
73	0xbf117420	-0.5681782
74	0x3b5a97ca	0.0033354633
75	0xbeb3e554	-0.351359
76	0x3d0bf41c	0.034168348
77	0x3e1af32e	0.15131828
78	0x3dc40be3	0.0957258
79	0xbda6c6f1	-0.08143414
80	0xbe0a8410	-0.1352694
81	0xbed40eb3	-0.41417465
82	0xbd1715c0	-0.036885977
83	0xbe02880d	-0.12747212
84	0xbc6b8c69	-0.014376738
85	0xbc22ecae	-0.009944124
86	0xbc1126af	-0.008859321
87	0x3d221474	0.039570287
88	0x3c5d9f2a	0.013526717
89	0xbcf69cd7	-0.030104084
90	0xbeab1e71	-0.33421662
91	0xbda1d037	-0.07901042
92	0x3bf3be09	0.0074384254
93	0x3de7c09c	0.11316034
94	0x3d433f62	0.04766787
95	0xbc715781	-0.014730335
96	0xbdf3506a	-0.11880572
97	0x3d9e5a63	0.07732084
98	0xbd5d8f8f	-0.054091986
99	0xbda4012b	-0.08008035
100	0xbd9bdeb1	-0.076108344
101	0xba04bd7c	-0.0005063636
102	0x3cda1c9a	0.026624966
103	0xbc48fd78	-0.012267463
104	0xbd7f5f0d	-0.062346507
105	0xbe92fd55	-0.28708902
106	0xbd6ec278	-0.05829093
107	0xbee9991b	-0.45624623
108	0xbe04bb94	-0.1296218
109	0x3cf95f3d	0.030440921
110	0xbbad9ecb	-0.0052984706
111	0xbe7b826a	-0.24561468
112	0x3dedf5fd	0.11619184
113	0x3d1efb95	0.038814146
114	0xbe1b66f0	-0.15175986
115	0xbd8f9855	-0.07011477
116	0xbd11b3ec	-0.035571977
117	0xbc201fcc	-0.009773206
118	0xbd0b01d1	-0.03393728
119	0x3e4df573	0.20113163
120	0x3c0a525c	0.008442488
121	0x3c2740c5	0.010208313
122	0xbd5571bb	-0.052110415
123	0x3c6c9591	0.014439956
124	0x3c953c9e	0.018217381
125	0xbde3a952	-0.1111628
126	0xbca3da23	-0.020001477
127	0xbd7ea530	-0.062169254
128	0x3e083652	0.13301972
129	0xbd8ee3ae	-0.0697702
130	0xbce5dde3	-0.028059905
131	0xbd4c3188	-0.049851924
132	0xbdba2e55	-0.090908684
133	0xbd503d51	-0.050839726
134	0x3e913a24	0.2836467
135	0xbd1ce183	-0.038301002
136	0x3d7a3cc7	0.061093118
137	0x3e05683b	0.13028042
138	0x3e03f478	0.12886226
139	0x3e18593d	0.14877792
140	0xbd0f9e21	-0.035062913
141	0xbdc02100	-0.09381294
142	0xbf03151f	-0.51204103
143	0xbd81a6bb	-0.063306294
144	0x3da5e5be	0.081004605
145	0x3c136d39	0.008998209
146	0xbd53826d	-0.051638056
147	0xbc8da4bb	-0.017290464
148	0xbc9a1898	-0.018810555
149	0x3d13eddd	0.036115516
150	0xbd04c46c	-0.032413885
151	0x3bf32aaa	0.0074208574
152	0xbd12c181	-0.03582907
153	0xbd0ac35f	-0.033877727
154	0xbd2659a4	-0.04061283
155	0x3c5b7a47	0.013395852
156	0x3d59245f	0.0530132
157	0x3c12b8d1	0.0089551965
158	0xbb33b166	-0.002741897
159	0xbc815455	-0.015787283
160	0x3eb34cdc	0.35019577
161	0x3d9b456a	0.07581599
162	0xbb529b3a	-0.003213598
163	0xbcb3d683	-0.021952873
164	0x3c34770a	0.011014709
165	0xbd8fbabd	-0.070180394
166	0x3d949fe0	0.07257056
167	0x3d55b2aa	0.05217234
168	0xbe77d23f	-0.24201296
169	0x3d9ba925	0.07600621
170	0xbd1aad58	-0.03776297
171	0x3c86e963	0.01646871
172	0x3d72a7b8	0.05924198
173	0x3d4adda8	0.049527794
174	0xbed6b4c9	-0.41934803
175	0xbd50078a	-0.05078844
176	0x3dd51670	0.1040467
177	0x3e8b4bc5	0.27206245
178	0xba68d344	-0.00088815787
179	0xbe018c9c	-0.12651294
180	0x3d2ee25c	0.042696342
181	0xbed92b9a	-0.42416078
182	0xbcba7f48	-0.02276577
183	0xbd254a22	-0.0403539
184	0xbd1b8ecb	-0.037977975
185	0xbc222a38	-0.009897761
186	0xbd4b9d0c	-0.04971032
187	0xbdba314d	-0.09091435
188	0x3d3c5c5a	0.04598651
189	0x3d579033	0.052627753
190	0xbd142b64	-0.036174193
191	0xbd7421aa	-0.059602417
192	0xbda9c93d	-0.08290336
193	0xbc3247d8	-0.010881387
194	0xbca962e5	-0.02067704
195	0x3c986c84	0.018606432
196	0x3bb629b0	0.0055591688
197	0xbb8ab3af	-0.0042328457
198	0x3d7c4bab	0.0615956
199	0xbc6a489f	-0.014299541
200	0xbcb2a2e7	-0.021806194
201	0x3e5e8766	0.21731338
202	0xbdda76b4	-0.10667172
203	0xbc3d5b21	-0.011557371
204	0x3d359e94	0.044340685
205	0xbd168a94	-0.036753252
206	0xbda1c8a1	-0.07899595
207	0xbdb55ec1	-0.088559635
208	0xbb16c2bd	-0.0023004257
209	0xbeab35ba	-0.33439428
210	0xbc3dd9d1	-0.011587576
211	0x3e89c2dc	0.26906478
212	0xbd3222a3	-0.043490063
213	0xbe8ae422	-0.27127177
214	0xbc428de3	-0.011874649
215	0x3be06c21	0.0068488275
216	0xbd46fa61	-0.048578624
217	0xbdba151f	-0.0908606
218	0x3d6ff2fe	0.058581345
219	0xbe39c58c	-0.18141764
220	0xbd7ecff5	-0.062210042
221	0xbd69bf81	-0.057067398
222	0xbd09cd39	-0.03364298
223	0xbd6e0227	-0.05810752
224	0x3e20143d	0.1563272
225	0xbd47fbc3	-0.048824083
226	0x3e2a34ff	0.16621779
227	0x3d63b63a	0.055593707
228	0xbdc2b630	-0.09507406
229	0x3dd6422f	0.10461842
230	0xbdb7c60f	-0.089733236
231	0xbe099400	-0.13435364
232	0xbd1072ca	-0.03526572
233	0xbd06470b	-0.032782596
234	0xbf0fd11d	-0.56178457
235	0xbcaaf24e	-0.020867493
236	0xbec671f9	-0.3875883
237	0xbe060829	-0.1308905
238	0x3d496fa1	0.049178723
239	0xbd293375	-0.04130884
240	0xbd20a306	-0.03921797
241	0xbd08bb91	-0.033382002
242	0x3d64fb23	0.055903565
243	0xbd9a6026	-0.0753787
244	0xbef8911f	-0.4854822
245	0x3cae9933	0.021313285
246	0xbdf273b6	-0.11838476
247	0xbddf12d5	-0.10892264
248	0x3c642b49	0.013926336
249	0x3dfaba80	0.12242603
250	0xbececde9	-0.40391472
251	0xbcc54e5a	-0.024085212
252	0x3d57daaf	0.052698787
253	0x3d2a64b5	0.041599948
254	0x3d9c1a4e	0.07622205
255	0x3d4f1802	0.050560005

fc2.bias f4 [200]
0	0x3dab341b	0.08359548
1	0xbd0c4c7b	-0.034252625
2	0xbdfe96ab	-0.124310814
3	0x3e1e662a	0.1546866
4	0x3cece35c	0.028917007
5	0x3f0a7f05	0.54100066
6	0xbdf9cfff	-0.12197875
7	0x3d077dff	0.033079144
8	0x3e901547	0.28141233
9	0x3e7b84b1	0.24562337
10	0x3f366aaa	0.71256506
11	0xbd8ed4ed	-0.06974206
12	0xbd2bae55	-0.041914303
13	0xbd480b59	-0.048838947
14	0x3d79c05f	0.060974475
15	0x3d17f846	0.037102006
16	0x3c47697d	0.012171146
17	0x3d1725dc	0.03690134
18	0x3b373117	0.0027952844
19	0xbd2483c7	-0.040164735
20	0x38ce1200	9.826198e-05
21	0x3bebb693	0.0071933954
22	0x3e39440a	0.18092361
23	0xbd0101d1	-0.031495873
24	0xbd6d682d	-0.057960678
25	0x3ecf1a43	0.40449724
26	0xbddd5720	-0.108076334
27	0xbaa29796	-0.0012404795
28	0x3e5ae5d5	0.21376736
29	0x3e67dece	0.22643587
30	0x3dfa7fd7	0.12231415
31	0x3e579a11	0.21054865
32	0xbad19ecd	-0.0015992761
33	0x3e504a08	0.2034074
34	0xbd88a2f8	-0.06671709
35	0xbeed29ad	-0.4632086
36	0x3c5c8f9f	0.013461976
37	0x3dd119a1	0.102099665
38	0x3eb419f6	0.35176057
39	0x3eafe5e0	0.34355068
40	0x3e8c12bf	0.27358052
41	0x3eb83c3d	0.35983458
42	0xbcb763df	-0.02238649
43	0xbcd3a26f	-0.02583429
44	0xbcaae1f6	-0.0208597
45	0x3dd7c966	0.105364606
46	0xbea097dc	-0.3136586
47	0x3e79f9d1	0.24411704
48	0x3d32a11b	0.043610673
49	0x3e6e440d	0.23268147
50	0xbd03b154	-0.032151535
51	0x3eccdb75	0.40011182
52	0xbe971efe	-0.29515833
53	0x3dbbdc6b	0.09172901
54	0x3de750ce	0.11294709
55	0x3e36d491	0.17854525
56	0x3c96e374	0.018419005
57	0xbca0ab64	-0.019612975
58	0x3edbb9ae	0.429151
59	0x3e2cac6c	0.16862649
60	0x3c7b27c0	0.015329301
61	0xbd56d6c2	-0.052450903
62	0x3ede908f	0.43469664
63	0xbc0e119c	-0.008671191
64	0x3d5b5eee	0.05355733
65	0x3efe5032	0.4967056
66	0xbc804269	-0.015656667
67	0x3e0ab250	0.13544583
68	0x3eb9d056	0.3629176
69	0x3d48fbd6	0.049068294
70	0x3edb0ede	0.4278478
71	0xbc9ba250	-0.018998295
72	0x3d32b88b	0.043633025
73	0x3e9a0ff5	0.300903
74	0x3dade100	0.08490181
75	0x3dbe9e2f	0.09307515
76	0xbbea437a	-0.007149157
77	0xbe12ad50	-0.14323926
78	0xbca00754	-0.019534744
79	0x3dff88dc	0.12477276
80	0xbed3b7b9	-0.41351107
81	0x3c7e2d33	0.015513706
82	0x3ea6f143	0.32605943
83	0x3ef7edfc	0.48423755
84	0x3e192e59	0.14959086
85	0xbd3525a5	-0.044225354
86	0xbb0dfa2c	-0.0021664007
87	0xbddfcca7	-0.10927706
88	0x3e72ea59	0.23722209
89	0x3c487706	0.012235409
90	0x3d1218e0	0.035668254
91	0x3e865b6b	0.2624162
92	0xbd2f3a00	-0.042779922
93	0xbd08126f	-0.033220705
94	0x3e4a14a9	0.19734444
95	0xba5991fc	-0.00082996464
96	0x3e8af24c	0.27137983
97	0xbe1e4dea	-0.1545941
98	0xbd0829df	-0.033243056
99	0x3e6c4fa0	0.2307725
100	0x3e960475	0.29300275
101	0x3d19b61d	0.037527192
102	0x3b817ae9	0.0039514196
103	0x3d9ea05d	0.077454306
104	0xbc635dd4	-0.013877351
105	0x3cd7098a	0.026249666
106	0xbebc7433	-0.36807403
107	0x3d1a64ee	0.03769391
108	0x3e12570b	0.14291017
109	0xbdbe5ecf	-0.09295427
110	0x3d741fe0	0.05960071
111	0x3da4aece	0.08041154
112	0xbe345a85	-0.17612655
113	0xba1f019b	-0.0006065608
114	0x3d875954	0.06608835
115	0x3eab696d	0.3347887
116	0x3c809c41	0.015699508
117	0x3eb82097	0.35962364
118	0xbcbb5b83	-0.022870785
119	0xbcb85228	-0.022500113
120	0xbd618143	-0.055054914
121	0x3dbfbc89	0.09362132
122	0x3bb3ba5c	0.0054848623
123	0xbd3740b7	-0.04473945
124	0xbd534c7f	-0.051586624
125	0xbb60e502	-0.0034316187
126	0xbcf34432	-0.029695604
127	0x3db68f67	0.089140706
128	0x3f00289f	0.5006198
129	0x3cd8a3b3	0.026445245
130	0xbd3a368a	-0.04546217
131	0x3d3e2275	0.04641958
132	0xbebcb344	-0.3685552
133	0x3d0081b3	0.03137369
134	0x3c7f36d4	0.015577037
135	0x3e10a497	0.14125286
136	0xbd426069	-0.047455225
137	0x3c92e494	0.01793126
138	0xbd2d9bef	-0.042385038
139	0xbdc7ee4d	-0.09762249
140	0x3e94b7e8	0.2904656
141	0x3e532d00	0.20622635
142	0xbd0e0db4	-0.034681037
143	0xbd468c80	-0.048473835
144	0xbc3cab74	-0.011515487
145	0x3e8f0df7	0.27940342
146	0xbbfa9738	-0.007647421
147	0x3ce8d0d9	0.028419899
148	0x3d9ba03d	0.075989224
149	0x3d819001	0.06326295
150	0xbec35e51	-0.38157895
151	0x3e86d8dd	0.2633733
152	0xbccf4153	-0.025299704
153	0x3da3a8a0	0.07991147
154	0x3d78f106	0.060776733
155	0x3ed0f1b8	0.40809417
156	0xbda53390	-0.080664754
157	0x3eb75e25	0.35814014
158	0xb9548118	-0.00020265987
159	0xbe845f4a	-0.2585395
160	0x3e6e0db4	0.23247415
161	0x3d440432	0.047855563
162	0x3e447d34	0.19188386
163	0x3dd0829f	0.10181164
164	0x3eb043d9	0.34426764
165	0x3c8c7f43	0.017150527
166	0xbd319813	-0.04335792
167	0xbbe09aca	-0.00685439
168	0x3c8e57ed	0.01737591
169	0x3cb796a7	0.022410704
170	0x3d0cb5f3	0.034353208
171	0x3d26319e	0.040574662
172	0x3d04f975	0.032464463
173	0xbcbc4db3	-0.022986269
174	0x3ec8d29a	0.39223176
175	0xbb702367	-0.0036642195
176	0xbd92a580	-0.07160473
177	0x3f3c7fae	0.73632324
178	0x3d2ad4fd	0.041707028
179	0x3eb7c77e	0.35894388
180	0x3ed2b9b1	0.41157296
181	0x3e67209d	0.22571035
182	0xbcae2c77	-0.021261437
183	0x3e22c5a2	0.15895703
184	0x3e895b1f	0.26827332
185	0x3ed1c6c9	0.40971974
186	0x3c9f53a3	0.01944906
187	0x3d8502f7	0.06494706
188	0xbc93a1a6	-0.018021416
189	0xbe4c14d1	-0.19929816
190	0xbea4ad1c	-0.32163322
191	0xbde31784	-0.110884696
192	0xbd50664c	-0.050878808
193	0x3e9ef0de	0.31043142
194	0x3c3eda0e	0.011648668
195	0x3c1fe043	0.009758058
196	0x3beecba6	0.0072874604
197	0xbb2a4315	-0.0025979925
198	0xbec2c5f9	-0.38041666
199	0x3baf5170	0.0053502843

fc3.weight f4 [2, 200]
0	0x3d8594d3	0.065225266
1	0x39ee2b7d	0.000454273
2	0xbee9beaa	-0.45653278
3	0x3e6ad033	0.22930984
4	0x3cc3bc12	0.02389339
5	0x3ef29280	0.47377396
6	0xba8fea46	-0.0010979853
7	0x3d011559	0.0315145
8	0xbf99b2f8	-1.2007742
9	0x3e2c3423	0.16816764
10	0xbf136364	-0.57573533
11	0xbd857e45	-0.065182246
12	0xbd48bf0f	-0.049010333
13	0x3dc83973	0.097765826
14	0x3e0effe5	0.13964804
15	0x3ce36069	0.027755933
16	0x3c6b6873	0.014368164
17	0x3d610442	0.0549357
18	0xbbeedf2e	-0.0072897887
19	0x3d39fbf1	0.045406286
20	0xbd5b5ba8	-0.053554207
21	0xbcf6af35	-0.030112842
22	0x3cccb655	0.024989286
23	0x3da6f4c9	0.08152158
24	0x3d2c24ee	0.042027406
25	0x3ecbfd61	0.3984175
26	0xbdf29f2b	-0.11846765
27	0xbea333d5	-0.31875482
28	0xbdfa8a42	-0.12233402
29	0x3d6bfe31	0.057615463
30	0x3e21f459	0.15815867
31	0xbef8aeed	-0.48570958
32	0xbd79629f	-0.060885068
33	0x3eadfb2c	0.3398069
34	0xbb796a6f	-0.0038057824
35	0xbdd80b5b	-0.10549041
36	0xbd82bb3b	-0.06383368
37	0xbdc25795	-0.09489361
38	0xbe7051c4	-0.23468691
39	0xbee73e07	-0.4516451
40	0xbd32c3a1	-0.043643598
41	0x3e329d23	0.17442755
42	0x3d2483c7	0.040164735
43	0x3d811941	0.06303645
44	0xbd8f94f4	-0.070108324
45	0x3e2380d4	0.15967113
46	0xbe1368d0	-0.14395452
47	0xbd9b4fcf	-0.07583582
48	0x3bc3cbb2	0.00597521
49	0x3e6e1368	0.2324959
50	0x3d2ee410	0.042697966
51	0x3dbce0ac	0.0922254
52	0xbf227e32	-0.6347381
53	0xbe1940ee	-0.14966175
54	0xbe80ffd8	-0.25195193
55	0x3d8b96c1	0.068158634
56	0xbd1f1cf3	-0.038845968
57	0x3d016b4a	0.03159646
58	0x3e41d000	0.18927002
59	0xbede3aae	-0.43404144
60	0xbc82942b	-0.015939793
61	0xbd2d3277	-0.042284455
62	0x3e143921	0.14474918
63	0x3ce194cb	0.02753677
64	0xbe04035c	-0.12891906
65	0xbf282d03	-0.6569368
66	0x3c8372d3	0.016045963
67	0xbe4619fc	-0.1934585
68	0x3de78f99	0.11306686
69	0x3a869f56	0.0010270874
70	0x3e6f0607	0.23342143
71	0xbd9028c6	-0.07039027
72	0x3d737ae2	0.059443362
73	0xbea5432f	-0.3227782
74	0xbb826ab9	-0.0039800075
75	0xbd4c4386	-0.049869083
76	0x3d79629f	0.060885068
77	0xbdf51cdb	-0.11968394
78	0x3d81bd52	0.06334938
79	0xbd92cc90	-0.071679235
80	0xbdc2f277	-0.09518903
81	0xbdfc7f82	-0.12329008
82	0x3df7fed2	0.1210915
83	0x3dc90ccb	0.09816893
84	0x3dd9d2ba	0.10635896
85	0x3d05052d	0.03247564
86	0x3d1d34a9	0.0383803
87	0xbe0d0df2	-0.13774851
88	0xbf92b520	-1.1461525
89	0xbc334cfc	-0.0109436475
90	0xbab233bb	-0.0013595739
91	0xbe4367b9	-0.19082536
92	0x3bc784d5	0.006088833
93	0x3d356fde	0.044296138
94	0x3df35383	0.11881163
95	0x3ca1d82d	0.019756401
96	0x3ed9bd70	0.42527342
97	0xbe2bd2e5	-0.16779669
98	0xb9c33359	-0.00037231555
99	0x3dfc9fd1	0.1233517
100	0xbf051101	-0.5197907
101	0x3c159382	0.009129407
102	0x3d7061e6	0.058687113
103	0x3dcb790f	0.099351995
104	0x3d4ca941	0.0499661
105	0xbd3b579b	-0.045737844
106	0xbd857c69	-0.0651787
107	0xbc877fe2	-0.016540471
108	0xbf226115	-0.63429385
109	0x3d9cd024	0.07656887
110	0xbe0ec1bf	-0.13941096
111	0xbdabcbb8	-0.08388466
112	0xbde3cb34	-0.11122742
113	0xbcdde378	-0.027086005
114	0x3d96b83f	0.07359361
115	0xbf054b7d	-0.5206831
116	0xbb8b4aaa	-0.004250844
117	0x3d72501d	0.059158433
118	0xbd14a53a	-0.036290385
119	0xbc065906	-0.008199936
120	0x3d26c201	0.04071236
121	0x3c44980d	0.011999142
122	0xbcb97339	-0.02263795
123	0x3d573482	0.05254031
124	0x3d7ebdbb	0.06219266
125	0x3c5deb48	0.013544865
126	0xbd216eb5	-0.03941222
127	0xbe60e1b1	-0.21961094
128	0xbe636067	-0.22204743
129	0xbc500c74	-0.012698282
130	0x3d4d1a8a	0.050074138
131	0xbd06c27e	-0.032900326
132	0xbee5bb4e	-0.44869465
133	0xbd7e6bf2	-0.062114663
134	0x3d038a43	0.03211428
135	0xbdf98fa3	-0.121856
136	0x3d820f5a	0.06350584
137	0xbd423570	-0.047414243
138	0x3d3ce9f4	0.046121553
139	0xbe012cc9	-0.1261474
140	0xbe93c4c5	-0.2886106
141	0x3c543154	0.012951214
142	0xbd37737f	-0.04478788
143	0xbd55e197	-0.052217092
144	0x3c0ce4d3	0.008599478
145	0xbe8bae34	-0.27281344
146	0x3d010d89	0.03150705
147	0x3c34fe74	0.0110469945
148	0xbe16ebc3	-0.14738373
149	0x3c74636c	0.014916282
150	0xbe2ab1d4	-0.16669399
151	0xbe1c18d9	-0.15243854
152	0x3c07dbbf	0.008292138
153	0xbe8af535	-0.27140203
154	0x3d373e0a	0.0447369
155	0xbe5ea41e	-0.21742293
156	0xbb04ce7d	-0.0020264678
157	0xbeef4a39	-0.46736315
158	0xbd7b6a29	-0.06138054
159	0xbebc4a53	-0.36775455
160	0xbe2c0f42	-0.16802695
161	0xbda8c70d	-0.08241091
162	0x3dcaee5b	0.09908744
163	0xbebff1f4	-0.37489283
164	0xbe1e7c3a	-0.15477076
165	0x36ff1b7c	7.602792e-06
166	0x3d85ef77	0.06539815
167	0xbcf7e3ce	-0.030259993
168	0x3d54bf98	0.05194053
169	0x38f56714	0.0001170171
170	0x3d79fedf	0.06103408
171	0x3e5c0a3f	0.21488284
172	0xbd7a9350	-0.061175644
173	0x3cdd81cf	0.027039437
174	0xbe2692b6	-0.16266903
175	0x3c87dbbf	0.016584275
176	0xbc49ee07	-0.012324817
177	0x3ef4ce69	0.47813728
178	0x3d070cb6	0.032971106
179	0xbe748130	-0.23877406
180	0xbe68b133	-0.22723846
181	0xbe2ca4d3	-0.1685975
182	0x3d788bc6	0.060680173
183	0xbd77dc9c	-0.060513124
184	0xbf0a0506	-0.53913915
185	0xbe868370	-0.26272154
186	0xbce2f844	-0.027706273
187	0x3e021a0f	0.12705253
188	0xbc65c949	-0.014025041
189	0xbdb53d15	-0.08849541
190	0xbe0d7855	-0.13815434
191	0xbd872bf7	-0.066001825
192	0xba891828	-0.001045947
193	0xbd33b3cd	-0.043872643
194	0xbd7839be	-0.060601942
195	0x3cc0b2b7	0.023522718
196	0x3d1d4061	0.038391475
197	0xba6318cd	-0.00086630584
198	0xbe3fc855	-0.18728764
199	0x3d38a818	0.04508218
200	0x3d47a7fd	0.04874419
201	0x3c965ea3	0.018355673
202	0xbe07f32f	-0.13276361
203	0xbe8c9e83	-0.27464685
204	0x3b643c7d	0.0034826093
205	0xbe77f756	-0.24215445
206	0xbbef1dae	-0.0072972393
207	0x3d003e81	0.03130961
208	0x3d123050	0.035690606
209	0xbd88a6e0	-0.06672454
210	0xbd128640	-0.035772562
211	0xbce5bb4e	-0.028043415
212	0x3d495d7e	0.049161427
213	0xbc871c56	-0.016493004
214	0xbe3af20a	-0.18256393
215	0xbe06d9ee	-0.13169071
216	0x3cfd5e2a	0.03092869
217	0xbd1c03f8	-0.038089722
218	0x3d577302	0.052599914
219	0x3d12ad50	0.035809815
220	0x3d0930b8	0.033493727
221	0xbba05574	-0.0048929993
222	0xbc9c1b68	-0.019056037
223	0xbd1a5647	-0.037679937
224	0x3d2c53ce	0.04207211
225	0xbdef0e0e	-0.116726026
226	0xbcd1a2b5	-0.02559028
227	0x3c6a7642	0.014310421
228	0x3c8981a1	0.016785445
229	0xbded73e5	-0.11594371
230	0xbc5b283d	-0.013376293
231	0xbc828c5b	-0.015936067
232	0x3d04229c	0.03225957
233	0xbd0be6eb	-0.034155767
234	0xbdec8984	-0.115496665
235	0xbcdee161	-0.027207078
236	0x3bc7d2f5	0.006098146
237	0xbd82260e	-0.063549146
238	0xbce872a1	-0.028374972
239	0xbe038a43	-0.12845711
240	0xbde80540	-0.11329126
241	0xbe2e95f0	-0.17049384
242	0x3c67fd70	0.014159545
243	0x3d5d52ef	0.05403417
244	0xbd3fae2a	-0.046796955
245	0xbd6434ad	-0.055714298
246	0xbd732cc2	-0.059368856
247	0xbdc53313	-0.09628882
248	0x3cd34c7f	0.025793312
249	0xbe74a3c3	-0.23890595
250	0xbade54c0	-0.0016962513
251	0xbdc5563b	-0.09635588
252	0xbd540fcf	-0.05177289
253	0xbd16722b	-0.036729973
254	0xbe205574	-0.15657598
255	0xbe18eee6	-0.14934883

fc3.bias f4 [2]
0	0x3e07498b	0.13211648
1	0xbdb4f2de	-0.08835386
