log/train_2_1k800/models/1200_actor.pt (torch_old, 249426 bytes, 6 tensors)

fc1.weight f4 [300, 4]
00000000: 9ede 013e 07d4 c6bd 43c9 9abf d8d5 3ebf
00000010: 2b4b 77be 89a4 bb3d 3623 a63f 10cb 55be
00000020: 164b 1dbd 4dba b53d 6773 b9bf ed72 f0be
00000030: 7789 88be bd39 acbd 251d 64bf b887 163f
00000040: e2f4 5cbe d406 823e 7a0c 74bf 43dd 7d3e
00000050: 8aff 0bbe a530 383e 3f5d 813f 44dc 1e3f
00000060: 1c4d d3bd 992d 13bf df13 c23e d56f 30bf
00000070: c240 d93e 7d1e 953d 29b8 cb3e d074 1abf
00000080: feb3 873e 8159 34be 95db 5abf 4434 9f3e
00000090: e3b8 44bd c366 ff3e 99d1 983e c480 313f
000000a0: 81c1 30bd 2c85 7dbd e19b a6bd c2f5 0fbe
000000b0: 4fbf c03e 4832 b7bd 2791 843f d85d 0c3f
000000c0: 142f c5be ea56 c4bd 349e f93e 2df2 d03d
000000d0: 1dd6 52bd 20bf 9fbe d8d7 893f ddf4 1b3f
000000e0: b12f be3e b9e6 043e 2504 853e 3387 6b3d
000000f0: 1799 3d3e 1d33 91bc 6f98 983f 10bf 7fbf
00000100: 7634 abbc 7648 983e 5fd3 233f 98c2 5b3f
00000110: ab04 213e b488 923d c8ea 2c3f 8df0 4d3f
00000120: 39e3 47be 89e4 7ebe a875 b2bf 14c3 113d
00000130: 8baf 8fbe 6482 ecbe a8bb bebe 4ffe 023f
00000140: 04f1 6f3e e06d 023f dd88 5abd f27b 25bf
00000150: b984 8e3e 63dd 59bd dd30 9ebc b08e 43bf
00000160: 09b2 c7be a2e6 b2be 8e1f 70bf 7bce c03e
00000170: 157e ba3e e459 cebe 9a43 ebbe 8117 a03e
00000180: 645d 023f 7144 cebd 1a13 6e3f d885 40bf
00000190: c981 1d3e f060 2d3d b579 8cbf 80a2 fabe
000001a0: 4553 613e 5203 f93b b205 39bf 1621 123e
000001b0: aaf5 2c3d 2995 6b3e 203d eebe c26c 3d3f
000001c0: 2198 c93e 8873 623e f410 bf3e 4954 2e3d
000001d0: ca8b a2be 779b 52be a2cd c3bf a1ea 0f3f
000001e0: 8d2b 83be 0556 633e 9625 b13f e758 dc3d
000001f0: 5abc e6bd aa9e 7bbe d0da f1be 1c66 9b3e
00000200: 6b3c 8d3e 2f09 443d 7137 dabe 1e74 13bf
00000210: db4d 80be 63d9 6e3c b6ef f63e 4792 e6bc
00000220: 0910 143e 353f 833e 6cab 853f ee5f f53e
00000230: 43b1 51be f727 bebe 57aa 173f 73d0 a3bd
00000240: c2f3 12bd cfd9 b0be 0ec2 983c 368e adbe
00000250: 4860 67be bbba 09be e8cb 733f 9a91 193f
00000260: c85d 323e bf58 5abe 6e6f 7e3e b13f 4f3e
00000270: b9b4 32be dfcd d63e 9580 823f b7c7 4a3e
00000280: 58e0 df3c ca52 be3e e3cc 6bbf 68f6 1abf
00000290: bcf6 80be a5b5 873b fdc6 23be 59cf e13c
000002a0: 6829 7d3d 687a dbbe dc54 01be ab91 b1be
000002b0: 751b 8e3e e8d8 a7be 46dd 093e 3f46 b63d
000002c0: a2aa 753d 2162 083f 71b6 f8be 5439 e5bd
000002d0: d9dd 2bbe 26b0 bb3d 5815 b2be 5cdb cb3f
000002e0: f069 1abe b7e8 ec3e f870 693e b773 873f
000002f0: 546d 4b3e b955 f3be 3746 56bf 06c1 7cbc
00000300: 3def 7e3e 3b9c b6bb 0589 24bf 65a4 523f
00000310: 60f7 c73d f742 853e f17a 9bbe d1ad 493e
00000320: ca68 e3bc d598 fdbe 3469 153f 4afa ad3e
00000330: 8e0a f7bd e796 97be 2cc4 a8be 394a 383f
00000340: 1fb1 e03d fd1f 2a3e 4312 31bf be4d 03be
00000350: e5aa b73e 5adb 7f3d 6356 b9be bcd8 56be
00000360: a86a 87be f88d 8ebd b2a7 3cbe 48d1 c9be
00000370: 62b1 1cbe 1526 99bd 68b2 64bf 30dc 20be
00000380: d244 a93e 816a f8bd 29a2 c93f c882 193f
00000390: d979 8b3d 5923 9c3e e494 acbe 8733 903e
000003a0: 9e08 363e da58 053f 316f 1abf ebd4 39be
000003b0: 601b a23e a346 713e 9b25 043f fbcb 8dbe
000003c0: 1a0b 883d e2f0 f8be 0c78 3bbd 4c97 03bd
000003d0: decb a83d 5e26 093e 18cc e2be 4b69 72bf
000003e0: 3b4d 4bbe 45ce 9bbe 0915 0bbf 887e 2e3e
000003f0: 54b0 58be a246 b0bc 5a44 af3f 9053 32bf
0.12682578 -0.0970841 -1.209267 -0.7454505 -0.24149768 0.09162242 1.2979496 -0.20878243
-0.038401686 0.08873425 -1.4488343 -0.4696268 -0.26667377 -0.0840945 -0.8910697 0.5880084
-0.2157779 0.25395834 -0.9533154 0.24791436 -0.13671699 0.17987306 1.0106581 0.6205485
-0.10317442 -0.5749145 0.37905785 -0.6892064 0.4243222 0.07281206 0.3978894 -0.6033449
0.2650451 -0.17612268 -0.85491306 0.31094563 -0.048027884 0.49883088 0.2984741 0.69337106
-0.04315329 -0.06189458 -0.081352 -0.14058593 0.37645957 -0.08945137 1.0356797 0.54830694
-0.3851248 -0.0958689 0.48753512 0.10202441 -0.051473726 -0.31200504 1.0768995 0.60920507
0.3714576 0.12978639 0.25979725 0.057501983 0.1851543 -0.017724568 1.1921519 -0.99900913
-0.020899039 0.29742783 0.639944 0.858438 0.15724437 0.0715498 0.6754575 0.80445176
-0.19520272 -0.24891867 -1.3942156 0.03558643 -0.28063616 -0.4619323 -0.37252545 0.51169294
0.23431784 0.50948906 -0.05335318 -0.6464225 0.27835634 -0.053189646 -0.01931041 -0.763896
-0.39003018 -0.34941584 -0.9379815 0.37657532 0.36424318 -0.40302956 -0.45950013 0.31267932
0.5092375 -0.10071648 0.92997897 -0.7520423 0.1538154 0.042328775 -1.0974642 -0.48952103
0.22004421 0.0075992728 -0.72274315 0.14270434 0.04222647 0.23006119 -0.4653101 0.73994076
0.39373878 0.22114384 0.37317622 0.04256085 -0.31747276 -0.20567118 -1.5297129 0.5621739
-0.25619164 0.22200783 1.3839595 0.10759144 -0.11266394 -0.24572244 -0.47237253 0.3035134
0.27585158 0.04786032 -0.42620423 -0.57599056 -0.250594 0.014578196 0.4822976 -0.028145922
0.14459242 0.2563416 1.0442939 0.4792475 -0.20477776 -0.37139866 0.5924429 -0.07998743
-0.035876997 -0.34541175 0.01864722 -0.3389756 -0.22595322 -0.13450138 0.9523301 0.59987795
0.17418587 -0.21322916 0.24847195 0.2023914 -0.17451753 0.41953942 1.019549 0.19802748
0.027328655 0.37172538 -0.9210951 -0.60532236 -0.25188243 0.0041415268 -0.15993877 0.027564691
0.061807066 -0.42866826 -0.12630028 -0.34681448 0.27755323 -0.32782674 0.13463315 0.08900117
0.05997718 0.5327473 -0.48576692 -0.11192575 -0.16783847 0.09164457 -0.3478191 1.5926318
-0.15079474 0.46271297 0.22797 1.0582188 0.19865924 -0.4752634 -0.8370089 -0.01542688
0.2489595 -0.0055728233 -0.64271575 0.82282096 0.0976398 0.26027653 -0.30367234 0.19695212
-0.027759928 -0.49530664 0.5836365 0.33980018 -0.1206256 -0.29607317 -0.32962167 0.71988255
0.10971283 0.16613765 -0.6916849 -0.12822625 0.3587257 0.06246505 -0.3619872 -0.20981115
-0.2644856 -0.06960672 -0.18423346 -0.3941748 -0.15302041 -0.07477967 -0.89334726 -0.15708995
0.33060318 -0.12129689 1.5752612 0.5996518 0.0681035 0.30495718 -0.33707345 0.28164312
0.17776725 0.520887 -0.60325915 -0.18147628 0.3166151 0.23562102 0.5161988 -0.27694687
0.066427425 -0.4862128 -0.045768782 -0.03212671 0.082420096 0.13393542 -0.44296336 -0.94691914
-0.1985368 -0.3043081 -0.5432897 0.17040455 -0.21161014 -0.021518055 1.3692734 -0.69658756

fc1.bias f4 [300]
00000000: 02d9 e93e a73a 84bf 9bae e23e 79d3 c5be
00000010: 2acc 30be 84be 33be c5a7 8fbc ddc4 7abe
00000020: b3cf 83be d061 82bf 9ca0 b93f ab5d 94bf
00000030: 8df7 60bf f3ed c03e fe8e 05bf 4136 733f
00000040: aa1e e3bf f714 8e3e 31be c63d 69cc 79bf
00000050: 3449 c4be 77c6 c73e 5e8b 67be 6be4 503d
00000060: 91b3 0fbe f656 c73e 0c53 423f 6872 60bf
00000070: 2640 96bf 3cad 38bf 5fe6 083f 164b 1f3f
00000080: f5b5 8abe e565 c4bf 8833 093f a7fb 303f
00000090: 3344 22bf 206d 623f 0340 793e cc74 25be
000000a0: 64d5 bb3e 0200 37bf 28ad 113f 0fcf 61bf
000000b0: 0cd0 cd3e 2cea 6ebf 2184 633d e467 aebd
000000c0: 240a edbe 218a 9fbf fb9d da3e 4fbb 91bf
000000d0: 938a 51bf d204 aa3e 4a6a 7b3f f150 553f
000000e0: fce0 d83e 2253 a5bf 1b36 1ebf c181 77bf
000000f0: c936 8b3e ba13 a13e 3e9e 74be cd4b 16bf
00000100: 422c 26bf 22ab a6be 60ad 14be d61d 54bf
00000110: ae51 223f 0625 fcbe ba9f 37bf 8a81 bbbe
00000120: dcd9 1a3f ebfd 9dbf 56a9 f93e 58a7 80bf
00000130: 72c3 3f3e 4d17 6e3f 07ee 30bf 5ccf 81bf
00000140: c9f7 ab3f 4c6f b2bf a041 4d3e 930a a7bd
00000150: ede2 0dbc 7ca4 bebe ad10 acbf f160 353e
00000160: 8477 1fbc 3bb8 323f 2257 0bbf 74a9 53bf
00000170: 6dc4 7e3f a41e 7f3f d1bf 623f 9fd7 80be
00000180: ca7e 34be c334 353f 3b5e afbe d7b9 69bf
00000190: c374 213f d934 5c3f a20a b23e 8ad8 3d3f
000001a0: d8de a73e 5149 c4be 9f4e a1be 4ec6 82bf
000001b0: 39be bdbd b5fd 00bf 2a48 61bd 2e15 e8be
000001c0: f083 8a3f 1296 67bf 8f3e 0a3d b59f b5bf
000001d0: 9e2d 9a3f 3b83 febe 7f20 71bf 853e 9dbf
000001e0: e03e 013f abaf 8b3f 8216 f53d 3494 22bf
000001f0: 92e1 693d a7a7 20bf e177 a13e 06c0 e83d
00000200: a87e ab3f f1fb 2a3f a3cf afbe d4e0 41bf
00000210: 184e 5b3f 9606 0e3f 7e18 4ebf b226 89bf
00000220: 69c2 e7be 5f55 04bf 8c06 ba3f 1ae3 343f
00000230: 69b2 57bf 4577 a9bf 4097 80bf 45f2 603e
00000240: ca4c 25bf 517e 723f 48e8 233f fe83 7e3f
00000250: 1b7e 283f 8230 033f b923 31bf d558 ad3e
00000260: 4680 753f faf1 b63e 0431 0fbf 5081 10bf
00000270: 5bcd efbe 2401 5d3f fc8e 6f3f 62c2 9d3e
00000280: 6852 6f3e 617c 953e b05a 113f cb86 0cbe
00000290: 221f 4ebe 4809 a63e c155 513d 1a74 783f
000002a0: a070 ad3a 280b 213f 18b1 cd3f 0d47 623d
000002b0: 9ce5 183f 8ba0 d2be 9256 24bf ed0c fb3c
000002c0: 4e2a 0c3f 07c4 603f f8ed a53e f791 8abf
000002d0: 918d 56bf ee31 3cbf 74ff 3b3f 4e07 4a3f
000002e0: cee0 493f 4e19 203d 2112 41bf f971 803f
000002f0: 5b72 65be 7896 f33e 1e3f 91be 05b4 94bf
00000300: 5875 93bf 92ca ba3f a4b4 23bf 3d37 80bf
00000310: f7fc 45bf f612 a1be 90f5 2f3e 1b02 b5bd
00000320: b487 5d3e 2da8 b73f fadd a1bf f71e e6bc
00000330: 519f 753f d6e3 e43e aa44 f9be 5ef7 943f
00000340: 6835 29bf 77bd 77bf bf5d babe caaa 92bf
00000350: 76f6 86bf 065e 65bf cdbd 16be a502 b83e
00000360: c8de 5f3f fc97 efbe 2d97 523f ba3a 98be
00000370: 809b ff3e 112e 0cbf 3d0a 623f 50a6 37bf
00000380: 9b8f d73d 7424 22bf 54f6 d6be aa70 8e3e
00000390: 3991 50bf 0d81 513f 3a1a 20bf 44bc 41be
000003a0: f185 9cbe cd6c 5fbf e5f0 90bf 40c0 583f
000003b0: 40b9 12bf 175a 84bf 7bd7 a0bd 9a32 87bf
000003c0: 02ec 153f 6520 94bf a4b4 dd3e 860c a2bf
000003d0: 837f 57bf b5ca 6cbe d54f 64bf 45b1 8cbf
000003e0: f316 c43d 178d 503f a723 82bf bbec dd3e
000003f0: 6f02 08bd 1023 443e 2461 713f 36ed 103f
0.45673376 -1.0330399 0.44273838 -0.38637903 -0.17265382 -0.17553145 -0.017536053 -0.2448916
-0.257444 -1.01861 1.4502139 -1.1591085 -0.8787773 0.3768154 -0.52171314 0.9500466
-1.7743733 0.2775037 0.09704245 -0.9757753 -0.383371 0.39018604 -0.22611758 0.050999086
-0.14033343 0.38933533 0.7590797 -0.8767457 -1.1738327 -0.72139335 0.5347652 0.6222395
-0.27091947 -1.5343596 0.53594255 0.6913399 -0.63385314 0.8844776 0.24340825 -0.16157836
0.36686242 -0.71484387 0.5690484 -0.8820657 0.4019779 -0.9332607 0.05554593 -0.08515909
-0.462968 -1.2464029 0.42698655 -1.1385287 -0.8185207 0.33206803 0.9820906 0.8332663
0.4235915 -1.2915995 -0.6180131 -0.96682364 0.27190235 0.31460363 -0.2388849 -0.5870941
-0.6491128 -0.3255244 -0.14519262 -0.82858026 0.63405883 -0.49246997 -0.717281 -0.36622268
0.6048868 -1.2343115 0.48762006 -1.0051069 0.187269 0.93004304 -0.691132 -1.0141406
1.3434993 -1.3940215 0.20044565 -0.08156314 -0.00866006 -0.37234867 -1.3442589 0.17712761
-0.009733085 0.69812363 -0.5442983 -0.8268044 0.9951847 0.9965613 0.8857394 -0.25164506
-0.17626491 0.70783633 -0.3425158 -0.91299194 0.6306879 0.8601814 0.34773737 0.7415854
0.32787204 -0.38337186 -0.31505296 -1.0216768 -0.09264798 -0.50387126 -0.05500046 -0.4532866
1.0821514 -0.90463364 0.033751067 -1.4189364 1.2045171 -0.49709496 -0.9419021 -1.2284704
0.50486565 1.0912985 0.11967184 -0.6350739 0.057099886 -0.6275582 0.31536773 0.113647506
1.3398027 0.6679068 -0.34338102 -0.75733685 0.85666037 0.554788 -0.8050612 -1.0714934
-0.4526551 -0.51692766 1.4533248 0.7065903 -0.8425661 -1.3239523 -1.0046158 0.21967418
-0.64570296 0.94723994 0.6402631 0.99420154 0.6581742 0.5124589 -0.69195133 0.33856836
0.95898855 0.35731488 -0.55934167 -0.56447315 -0.4683636 0.86329865 0.9357755 0.30812365
0.23371279 0.29196456 0.56779003 -0.13723294 -0.20129064 0.32428956 0.051107172 0.97052157
0.0013232417 0.6290765 1.606967 0.05524354 0.59725356 -0.4113811 -0.64194596 0.030645812
0.5475205 0.87799114 0.32408118 -1.0825795 -0.83809763 -0.73513687 0.73436666 0.78917396
0.7885865 0.039086632 -0.7541829 1.0034782 -0.22406904 0.47575736 -0.28368467 -1.1617438
-1.1520185 1.459307 -0.6394751 -1.0016857 -0.7733912 -0.3145978 0.17183518 -0.08838292
0.21633798 1.4348198 -1.2645867 -0.028090937 0.9594622 0.44705075 -0.486852 1.163799
-0.66097116 -0.96773475 -0.36399648 -1.1458371 -1.0543964 -0.89596593 -0.14720841 0.35939518
0.8744931 -0.46795642 0.82261926 -0.29732305 0.49923325 -0.5475779 0.8829687 -0.7173815
0.105254374 -0.63336873 -0.41984808 0.2782033 -0.8147159 0.8183754 -0.6254002 -0.18919474
-0.3057094 -0.8727539 -1.1323515 0.8466835 -0.5731392 -1.0339993 -0.078536 -1.0562317
0.58563244 -1.1572386 0.4330188 -1.2660072 -0.8417894 -0.23124202 -0.89184314 -1.0991598
0.0957469 0.81465286 -1.016713 0.43344674 -0.033205446 0.19154 0.9428885 0.56611955

fc2.weight f4 [200, 300]
00000000: 405e 073b 395c c43c 4f13 cfbe 94a5 f5bc
00000010: d45b 8e3d 62cf 8fbd 6e86 883d 5178 793d
00000020: a8c0 e7bc 301a f3bd 6dbb 803e 2cc9 ba3a
00000030: 0712 d63c 90ac 59bc 1d15 2037 90f3 143e
00000040: ea44 ebbe 74c6 63bc a5c8 e5bd 10b3 e2bc
00000050: 18f9 1d3c 487b 1b3d 4183 06bd 9539 0f3d
00000060: 8467 863d 98fc c2bd c386 b7bd b72d 43bf
00000070: 4c68 403d 77e7 07be f8fb 2e3e f71e 1cbe
00000080: 27a0 133c ab1e 763d caef 7b3d 6d11 1e3d
00000090: 5858 18bd e676 973d 4a1b 6dbd 514a 38bb
000000a0: 2916 ee3c acc0 853d cf87 113b 13ef a9bc
000000b0: 9f39 a33c 0145 26bf 4a30 5abe e456 f23b
000000c0: f81b 07bd 6e35 fcbe bd85 86bd e110 dbbd
000000d0: 63c1 1abd ad96 30bd e1ef ec3c e64a a9bd
000000e0: 0526 833d f2a6 3ebe 6a6e 7d3d acfc 883d
000000f0: c54a 393d 68df dcbc e740 d4bc 2857 5d3d
00000100: 63fc 4f3c ff26 0c3b ff4f b4bd eda4 d9bd
00000110: 500d cf3c 2e55 90bd a525 2fbd bb38 2a3b
00000120: 2eef 08be 8cea 07bf e8fb 1fbd 1726 c0be
00000130: 7a2a 103d 1006 213e 352e a73d 693d a5bd
00000140: 23f3 f9bd 84a5 d9be 2684 e5bc 0352 1ebe
00000150: 4754 04bd c04c 74bc d041 afbc 8ec5 1d3d
00000160: edaf e63c 4547 27bd 25e7 b4be 2096 eabd
00000170: 4672 333c f803 f83d 5d44 323d 29c5 a4bc
00000180: 92c0 14be 10cc 9f3d d845 4fbd b0ae febd
00000190: e0eb aebd 36bc 7b3c ee5c e53c 5e03 6abb
000001a0: fa19 4abd c0e9 a5be 036b 83bd ac1e f6be
000001b0: b42d 04be bec4 d53c a3d4 acbb c9e6 92be
000001c0: 621d 623e 9685 00bc 1a61 4bbe 65b6 97bd
000001d0: b4eb fdbc 06a3 f9bc 4f97 24bd 81f7 203e
000001e0: a676 8e3b c9a5 913c 1cea 56bd 8f63 ce3b
000001f0: 4384 043c ee88 f1bd 26d0 33bd e512 6fbd
00000200: 5afe 1c3e 8ad6 45bd f559 bcbc 45ec 17bd
00000210: 680f 8fbd 06ab 78bd 4cc5 8e3e 2a24 4ebd
00000220: 435c 953c 0327 033e 580b 163e 2361 1a3e
00000230: 09b8 3dbd 48d2 4bbe 51b8 09bf 1205 a9bd
00000240: 12b2 6d3d 8f5e 033d 6e94 51bd 738f 0cbd
00000250: 1fcf 95bc 1c2d 2b3d 6351 28bd 7de1 993b
00000260: 271a ccbd ca02 eabc 55e3 b6bd 409c 003c
00000270: ccac 643d 3041 6c3c bab7 80bc 2b90 a5bc
00000280: 606c b83e d3a0 993d e09f e8bb 73ec 98bb
00000290: 48c8 b53c a257 8dbd 31e3 df3d f62f bf3d
000002a0: 13c7 84be 3117 9b3d 9cdb b03b 7964 593c
000002b0: 9ec4 863d 8451 1e3d e877 debe 3e50 54bd
000002c0: 5a77 be3d 2a94 ba3e cf2f beba b4d9 20be
000002d0: ffd2 e53b 36eb f9be 406d 3ebc dcd0 c1bc
000002e0: c6c5 4fbd 8314 56bc 9866 86bd 77e9 dcbd
000002f0: 8b51 383d ede4 553d 3af7 25bd 710a 80bd
00000300: 7ff6 b6bd 4281 863b d02b 6fbd c349 e5bc
00000310: b11c 553b ffe3 bebb 5196 713d dd1a 39bb
00000320: 7807 b4bc 1cad 6c3e 0268 60be 8040 a5bc
00000330: c47d 673c 84f9 20bd db15 99bd 1863 adbd
00000340: 44c0 093c 1d06 c3be 79e4 35bc fe7d 873e
00000350: a4d5 63bd 3195 92be 906e 86bc 6bec 003b
00000360: 9cdc 34bd 032a bcbd 39b5 823d 0ae7 43be
00000370: 37c6 62bd ce63 68bd 8a93 8e3c 901a 83bd
00000380: 2b27 0b3e eeb2 7bbd d5d2 0f3e 7db8 613d
00000390: 0f92 1cbe 1c90 853d 0ffd c0bd 5d8b 34be
000003a0: 4fb8 44bd 7c61 a4bd 75ae 33bf 0e74 8abc
000003b0: eb0a d2be 1470 17be 0541 553d 9a07 43bd
000003c0: 4db9 4fbc 0863 1dbd 8e36 443d 8cd3 a9bd
000003d0: e691 02bf c990 803c 15fd 4dbe 6922 e9bd
000003e0: 3573 b33c c2eb ef3d add8 c8be 627d 99bc
000003f0: 8762 313d 8c84 1c3d 3255 923b fb02 783d
0.0020655543 0.023969756 -0.4044442 -0.02998618 0.069511086 -0.07021977 0.066662654 0.06090576
-0.028290108 -0.11870229 0.25142995 0.0014250628 0.026131643 -0.013285771 9.541659e-06 0.14546037
-0.45951015 -0.013902295 -0.112199105 -0.027673274 0.009641908 0.037959367 -0.032840017 0.034967024
0.06562713 -0.09520835 -0.08961251 -0.7624163 0.046974465 -0.1327189 0.17088306 -0.15246187
0.009010351 0.06008784 0.061507978 0.038590837 -0.037193626 0.07395725 -0.057887353 -0.0028120468
0.029063301 0.0653089 0.0022206192 -0.020743882 0.019924937 -0.6494904 -0.21307483 0.007395612
-0.032985657 -0.49259514 -0.06568477 -0.10696579 -0.037782084 -0.043112446 0.028922977 -0.08266239
0.06403736 -0.18618372 0.061872877 0.06688818 0.04523732 -0.026961997 -0.025909854 0.054038197
0.012694451 0.0021385548 -0.088043205 -0.1062716 0.025274903 -0.07047497 -0.04276051 0.0025973755
-0.1337249 -0.53092265 -0.039058596 -0.3752906 0.03519676 0.15724969 0.0816311 -0.08068354
-0.12204578 -0.4250909 -0.028017115 -0.15460972 -0.032306936 -0.014910877 -0.021393687 0.03851848
0.02816006 -0.040839452 -0.353326 -0.11454415 0.010952538 0.12110132 0.043522228 -0.020113545
-0.14526585 0.07802594 -0.050603718 -0.12435663 -0.08541083 0.015364697 0.027998414 -0.0035707573
-0.04934118 -0.324049 -0.06416895 -0.48070276 -0.1290806 0.02609479 -0.0052743717 -0.286917
0.22081521 -0.007844349 -0.1986126 -0.07407836 -0.030996181 -0.030473243 -0.04018336 0.15719415
0.00434764 0.017779248 -0.052469358 0.0062984894 0.008088174 -0.117936954 -0.043899678 -0.05836763
0.15331402 -0.048300304 -0.022992114 -0.03709056 -0.069853604 -0.060709976 0.278849 -0.050327457
0.01823247 0.1280785 0.14652765 0.15076117 -0.046318088 -0.19904435 -0.5379687 -0.0825292
0.05803115 0.0320726 -0.051166944 -0.03431649 -0.01828724 0.041791067 -0.04109324 0.0046960698
-0.09965926 -0.028565783 -0.08930079 0.007849753 0.055828854 0.014419839 -0.015712608 -0.020210346
0.36020184 0.07501378 -0.0070991367 -0.004666859 0.022190228 -0.0690148 0.10932005 0.0933532
-0.25933132 0.07572783 0.005397273 0.013268583 0.065804705 0.038651958 -0.43450856 -0.051834337
0.09300108 0.36441165 -0.0014510098 -0.15708047 0.007013678 -0.48812264 -0.011622727 -0.023659162
-0.05072572 -0.013066414 -0.06562537 -0.107867174 0.04499964 0.052220274 -0.040518977 -0.062519915
-0.08933734 0.004104764 -0.058391392 -0.027989274 0.0032518322 -0.005825519 0.058981244 -0.0028244772
-0.021976218 0.23112911 -0.21914676 -0.020172358 0.014129106 -0.039300457 -0.07474872 -0.08466166
0.008407656 -0.38090602 -0.011101835 0.26463312 -0.055623665 -0.2862945 -0.016410142 0.0019672166
-0.044155702 -0.091877006 0.06382222 -0.19131103 -0.055364814 -0.056735806 0.017404336 -0.06401551
0.1358916 -0.061449938 0.1404527 0.055107582 -0.15290092 0.06521627 -0.09423267 -0.17631288
-0.048027333 -0.08026406 -0.70188075 -0.016901042 -0.41023955 -0.14788848 0.05206396 -0.04761467
-0.0126784565 -0.03842452 0.04790359 -0.082923025 -0.51003873 0.015694039 -0.20116074 -0.11383516
0.02190552 0.11714889 -0.3922781 -0.018736545 0.043306854 0.038212344 0.0044657225 0.060549717

fc2.bias f4 [200]
00000000: 8386 f23d 7b4c 0cbd ab96 febd 68b1 243e
00000010: 5ce3 ec3c 8141 083f ffcf f9bd ff7d 073d
00000020: bf0c 8c3e a6c5 6f3e 837c 373f edd4 8ebd
00000030: 9207 22bd 2779 8fbd 5fc0 793d 5402 113d
00000040: 7d69 473c dc25 173d 1731 373b c783 24bd
00000050: 0012 ce38 93b6 eb3b c5fb 3b3e d101 01bd
00000060: 2d68 6dbd 431a cf3e 2281 d3bd 9697 a2ba
00000070: 5499 533e 2ca0 673e 7235 f13d 119a 573e
00000080: cd9e d1ba 084a 503e f8a2 88bd ad29 edbe
00000090: 9f8f 5c3c f02a d73d 0d3a c93e e0e5 af3e
000000a0: f5a5 8e3e 4e58 b93e df63 b7bc 6fa2 d3bc
000000b0: f6e1 aabc 56fa d23d dc97 a0be 2dfb 843e
000000c0: 1ba1 323d a1da 813e 54b1 03bd 567d e43e
000000d0: 83d2 3fbe 6bdc bb3d 9d0f 0b3e 17d6 173e
000000e0: 74e3 963c 64ab a0bc 8ff4 d53e 5235 563e
000000f0: c027 7b3c c2d6 56bd 2905 df3e 9c11 0ebc
00000100: ee5e 5b3d 720b 023f 6942 80bc e4f8 083e
00000110: d4fe bf3e d6fb 483d dd8d de3e 50a2 9bbc
00000120: 8bb8 323d f50f 9a3e 04c9 883d 6019 b93d
00000130: fd62 21bc 50ad 12be 5407 a0bc dc88 ff3d
00000140: 9a0a c1be 332d 7e3c 562a a93e f3da f53e
00000150: 17f8 283e a525 35bd 2cfa 0dbb d3a9 e1bd
00000160: 59ea 723e 0677 483c e018 123d 2c73 8e3e
00000170: 003a 2fbd 6f12 08bd 4648 743e fc91 59ba
00000180: 8af0 8c3e ea4d 1ebe df29 08bd 7247 773e
00000190: 9912 953e 1db6 193d e97a 813b 8db1 183e
000001a0: d45d 63bc 8a09 d73c ea1a bcbe ee64 1a3d
000001b0: f62c 3d3e e64f b4bd 113e 623d e420 b03d
000001c0: 855a 34be 9b01 1fba 6af8 7b3d 6d69 ab3e
000001d0: 419c 803c b744 c23e 835b bbbc 2852 b8bc
000001e0: 4381 61bd c4ea 943d 5cba b33b b740 37bd
000001f0: 7f4c 53bd 02e5 60bb 3244 f3bc d2bb bd3d
00000200: 4333 003f b3a3 d83c 8a36 3abd 7522 3e3d
00000210: 44b3 bcbe 3058 ce3c d436 7f3c c542 193e
00000220: 6960 42bd 94e4 923c ef9b 2dbd 4dee c7bd
00000230: 9ecd 893e c6d2 483e b40d 0ebd 808c 46bd
00000240: 74ab 3cbc 01fa 873e 3897 fabb b166 23bc
00000250: 69ea 803d 6c4b 423d 515e c3be 0f3e 893e
00000260: 5341 cfbc 744a a53d 2056 603d b8f1 d03e
00000270: 9033 a5bd 7efe b73e 1881 54b9 5441 85be
00000280: ec9f 653e 3fbf d13c 3013 353e 8728 9d3d
00000290: f378 b43e 437f 8c3c 5ac6 31bd ca9a e0bb
000002a0: ed57 8e3c a796 b73c f3b5 0c3d 3a22 3a3d
000002b0: 75f9 043d b34d bcbc 7c4b c13e 6723 70bb
000002c0: 80a5 92bd 72a4 3b3f fdd4 2a3d 50d6 d73e
000002d0: efc2 d63e f97c 723e 772c aebc ef24 2b3e
000002e0: a5e5 863e 0abd d73e a353 9f3c d8ba 933d
000002f0: fb10 46bd d114 4cbe 6244 b8be 8417 e3bd
00000300: 4c66 50bd 7c2b 9c3e 0eda 3e3c 43e0 1f3c
00000310: a6cb ee3b f8fd d0bb 2260 c4be 7051 af3b
0.11842062 -0.034252625 -0.124310814 0.160833 0.028917007 0.5322495 -0.12197875 0.033079144
0.27353474 0.2341524 0.71674365 -0.06974206 -0.039558 -0.0700553 0.060974475 0.03540261
0.012171146 0.03690134 0.0027952844 -0.040164735 9.826198e-05 0.0071933954 0.18357761 -0.031495873
-0.057960678 0.40449724 -0.103273645 -0.0012404795 0.20663959 0.22619694 0.11777772 0.21054865
-0.0015992761 0.2034074 -0.06671709 -0.4632086 0.013461976 0.105062366 0.39302102 0.34355068
0.2786099 0.36200184 -0.02238649 -0.02583429 -0.0208597 0.10301654 -0.3136586 0.25972882
0.043610673 0.25362113 -0.032151535 0.44626874 -0.18732648 0.09172901 0.13580175 0.14827763
0.018419005 -0.019612975 0.41788146 0.20918778 0.015329301 -0.052450903 0.43558624 -0.008671191
0.05355733 0.50798714 -0.015656667 0.13376194 0.37499106 0.049068294 0.43467608 -0.018998295
0.043633025 0.300903 0.06678966 0.09038043 -0.009850261 -0.14323926 -0.019534744 0.12477276
-0.377034 0.015513706 0.33040112 0.48018607 0.16500889 -0.044225354 -0.0021664007 -0.110187195
0.23722209 0.012235409 0.035668254 0.27822244 -0.042779922 -0.033220705 0.23855695 -0.00082996464
0.27527267 -0.1545941 -0.033243056 0.24148348 0.2911575 0.037527192 0.0039514196 0.1491148
-0.013877351 0.026249666 -0.36739284 0.03769391 0.18474182 -0.08804302 0.055234972 0.086000234
-0.17612655 -0.0006065608 0.061516203 0.3347887 0.015699508 0.3794305 -0.022870785 -0.022500113
-0.055054914 0.072713405 0.0054848623 -0.04473945 -0.051586624 -0.0034316187 -0.029695604 0.092643395
0.5007822 0.026445245 -0.04546217 0.04641958 -0.3685552 0.025188535 0.015577037 0.14966877
-0.047455225 0.01793126 -0.042385038 -0.09762249 0.26914686 0.19611654 -0.034681037 -0.048473835
-0.011515487 0.26557925 -0.007647421 -0.009973214 0.0629471 0.04743521 -0.38157895 0.2680516
-0.025299704 0.080708414 0.054769635 0.40809417 -0.080664754 0.3593635 -0.00020265987 -0.26026404
0.22424287 0.025603889 0.176831 0.076737456 0.35248527 0.017150527 -0.043402053 -0.00685439
0.01737591 0.022410704 0.034353208 0.045442797 0.032464463 -0.022986269 0.37752903 -0.0036642195
-0.07160473 0.732978 0.041707028 0.42155695 0.41945598 0.23680486 -0.021261437 0.16713308
0.2634708 0.42136413 0.01944906 0.07213372 -0.048356038 -0.19929816 -0.35989672 -0.110884696
-0.050878808 0.30501926 0.011648668 0.009758058 0.0072874604 -0.0063779317 -0.38354594 0.0053502843

fc3.weight f4 [2, 200]
00000000: a305 af3d 7d2b ee39 aabe e9be c4d7 853e
00000010: 12bc c33c f2e5 e13e 46ea 8fba 5915 013d
00000020: 2c4a 94bf 9132 1e3e 4986 1abf 457e 85bd
00000030: 841d 2abd 328e 0e3e e5ff 0e3e e216 9c3c
00000040: 7368 6b3c 4204 613d 2edf eebb f1fb 393d
00000050: a85b 5bbd 35af f6bc 0262 8b3c c9f4 a63d
00000060: ee24 2c3d 61fd cb3e 375c 7fbd d533 a3be
00000070: 1c7b 04be 0cbc 893d fcc3 223e edae f8be
00000080: 9f62 79bd 2cfb ad3e 6f6a 79bb 5b0b d8bd
00000090: 3bbb 82bd 620a bbbd 38a5 96be 073e e7be
000000a0: 3a5a fbbb 4281 343e c783 243d 4119 813d
000000b0: f494 8fbd 8f40 213e d068 13be 652b 8bbd
000000c0: b2cb c33b ee19 733e 10e4 2e3d 3b01 2b3e
000000d0: 02c3 0bbf ee40 19be 229f abbe 4575 883d
000000e0: f31c 1fbd 4a6b 013d 2086 3c3e d347 2fbf
000000f0: 2b94 82bc 7732 2dbd 4661 0e3e cb94 e13c
00000100: 5c03 04be bdb5 2abf d372 833c 921f 3cbe
00000110: b524 ee3d 569f 863a 464c 713e c628 90bd
00000120: e27a 733d 2f43 a5be 68fe c2bd 7e34 90bd
00000130: 9ee5 783d db1c f5bd 52bd 813d 90cc 92bd
00000140: ba90 afbd 827f fcbd 7ab9 ed3d 844b f43d
00000150: dca8 ec3d 2d05 053d a934 1d3d bca9 f5bd
00000160: 20b5 92bf fc4c 33bc bb33 b2ba 2e01 4dbe
00000170: d584 c73b de6f 353d 1286 f43d 2dd8 a13c
00000180: c71c 123f e5d2 2bbe 5933 c3b9 ddcd fb3d
00000190: d4e9 04bf 8293 153c e661 703d f95b 513e
000001a0: 41a9 4c3d 9b57 3bbd 03e3 0bbd e27f 87bc
000001b0: 8a38 1bbf cb2b 9c3d d1a6 18be b609 c1bd
000001c0: 34cb e3bd 78e3 ddbc 6435 943d 7d4b 05bf
000001d0: aa4a 8bbb 856c 853d 3aa5 14bd 0659 06bc
000001e0: 01c2 263d 8354 743b 3973 b9bc 8234 573d
000001f0: bbbd 7e3d 48eb 5d3c b56e 21bd 638e 5ebe
00000200: 3798 64be 740c 50bc 8a1a 4d3d 7ec2 06bd
00000210: 4ebb e5be 255d 88bd 438a 033d 5350 d5bd
00000220: 5a0f 823d 7035 42bd f4e9 3c3d c92c 01be
00000230: 3fcc 8abe 5aef dc3b 7f73 37bd 97e1 55bd
00000240: d3e4 0c3c 3a1c 8abe 890d 013d 3c95 1f3c
00000250: 5a7e 1fbe 4f76 043b d4b1 2abe d16a 17be
00000260: bfdb 073c 7c3f 8ebe 50ea 1c3d 1ea4 5ebe
00000270: 7dce 04bb 6f4d fbbe 296a 7bbd 5106 bbbe
00000280: 9104 25be caca a1bd 4fd8 d13d 47c8 b5be
00000290: 2a54 27be 7c1b ff36 a4eb 853d cee3 f7bc
000002a0: 98bf 543d 1467 f538 dffe 793d eda7 4e3e
000002b0: 5093 7abd cf81 dd3c f456 22be bfdb 873c
000002c0: 07ee 49bc de95 ea3e b60c 073d 0260 95be
000002d0: f5ef 66be 0ee5 35be c68b 783d ca64 4abd
000002e0: 8f50 0bbf 8241 7dbe 44f8 e2bc 0e44 3b3e
000002f0: 9a49 44bd 153d b5bd 15a5 33be f72b 87bd
00000300: 2818 89ba 0976 29bd be39 78bd b7b2 c03c
00000310: 6140 1d3d 9add 3c3d eb97 3cbe 18a8 383d
00000320: fda7 473d a35e 963c 2ff3 07be 839e 8cbe
00000330: 7d3c 643b 56f7 77be ae1d efbb 813e 003d
00000340: 5030 123d e0a6 88bd 4086 12bd 4ebb e5bc
00000350: 7e5d 493d 561c 87bc 0af2 3abe eed9 06be
00000360: 2a5e fd3c f803 1cbd 0273 573d 50ad 123d
00000370: b830 093d 7455 a0bb 681b 9cbc 4756 1abd
00000380: ce53 2c3d 0e0e efbd b5a2 d1bc 4276 6a3c
00000390: a181 893c e573 edbd 3d28 5bbc 5b8c 82bc
000003a0: 9c22 043d ebe6 0bbd 8489 ecbd 61e1 debc
000003b0: f5d2 c73b 0e26 82bd a172 e8bc 438a 03be
000003c0: 4005 e8bd f095 2ebe 70fd 673c ef52 5d3d
000003d0: 2aae 3fbd ad34 64bd c22c 73bd 1333 c5bd
000003e0: 7f4c d33c c3a3 74be c054 deba 3b56 c5bd
000003f0: cf0f 54bd 2b72 16bd 7455 20be e6ee 18be
0.08545997 0.000454273 -0.45653278 0.2614118 0.02389339 0.44120747 -0.0010979853 0.0315145
-1.1585135 0.15448977 -0.6036115 -0.065182246 -0.041532055 0.1392143 0.13964804 0.01905388
0.014368164 0.0549357 -0.0072897887 0.045406286 -0.053554207 -0.030112842 0.017014507 0.08152158
0.042027406 0.3984175 -0.062343802 -0.31875482 -0.12937587 0.0672532 0.15895075 -0.48570958
-0.060885068 0.3398069 -0.0038057824 -0.10549041 -0.06383368 -0.0913284 -0.29422927 -0.4516451
-0.007670668 0.17627433 0.040164735 0.06303645 -0.070108324 0.15747283 -0.14395452 -0.06795386
0.00597521 0.2374036 0.042697966 0.16699688 -0.54594433 -0.14966175 -0.33519846 0.066629924
-0.038845968 0.03159646 0.1841054 -0.6846897 -0.015939793 -0.042284455 0.13904294 0.02753677
-0.12891906 -0.6668356 0.016045963 -0.18371418 0.11628095 0.0010270874 0.23564252 -0.07039027
0.059443362 -0.3227782 -0.095211804 -0.07041262 0.060765855 -0.11968394 0.06334938 -0.071679235
-0.08572526 -0.12329008 0.116076425 0.11928466 0.11555645 0.03247564 0.0383803 -0.11995265
-1.1461525 -0.0109436475 -0.0013595739 -0.20019981 0.006088833 0.044296138 0.119396344 0.019756401
0.5707516 -0.16779669 -0.00037231555 0.12295125 -0.51919293 0.009129407 0.058687113 0.20445241
0.0499661 -0.045737844 -0.034152042 -0.016540471 -0.60633147 0.0762554 -0.14907385 -0.0942568
-0.11122742 -0.027086005 0.07236746 -0.5206831 -0.004250844 0.06514839 -0.036290385 -0.008199936
0.04071236 0.0037281818 -0.02263795 0.05254031 0.06219266 0.013544865 -0.03941222 -0.21734004
-0.2232369 -0.012698282 0.050074138 -0.032900326 -0.44869465 -0.06658391 0.03211428 -0.10415711
0.06350584 -0.047414243 0.046121553 -0.1261474 -0.27108952 0.0067424 -0.04478788 -0.052217092
0.008599478 -0.2697466 0.03150705 0.00974017 -0.15575543 0.002021212 -0.16669399 -0.14786841
0.008292138 -0.2778281 0.038309395 -0.21742293 -0.0020264678 -0.49082515 -0.06138054 -0.36528257
-0.16115023 -0.07900007 0.10246336 -0.35504362 -0.163407 7.602792e-06 0.065390855 -0.030259993
0.05194053 0.0001170171 0.06103408 0.20181246 -0.061175644 0.027039437 -0.15853482 0.016584275
-0.012324817 0.45817465 0.032971106 -0.2917481 -0.22552474 -0.17763159 0.060680173 -0.049412526
-0.544198 -0.2473202 -0.027706273 0.1828768 -0.047921754 -0.08849541 -0.17543443 -0.066001825
-0.001045947 -0.041372333 -0.060601942 0.023522718 0.038391475 0.046109773 -0.18417327 0.04508218
0.04874419 0.018355673 -0.13276361 -0.27464685 0.0034826093 -0.24215445 -0.0072972393 0.03130961
0.035690606 -0.06672454 -0.035772562 -0.028043415 0.049161427 -0.016493004 -0.18256393 -0.13169071
0.03092869 -0.038089722 0.052599914 0.035809815 0.033493727 -0.0048929993 -0.019056037 -0.037679937
0.04207211 -0.116726026 -0.02559028 0.014310421 0.016785445 -0.11594371 -0.013376293 -0.015936067
0.03225957 -0.034155767 -0.115496665 -0.027207078 0.006098146 -0.063549146 -0.028374972 -0.12845711
-0.11329126 -0.17049384 0.014159545 0.05403417 -0.046796955 -0.055714298 -0.059368856 -0.09628882
0.025793312 -0.23890595 -0.0016962513 -0.09635588 -0.05177289 -0.036729973 -0.15657598 -0.14934883

fc3.bias f4 [2]
00000000: 3585 0a3e def2 b4bd
0.13527377 -0.08835386
