log/train_2_1k800/models/1280_critic.pt (torch_old, 251021 bytes, 5 tensors)

fc1.weight f4 [300, 6]
000000 ec 56 f8 bb fe 41 75 3f 00 10 ea 3f 2a 31 bf be
       -0.0075787213 0.9580382 1.8286133 -0.37342197
000010 6d e9 cd 3f 59 1a 5d 40 0a 6a f2 3e 67 74 b4 be
       1.6086861 3.4547331 0.47346526 -0.35245058
000020 51 a0 96 3e 62 96 b2 40 c3 ed fa be 51 60 36 40
       0.29419187 5.5808573 -0.49009523 2.8496287
000030 f3 96 3b be fe 2e 8b 3e 5a 1f 10 bf 0e 1b 9e 3e
       -0.18319301 0.2718429 -0.5629784 0.30880016
000040 fa ca b9 bf 22 8c fb bf 33 ef 1f bf c2 5a cb be
       -1.4515069 -1.965214 -0.62474364 -0.3971768
000050 04 e2 3a 3f 2b 88 27 3f f1 c3 2d 40 85 fa 61 3e
       0.7300112 0.6544215 2.7150843 0.22068222
000060 e2 30 ab 3e 0d 40 32 3e 03 98 b5 bf eb 7e 8a 3d
       0.33435732 0.17407246 -1.4187015 0.06762489
000070 e9 12 79 c0 4b 42 45 3f 03 47 8d 3d d5 3a 5a 3e
       -3.8917792 0.7705428 0.0689831 0.21311505
000080 d2 c2 45 bf e9 0f f7 3d a4 5b 41 c0 5b 4f 75 3f
       -0.772504 0.120635815 -3.0212183 0.9582421
000090 3b 24 97 bd dc 5d 2a 3e ac 42 c7 bf 0a 66 8c bf
       -0.07379957 0.16637367 -1.5567222 -1.096864
0000a0 96 ae 16 c0 22 e5 a7 3f 08 d8 72 3e ba bc 52 3f
       -2.3544059 1.3116801 0.23715222 0.82319224
0000b0 2b 7c 87 bd d7 7f 69 bf 6d 01 e4 be 9f 9b 2a c0
       -0.0661548 -0.91210693 -0.44532338 -2.6657484
0000c0 58 e7 3c be ab b0 4c 3f 49 23 c1 3f 27 ac 91 be
       -0.18447626 0.79957074 1.5088893 -0.28451654
0000d0 86 42 fa 3f b2 28 a5 bc 85 1f 29 bd 29 36 ca 3e
       1.9551551 -0.020161007 -0.041289825 0.39494446
0000e0 3a 0c 7d 3f 1b ee 2e 40 fb 90 c7 3f 1a 85 4e 40
       0.9884678 2.7332828 1.559112 3.2268739
0000f0 df 70 31 3e 67 d8 6e 3f 63 03 a7 3f fa d0 28 3f
       0.17328213 0.93298954 1.3047909 0.6594387
000100 50 58 3c 40 81 a1 e5 3e 6c 8f 18 3e 8b a4 42 bf
       2.9428902 0.4484978 0.14898461 -0.7603232
000110 50 16 2c 40 8f 2c d8 3e 18 9f 72 c0 17 f8 f5 3f
       2.6888618 0.42221496 -3.7909603 1.9216336
000120 56 1a a1 be b4 15 1e 3f 63 eb 24 3f 3f 0f 60 be
       -0.31465405 0.61751866 0.6442167 -0.21880816
000130 45 f2 5e 40 3b 78 16 3f c2 47 3c 3e 2e ae b8 3e
       3.483537 0.5877721 0.18386748 0.3607039
000140 33 1e f2 bf e4 e1 23 40 3f 3f 20 3e 03 f0 8f be
       -1.8915466 2.5606623 0.15649126 -0.28112802
000150 ad a0 4c be 75 bb 2d 3f 08 a5 08 be 0b ca c4 3f
       -0.19983168 0.6786416 -0.13344204 1.5374159
000160 49 ef ed be 9a ab 4d 40 e3 90 d6 3d 00 b6 c0 3e
       -0.46471623 3.2135987 0.10476854 0.37638855
000170 3c 72 a4 3f 36 3b 67 3e f1 a6 03 bd 2a 09 4b 40
       1.2847362 0.22581181 -0.03214163 3.1724343
000180 69 68 b9 3e 10 28 8d 3e da 67 50 3f 1a b4 8c 3f
       0.3621247 0.27569628 0.81408465 1.0992463
000190 8d 84 32 c0 fb 98 f5 3e 7e 18 1e be 1e cb a8 be
       -2.7893403 0.47968277 -0.1543903 -0.32967466
0001a0 6f a3 7f c0 89 ce ba bf db 5e 46 c0 af 1a ed bf
       -3.9943502 -1.459428 -3.0995395 -1.8523768
0001b0 ae 03 85 be 96 1e ac bd b5 2c 32 bf 12 7a 6c be
       -0.2597937 -0.08404271 -0.6959947 -0.23093441
0001c0 ab 92 5a c0 ea 5b 03 3f 60 23 a8 3e d0 e7 1a 3d
       -3.415202 0.51312125 0.3283949 0.03781873
0001d0 32 5e 27 40 ad 73 69 c0 a3 e4 d0 3f f4 ec 2d c0
       2.6151242 -3.6476853 1.6319774 -2.7175875
0001e0 b6 c7 cb 3d 36 70 ca 3d 5f 08 dc 3e cd 8e 92 bf
       0.09950201 0.09884684 0.42975137 -1.1449829
0001f0 00 de 24 3d 13 81 07 3e 5f bb db 3c 8a 99 94 3d
       0.04025078 0.13232832 0.026822744 0.07255848
000200 e5 01 2b bf 40 1e 4c bf 79 cc bb 3e d8 f4 8a 3e
       -0.66799766 -0.7973366 0.36679438 0.27139926
000210 60 b3 34 3e 08 c2 d6 bf a4 2c 0f 3e 93 83 66 3f
       0.17646551 -1.6777964 0.13981873 0.90044516
000220 25 e7 97 3f fc 2b d6 bf a2 81 a4 bd 2a a6 33 3e
       1.1867415 -1.6732173 -0.08032538 0.17543855
000230 3b 39 f1 be 34 90 30 40 05 71 01 bd 9b 19 47 40
       -0.47113976 2.7588015 -0.031601924 3.1109378
000240 b3 51 4b 3e 93 89 ba 3e 61 24 af bf 4c 07 02 40
       0.19855385 0.36433086 -1.3682977 2.0316954
000250 00 9d 88 c0 68 f7 f6 3f ec 17 2b 3e a6 46 86 3d
       -4.269165 1.9294252 0.16708344 0.06556444
000260 5f 44 f7 3f 71 b6 90 3f 35 a6 f6 be 08 87 f1 be
       1.931774 1.1305677 -0.4817368 -0.47173333
000270 de 30 58 3d f5 b4 15 be 55 cd 65 40 37 12 e0 3f
       0.05278098 -0.14619811 3.5906575 1.7505559
000280 7e 9a a6 3f ea 16 32 40 6f e3 2a bd dd 7d 37 3f
       1.3015897 2.7826486 -0.041720804 0.7167643
000290 df 67 f6 3d 54 5f af 3d 92 1a ac 3e bd 8e 92 bf
       0.120315306 0.08563104 0.33614022 -1.144981
0002a0 46 dd 67 bd 46 27 a8 3e 92 7e ac bf 7f 33 80 3e
       -0.056607507 0.32842463 -1.3476126 0.25039288
0002b0 52 b1 81 c0 50 18 96 bf 17 0e 9f bd d7 aa 5f 3f
       -4.0528955 -1.172617 -0.07766359 0.87370056
0002c0 c3 1a 7e 3f 3a 5e 60 3f 40 30 8c 40 1b 21 7f bf
       0.99259585 0.8764378 4.38089 -0.9965989
0002d0 b0 f3 07 bc f4 8c 5a 3e fa 1a 33 be 43 5d 44 c0
       -0.008297846 0.21342832 -0.1749076 -3.0681922
0002e0 9e ec 8d be de e2 46 c0 8e 3b 9c 3e ce ff 37 3e
       -0.27719587 -3.1075969 0.30514187 0.17968675
0002f0 1c 1f 0f 40 9c 0f 1a c0 cc 8b 94 bf ca 78 9d bf
       2.2362738 -2.4072027 -1.1605163 -1.2302487
000300 b4 5c 46 3d d5 54 8c 3f cf dc e7 3f c2 6f a5 c0
       0.048428252 1.0963389 1.811426 -5.1698923
000310 c1 4d 70 3f 99 f0 58 c0 70 40 b4 bd ee 86 bb 3f
       0.93868643 -3.389685 -0.08801353 1.4650552
000320 00 1f f1 3e e5 a8 1b bf 3a 8d a6 3f e3 aa bc bf
       0.47093964 -0.6080459 1.3011849 -1.473965
000330 a2 f6 2a 3f 82 ea 13 be 1f 0d 2f c0 e0 e4 50 bf
       0.6678258 -0.14444926 -2.7351758 -0.81599236
000340 ec 48 28 c0 02 c3 2c 3f 8b 61 21 3d 18 0d 45 bd
       -2.6294508 0.6748506 0.039399665 -0.04810819
000350 4e 1a dd 3f bb 02 84 3f fa 2c c5 3f 5f 4e 6c 40
       1.7273653 1.0313333 1.5404351 3.6922834
000360 48 92 54 3f 45 44 96 bf 5f 76 e4 bc 96 75 4c 3f
       0.8303571 -1.1739584 -0.027888475 0.7986692
000370 66 ca f4 bf 72 e4 c4 bc 6c e6 e4 3b 1b 98 a1 3e
       -1.9124267 -0.024034712 0.0069854762 0.3156136
000380 45 78 be be 40 58 e9 3f af ff ea 3f 2b 9d 1b bf
       -0.37201133 1.8230057 1.8359278 -0.60786694
000390 f1 5b 40 3e ec 91 6d be 28 4e a3 3e 2c 2e 46 3e
       0.18785073 -0.23200196 0.31895566 0.1935355
0003a0 ac 15 00 3f 0d f1 c9 bd 50 19 9c 3e 7a 2c 31 3e
       0.5003307 -0.0986043 0.30488062 0.17302123
0003b0 13 41 04 c0 6a 56 da bc 72 42 81 3f fd 65 64 3f
       -2.0664718 -0.026652534 1.0098403 0.8921812
0003c0 1d fd bb bc b4 69 68 3f 08 50 48 3f 2e 2e da 3e
       -0.022947842 0.9078629 0.7824712 0.42613357
0003d0 16 f6 e2 3d b6 70 2d 40 fe d0 85 3c 75 28 e3 3b
       0.110820934 2.7100043 0.016335007 0.006932313
0003e0 89 1e fa bd 78 e9 9c be 3a f8 35 be 30 29 fd 3e
       -0.12212855 -0.30646873 -0.17770472 0.49445486
0003f0 e4 7b ed bd 71 14 a9 bc 32 57 41 3f 6c 1c 2d c0
       -0.11595896 -0.02063963 0.75523674 -2.7048597

fc1.bias f4 [300]
000000 cc c1 83 bf 3c e2 c9 c0 15 54 a0 3f 2c 7d 94 c0
       -1.0293517 -6.3088665 1.252566 -4.64028
000010 1e c5 71 c0 c0 fb 07 40 25 53 8f bf ba 42 34 bf
       -3.777656 2.1247406 -1.1197249 -0.70414317
000020 f0 ad 96 bc f1 86 82 40 75 79 6c c0 27 6e 78 40
       -0.018393487 4.0789723 -3.6949131 3.8817232
000030 c5 0b e8 3f 0b 31 6a 40 bf a5 49 bf 6b 52 5e 40
       1.8128592 3.6592433 -0.78768533 3.4737804
000040 56 89 89 40 64 78 85 c0 04 9d a7 c0 e5 57 44 3f
       4.2980146 -4.170946 -5.237917 0.76696616
000050 d3 6a 8f 40 82 a0 90 40 89 66 4f c0 3d 53 fe c0
       4.48179 4.5195932 -3.2406332 -7.947661
000060 f9 a5 c0 3f f3 0f 36 40 07 bd 63 40 c9 2d 9f 40
       1.5050651 2.8447235 3.5584123 4.974339
000070 a4 f0 d6 be 47 e1 b7 bf af 64 9b 40 d1 b7 71 c0
       -0.4198047 -1.4365624 4.8560405 -3.7768443
000080 75 93 93 bf 26 3c 00 3f b6 59 9c c0 cc 8f 37 40
       -1.1529375 0.5009178 -4.885951 2.8681517
000090 58 c5 d5 c0 8d 94 8b 3f be 47 9e c0 55 c6 2f 40
       -6.68034 1.0904709 -4.9462576 2.7464802
0000a0 0d 1e 3e 3f a8 4e 6b 40 91 5f 63 3d 8d 89 97 3f
       0.74264604 3.6766758 0.05551106 1.1838852
0000b0 5b 88 a7 be 8a 77 c8 40 34 6b 6c c0 b3 46 53 be
       -0.32721218 6.264592 -3.6940432 -0.20632438
0000c0 60 ac 74 40 3a cd bd 3e 98 9e 8a 3f 53 ff 8b 40
       3.823021 0.37070638 1.0829649 4.3749175
0000d0 31 0d 26 3f 1f 99 35 40 93 eb b1 c0 e5 71 be bf
       0.6486388 2.8374708 -5.5600066 -1.4878508
0000e0 bd 54 77 3f 9f c2 bc bc 25 52 e0 3f 4b 69 1f c1
       0.96613675 -0.023042021 1.7525069 -9.963206
0000f0 98 18 0c bf d9 01 2c 40 91 5e ae be 00 14 03 40
       -0.5472503 2.6876128 -0.34056523 2.0480957
000100 06 28 82 40 57 57 52 40 22 57 3b c0 b8 73 2f c0
       4.0673857 3.2865808 -2.9271932 -2.741438
000110 75 ea 96 40 9e 32 82 40 1e 7c a0 3f c1 28 78 40
       4.7161202 4.068679 1.2537878 3.8774874
000120 0b b8 76 40 bd 68 3d c0 7c 44 87 c0 ca a2 50 be
       3.854983 -2.9595177 -4.22711 -0.20374599
000130 5d ed 8d 40 a2 eb e1 3f 2e 35 0d 3f 2b 02 bc c0
       4.435225 1.7650034 0.5515927 -5.8752646
000140 f3 c8 bf be 24 54 c1 3f b9 ad c4 3e 64 e6 7e 40
       -0.37458 1.5103803 0.3841379 3.982812
000150 e9 aa 39 40 53 6f 1d 40 82 b1 7d bf 95 76 11 c0
       2.9010565 2.4599197 -0.9909898 -2.2728627
000160 9e 09 32 40 8b 14 5a c0 b4 45 f9 bf 6f 70 c6 3f
       2.781837 -3.4075038 -1.9474397 1.5503062
000170 3a 29 f8 3f fb 71 d7 3f 4b 3b 13 40 6d cb 8d 3f
       1.9387581 1.6831659 2.300494 1.1077706
000180 97 81 7c 40 31 57 fc bd 70 05 a5 3f 78 0d 71 40
       3.9454095 -0.12321318 1.2892284 3.766447
000190 af 31 eb 3e 85 3f d8 c0 1a b0 26 c0 fa c2 3b bf
       0.45936343 -6.757754 -2.6044984 -0.73344386
0001a0 f5 ab f6 bf 83 75 bb 3f f0 d1 4f c0 b8 f4 44 40
       -1.9271227 1.4645237 -3.2471886 3.0774364
0001b0 64 cc 37 be cd 15 74 40 08 f9 39 40 6f ef 9d 40
       -0.17949063 3.8138306 2.9058247 4.9354777
0001c0 e0 97 69 40 61 1e 81 40 9a 40 9f be 81 29 68 40
       3.6498947 4.0349584 -0.31103975 3.6275332
0001d0 70 75 e9 3e 64 aa 9c c0 52 97 12 be 63 e5 64 40
       0.4559741 -4.8957996 -0.14315537 3.5765007
0001e0 72 eb aa bc dc 69 53 40 06 a0 52 c0 da be f3 3f
       -0.020864222 3.3033361 -3.291017 1.9042618
0001f0 1b be 34 40 67 e1 4c 3f e8 60 8f 40 ff 94 34 40
       2.824103 0.80031437 4.4805794 2.821594
000200 c1 7d 43 40 c8 d6 8d 40 da 93 c5 bf c8 4e 90 3f
       3.0545504 4.4324684 -1.5435746 1.1274042
000210 ac 9d 6d 40 5b 05 f3 bf a0 9d d4 40 33 b8 68 3f
       3.7127485 -1.8986009 6.6442413 0.90906066
000220 0e 1c 03 c0 8c e4 83 40 fc fe 1b c0 00 a3 6b 40
       -2.0485873 4.121649 -2.437438 3.6818237
000230 45 4a 8f c0 1f 61 8d c0 f7 f7 09 40 b4 21 a8 c0
       -4.477816 -4.4181056 2.1557596 -5.254114
000240 87 2b d7 c0 48 09 6e 40 88 20 6b 40 5d 00 20 40
       -6.7240634 3.7193165 3.6738605 2.5000222
000250 06 cd 8c 40 56 1d 84 3f 73 0a 7d c0 69 e3 36 40
       4.4000273 1.0321453 -3.9537628 2.85763
000260 dd 80 5f 40 ab 8f cb 3f 09 29 e9 be 64 6e 8d 40
       3.4922402 1.5903219 -0.4553912 4.4197254
000270 ac 12 67 3f a2 cf c6 c0 51 cf 23 40 10 f0 8b 40
       0.90262866 -6.212846 2.5595286 4.3730545
000280 2a 4c ad 3f 60 9a 36 40 ed 81 a1 40 72 64 13 40
       1.3538868 2.8531723 5.04711 2.3030057
000290 b8 f9 80 40 2f 6b 58 c0 0a 93 84 40 03 07 71 3f
       4.0304832 -3.381542 4.142949 0.94151324
0002a0 9f d4 4a 40 b3 7d ee bf aa d3 f7 3d b4 94 64 c0
       3.1692274 -1.863211 0.121009186 -3.571576
0002b0 26 91 13 c0 60 cd a0 40 8a 7c 24 c0 ac 97 59 40
       -2.3057342 5.02507 -2.5701013 3.3998823
0002c0 33 37 ff bf 57 32 9c 40 6d d8 9d 40 24 4f 1e c0
       -1.993872 4.881145 4.932669 -2.4735804
0002d0 d6 32 9f 3f cd cb 84 40 71 2a c7 bf 18 15 85 40
       1.2437389 4.149878 -1.5559827 4.158825
0002e0 65 04 3d 40 d8 43 fd 3f 0f 47 ee 3f c2 72 18 3d
       2.9533932 1.9786329 1.8615435 0.037218817
0002f0 4b 8a 53 40 7b 2b 5d c0 01 fa aa 3f 9a d3 43 40
       3.3053157 -3.4557788 1.3357545 3.0597901
000300 44 6e 02 c0 79 a3 1b be 8a 77 66 40 4e 69 b2 bf
       -2.03798 -0.15199079 3.601046 -1.3938386
000310 87 fd a5 40 46 f5 7f 40 49 77 0b bb f0 79 14 40
       5.187198 3.9993453 -0.0021280816 2.3199425
000320 ce 6a ab bf a1 69 d3 40 ba ea 78 bf 0e ce 9b c0
       -1.3391969 6.606644 -0.97233164 -4.868903
000330 48 32 df 3f 99 0f 13 c0 46 7c af 3e bd f6 32 40
       1.743722 -2.297827 0.342745 2.7963097
000340 97 17 fb bd 2b 7f c2 3f 6a 02 22 c0 ea 40 ce bf
       -0.12260359 1.5195059 -2.5313973 -1.611356
000350 cc a7 86 c0 13 b5 00 c0 b1 37 34 c0 14 dd fa c0
       -4.207983 -2.011052 -2.8158991 -7.839487
000360 ef 08 8a 40 73 14 c3 bc 65 64 93 c0 47 68 a7 3f
       4.3135905 -0.023813462 -4.606005 1.3078698
000370 a2 ff 5c 40 ce c2 9d c0 7f 54 55 40 07 ee 0c 40
       3.4531026 -4.93003 3.3332822 2.202028
000380 55 94 ba 40 cc bb de c0 6a 96 85 bf 84 ad 76 c0
       5.830607 -6.9604244 -1.0436528 -3.8543406
000390 a0 78 70 40 0d ad 1c c0 d5 e6 5e c0 3c 6b 93 40
       3.7573624 -2.4480622 -3.4828389 4.60684
0003a0 b7 6a 8d 3f 59 58 6f c0 ca 51 83 c0 24 42 72 c0
       1.1048192 -3.7397673 -4.103734 -3.785287
0003b0 43 fd 61 40 b4 6d 84 c0 f0 85 7e 40 8a f2 e5 3e
       3.5310829 -4.1383915 3.976925 0.44911605
0003c0 70 af 8a 40 50 aa 5c c0 70 de 86 40 46 4d 6b bf
       4.3339157 -3.447895 4.214653 -0.91914785
0003d0 dd 33 56 40 e3 82 12 c0 f5 70 96 c0 00 17 62 be
       3.3469155 -2.2892387 -4.7012887 -0.22079086
0003e0 14 3c 8c 40 e1 63 2c 40 8e 2a 6c c0 25 50 4d 40
       4.3823338 2.6935961 -3.6900973 3.2080166
0003f0 49 ca 44 40 87 60 78 bf ce d3 d4 be 24 80 00 40
       3.0748465 -0.9702229 -0.41567844 2.007821

fc2.weight f4 [200, 300]
000000 70 57 44 bd b0 17 7e bc b0 59 2e 3b 93 2c 9f bd
       -0.04793495 -0.015508577 0.002660375 -0.07772174
000010 7c 93 30 3d 52 ac 0b bd 06 1f 25 bd cb 76 9f bc
       0.043109402 -0.034099884 -0.04031279 -0.019465825
000020 48 cd 9b bc b8 e1 ac bb 6c 67 6c bd 9d 00 98 bd
       -0.019018784 -0.005275931 -0.05771582 -0.07421992
000030 a0 a8 b5 bc 7a 47 14 3d 17 ad 51 bd 9b 62 32 bd
       -0.022175133 0.036200978 -0.051190462 -0.04355107
000040 e6 b0 bf bb 0b 96 1f 3c da 13 07 3d c0 fc 5f bc
       -0.0058499454 0.009740363 0.032977916 -0.0136711
000050 93 4a e1 bc 29 68 a6 bd de 6f b5 bd cc 4c c5 3c
       -0.02750138 -0.08125336 -0.088592276 0.024084471
000060 dc 09 2a bd 4a 17 ba bd d5 66 05 bd f1 c7 09 3d
       -0.04151331 -0.09086473 -0.03256877 0.033637945
000070 fb 8a 0c 3c 00 30 15 3a a8 3b 69 bc 86 b9 40 bd
       0.008578057 0.00056910515 -0.014235415 -0.04705193
000080 ff b1 37 bd 24 40 c9 bc 24 00 7f 3c 97 10 79 bd
       -0.044847485 -0.024566717 0.015563998 -0.060806837
000090 fc f2 6c bd 12 ed ec bc c5 be da bc 48 b1 ae bd
       -0.057848915 -0.028921638 -0.026702294 -0.085299075
0000a0 b3 c9 67 bd 53 7f 28 bd 9a eb b0 bd 70 41 62 3c
       -0.05658884 -0.04113705 -0.086386874 0.013809547
0000b0 5c d1 75 bc a5 52 18 3c c0 aa 64 3d e0 db 63 bd
       -0.015003528 0.009297048 0.055826902 -0.05562961
0000c0 d9 c7 df bb 98 24 12 bd a0 09 5a bb b7 ce 2d ba
       -0.0068292436 -0.03567943 -0.0033269897 -0.0006630229
0000d0 00 f0 0a b8 2f 5a 9a bd 18 44 52 3c b6 62 a3 bd
       -3.312528e-05 -0.075367324 0.012833618 -0.07977812
0000e0 4b 1c 32 bd 72 72 14 bd b8 f9 c8 3c 9b 8f 30 bd
       -0.043484014 -0.036241956 0.024533138 -0.043105703
0000f0 5b 5f 1f bd 9c 5c b3 39 68 28 35 bc f0 79 41 bc
       -0.038909297 0.0003421054 -0.011056997 -0.011808857
000100 ff 29 c0 bc 42 13 02 bd f0 5e c4 3c 9e 68 78 bd
       -0.023457525 -0.031756647 0.023971051 -0.060646646
000110 48 79 d4 bd 0e 2e 06 bd 10 9b 5e bc 66 1e f8 3b
       -0.10374695 -0.032758765 -0.0135867745 0.007571983
000120 c0 1a 2f bc 45 51 a2 bd 66 7d b6 bd 7c a7 a0 bc
       -0.01068753 -0.07925657 -0.089106366 -0.019611113
000130 38 14 fb bb 8e 68 5c bd 62 ac a7 ba e8 5d 5e 3c
       -0.0076623224 -0.05381065 -0.0012792463 0.013572194
000140 35 9c ab bb da 42 8b bd 18 f1 08 3d 06 d6 06 3d
       -0.005237127 -0.0679986 0.03343305 0.032918952
000150 13 98 02 bc 0c 7a e1 3c e8 d1 a4 bd c4 c4 d9 3c
       -0.007970828 0.027524017 -0.08047849 0.026583083
000160 9b f2 7d bd 7c 8b 33 bc c9 28 35 bd 9f 71 1a bd
       -0.061998945 -0.010958549 -0.04422835 -0.037706014
000170 50 ac a8 3c a9 8a b9 bd 07 87 40 bd a8 c4 2a 3c
       0.020589978 -0.090596505 -0.047003772 0.010422863
000180 59 98 00 bd 71 f7 68 bd fb 6e 1f bd 73 e9 15 bc
       -0.03139529 -0.056876604 -0.0389242 -0.009149897
000190 7e 36 e5 3c c0 2d fa 3c 46 ec e4 ba 74 49 db 3c
       0.027980085 0.030539393 -0.0017465435 0.026768424
0001a0 a3 f2 0b bd 50 e6 28 bc 17 15 4a 3b de 6f 35 bd
       -0.034166943 -0.010308817 0.0030835324 -0.044296138
0001b0 70 ae 8b bc 3b 2d 0c bd 31 c7 f2 3c 59 15 81 bd
       -0.017050952 -0.034222823 0.029635997 -0.063029
0001c0 ca 0a 95 bd 9f 0a 08 bc 88 2b 5a 3d e9 1b 43 bd
       -0.072774485 -0.0083033135 0.05326417 -0.04763404
0001d0 b4 13 0d 3d 68 8d a5 bd 22 b4 8b bb cb 83 eb bc
       0.03444262 -0.08083612 -0.004263417 -0.028749367
0001e0 7d 2f 18 bd 60 c9 1b bc 84 ae f0 3c ca 60 b1 bb
       -0.037154663 -0.009508461 0.02938009 -0.0054131495
0001f0 dd 75 b4 bc 19 e7 df 3c 2e 62 6e 3c 51 c3 80 bd
       -0.022028858 0.027331876 0.014549775 -0.06287254
000200 a4 db 16 bd 2c 61 a0 bd e9 53 1d bd a6 d6 e5 bc
       -0.03683056 -0.07831034 -0.0384101 -0.028056454
000210 2a fb 94 bd 4e dc 6a 3d e5 ff 8e 3a 69 a3 93 3c
       -0.07274468 0.057339005 0.0010910003 0.018022256
000220 9e 1b 01 3d c1 da 00 bd 20 e1 99 ba 09 dc 4c bd
       0.03152048 -0.03145862 -0.0011740066 -0.05001453
000230 30 54 1b bd a0 f5 5a bd 8d f5 84 bd 04 d0 d0 3c
       -0.037922084 -0.053456903 -0.064921476 0.025489815
000240 40 05 25 3d 85 76 a1 bb e9 c7 7b bc a6 e5 86 bd
       0.04028821 -0.0049274587 -0.0153674865 -0.06586771
000250 a8 85 41 bd 86 ef f7 3c f6 e7 a6 bc f2 f5 3a 3b
       -0.047246605 0.03026558 -0.02037428 0.0028527942
000260 fb 07 0d bd 9e f6 ee bc 3a b0 2f bd dc 97 a0 bd
       -0.03443144 -0.02917033 -0.042892672 -0.07841465
000270 6d 31 51 bd 22 67 32 3d 31 9e 39 bd 02 c7 1e bd
       -0.051072527 0.043555386 -0.04531688 -0.038764007
000280 1a d5 b4 bc ac 4b 59 bd d5 1d b5 bd 01 ef 89 bd
       -0.022074271 -0.053050682 -0.08843581 -0.067350395
000290 3e dd 35 bd 97 91 23 bd c5 b3 63 bd 44 0e 3e bd
       -0.044400446 -0.039933767 -0.055591363 -0.046400324
0002a0 33 9d b2 bc ed 4d 20 bd bf 26 ad bd 9a cf c3 3c
       -0.021803474 -0.039136816 -0.08454656 0.023902703
0002b0 c5 27 4d bd 3f 0b 67 bd 81 1c 94 3a f1 55 00 3d
       -0.050086755 -0.05640721 0.0011299999 0.03133196
0002c0 50 d6 4b bd 14 0f 04 3d c6 28 10 bd 55 73 f7 bc
       -0.04976493 0.032240942 -0.035195135 -0.030206362
0002d0 95 b9 8e 3c 02 e9 8a bd 6e b9 48 3d 61 5e df bc
       0.017422477 -0.06782724 0.049004965 -0.027266683
0002e0 24 1a 17 bd f3 38 8c bd 1a c3 9e bc 78 8d c1 bd
       -0.036890164 -0.068468 -0.019380141 -0.09450811
0002f0 dd 10 77 bc ae a0 6e bd 83 bc 4e bc 0b c3 82 3c
       -0.015079704 -0.058258705 -0.012618187 0.015962144
000300 b0 7c 6a 3d 9a 2b fa bc a4 0a 46 bd d8 11 86 3c
       0.057247818 -0.030538369 -0.04834999 0.01636593
000310 40 af cb 3b 47 ef 07 bd 4e 3e 65 3b d2 35 31 bd
       0.00621596 -0.033187177 0.0034979763 -0.043264218
000320 b8 e5 00 3c 88 08 89 bd 3a a5 94 bd b4 16 25 bc
       0.007867269 -0.0669108 -0.07258077 -0.010076214
000330 fa 1e 02 3d d8 d1 88 bd ce 1f 1d 3d 0c 6e 15 bd
       0.031767823 -0.066806495 0.03836041 -0.036481902
000340 30 8e 15 bb 70 f0 9b bc fa f9 72 bd bc b7 ff 3c
       -0.0022820346 -0.019035548 -0.059320427 0.031215541
000350 a0 b9 f2 ba f2 33 94 bc 7e b7 0f bd 14 14 f4 bc
       -0.0018518455 -0.018091176 -0.0350871 -0.02979473
000360 d1 68 93 bd 0a cb d7 bc 60 de 6a bd c0 55 e7 3c
       -0.071977265 -0.026341934 -0.05734098 0.028239131
000370 b2 03 9e bd 36 fd be bc c0 65 54 37 6e 3c 2d bd
       -0.077155486 -0.0233141 1.2659875e-05 -0.04229396
000380 30 61 67 bd b8 97 cc bb 20 9e 3d 3c c0 c4 12 bd
       -0.05648917 -0.006243672 0.0115733445 -0.035832167
000390 76 56 ee bc 84 34 bc 3c 10 38 65 3c 47 b7 ad bc
       -0.029093962 0.02297426 0.013990417 -0.021205558
0003a0 43 f3 ea bc 42 b4 43 bd e1 f6 a5 bd 40 b9 f4 3a
       -0.02868045 -0.04777933 -0.08103729 0.0018670931
0003b0 51 a7 93 bd c8 b3 53 bc 29 95 89 bd a2 a7 af bc
       -0.072096474 -0.012921281 -0.06717903 -0.021442238
0003c0 76 d1 19 bd 92 af 9e bd e2 b2 4d bd 2d 85 46 bd
       -0.037553273 -0.07748331 -0.050219424 -0.04846685
0003d0 ba e3 94 3b 62 63 3a 3d 8d d9 17 bc 98 ca 4b bd
       0.0045437487 0.045504935 -0.009268177 -0.049753755
0003e0 ea dd 69 bd e0 5a d5 3b 7c 2a 20 3c 14 00 e3 3c
       -0.0570964 0.0065110773 0.009775754 0.027709998
0003f0 f2 c1 0a bd 42 42 32 3d fa ab a0 bc 38 ef f2 3c
       -0.033876367 0.04352022 -0.019613255 0.029655084

fc2.bias f4 [200]
000000 6b ed 31 bc e4 de 29 3e 49 f9 bb bf 0e 04 25 40
       -0.0108598275 0.16588932 -1.4685451 2.5783725
000010 b6 b0 8c bd d5 84 c7 bd 75 91 f0 3f 9b 7e 9f bd
       -0.068696424 -0.097421326 1.879439 -0.0778782
000020 42 d0 30 bd b2 59 ba 3e 73 77 8c bd 02 a0 ba bd
       -0.04316736 0.36396557 -0.06858721 -0.0911255
000030 1a d4 94 bf d3 4d 74 bd 45 19 c8 bd 2d e9 97 3c
       -1.1627228 -0.05964453 -0.09770445 0.018543804
000040 6d b4 d0 bc 23 31 8c bd 93 7f 67 bd e6 04 87 3f
       -0.025476659 -0.068453096 -0.05651815 1.054837
000050 63 08 14 40 df 2f 87 3f 09 6d 61 3f d6 e7 18 3e
       2.313012 1.0561484 0.88057 0.14932188
000060 c6 b6 86 3e 5d 6f 8e 3b 12 10 0b bf 91 c8 68 3f
       0.2631132 0.0043467716 -0.54321396 0.9093104
000070 bb 22 3c bd b6 a6 ff 3f 29 23 80 3f 88 da 19 40
       -0.04593156 1.9972751 1.001073 2.403963
000080 35 8a 49 3b fd fd 03 40 0e f6 2b bd 9d 90 e3 bc
       0.0030752544 2.0623772 -0.041982703 -0.027778918
000090 50 53 4c 3f 2f 3e ad bf 66 56 d2 bf 74 b6 b3 3f
       0.79814625 -1.3534602 -1.6432617 1.4040055
0000a0 55 62 34 3a f6 ae 86 bd 77 66 5d 3f a9 6e 4c bd
       0.00068811077 -0.0657634 0.86484474 -0.04991022
0000b0 c7 96 ef 3b f4 bc 59 bd c2 f2 c3 be 06 59 86 be
       0.007311675 -0.053158715 -0.38271147 -0.26239794
0000c0 16 a9 3f 3f ee 14 d8 3d 91 ef cc bd 3b 90 f4 3d
       0.7486738 0.10550867 -0.10006631 0.11941572
0000d0 7b cb e1 bc 4c c0 96 bd c8 e4 b7 3c 75 9f 3e bd
       -0.027562847 -0.073608965 0.022447959 -0.04653879
0000e0 8e 07 c9 3c a9 45 13 3d 40 d2 3a 3f 3f fe 1a 3f
       0.024539735 0.035955105 0.72977066 0.605442
0000f0 0d e0 bd bd 69 ca 82 3d 52 c2 4f bd 4a a5 30 bd
       -0.0927125 0.06386263 -0.050722428 -0.043126382
000100 19 f0 0f 40 20 43 09 bc ca 26 02 bd 7b e4 07 3f
       2.2490294 -0.00837782 -0.031775273 0.5308301
000110 ec 6a 59 bd b5 b3 47 3c a6 7c 87 bf 8c ce a0 3e
       -0.053080484 0.012188842 -1.0584915 0.31407583
000120 ef 07 16 40 dc 48 51 3f a2 08 51 3d d9 d8 55 3d
       2.3442342 0.817518 0.051033624 0.052208755
000130 21 32 13 bd db 54 4f bd 4c af a0 3f 37 e6 1b 40
       -0.03593648 -0.050618034 1.2553496 2.4359262
000140 fb cf 32 bf fd 5c 22 c0 a2 0b b7 3f c7 35 4a bd
       -0.69848603 -2.5369256 1.4300425 -0.049367692
000150 6f 1f 07 3f a9 84 29 bf fd 37 4d 40 50 f9 ec 3f
       0.5278234 -0.6621805 3.2065423 1.8513584
000160 f2 d9 4d 3f 3a c1 81 3d 86 8c 0f bf 5b 32 bc bf
       0.80410683 0.06335683 -0.56073797 -1.4702867
000170 b3 65 16 40 44 6d 0a bf c4 8c 7f 3b 4b 99 32 3f
       2.3499572 -0.54072976 0.0038993815 0.69765157
000180 d2 ac 3a 40 9a 23 0b bc e0 23 89 3e 51 35 0a bd
       2.916798 -0.008492375 0.26785183 -0.033742253
000190 79 81 43 bd 16 60 6f bd ff eb 66 3c c1 21 d0 3f
       -0.047730897 -0.058441244 0.014094352 1.6260301
0001a0 ed 24 17 40 1f 17 ad bd 7d 77 41 3f a0 04 89 bd
       2.3616288 -0.084516756 0.7557295 -0.06690335
0001b0 c0 6d c9 3f 1e 44 90 3c cf 69 1a 3e c9 2e a0 3f
       1.5736618 0.017610606 0.15079425 1.2514278
0001c0 99 1a e9 3b 4b 17 f0 3f 8c 08 50 be 50 ad 12 c0
       0.0071137664 1.8757108 -0.2031576 -2.2918282
0001d0 c6 df bf bd aa 3f 94 3f 3f 54 37 bd 87 02 20 40
       -0.09368853 1.1581929 -0.044758078 2.5001543
0001e0 ed e5 84 3c ed 35 a2 bd 10 0d e8 3f fc 8d bf 3f
       0.016222918 -0.07920442 1.8128986 1.4965205
0001f0 7f ff 51 3f ed 7a b9 3e 80 9d e0 3f a2 ba b1 bd
       0.8203048 0.36226597 1.7548065 -0.086781755
000200 5d 7c da 3e 4e cc db 3f 8c 61 17 40 21 e9 42 3c
       0.42673007 1.7171724 2.3653288 0.011896403
000210 3a a1 ea 3c c0 4c 0a 40 3c 71 d5 3f 9e 5a 0f 40
       0.028641332 2.1609344 1.6675181 2.2399058
000220 66 a5 09 40 42 e6 1e 40 2e 62 6e bd 13 04 0d be
       2.1507201 2.4828038 -0.0581991 -0.13771085
000230 f0 68 4b bd 35 1f 2b bd ac 2f ec be 3f df 25 40
       -0.049660623 -0.04177781 -0.4613012 2.5917509
000240 40 86 12 bd b2 33 ea 3d 3c af 84 bc 49 c3 b6 3f
       -0.035772562 0.11435641 -0.01619684 1.4278346
000250 8e 34 ac bd 6a b9 81 be 2c 5d 76 3c b8 83 08 bd
       -0.084084615 -0.25336772 0.015036862 -0.03332874
000260 82 d8 33 40 0a 97 31 40 a7 3e 01 3f 55 24 5b 3f
       2.8100896 2.7748437 0.50486225 0.85602313
000270 a6 91 bf bb 7b f8 de 3f 6e 74 a2 bf ce 80 0f bd
       -0.00584622 1.741958 -1.2691782 -0.035034947
000280 35 0a ec 3f 1a 41 1a 40 1c 63 59 bd 81 4b c1 bf
       1.8440615 2.4102235 -0.053073034 -1.5101167
000290 91 e2 80 bd 3f ef d3 3f eb 09 46 3f c5 79 34 3d
       -0.06293214 1.6557387 0.77358884 0.04406144
0002a0 9a b3 d6 bf 98 5c 13 40 d8 fa c1 bd fa 69 a7 bd
       -1.677356 2.3025265 -0.09471673 -0.0817451
0002b0 11 77 9d 3f 34 52 8d bc 0f 6d 2d bc 1e 5e 16 40
       1.2301961 -0.017251112 -0.010585084 2.3494945
0002c0 29 58 fc 3f 9a af bd 3f cd 4b 2d 3f 22 22 eb 3e
       1.9714404 1.4819214 0.6769379 0.4592448
0002d0 1b 00 4f 3f cb cc 3b c0 35 46 0f bc c2 e1 8b 3e
       0.80859536 -2.9343746 -0.008744766 0.27320677
0002e0 fe ea 98 bd 23 e8 3b bd e4 0b 8d ba cc 7b 17 c0
       -0.07466696 -0.04587568 -0.001076099 -2.366931
0002f0 98 89 3d 3f 8e 46 e6 3e cb 9c 12 40 6e 2b d2 3e
       0.74038076 0.44975704 2.29082 0.4104876
000300 cc 61 7f bd fa 65 fd 3f 85 49 d0 3f 21 c0 89 bd
       -0.062349126 1.9796746 1.6272436 -0.06726099
000310 e1 55 de 3f a3 d0 f1 bd de 24 90 3e ea 0e 1b 3f
       1.7369958 -0.118073724 0.28153127 0.6056963

fc3.weight f4 [1, 200]
000000 26 a7 06 bc 4f b3 91 ba 10 a0 8d 3e 2e ca 41 c0
       -0.008218562 -0.001111606 0.2766118 -3.027965
000010 4f 04 be b6 01 7d 80 bc 7b e4 f4 be 1f d9 d3 bc
       -5.662943e-06 -0.015684607 -0.47830567 -0.025860367
000020 34 32 76 bd 10 b7 cb bf e7 83 5c 3a bc 99 bd ba
       -0.06010647 -1.5915241 0.0008411989 -0.0014465372
000030 66 aa 19 3e b6 c9 b5 bc 9e bc 3f bc 93 9a 7e bc
       0.15006408 -0.02219091 -0.011702685 -0.015539783
000040 67 50 53 3b 30 d3 70 bb 71 66 54 bf 23 94 74 3d
       0.0032243968 -0.0036746971 -0.82968813 0.059711587
000050 ed 85 59 bf b9 05 01 3e 4c 59 93 c0 fa 7f 64 c0
       -0.8496998 0.1259984 -4.6046505 -3.570311
000060 fa 3c c4 bf 4b 54 8c 3b f1 51 56 3e fa db b0 3f
       -1.5331109 0.0042825094 0.20929696 1.3817132
000070 df 7f a4 bc 77 d5 48 bf f9 0e 13 40 72 a0 db 3f
       -0.020080505 -0.7845072 2.2977889 1.7158339
000080 cf 40 36 3c df 8b cf bf ee 7a c8 3b a9 63 d5 3c
       0.01112385 -1.621456 0.00611817 0.026048498
000090 89 14 ce bf 63 34 1f bd a8 79 c3 3c 0a f2 ba 3c
       -1.6100017 -0.03886832 0.023861721 0.022820491
0000a0 5d 60 6d 3c 73 4c 7e 3c f6 0f 9a 3f d9 2e 72 ba
       0.014488307 0.015521157 1.2036121 -0.0009238548
0000b0 35 3b 18 3c 93 48 0c 3d 3f 1a 88 bb 7a e0 01 3d
       0.00929146 0.0342489 -0.0041535194 0.03170822
0000c0 17 b4 b6 3f d4 17 f7 bf 5a 0f 02 3d ad c6 84 bf
       1.4273709 -1.9304147 0.03175292 -1.0373131
0000d0 ca 60 b1 3c 31 f4 d5 3a 26 19 90 bb a9 a6 a6 3c
       0.021652598 0.0016323385 -0.004397529 0.020343142
0000e0 1f 40 66 bc a1 70 93 bc 1d 15 0c c0 d7 8e b7 bf
       -0.014053374 -0.017998042 -2.1887887 -1.4340466
0000f0 4d ee c7 bb ce 9c 9f 3f ce a6 63 3e ad 50 d1 3c
       -0.0061014057 1.2469728 0.222316 0.025551165
000100 82 e9 d2 3f 09 a4 f2 bc 87 f4 ef 3c dc b6 90 c0
       1.6477511 -0.029619234 0.029291404 -4.5223217
000110 da b6 e9 3c 74 57 f5 3f b9 97 d5 3e 40 f8 1b bf
       0.028529573 1.9167314 0.41717318 -0.60925674
000120 7e 34 1c c0 87 69 1c 40 d6 29 96 3f 4a 49 15 3c
       -2.4407039 2.4439409 1.1731517 0.009111712
000130 6a fe a7 3c e4 0b 8d bc 1f 4f 87 be a6 ec 72 c0
       0.020507056 -0.017217584 -0.26427552 -3.7956939
000140 4d 98 2b bc 60 64 de bc fe 42 73 3e bf 2c f5 bc
       -0.010473323 -0.027147472 0.23756024 -0.029928563
000150 73 1f d6 3f 0e ff 24 40 3e 84 c1 3e e0 d5 e3 40
       1.6728348 2.5780673 0.37796205 7.119858
000160 a9 18 b0 3c d5 c7 18 be 23 f3 b2 3c cb 78 74 3c
       0.021496134 -0.1491998 0.021844452 0.014921377
000170 b8 5b f6 3f 07 89 e8 3e 55 7e 21 3b 87 21 53 3f
       1.924674 0.45417044 0.002464195 0.82473034
000180 fa 19 19 c0 78 42 9c bb 31 f2 00 bf 4a 5c 60 bc
       -2.3922105 -0.004768666 -0.50369555 -0.013693878
000190 7a a8 27 bd f0 f6 c1 bb 7e 97 f8 3b 7f 8a 39 c0
       -0.040932156 -0.00591933 0.0075864187 -2.8990781
0001a0 1c 29 ac c0 a2 cb a7 3c 10 b8 8d c0 5b 43 b2 3c
       -5.380018 0.020482842 -4.4287186 0.021760633
0001b0 c2 e7 99 bf 51 a9 e8 3c 91 00 c3 3a 90 7f 54 40
       -1.2023852 0.028401049 0.0014877488 3.3202858
0001c0 a9 36 72 3c a9 d8 8c 3e 65 1c 23 bf ba 4b f5 3d
       0.01478354 0.2750905 -0.637152 0.11977334
0001d0 6b d1 c4 bc cc 97 04 bf 46 4b 23 bd 4d 00 ab bf
       -0.02402564 -0.51794124 -0.03986671 -1.3359467
0001e0 8a 5f 73 3c e3 90 e1 bc b7 06 88 3f b2 20 5d c0
       0.014854321 -0.027534908 1.0627049 -3.4551206
0001f0 af 37 27 c0 2d f0 a2 3f 4f 9f a7 bf 83 55 bc bb
       -2.6127737 1.2729546 -1.3095492 -0.0057474985
000200 5d dd ed 3c 90 60 08 c0 f2 15 b6 be 7d 13 ab bc
       0.029036218 -2.1308937 -0.35563618 -0.020883316
000210 79 a3 af 3c f5 26 0f c0 a0 f5 21 c0 83 e4 4e c0
       0.021440255 -2.2367527 -2.5306168 -3.2326972
000220 1d 87 52 be 8e cd 99 bf 76 0b c9 3c 38 a8 f0 bc
       -0.20559354 -1.2015855 0.024541598 -0.029377088
000230 34 f8 c6 bc ce ff 64 bd 30 70 08 bd 7c 32 0e 40
       -0.024288274 -0.055908017 -0.033310115 2.2218313
000240 4a 6b 01 3b b8 74 41 c0 e3 7d 16 3c af 36 9c 40
       0.0019747787 -3.022749 0.009185287 4.8816752
000250 e7 27 c1 bc c3 4d 58 be 8b 84 02 3d 20 38 12 bd
       -0.023578597 -0.21123414 0.031864684 -0.035698056
000260 e3 32 72 40 7b fd a7 3f bc 94 09 40 bd 5f 8e c0
       3.7843559 1.3124231 2.149703 -4.449187
000270 f4 82 aa 3c 73 85 92 c0 19 4c 9d 3c 5f c0 f9 3c
       0.020814396 -4.57879 0.019201325 0.030487237
000280 45 ba 17 c0 ef 3a c5 bf 42 f7 14 3d 70 9c 06 3e
       -2.370744 -1.540861 0.036368616 0.13145614
000290 66 c6 06 3d 08 e6 83 40 e3 6e 75 c0 3d d8 3d 3b
       0.03290405 4.12183 -3.834893 0.0028968
0002a0 40 05 e8 bc 46 a3 26 40 73 3f b2 3c ff 6c 91 bc
       -0.028322816 2.6037154 0.02175877 -0.017752169
0002b0 f1 a7 72 bc 54 12 97 bc 84 0c 6c 3c 9c 26 84 c0
       -0.014810548 -0.018441357 0.014407281 -4.129713
0002c0 9b 24 d2 3f 8a e3 70 40 5e 34 f8 bf fa 97 58 3f
       1.6417421 3.763888 -1.9390981 0.846069
0002d0 46 c7 ad 3f 1a 73 01 3e ac f5 3c 3c 92 f2 1a 3c
       1.3576438 0.12641564 0.011533182 0.009457247
0002e0 3f 0f 11 bd 03 4f 16 3d 82 0b 9e 3c ce 7a 10 3f
       -0.03541493 0.036696445 0.019292597 0.56437385
0002f0 4c 4b 82 40 36 5d 52 bf fb 61 9d be 08 9d a5 bf
       4.0716915 -0.8217348 -0.30738816 -1.2938547
000300 96 c0 db 3c 23 d7 c5 bf a6 cd 0b c0 91 72 4c 3a
       0.02682523 -1.545628 -2.1844268 0.0007799054
000310 25 2e 86 40 cb bd 7a 40 47 ef 87 bf 89 d1 7e 3f
       4.193133 3.917834 -1.0619897 0.99538475
