log/train_2_1k800/models/1300_actor.pt (torch_old, 249426 bytes, 6 tensors)

fc1.weight f4 [300, 4]
0.12756321 -0.08216126 -1.1899251 -0.7386758 -0.24133117 0.09809586 1.3027799 -0.21107447
-0.030684998 0.10941395 -1.4657484 -0.4544296 -0.26990503 -0.08111945 -0.88996726 0.5824347
-0.2247281 0.25262648 -0.95024574 0.24435037 -0.13305902 0.20203058 1.0037255 0.60913384
-0.11043472 -0.58034426 0.36091763 -0.6817222 0.41612163 0.075941995 0.4338635 -0.6128534
0.24369748 -0.18482164 -0.8505072 0.3476994 -0.07520154 0.49247143 0.32742497 0.7160975
-0.053320505 -0.05057368 -0.117159456 -0.14109103 0.36559397 -0.10243935 1.0231549 0.5733627
-0.38218367 -0.10020724 0.49192137 0.10497257 -0.0552009 -0.32010123 1.0824157 0.6102841
0.35840806 0.1371792 0.24865457 0.07762933 0.19070148 0.008970114 1.185262 -0.9928665
0.0077591077 0.36194956 0.5162382 0.79501754 0.15215442 0.05244565 0.66281396 0.82510746
-0.19073224 -0.24259333 -1.4121884 0.049974352 -0.26985323 -0.47930872 -0.3740511 0.5179019
0.23250054 0.5051138 -0.099913076 -0.6271932 0.28082532 -0.0612649 -0.04875259 -0.75334454
-0.3892219 -0.34723684 -0.9509956 0.3758715 0.35457844 -0.42621145 -0.45997095 0.34592828
0.48491222 -0.13184197 0.9820736 -0.7236273 0.15768243 0.05061403 -1.0734338 -0.50149345
0.2186526 -0.0063894754 -0.74148625 0.1576703 0.042892765 0.24431378 -0.45154694 0.7157327
0.40048024 0.20978642 0.3480644 0.050039172 -0.3183326 -0.19731614 -1.4937748 0.563647
-0.24351142 0.2508672 1.397158 0.08113456 -0.13054973 -0.2162987 -0.49342498 0.30671814
0.26637256 0.0658936 -0.40695027 -0.580661 -0.25526723 0.02143343 0.48863262 -0.036211982
0.15008953 0.24746534 1.0421305 0.4871577 -0.19577353 -0.39014372 0.5815616 -0.07724813
-0.023406137 -0.34840512 -0.006036473 -0.3099059 -0.22663915 -0.14508457 0.95260674 0.59759724
0.18065469 -0.20767277 0.22694036 0.2068474 -0.15510228 0.44304517 1.0133567 0.21072508
-0.0010819149 0.39589506 -0.9268906 -0.6353979 -0.25475362 0.02351051 -0.15744452 0.023160426
0.09401114 -0.4050165 -0.19818744 -0.36076412 0.2560743 -0.3450195 0.14448303 0.09308242
0.04332868 0.5377463 -0.48877004 -0.12624763 -0.16827463 0.09812412 -0.34444544 1.5878632
-0.14528655 0.46670315 0.21682256 1.0697615 0.16793983 -0.4962507 -0.85017115 -0.027169822
0.22837879 0.000188541 -0.62559015 0.87504905 0.093369626 0.25652167 -0.32163593 0.22513936
-0.031356677 -0.4961539 0.58658916 0.33921853 -0.10951401 -0.318203 -0.3468722 0.72058445
0.094628915 0.16846417 -0.706316 -0.14380762 0.3472392 0.06730378 -0.40685686 -0.18898101
-0.25548652 -0.06648357 -0.18778229 -0.39400256 -0.14585862 -0.06070964 -0.9065326 -0.16781792
0.34712642 -0.10902158 1.5587968 0.5760242 0.044421062 0.31413996 -0.30203703 0.27959025
0.17608416 0.51970845 -0.61786723 -0.16493195 0.31752425 0.24605882 0.5150684 -0.272708
0.047113765 -0.49079493 -0.058424674 -0.04211616 0.07464788 0.14877643 -0.43457067 -0.97534597
-0.21029496 -0.28308883 -0.53737843 0.16553676 -0.21118988 -0.0066219713 1.3724086 -0.7012921
00000000: ee9f 023e 2a44 a8bd 774f 98bf db19 3dbf
00000010: 851f 77be 7be6 c83d 7ec1 a63f e823 58be
00000020: 1b5f fbbc 6c14 e03d a59d bbbf ffaa e8be
00000030: fe30 8abe f421 a6bd e5d4 63bf 711a 153f
00000040: 1f1f 66be 4258 813e 4e43 73bf fc36 7a3e
00000050: a040 08be 1be1 4e3e 147a 803f 32f0 1b3f
00000060: 992b e2bd 7191 14bf 32ca b83e 5985 2ebf
00000070: e50d d53e 7a87 9b3d 5b23 de3e f6e3 1cbf
00000080: d58b 793e e241 3dbe d7ba 59bf a805 b23e
00000090: 4403 9abd 3725 fc3e 3fa4 a73e 2a52 373f
000000a0: 9a66 5abd 5926 4fbd 4cf1 efbd 2b7a 10be
000000b0: 222f bb3e b9cb d1bd bdf6 823f e6c7 123f
000000c0: 94ad c3be 7439 cdbd 1edd fb3e dcfb d63d
000000d0: 571a 62bd 4fe4 a3be 998c 8a3f 943b 1c3f
000000e0: 4381 b73e b478 0c3e 4e9f 7e3e 20fc 9e3d
000000f0: 4047 433e 63f7 123c aab6 973f 802c 7ebf
00000100: 1d40 fe3b 7451 b93e 3028 043f 4586 4b3f
00000110: 5ece 1b3e 40d1 563d 2dae 293f 3e3a 533f
00000120: 504f 43be 636a 78be 97c2 b4bf e8b1 4c3d
00000130: 342a 8abe f467 f5be a083 bfbe 3895 043f
00000140: 9f14 6e3e 234f 013f 3a9f ccbd bc8f 20bf
00000150: 56c8 8f3e e7f0 7abd ccb0 47bd 30db 40bf
00000160: 1848 c7be 07c9 b1be 7374 73bf 3b72 c03e
00000170: 4e8b b53e 6338 dabe 5081 ebbe 831d b13e
00000180: 6a46 f83e 9501 07be 2d69 7b3f a43f 39bf
00000190: 8177 213e a850 4f3d 4766 89bf e061 00bf
000001a0: 78e6 5f3e ce5e d1bb 0bd2 3dbf 5374 213e
000001b0: 53b0 2f3d 642d 7a3e 2931 e7be 423a 373f
000001c0: bf0b cd3e 40d2 563e 7f35 b23e e0f5 4c3d
000001d0: 7efc a2be 3e0d 4abe 0334 bfbf 2b4b 103f
000001e0: 0f5b 79be aa71 803e 13d6 b23f e029 a63d
000001f0: d4ae 05be 687d 5dbe 33a2 fcbe 290a 9d3e
00000200: fc61 883e 39f3 863d c95b d0be 33a6 14bf
00000210: 63b2 82be 2995 af3c 0e2e fa3e 0453 14bd
00000220: 12b1 193e 8e67 7d3e 8864 853f bc6c f93e
00000230: db78 48be ebc0 c7be 39e1 143f 4534 9ebd
00000240: 3abe bfbc 2862 b2be 9bcd c5bb fcab 9ebe
00000250: 1814 68be 0d91 14be 09de 733f 22fc 183f
00000260: 8bfd 383e 2ca8 54be 0e63 683e cecf 533e
00000270: 22d3 1ebe d1d6 e23e acb5 813f 51c8 573e
00000280: 0acf 8dba c2b2 ca3e b448 6dbf 70a9 22bf
00000290: 116f 82be 1d99 c03c 2339 21be efba bd3c
000002a0: ea88 c03d 535e cfbe a6f1 4abe 13b6 b8be
000002b0: 2c1c 833e 65a6 b0be 5cf3 133e ffa1 be3d
000002c0: 6a79 313d bea9 093f 1140 fabe 0f47 01be
000002d0: 2f50 2cbe 4cf5 c83d 275b b0be 1a3f cb3f
000002e0: ffc5 14be b7f3 ee3e bc06 5e3e f2ed 883f
000002f0: 6bf8 2b3e 9214 febe d1a4 59bf 3f93 debc
00000300: 21dc 693e 17b3 4539 ad26 20bf 3703 603f
00000310: 9338 bf3d cf56 833e 77ad a4be ef8a 663e
00000320: dc6f 00bd e207 febe b52a 163f 0dae ad3e
00000330: e248 e0bd 81eb a2be 3c99 b1be 3978 383f
00000340: cecc c13d df81 2c3e 20d1 34bf 4e42 13be
00000350: 56c9 b13e 90d6 893d 8b4f d0be 3d84 41be
00000360: 21cf 82be 8a28 88bd 004a 40be b4ba c9be
00000370: f65b 15be acaa 78bd 8512 68bf 76d8 2bbe
00000380: 8eba b13e b546 dfbd a786 c73f 5276 133f
00000390: dcf2 353d f4d6 a03e 99a4 9abe 7426 8f3e
000003a0: 684f 343e 9d0b 053f 8c2c 1ebf ece3 28be
000003b0: 8a92 a23e d8f6 7b3e 86db 033f 62a0 8bbe
000003c0: 5dfa 403d 7949 fbbe b64e 6fbd ff81 2cbd
000003d0: fde0 983d d958 183e 0c80 debe 46b0 79bf
000003e0: 9057 57be 05f1 90be a291 09bf 7882 293e
000003f0: 2942 58be 1ffd d8bb 16ab af3f e187 33bf

fc1.bias f4 [300]
0.4617281 -1.0303336 0.44354612 -0.4026491 -0.17499729 -0.16358703 -0.02506832 -0.222481
-0.2938981 -1.0734396 1.4439576 -1.187658 -0.88803613 0.37852454 -0.5550162 0.9420024
-1.7421665 0.24708076 0.09236724 -0.980606 -0.38032907 0.36622104 -0.21050064 0.01817589
-0.16870186 0.4143702 0.73028123 -0.8602829 -1.1920286 -0.7456009 0.56099486 0.617149
-0.25653347 -1.5128065 0.56564146 0.6903063 -0.6614802 0.8946744 0.23588923 -0.18016289
0.39287287 -0.7120423 0.59353435 -0.88560563 0.4155422 -0.9315834 0.04868652 -0.06629271
-0.5171411 -1.261322 0.42838717 -1.1484737 -0.81415296 0.2947136 0.9899141 0.84811944
0.43575037 -1.2869086 -0.6174935 -0.95259863 0.27692565 0.32402033 -0.2298126 -0.58181024
-0.65735775 -0.30998316 -0.1374475 -0.83333445 0.6367572 -0.50138074 -0.6974948 -0.3729426
0.6185661 -1.2374091 0.47043023 -1.0057713 0.2238779 0.9715906 -0.70322186 -1.0161065
1.3494241 -1.4079689 0.19566219 -0.042712256 -0.002102291 -0.3899542 -1.3357294 0.120591454
0.026419261 0.6902686 -0.5202088 -0.82730234 1.0060062 0.9982622 0.8895439 -0.23098308
-0.18334751 0.73653805 -0.33703047 -0.9411915 0.6211517 0.84263176 0.35412017 0.7442592
0.3227296 -0.39574075 -0.31829476 -1.0121517 -0.11840202 -0.49637192 -0.053854257 -0.53401524
1.0904834 -0.90793914 0.030009074 -1.3998618 1.2026256 -0.52880406 -0.93689364 -1.226698
0.52506936 1.1436844 0.07069656 -0.6286561 0.0582643 -0.6372599 0.285793 0.0681819
1.3275036 0.6779572 -0.3269762 -0.7509889 0.8520824 0.55045044 -0.80955595 -1.0731124
-0.42884976 -0.5412937 1.4755877 0.67825246 -0.89502096 -1.3163105 -1.0094608 0.21270318
-0.65402246 0.9462353 0.62207806 1.013111 0.656029 0.52631956 -0.67433405 0.32393605
0.9663434 0.3289275 -0.5731196 -0.54713947 -0.45360872 0.8607571 0.9439003 0.26286322
0.22727913 0.29199377 0.5749342 -0.13998556 -0.18726356 0.3077773 0.04976621 0.9843998
-0.010224157 0.61548084 1.6647791 0.068318196 0.57383806 -0.40257928 -0.61607933 0.011443792
0.54996485 0.88773793 0.2682275 -1.1010636 -0.8264993 -0.7133418 0.7379805 0.8038761
0.7892069 0.06287618 -0.76429814 1.0013393 -0.23408791 0.5148351 -0.29571486 -1.1441231
-1.1533377 1.4718502 -0.6364933 -0.9695431 -0.7502618 -0.29893515 0.16586703 -0.10342477
0.17137061 1.4248805 -1.2956431 -0.04122627 0.97941875 0.4356541 -0.47514758 1.1616055
-0.66790825 -0.9864082 -0.3574802 -1.1479133 -1.0690104 -0.9286061 -0.1292312 0.36654973
0.8435346 -0.4645063 0.836657 -0.29155818 0.5169658 -0.5652289 0.8963382 -0.7087507
0.13703266 -0.6245703 -0.42449903 0.29982185 -0.7928008 0.80123466 -0.6776489 -0.20367412
-0.30031154 -0.8746734 -1.1283903 0.8405885 -0.59426886 -1.022807 -0.050113127 -1.1013309
0.582905 -1.153035 0.43848202 -1.283817 -0.8953271 -0.20809406 -0.9293463 -1.0905645
0.12541093 0.8135236 -1.0199345 0.4010957 -0.06182519 0.16672482 0.9613029 0.56932163
00000000: a067 ec3e f9e1 83bf 7a18 e33e 0628 cebe
00000010: 7d32 33be 5c83 27be 145c cdbc 0fd2 63be
00000020: d079 96be 7866 89bf 9ad3 b83f 2d05 98bf
00000030: 5656 63bf f8cd c13e 8b15 0ebf 1227 713f
00000040: 50ff debf bd02 7d3e 092b bd3d ff08 7bbf
00000050: 7eba c2be 5381 bb3e 7b8d 57be 9be5 943c
00000060: 2ec0 2cbe 5528 d43e b6f3 3a3f 803b 5cbf
00000070: 6594 98bf b3df 3ebf 5c9d 0f3f 7afd 1d3f
00000080: 5b58 83be a5a3 c1bf e1cd 103f eab7 303f
00000090: c456 29bf 6209 653f f28c 713e 9f7c 38be
000000a0: a226 c93e 6748 36bf def1 173f 0db7 62bf
000000b0: f2c1 d43e 407c 6ebf 846b 473d 79c4 87bd
000000c0: 5c63 04bf 0073 a1bf 9055 db3e 3001 93bf
000000d0: 546c 50bf b3e4 963e 036b 7d3f 5b1e 593f
000000e0: ac1a df3e 6cb9 a4bf 0e14 1ebf 81dd 73bf
000000f0: 33c9 8d3e fee5 a53e ff53 6bbe 84f1 14bf
00000100: 9948 28bf 1db6 9ebe 0abf 0cbe 6855 55bf
00000110: 8502 233f 7d5a 00bf 058f 32bf 55f2 bebe
00000120: 595a 1e3f 6c63 9ebf 3bdc f03e 1dbd 80bf
00000130: 4040 653e 29ba 783f 5906 34bf c70f 82bf
00000140: eeb9 ac3f 5338 b4bf ab5b 483e 0cf3 2ebd
00000150: 97c6 09bb 14a8 c7be 2ef9 aabf a7f8 f63d
00000160: 356d d83c 71b5 303f 672c 05bf 16ca 53bf
00000170: d0c4 803f 1d8e 7f3f 26b9 633f d486 6cbe
00000180: 73bf 3bbe c28d 3c3f 428f acbe edf1 70bf
00000190: cc03 1f3f b7b6 573f 3d4f b53e c587 3e3f
000001a0: d03c a53e 889e cabe 88f7 a2be 308e 81bf
000001b0: c27c f2bd 7624 febe 4896 5cbd 39b5 08bf
000001c0: f694 8b3f b36e 68bf 97d5 f53c ac2e b3bf
000001d0: a3ef 993f b45f 07bf 43d8 6fbf 7104 9dbf
000001e0: f26a 063f 4064 923f 5cc9 903d 9bef 20bf
000001f0: 8ca6 6e3d 7723 23bf 7653 923e f4a2 8b3d
00000200: a3eb a93f 9a8e 2d3f 6d69 a7be cf40 40bf
00000210: 1222 5a3f 52ea 0c3f 0f3f 4fbf bf5b 89bf
00000220: 3292 dbbe 3992 0abf 0fe0 bc3f f4a1 2d3f
00000230: 1820 65bf dd7c a8bf 0336 81bf ddce 593e
00000240: 046e 27bf 7a3c 723f 8240 1f3f 9fad 813f
00000250: 84f1 273f e1bc 063f 28a1 2cbf f2da a53e
00000260: 4862 773f 2f69 a83e f7b7 12bf 5511 0cbf
00000270: 673f e8be 945a 5c3f 73a3 713f 0296 863e
00000280: dcbb 683e 3580 953e e32e 133f 6058 0fbe
00000290: 05c2 3fbe fc94 9d3e a7d7 4b3d a001 7c3f
000002a0: 3983 27bc 2790 1d3f 7b17 d53f 69ea 8b3d
000002b0: 0de7 123f df1e cebe 60b7 1dbf be7e 3b3c
000002c0: 7fca 0c3f cb42 633f 1d55 893e a7ef 8cbf
000002d0: 7595 53bf 919d 36bf 4aec 3c3f d3ca 4d3f
000002e0: 7709 4a3f 3ac5 803d 0ba9 43bf e32b 803f
000002f0: beb4 6fbe 3ccc 033f f067 97be a072 92bf
00000300: 92a0 93bf 9665 bc3f 3af1 22bf fa33 78bf
00000310: 2811 40bf 070e 99be 0cd9 293e 5ed0 d3bd
00000320: c77b 2f3e 7c62 b63f a2d7 a5bf e1dc 28bd
00000330: 30bb 7a3f 0e0e df3e 8b46 f3be 7daf 943f
00000340: 09fc 2abf 3f85 7cbf a507 b7be d3ee 92bf
00000350: 55d5 88bf 21b9 6dbf 2f55 04be 68ac bb3e
00000360: e2f1 573f c5d3 edbe 272f 563f 1d47 95be
00000370: df57 043f d7b2 10bf 6c76 653f b070 35bf
00000380: 4a52 0c3e d7e3 1fbf f057 d9be 4082 993e
00000390: fef4 4abf b71d 4d3f 667a 2dbf f38f 50be
000003a0: 6fc2 99be 99ea 5fbf 186f 90bf cf30 573f
000003b0: 0122 18bf 57eb 82bf 6c43 4dbd 69f8 8cbf
000003c0: 4339 153f a796 93bf b780 e03e 1e54 a4bf
000003d0: 2834 65bf 9c16 55be a4e9 6dbf 9e97 8bbf
000003e0: b96b 003e 1543 503f 378d 82bf 6a5c cd3e
000003f0: 693c 7dbd e9b9 2a3e f217 763f 10bf 113f

fc2.weight f4 [200, 300]
0.019357203 0.018571742 -0.3158658 -0.035388853 0.06408699 -0.07275574 0.054998845 0.059079163
-0.01612528 -0.14723887 0.25201902 -0.007888411 0.02527295 -0.023710884 -0.0018782892 0.13734666
-0.60431355 -0.022002919 -0.13572337 -0.026443155 0.010836307 0.03857531 -0.042628776 0.039172996
0.06149858 -0.07989989 -0.08003852 -0.8089073 0.042699937 -0.1391265 0.1436622 -0.16079265
0.013205819 0.054708455 0.05095174 0.029391779 -0.048088912 0.063187264 -0.06048376 -0.030505015
0.041798268 0.0599053 -0.0018309999 -0.026049372 0.024472665 -0.6494904 -0.24341783 0.009282586
-0.021500256 -0.48921132 -0.07613442 -0.09697282 -0.01688964 -0.039178263 0.015726835 -0.11049619
0.05435341 -0.18373622 0.068845615 0.060969595 0.03781162 -0.019001005 -0.03218219 0.042084716
0.0059103724 -0.0066706585 -0.08321525 -0.1142357 0.0015769905 -0.08204369 -0.051390525 -0.0027924713
-0.09038652 -0.549862 -0.039434485 -0.38029745 0.02664058 0.16386358 0.08383889 -0.077124685
-0.11062212 -0.4304554 -0.039816666 -0.1492473 -0.05132866 -0.0119295735 -0.026765626 0.03087077
0.020636262 -0.04346584 -0.353326 -0.11941926 0.008908194 0.09713341 0.042546988 -0.017145952
-0.14526585 0.061201815 -0.05476477 -0.10863924 -0.09079022 0.002830003 0.032270566 -0.0153424665
-0.055618525 -0.34868637 -0.06949619 -0.48585862 -0.11215669 0.031323038 -0.017443039 -0.2963769
0.2468199 -0.008950464 -0.13725656 -0.0794801 -0.03354864 -0.039044425 -0.045577653 0.15764037
0.0045067254 0.02689511 -0.051694423 0.0060024313 0.0026961162 -0.115889356 -0.060286313 -0.045103304
0.13861378 -0.04772069 -0.03193574 -0.039103296 -0.056991335 -0.06610613 0.27345473 -0.055740375
0.01164743 0.12246067 0.14609596 0.14500257 -0.05399246 -0.33230892 -0.54327357 -0.08281487
0.053206462 0.010384761 -0.047856085 -0.045860235 -0.029588653 0.042048413 -0.042678814 0.006722375
-0.10298697 -0.027452627 -0.07697267 0.002468405 0.04856571 0.019686868 -0.025144506 -0.0140036205
0.32448137 0.06403509 -0.008342522 -0.01192046 0.024401253 -0.066061795 0.097706504 0.07742924
-0.25429487 0.08313174 0.0028510098 0.007243239 0.054972637 0.036618087 -0.39768046 -0.053450834
0.088634185 0.40389282 0.00020887921 -0.16650403 0.011837258 -0.4810018 -0.022395933 -0.02341563
-0.060360942 -0.015923843 -0.0701566 -0.11326146 0.040250026 0.06682459 -0.049605902 -0.065486155
-0.09470183 0.004513644 -0.06439254 -0.027524143 -0.007478121 -0.0070334873 0.046238717 -0.010046541
-0.020610906 0.2211694 -0.2377835 -0.023396932 -0.012945531 -0.044698473 -0.07867195 -0.09607511
-0.002450399 -0.42738682 -0.011032054 0.2592388 -0.054258477 -0.30223992 -0.015776511 0.003291864
-0.041197058 -0.09694238 0.057644166 -0.1966457 -0.03449601 -0.05367204 0.05809705 -0.055937022
0.12603629 -0.06109236 0.1350435 0.05454458 -0.16589312 0.04536675 -0.083906285 -0.17349271
-0.05088253 -0.09526133 -0.74689734 -0.026629651 -0.43541843 -0.14788848 0.051400382 -0.055790395
-0.018531611 -0.043537654 0.045006946 -0.07804327 -0.5081994 0.014067879 -0.2133772 -0.11921456
-0.0029633855 0.12506913 -0.39689752 -0.01834625 0.046544325 0.04500804 -0.026563866 0.04924282
00000000: ff92 9e3c c423 983c 2ab9 a1be e7f3 10bd
00000010: 0a40 833d f600 95bd 7846 613d fefc 713d
00000020: 2a19 84bc c9c5 16be a308 813e 653e 01bc
00000030: 3809 cf3c 543d c2bc ed30 f6ba 9aa4 0c3e
00000040: 4bb4 1abf 773f b4bc 11fb 0abe 519f d8bc
00000050: c48a 313c 2501 1e3d 839b 2ebd dd73 203d
00000060: efe5 7b3d 8ea2 a3bd 3ceb a3bd 8c14 4fbf
00000070: 21e6 2e3d 2d77 0ebe 2f1c 133e d4a6 24be
00000080: 385d 583c f915 603d c6b2 503d 07c7 f03c
00000090: e1f8 44bd 5368 813d d2bd 77bd a7e5 f9bc
000000a0: a934 2b3d 435f 753d 29fe efba 7e65 d5bc
000000b0: e67a c83c 0145 26bf 8642 79be fd15 183c
000000c0: 4e21 b0bc e879 fabe 5dec 9bbd b099 c6bd
000000d0: 245c 8abc 6379 20bd 90d5 803c d44b e2bd
000000e0: aea1 5e3d 5925 3cbe eefe 8c3d 41bb 793d
000000f0: 5be0 1a3d ffa7 9bbc 79d1 03bd 0661 2c3d
00000100: ccab c13b 8a95 dabb c26c aabd 68f4 e9bd
00000110: 05b3 ce3a 8606 a8bd df7e 52bd e501 37bb
00000120: 911c b9bd c2c3 0cbf 0e86 21bd 59b6 c2be
00000130: 583d da3c dbcb 273e b9b3 ab3d 8cf3 9dbd
00000140: da8d e2bd a664 dcbe cd16 23bd 49d4 18be
00000150: 003e 52bd 4274 43bc 9643 dbbc b2e4 fc3c
00000160: 610d a93c 3d09 32bd 25e7 b4be 1692 f4bd
00000170: acf3 113c e2ed c63d c045 2e3d ab75 8cbc
00000180: 92c0 14be c1ae 7a3d 0651 60bd 407e debd
00000190: 39f0 b9bd 9277 393b 242e 043d f85e 7bbc
000001a0: 40d0 63bd 0587 b2be 0554 8ebd 76c2 f8be
000001b0: 68b2 e5bd 964c 003d b4e4 8ebc b7be 97be
000001c0: 5bbe 7c3e f8a4 12bc fc8c 0cbe 76c6 a2bd
000001d0: 4c6a 09bd 0ced 1fbd a2af 3abd 7a6c 213e
000001e0: 27ad 933b 2253 dc3c 88bd 53bd 0bb0 c43b
000001f0: 53b1 303b 6657 edbd c8ee 76bd 3ebe 38bd
00000200: c5f0 0d3e c576 43bd 0dcf 02bd c72a 20bd
00000210: bf6f 69bd a762 87bd 4202 8c3e 0550 64bd
00000220: ddd4 3e3c a9cc fa3d 2e9a 153e 8e7b 143e
00000230: 3327 5dbd 6524 aabe fa13 0bbf d89a a9bd
00000240: 05ef 593d d824 2a3c be04 44bd f1d7 3bbd
00000250: e763 f2bc f53a 2c3d fbcf 2ebd 5e47 dc3b
00000260: d5ea d2bd 55e4 e0bc d9a3 9dbd f7c4 213b
00000270: d7ec 463d 5b46 a13c dafb cdbc 716f 65bc
00000280: 6c22 a63e d424 833d 13af 08bc 084e 43bc
00000290: 23e5 c73c 684b 87bd 591a c83d 3993 9e3d
000002a0: f032 82be f940 aa3d 02d8 3a3b b158 ed3b
000002b0: fd2a 613d d9fc 153d c69c cbbe 43ef 5abd
000002c0: d785 b53d 0acb ce3e 9606 5b39 0880 2abe
000002d0: 0ff1 413c de45 f6be ad77 b7bc 23d2 bfbc
000002e0: 093d 77bd b872 82bc 43ae 8fbd a0f5 e7bd
000002f0: 36dd 243d 55db 883d 8f2f 4bbd 9b1d 86bd
00000300: 08f3 c1bd 31e7 933b 3ce0 83bd 507a e1bc
00000310: 070b f5bb 2b79 e6bb cf64 3d3d 3f9a 24bc
00000320: 34d8 a8bc 3b7a 623e 857d 73be ecaa bfbc
00000330: 7e19 54bc bf15 37bd c21e a1bd 07c3 c4bd
00000340: e096 20bb 72d2 dabe cabf 34bc f3ba 843e
00000350: 233e 5ebd 31bf 9abe be3d 81bc 50bc 573b
00000360: 3fbe 28bd ba89 c6bd 4a1c 6c3d 7e5d 49be
00000370: b04b 0dbd 37d7 5bbd 2cf7 6d3d 381e 65bd
00000380: a80f 013e fc3b 7abd d848 0a3e 236a 5f3d
00000390: e3df 29be 7cd2 393d 0fd7 abbd 13a8 31be
000003a0: 336a 50bd 5f18 c3bd aa34 3fbf 6d26 dabc
000003b0: 2aef debe 1470 17be 3589 523d 7884 64bd
000003c0: 9bcf 97bc 8a54 32bd 3459 383d 26d5 9fbd
000003d0: 5b19 02bf f67c 663c 8d7f 5abe c326 f4bd
000003e0: 5c35 42bb 1f12 003e 2736 cbbe e04a 96bc
000003f0: 43a5 3e3d 5a5a 383d 779c d9bc d7b2 493d

fc2.bias f4 [200]
0.1208466 -0.034252625 -0.124310814 0.1628863 0.028917007 0.53564847 -0.12197875 0.033079144
0.27630985 0.2341524 0.7412005 -0.06974206 -0.055905797 -0.06913158 0.060974475 0.044969276
0.012171146 0.03690134 0.0027952844 -0.04072122 9.826198e-05 0.0071933954 0.19002259 -0.031495873
-0.057960678 0.40449724 -0.103558205 -0.0012404795 0.20840591 0.2253457 0.11905151 0.21054865
-0.0015992761 0.2034074 -0.06671709 -0.4632086 0.013461976 0.12056832 0.38646743 0.34355068
0.28051466 0.38160607 -0.02238649 -0.02583429 -0.0208597 0.09905141 -0.3136586 0.24066511
0.043610673 0.24240424 -0.032151535 0.4490461 -0.20907441 0.09172901 0.1305942 0.1590476
0.018419005 -0.019612975 0.40287334 0.26211873 0.015329301 -0.052450903 0.44758934 -0.008671191
0.05355733 0.50798714 -0.015656667 0.14018978 0.37009695 0.049068294 0.4221775 -0.018998295
0.043633025 0.300903 0.0664217 0.09038043 -0.009850261 -0.14323926 -0.019534744 0.12477276
-0.3890509 0.015513706 0.34052885 0.4715799 0.18598512 -0.044225354 -0.0021664007 -0.12196823
0.23722209 0.012235409 0.035668254 0.2830365 -0.042779922 -0.033220705 0.23984866 -0.00082996464
0.27527267 -0.1545941 -0.033243056 0.22992171 0.28796864 0.037527192 0.0039514196 0.13283397
-0.013877351 0.024001421 -0.36739284 0.03769391 0.18779336 -0.09333819 0.04163519 0.07882047
-0.17612655 -0.0006065608 0.0756402 0.3347887 0.015699508 0.38066894 -0.022870785 -0.022500113
-0.055054914 0.06722019 0.0054848623 -0.04473945 -0.051586624 -0.0034316187 -0.029695604 0.085107505
0.50547206 0.026445245 -0.04546217 0.04641958 -0.3685552 0.04136552 0.015577037 0.12965514
-0.047455225 0.01793126 -0.042385038 -0.09762249 0.25872332 0.18480389 -0.034681037 -0.048473835
-0.011515487 0.27638993 -0.007647421 -0.029774783 0.0750686 0.03309153 -0.38157895 0.28710258
-0.025299704 0.080095366 0.06320251 0.40809417 -0.080664754 0.38179523 -0.00020265987 -0.27326283
0.22453052 0.02409367 0.15759179 0.031486098 0.35229123 0.017150527 -0.043402053 -0.00685439
0.01737591 0.022410704 0.034353208 0.037700683 0.032464463 -0.022986269 0.38571206 -0.0036642195
-0.07160473 0.72123873 0.041707028 0.44710612 0.41131693 0.23680486 -0.021261437 0.14441954
0.25628835 0.4181794 0.01944906 0.07290416 -0.08860366 -0.19929816 -0.36472744 -0.110884696
-0.050878808 0.3216837 0.011648668 0.009758058 0.0072874604 -0.01345379 -0.38354594 0.0053502843
00000000: 6c7e f73d 7b4c 0cbd ab96 febd abcb 263e
00000010: 5ce3 ec3c 4220 093f ffcf f9bd ff7d 073d
00000020: 7c78 8d3e a6c5 6f3e 51bf 3d3f edd4 8ebd
00000030: 7afd 64bd dc94 8dbd 5fc0 793d b431 383d
00000040: 7d69 473c dc25 173d 1731 373b 4bcb 26bd
00000050: 0012 ce38 93b6 eb3b 4895 423e d101 01bd
00000060: 2d68 6dbd 431a cf3e 5316 d4bd 9697 a2ba
00000070: 5c68 553e 06c1 663e 47d1 f33d 119a 573e
00000080: cd9e d1ba 084a 503e f8a2 88bd ad29 edbe
00000090: 9f8f 5c3c 86ec f63d 0fdf c53e e0e5 af3e
000000a0: 9e9f 8f3e df61 c33e df63 b7bc 6fa2 d3bc
000000b0: f6e1 aabc 77db ca3d dc97 a0be ea70 763e
000000c0: 1ba1 323d d138 783e 54b1 03bd 5fe9 e53e
000000d0: 9a17 56be 6bdc bb3d 7cba 053e 60dd 223e
000000e0: 74e3 963c 64ab a0bc 6a45 ce3e 6d34 863e
000000f0: c027 7b3c c2d6 56bd 6e2a e53e 9c11 0ebc
00000100: ee5e 5b3d 720b 023f 6942 80bc e98d 0f3e
00000110: 597d bd3e d6fb 483d a627 d83e 50a2 9bbc
00000120: 8bb8 323d f50f 9a3e 1a08 883d 6019 b93d
00000130: fd62 21bc 50ad 12be 5407 a0bc dc88 ff3d
00000140: ae31 c7be 332d 7e3c cc59 ae3e ec72 f13e
00000150: e272 3e3e a525 35bd 2cfa 0dbb 7bca f9bd
00000160: 59ea 723e 0677 483c e018 123d 29ea 903e
00000170: 003a 2fbd 6f12 08bd e39a 753e fc91 59ba
00000180: 8af0 8c3e ea4d 1ebe df29 08bd 9970 6b3e
00000190: a070 933e 1db6 193d e97a 813b a105 083e
000001a0: d45d 63bc a19e c43c ea1a bcbe ee64 1a3d
000001b0: e74c 403e 1828 bfbd a989 2a3d a06c a13d
000001c0: 855a 34be 9b01 1fba 40e9 9a3d 6d69 ab3e
000001d0: 419c 803c 0ae7 c23e 835b bbbc 2852 b8bc
000001e0: 4381 61bd bdaa 893d 5cba b33b b740 37bd
000001f0: 7f4c 53bd 02e5 60bb 3244 f3bc d84c ae3d
00000200: 9e66 013f b3a3 d83c 8a36 3abd 7522 3e3d
00000210: 44b3 bcbe e46e 293d d436 7f3c 51c4 043e
00000220: 6960 42bd 94e4 923c ef9b 2dbd 4dee c7bd
00000230: 6277 843e 3b3d 3d3e b40d 0ebd 808c 46bd
00000240: 74ab 3cbc fb82 8d3e 3897 fabb 3fea f3bc
00000250: 91bd 993d fc8a 073d 515e c3be 1cff 923e
00000260: 5341 cfbc 0a09 a43d 5170 813d b8f1 d03e
00000270: 9033 a5bd aa7a c33e 1881 54b9 1be9 8bbe
00000280: 54eb 653e 1760 c53c be5f 213e 91f7 003d
00000290: 845f b43e 437f 8c3c 5ac6 31bd ca9a e0bb
000002a0: ed57 8e3c a796 b73c f3b5 0c3d 086c 1a3d
000002b0: 75f9 043d b34d bcbc 0d7c c53e 6723 70bb
000002c0: 80a5 92bd 1aa3 383f fdd4 2a3d 18eb e43e
000002d0: 2298 d23e f97c 723e 772c aebc b7e2 133e
000002e0: 3a38 833e 9c1b d63e a353 9f3c c74e 953d
000002f0: d675 b5bd d114 4cbe 8ebd babe 8417 e3bd
00000300: 4c66 50bd bab3 a43e 0eda 3e3c 43e0 1f3c
00000310: a6cb ee3b 496d 5cbc 2260 c4be 7051 af3b

fc3.weight f4 [2, 200]
0.07382887 0.000454273 -0.45653278 0.24826255 0.02389339 0.433374 -0.0010979853 0.0315145
-1.1477655 0.15448977 -0.6342314 -0.065182246 -0.038690202 0.15968 0.13964804 0.017389692
0.014368164 0.0549357 -0.0072897887 0.043715574 -0.053554207 -0.030112842 0.014757362 0.08152158
0.042027406 0.3984175 -0.05437244 -0.31875482 -0.13181484 0.06528655 0.16017562 -0.48570958
-0.060885068 0.3398069 -0.0038057824 -0.10549041 -0.06383368 -0.0994443 -0.30242708 -0.4516451
-0.0003570565 0.18177143 0.040164735 0.06303645 -0.070108324 0.16380079 -0.14395452 -0.07720588
0.00597521 0.21748045 0.042697966 0.17021783 -0.71357757 -0.14966175 -0.45915428 0.06846789
-0.038845968 0.03159646 0.18636443 -0.82502896 -0.015939793 -0.042284455 0.1412782 0.02753677
-0.12891906 -0.6668356 0.016045963 -0.19026545 0.105968565 0.0010270874 0.226177 -0.07039027
0.059443362 -0.3227782 -0.1298815 -0.07041262 0.060765855 -0.11968394 0.06334938 -0.071679235
-0.094871186 -0.12329008 0.12558347 0.12216159 0.123916075 0.03247564 0.0383803 -0.122668594
-1.1461525 -0.0109436475 -0.0013595739 -0.20307471 0.006088833 0.044296138 0.1228954 0.019756401
0.5707516 -0.16779669 -0.00037231555 0.123344764 -0.5159742 0.009129407 0.058687113 0.2003022
0.0499661 -0.042921484 -0.034152042 -0.016540471 -0.60665286 0.0735886 -0.15276727 -0.09495869
-0.11122742 -0.027086005 0.07164379 -0.5206831 -0.004250844 0.068216264 -0.036290385 -0.008199936
0.04071236 0.0015842551 -0.02263795 0.05254031 0.06219266 0.013544865 -0.03941222 -0.20151162
-0.22628523 -0.012698282 0.050074138 -0.032900326 -0.44869465 -0.07279386 0.03211428 -0.102839686
0.06350584 -0.047414243 0.046121553 -0.1261474 -0.31300655 -0.005771718 -0.04478788 -0.052217092
0.008599478 -0.28169194 0.03150705 0.014905154 -0.16998732 -0.0028920532 -0.16669399 -0.15805578
0.008292138 -0.27440128 0.038210783 -0.21742293 -0.0020264678 -0.50266373 -0.06138054 -0.33986223
-0.16177882 -0.0890523 0.10343426 -0.35442588 -0.15640855 7.602792e-06 0.065390855 -0.030259993
0.05194053 0.0001170171 0.06103408 0.19008018 -0.061175644 0.027039437 -0.16500057 0.016584275
-0.012324817 0.44511968 0.032971106 -0.3130515 -0.21378914 -0.17763159 0.060680173 -0.03291421
-0.5404124 -0.24608003 -0.027706273 0.17601301 -0.09812675 -0.08849541 -0.17713994 -0.066001825
-0.001045947 -0.04080843 -0.060601942 0.023522718 0.038391475 0.0415105 -0.18417327 0.04508218
0.04874419 0.018355673 -0.13276361 -0.27464685 0.0034826093 -0.24215445 -0.0072972393 0.03130961
0.035690606 -0.06672454 -0.035772562 -0.028043415 0.049161427 -0.016493004 -0.18256393 -0.13169071
0.03092869 -0.038089722 0.052599914 0.035809815 0.033493727 -0.0048929993 -0.019056037 -0.037679937
0.04207211 -0.116726026 -0.02559028 0.014310421 0.016785445 -0.11594371 -0.013376293 -0.015936067
0.03225957 -0.034155767 -0.115496665 -0.027207078 0.006098146 -0.063549146 -0.028374972 -0.12845711
-0.11329126 -0.17049384 0.014159545 0.05403417 -0.046796955 -0.055714298 -0.059368856 -0.09628882
0.025793312 -0.23890595 -0.0016962513 -0.09635588 -0.05177289 -0.036729973 -0.15657598 -0.14934883
00000000: 9733 973d 7d2b ee39 aabe e9be 8a38 7e3e
00000010: 12bc c33c 32e3 dd3e 46ea 8fba 5915 013d
00000020: fbe9 92bf 9132 1e3e fd5c 22bf 457e 85bd
00000030: 9e79 1ebd 2783 233e e5ff 0e3e d474 8e3c
00000040: 7368 6b3c 4204 613d 2edf eebb 1a0f 333d
00000050: a85b 5bbd 35af f6bc ddc8 713c c9f4 a63d
00000060: ee24 2c3d 61fd cb3e a3b5 5ebd d533 a3be
00000070: 78fa 06be f4b4 853d 1405 243e edae f8be
00000080: 9f62 79bd 2cfb ad3e 6f6a 79bb 5b0b d8bd
00000090: 3bbb 82bd 74a9 cbbd b9d7 9abe 073e e7be
000000a0: 5033 bbb9 4a22 3a3e c783 243d 4119 813d
000000b0: f494 8fbd 65bb 273e d068 13be 1e1e 9ebd
000000c0: b2cb c33b 32b3 5e3e 10e4 2e3d 954d 2e3e
000000d0: 05ad 36bf ee40 19be 4516 ebbe e538 8c3d
000000e0: f31c 1fbd 4a6b 013d 51d6 3e3e 1935 53bf
000000f0: 2b94 82bc 7732 2dbd 3cab 103e cb94 e13c
00000100: 5c03 04be bdb5 2abf d372 833c f2d4 42be
00000110: 0c06 d93d 569f 863a f29a 673e c628 90bd
00000120: e27a 733d 2f43 a5be a8ff 04be 7e34 90bd
00000130: 9ee5 783d db1c f5bd 52bd 813d 90cc 92bd
00000140: d34b c2bd 827f fcbd f498 003e db2f fa3d
00000150: b6c7 fd3d 2d05 053d a934 1d3d ac39 fbbd
00000160: 20b5 92bf fc4c 33bc bb33 b2ba d1f2 4fbe
00000170: d584 c73b de6f 353d 95b0 fb3d 2dd8 a13c
00000180: c71c 123f e5d2 2bbe 5933 c3b9 2e9c fc3d
00000190: e316 04bf 8293 153c e661 703d 051c 4d3e
000001a0: 41a9 4c3d 70ce 2fbd 03e3 0bbd e27f 87bc
000001b0: 9a4d 1bbf 9fb5 963d 066f 1cbe b479 c2bd
000001c0: 34cb e3bd 78e3 ddbc fbb9 923d 7d4b 05bf
000001d0: aa4a 8bbb f8b4 8b3d 3aa5 14bd 0659 06bc
000001e0: 01c2 263d c8a6 cf3a 3973 b9bc 8234 573d
000001f0: bbbd 7e3d 48eb 5d3c b56e 21bd 1059 4ebe
00000200: 51b7 67be 740c 50bc 8a1a 4d3d 7ec2 06bd
00000210: 4ebb e5be f314 95bd 438a 033d 9d9d d2bd
00000220: 5a0f 823d 7035 42bd f4e9 3c3d c92c 01be
00000230: 6542 a0be ae20 bdbb 7f73 37bd 97e1 55bd
00000240: d3e4 0c3c ed39 90be 890d 013d bf34 743c
00000250: 2811 2ebe 9a88 3dbb d4b1 2abe 60d9 21be
00000260: bfdb 073c 537e 8cbe e982 1c3d 1ea4 5ebe
00000270: 7dce 04bb 92ae 00bf 296a 7bbd 6c02 aebe
00000280: 59a9 25be 0d61 b6bd 57d5 d33d 4f77 b5be
00000290: 9029 20be 7c1b ff36 a4eb 853d cee3 f7bc
000002a0: 98bf 543d 1467 f538 dffe 793d 61a4 423e
000002b0: 5093 7abd cf81 dd3c e9f5 28be bfdb 873c
000002c0: 07ee 49bc bae6 e33e b60c 073d 4948 a0be
000002d0: 8aeb 5abe 0ee5 35be c68b 783d 0dd1 06bd
000002e0: 7858 0abf 67fc 7bbe 44f8 e2bc c13c 343e
000002f0: adf6 c8bd 153d b5bd 2c64 35be f72b 87bd
00000300: 2818 89ba be26 27bd be39 78bd b7b2 c03c
00000310: 6140 1d3d ea06 2a3d eb97 3cbe 18a8 383d
00000320: fda7 473d a35e 963c 2ff3 07be 839e 8cbe
00000330: 7d3c 643b 56f7 77be ae1d efbb 813e 003d
00000340: 5030 123d e0a6 88bd 4086 12bd 4ebb e5bc
00000350: 7e5d 493d 561c 87bc 0af2 3abe eed9 06be
00000360: 2a5e fd3c f803 1cbd 0273 573d 50ad 123d
00000370: b830 093d 7455 a0bb 681b 9cbc 4756 1abd
00000380: ce53 2c3d 0e0e efbd b5a2 d1bc 4276 6a3c
00000390: a181 893c e573 edbd 3d28 5bbc 5b8c 82bc
000003a0: 9c22 043d ebe6 0bbd 8489 ecbd 61e1 debc
000003b0: f5d2 c73b 0e26 82bd a172 e8bc 438a 03be
000003c0: 4005 e8bd f095 2ebe 70fd 673c ef52 5d3d
000003d0: 2aae 3fbd ad34 64bd c22c 73bd 1333 c5bd
000003e0: 7f4c d33c c3a3 74be c054 deba 3b56 c5bd
000003f0: cf0f 54bd 2b72 16bd 7455 20be e6ee 18be

fc3.bias f4 [2]
0.14613554 -0.08835386
00000000: 8ea4 153e def2 b4bd
