log/train_2_1k800/models/1320_critic.pt (torch_old, 251021 bytes, 5 tensors)

fc1.weight f4 [300, 6]
0	0x3bdfb17f	0.006826579
1	0x3f80919a	1.0044434
2	0x3feb50e7	1.8384064
3	0xbec5c199	-0.38624266
4	0x3fcc4fc3	1.5961841
5	0x405baf18	3.4325619
6	0x3ef0ef07	0.47057363
7	0xbec2c093	-0.38037547
8	0x3e037537	0.12837683
9	0x40b72ae1	5.7239842
10	0xbf62b013	-0.8854992
11	0x403bad8a	2.932467
12	0xbe4253ac	-0.18977231
13	0x3e85fbc4	0.26168644
14	0xbf2005cf	-0.62508863
15	0x3ead43e7	0.33840868
16	0xbfba85b7	-1.4572057
17	0xbffa7b00	-1.9568787
18	0xbf1145d5	-0.5674718
19	0xbef3319e	-0.47498792
20	0x3f4f56f7	0.8099207
21	0x3f3fb38a	0.7488333
22	0x402b55c2	2.6771092
23	0x3ea32854	0.31866705
24	0x3ec3ceaa	0.3824361
25	0x3e4fbf26	0.20287761
26	0xbfa6c18d	-1.3027817
27	0x3d965fb7	0.07342475
28	0xc07a69fc	-3.9127188
29	0x3f4ec7d5	0.8077367
30	0x3d3f587e	0.046715252
31	0x3e2b8486	0.16749772
32	0xbec210ee	-0.3790354
33	0x3e0088f9	0.12552251
34	0xc062a900	-3.541565
35	0x3f641be9	0.8910509
36	0xbce87af8	-0.028378949
37	0x3de78455	0.11304537
38	0xbfc03ff8	-1.5019522
39	0xbf894017	-1.0722684
40	0xc01b65fd	-2.4280999
41	0x3faa435a	1.3301804
42	0x3e6b9c1b	0.23008768
43	0x3f607198	0.8767333
44	0x3db8723b	0.09006163
45	0xbf6cacea	-0.92451346
46	0xbed982a4	-0.42482483
47	0xc02c348c	-2.6907072
48	0xbe6b5b8f	-0.22984146
49	0x3f499b1d	0.7875231
50	0x3fbdeede	1.4838521
51	0xbebf54a0	-0.3736925
52	0x40002e3a	2.0028214
53	0xbe1be1f3	-0.15222912
54	0x3d101b78	0.035182446
55	0x3ef95d8d	0.48704186
56	0x3f3ad689	0.72983605
57	0x40329f2b	2.7909648
58	0x3fc48f6d	1.535627
59	0x40519cd1	3.2751963
60	0x3e3cae64	0.184259
61	0x3f81b2ae	1.0132654
62	0x3fb3a36d	1.4034249
63	0x3f0a0337	0.53911155
64	0x4048c76a	3.1371713
65	0x3ec39a01	0.38203433
66	0x3e0be955	0.13663228
67	0xbf3f1688	-0.74643755
68	0x4030e62f	2.7640493
69	0x3ec82203	0.3908845
70	0xc076fa60	-3.8590317
71	0x3ff215cf	1.8912905
72	0xbe993713	-0.2992483
73	0x3f0d1463	0.5510923
74	0x3efe6187	0.49683782
75	0xbe3389b6	-0.17533001
76	0x4064a409	3.572512
77	0x3f19c751	0.6006976
78	0x3e6282bc	0.22120184
79	0x3eb3dc5a	0.35129052
80	0xbfeb03c7	-1.8360528
81	0x40267ec1	2.6014864
82	0x3e42fe11	0.19042231
83	0xbe85cadd	-0.26131335
84	0xbe74c5d6	-0.23903593
85	0x3f36fd90	0.71480656
86	0xbec83792	-0.39104897
87	0x3fc1869b	1.5119203
88	0xbea24fd5	-0.31701532
89	0x4044a600	3.0726318
90	0x3d9b25ba	0.07575555
91	0x3ecba681	0.3977547
92	0x3fa486d0	1.2853642
93	0x3e855560	0.26041698
94	0xbd18ea88	-0.03733304
95	0x404b7b64	3.1794062
96	0x3e8dd201	0.27699283
97	0x3e663ae6	0.22483405
98	0x3f71384c	0.9422653
99	0x3f83c52c	1.0294547
100	0xc039d0fa	-2.90338
101	0x3ee1a0f6	0.44068116
102	0xbe21f980	-0.15817833
103	0xbeb2d5bd	-0.34928694
104	0xc07db1ba	-3.9639726
105	0xbfbe0967	-1.4846619
106	0xc0447aa7	-3.069986
107	0xbfe9d8de	-1.8269308
108	0xbe778dbf	-0.24175166
109	0xbdfcd5be	-0.123454556
110	0xbf401a52	-0.7504016
111	0xbe5a58fc	-0.21323007
112	0xc05ae266	-3.4200683
113	0x3f0c561b	0.54818887
114	0x3e982a92	0.2971998
115	0x3d6f7854	0.058464363
116	0x40263418	2.5969296
117	0xc06add70	-3.6697655
118	0x3fd5ccea	1.670316
119	0xc02fbefa	-2.7460313
120	0x3da4a6a6	0.08039598
121	0x3e047b41	0.12937643
122	0x3ed2bab3	0.41158065
123	0xbf8fc47d	-1.1231838
124	0x3dcd2e2d	0.10018573
125	0x3e2bff31	0.16796567
126	0x3d037b3b	0.032099944
127	0x3d95ce85	0.07314781
128	0xbf33b65e	-0.70200145
129	0xbf476e0c	-0.77902293
130	0x3ed07452	0.40713745
131	0x3e8c44cb	0.27396235
132	0x3e66dd96	0.22545466
133	0xbfcf9624	-1.6217694
134	0x3e3c184e	0.18368647
135	0x3f789a58	0.9711051
136	0x3fadd876	1.3581684
137	0xbfd0cf6c	-1.63133
138	0xbdf8552e	-0.12125622
139	0x3e828da6	0.25498694
140	0xbe34226c	-0.17591256
141	0x402bdacd	2.6852295
142	0x3ef49867	0.47772524
143	0x404e4855	3.2231648
144	0x3e63de56	0.22252783
145	0x3eb17414	0.34658873
146	0xbfad2cd4	-1.3529305
147	0x4001c4a4	2.027627
148	0xc0881ea2	-4.2537394
149	0x3ff5bae1	1.9197656
150	0x3e4f3e4a	0.20238605
151	0x3d8be09c	0.0682995
152	0x3ff98705	1.949433
153	0x3f93ab24	1.1536603
154	0xbf009e00	-0.5024109
155	0xbee1966e	-0.4406008
156	0x3d6aabed	0.057292867
157	0xbe1518cf	-0.14560245
158	0x406a3658	3.6595669
159	0x3fdfc2d7	1.7481335
160	0x3fa3d0f3	1.2798141
161	0x403250ae	2.7861743
162	0xbd01cc67	-0.031689074
163	0x3f37e781	0.7183762
164	0x3d97a32b	0.07404169
165	0x3dd8e572	0.10590638
166	0x3ebc8c88	0.36825967
167	0xbf924f33	-1.143042
168	0xbd3d2bac	-0.046184227
169	0x3e8d7079	0.27624872
170	0xbfa1bac2	-1.2635119
171	0x3e8afc68	0.27145696
172	0xc082621d	-4.0744767
173	0xbf906628	-1.1281176
174	0xbd07f5ea	-0.033193506
175	0x3f5b8528	0.85750055
176	0x3f81431f	1.0098609
177	0x3f84ec25	1.0384566
178	0x408988bc	4.297941
179	0xbf501f94	-0.81298184
180	0xbcbe8bd8	-0.023260042
181	0x3e497887	0.19674884
182	0xbe82ee7f	-0.25572583
183	0xc044e98a	-3.076754
184	0xbe6e9b1d	-0.23301359
185	0xc049dd6f	-3.1541402
186	0x3e9e2196	0.30885
187	0x3e58b5f3	0.21163158
188	0x400a0795	2.1567128
189	0xc018066a	-2.3753915
190	0xbf95e21e	-1.170963
191	0xbf98b945	-1.193154
192	0x3d8016f5	0.06254379
193	0x3f87ef79	1.0619956
194	0x3fdf4b2a	1.7444813
195	0xc0a34669	-5.102345
196	0x3f80eb7b	1.0071863
197	0xc053819a	-3.3047853
198	0xbdc53be5	-0.096305646
199	0x3fbc2510	1.469881
200	0x3efde624	0.49589646
201	0xbf1f1d36	-0.6215395
202	0x3fac8980	1.3479462
203	0xbfc0b639	-1.505561
204	0x3f240319	0.64067227
205	0xbdb60a43	-0.08888676
206	0xc0299da6	-2.650247
207	0xbf52f954	-0.82411695
208	0xc032377c	-2.7846365
209	0x3f1c5914	0.6107342
210	0x3d64614b	0.05575685
211	0xbd749743	-0.059714567
212	0x3fe05a72	1.7527602
213	0x3f886424	1.065556
214	0x3fbb8180	1.4648895
215	0x406daf25	3.713815
216	0x3f438ade	0.7638377
217	0xbfa009d0	-1.2502995
218	0x3cd0254f	0.025408415
219	0x3f429bfc	0.76019263
220	0xbfeaffcc	-1.8359313
221	0xbda3aeae	-0.07992302
222	0x3d212ec5	0.039351244
223	0x3e889848	0.2667868
224	0xbf38a9df	-0.721342
225	0x3ff8ba4f	1.9431857
226	0x4009ec23	2.1550376
227	0xbf171e73	-0.59030837
228	0x3e19386d	0.14962931
229	0xbe75e59c	-0.2401337
230	0x3ee56751	0.44805387
231	0x3e76a328	0.24085677
232	0x3f12a905	0.57289153
233	0xbdcaac04	-0.098960906
234	0x3e7bff3c	0.24609083
235	0x3e1af9b1	0.15134312
236	0xc01248c4	-2.2856913
237	0xbc13135c	-0.008976784
238	0x3f9ef6db	1.2419084
239	0x3f5fae52	0.87375367
240	0xbd497792	-0.049186297
241	0x3f729b30	0.9476805
242	0x3f6194eb	0.88117856
243	0x3eb9f8b9	0.36322573
244	0x3e6c4c8b	0.23076074
245	0x40278491	2.6174662
246	0x3c75cb68	0.015002109
247	0x3c556057	0.0130234575
248	0xbe309660	-0.17244864
249	0xbe910abc	-0.28328502
250	0xbe404e51	-0.18779875
251	0x3f001928	0.50038385
252	0xbdd6afb8	-0.104827344
253	0xbd955490	-0.0729152
254	0x3f616a3a	0.88052714
255	0xc02ceec6	-2.7020736

fc1.bias f4 [300]
0	0xbf808baf	-1.0042628
1	0xc0c9b767	-6.303638
2	0x3fa3b272	1.2788832
3	0xc098b750	-4.772377
4	0xc07238d2	-3.784718
5	0x4008ae52	2.1356397
6	0xbf9700b1	-1.1797086
7	0xbf31a13e	-0.6938666
8	0x3dfd514b	0.12369021
9	0x4081dade	4.057967
10	0xc0687ed7	-3.6327417
11	0x407b8300	3.9298706
12	0x3fe44990	1.783495
13	0x4067257a	3.6116624
14	0xbf2ec039	-0.6826206
15	0x405f93fd	3.4934075
16	0x408bf8ec	4.374136
17	0xc08705d6	-4.2194624
18	0xc0a90cd9	-5.2828183
19	0x3f530954	0.8243611
20	0x408f3ff9	4.476559
21	0x4090968e	4.5183783
22	0xc052e0ff	-3.2949827
23	0xc103721a	-8.215357
24	0x3fbe22cb	1.4854368
25	0x4031f2f1	2.780453
26	0x4062176b	3.5326793
27	0x409f8532	4.985009
28	0xbee3aba4	-0.4446689
29	0xbfd07a85	-1.628739
30	0x409e2a35	4.942652
31	0xc0723f82	-3.7851262
32	0xbf9a825a	-1.207103
33	0x3f0626b5	0.5240281
34	0xc09b6274	-4.855768
35	0x4036e3bc	2.8576498
36	0xc0d5d956	-6.6827803
37	0x3f8d3fa4	1.1035047
38	0xc09f7976	-4.983577
39	0x40310912	2.7661786
40	0x3f57ddfa	0.84323084
41	0x406b85dd	3.6800454
42	0x3d230fae	0.039809875
43	0x3fae7b05	1.3631293
44	0xbe711a44	-0.23545176
45	0x40cdc8a2	6.4307413
46	0xc07007af	-3.750469
47	0xbe82ad6a	-0.2552293
48	0x4075a263	3.8380363
49	0x3ebbacf8	0.36655402
50	0x3f942b8a	1.1575787
51	0x408cd31f	4.4007716
52	0x3f2e3fd4	0.68066144
53	0x4033dd60	2.8103867
54	0xc0b65369	-5.697682
55	0xbfbb3970	-1.4626904
56	0x3f60b883	0.8778154
57	0x3c6e3197	0.01453819
58	0x3fe5fc1c	1.7967563
59	0xc12036f0	-10.013412
60	0xbf105582	-0.56380475
61	0x402b6e1d	2.6785958
62	0xbeb4a85f	-0.35284707
63	0x400598a9	2.0874426
64	0x40827332	4.076562
65	0x40503327	3.253122
66	0xc037af8e	-2.87009
67	0xc03592ab	-2.837077
68	0x409632e3	4.6937118
69	0x407ec55d	3.980796
70	0x3f9f27d4	1.243403
71	0x4074a247	3.8224046
72	0x407aa425	3.9162686
73	0xc03b4cbd	-2.9265587
74	0xc087ef10	-4.2479324
75	0xbe6945c3	-0.22780518
76	0x408ca64c	4.3953
77	0x3fe30e75	1.7738787
78	0x3f2f0a2f	0.68374914
79	0xc0c1a2cf	-6.051124
80	0xbed99336	-0.42495126
81	0x3fb70637	1.4298772
82	0x3eb1415b	0.34620175
83	0x407f01f4	3.9844942
84	0x40364d90	2.848484
85	0x401e195e	2.4702983
86	0xbf702696	-0.9380888
87	0xc01613b2	-2.344952
88	0x402ae2e5	2.6700985
89	0xc053e3b2	-3.3107724
90	0xbfe30d73	-1.7738479
91	0x3fcbafaa	1.5912983
92	0x3fff5159	1.99467
93	0x3fcae68c	1.5851607
94	0x40113b50	2.2692451
95	0x3f9c5ab4	1.221518
96	0x407a205a	3.9082246
97	0xbd833dce	-0.06408273
98	0x3fa25d67	1.2684754
99	0x40721f14	3.7831469
100	0x3f019b05	0.50627166
101	0xc0d92b36	-6.786525
102	0xc0274ccb	-2.614062
103	0xbf3dc090	-0.7412195
104	0xbff5a033	-1.9189514
105	0x3fc07b64	1.5037656
106	0xc04d4e4a	-3.2079034
107	0x40417589	3.0227988
108	0xbe81c362	-0.25344378
109	0x4078d897	3.8882196
110	0x403b4951	2.9263499
111	0x409ee37e	4.96527
112	0x406b2b46	3.6745162
113	0x4082fed9	4.0936093
114	0xbe89d5fa	-0.26921064
115	0x40686c39	3.6316054
116	0x3effed4a	0.49985725
117	0xc09e99d0	-4.956276
118	0xbd8b7fb4	-0.06811467
119	0x406622f9	3.5958846
120	0xbbc81489	-0.0061059636
121	0x4054d8ee	3.3257403
122	0xc04ee7a3	-3.232888
123	0x3fed22f4	1.8526292
124	0x40305e18	2.755743
125	0x3f5f19fc	0.87149024
126	0x408e31de	4.4435873
127	0x40387f2b	2.8827617
128	0x403d4c9a	2.9578004
129	0x408cd5ab	4.4010825
130	0xbfcb2bb4	-1.5872712
131	0x3f8e09a3	1.1096691
132	0x406b38ba	3.6753373
133	0xbffa311f	-1.954624
134	0x40d55c95	6.6675515
135	0x3f74cbed	0.95623666
136	0xc00f9ffb	-2.2441394
137	0x40846537	4.1373553
138	0xc01d8f9f	-2.461891
139	0x4069bf4f	3.6523015
140	0xc08eaea7	-4.45882
141	0xc08a6567	-4.324878
142	0x40065733	2.0990722
143	0xc0a7b6b8	-5.2410545
144	0xc0d82919	-6.755017
145	0x4067af25	3.620065
146	0x406bba0a	3.68323
147	0x401f5384	2.4894724
148	0x408ae97d	4.341002
149	0x3f8e8c35	1.1136538
150	0xc07e3c07	-3.9724138
151	0x40301d45	2.7517865
152	0x4056dfb5	3.357404
153	0x3fc38aac	1.5276694
154	0xbec8a46f	-0.39187953
155	0x408e53ff	4.4477534
156	0x3f3fc73e	0.74913394
157	0xc0c6ad88	-6.208683
158	0x4025b7b1	2.5893366
159	0x408e3fcf	4.445289
160	0x3fa64b40	1.2991714
161	0x40318c49	2.7741873
162	0x40a1e54e	5.0592413
163	0x4020a36b	2.5099742
164	0x40802743	4.0047927
165	0xc059aec5	-3.401292
166	0x40828011	4.078133
167	0x3f6fa43c	0.93609977
168	0x4046fc99	3.1091673
169	0xbfe71821	-1.8054239
170	0x3d69d14a	0.05708436
171	0xc05b1b83	-3.4235542
172	0xc0149f1a	-2.3222108
173	0x40a31f6c	5.0975857
174	0xc0235c6d	-2.5525162
175	0x4059c468	3.4026127
176	0xbff8dab3	-1.9441742
177	0x409bcb03	4.8685317
178	0x409ded3f	4.9352107
179	0xc01e5677	-2.4740274
180	0x3fad2462	1.3526728
181	0x4083bde3	4.1169295
182	0xbfc735c3	-1.5563282
183	0x40856b3a	4.169339
184	0x403c194c	2.939044
185	0x3fff758c	1.9957747
186	0x3fe94f1c	1.8227267
187	0x3d66d62a	0.056356587
188	0x40513902	3.2691045
189	0xc062961a	-3.5404115
190	0x3fa4f702	1.2887881
191	0x404384ee	3.0549884
192	0xc0049b29	-2.0719702
193	0xbe66dac6	-0.22544393
194	0x40678b3f	3.617874
195	0xbfa3d689	-1.2799846
196	0x40a71673	5.2214904
197	0x407dc447	3.9651048
198	0x3da5a392	0.08087839
199	0x40164e8c	2.3485441
200	0xbfacfffc	-1.351562
201	0x40d3e825	6.622088
202	0xbf7ace7f	-0.9797134
203	0xc099290a	-4.7862597
204	0x3ff6f325	1.9292952
205	0xc01440eb	-2.3164623
206	0x3e8c749b	0.27432713
207	0x4030869f	2.7582166
208	0xbe390e73	-0.18071918
209	0x3fb9a761	1.4504205
210	0xc023dbd7	-2.560293
211	0xbfd374c3	-1.6520008
212	0xc0857897	-4.1709704
213	0xbffc7c4e	-1.9725435
214	0xc036404a	-2.847674
215	0xc0fb1c95	-7.847239
216	0x408bdf92	4.3710413
217	0x3b92575b	0.00446598
218	0xc0953a40	-4.6633606
219	0x3f9c6d96	1.2220943
220	0x40613422	3.518807
221	0xc09f5b97	-4.9799304
222	0x40520cd3	3.2820327
223	0x40109cb0	2.2595634
224	0x40bb2bc1	5.849091
225	0xc0db813d	-6.859526
226	0xbf8e479b	-1.1115602
227	0xc074b1ce	-3.8233523
228	0x4070d8ac	3.7632246
229	0xc01ebbc1	-2.4802096
230	0xc062fa46	-3.5465255
231	0x4094c9dd	4.6496415
232	0x3f7fda59	0.9994255
233	0xc070408e	-3.75394
234	0xc08455f1	-4.135491
235	0xc07b0f20	-3.9227982
236	0x406af2e9	3.671076
237	0xc0836466	-4.1060057
238	0x407bb84b	3.9331234
239	0x3f055c4e	0.5209397
240	0x408d5ca9	4.417561
241	0xc05ad230	-3.4190788
242	0x408730b3	4.2246947
243	0xbf7ccf04	-0.9875338
244	0x4053c6b0	3.309002
245	0xc00fc08d	-2.2461274
246	0xc098d0d2	-4.7754908
247	0xbe1de6d3	-0.15420084
248	0x408a5321	4.3226476
249	0x402ab6b9	2.6674025
250	0xc067de9d	-3.6229622
251	0x405021af	3.252056
252	0x4047711b	3.1162784
253	0xbf5b3e64	-0.85642076
254	0xbec61b9e	-0.38692945
255	0x3ffd68d4	1.9797616

fc2.weight f4 [200, 300]
0	0xbd445770	-0.04793495
1	0xbc7e17b0	-0.015508577
2	0x3b2e59b0	0.002660375
3	0xbd9f2c93	-0.07772174
4	0x3d30937c	0.043109402
5	0xbd0bac52	-0.034099884
6	0xbd251f06	-0.04031279
7	0xbc9f76cb	-0.019465825
8	0xbc9bcd48	-0.019018784
9	0xbbace1b8	-0.005275931
10	0xbd6c676c	-0.05771582
11	0xbd98009d	-0.07421992
12	0xbcb5a8a0	-0.022175133
13	0x3d14477a	0.036200978
14	0xbd51ad17	-0.051190462
15	0xbd32629b	-0.04355107
16	0xbbbfb0e6	-0.0058499454
17	0x3c1f960b	0.009740363
18	0x3d0713da	0.032977916
19	0xbc5ffcc0	-0.0136711
20	0xbce14a93	-0.02750138
21	0xbda66829	-0.08125336
22	0xbdb56fde	-0.088592276
23	0x3cc54ccc	0.024084471
24	0xbd2a09dc	-0.04151331
25	0xbdba174a	-0.09086473
26	0xbd0566d5	-0.03256877
27	0x3d09c7f1	0.033637945
28	0x3c0c8afb	0.008578057
29	0x3a153000	0.00056910515
30	0xbc693ba8	-0.014235415
31	0xbd40b986	-0.04705193
32	0xbd37b1ff	-0.044847485
33	0xbcc94024	-0.024566717
34	0x3c7f0024	0.015563998
35	0xbd791097	-0.060806837
36	0xbd6cf2fc	-0.057848915
37	0xbceced12	-0.028921638
38	0xbcdabec5	-0.026702294
39	0xbdaeb148	-0.085299075
40	0xbd67c9b3	-0.05658884
41	0xbd287f53	-0.04113705
42	0xbdb0eb9a	-0.086386874
43	0x3c624170	0.013809547
44	0xbc75d15c	-0.015003528
45	0x3c1852a5	0.009297048
46	0x3d64aac0	0.055826902
47	0xbd63dbe0	-0.05562961
48	0xbbdfc7d9	-0.0068292436
49	0xbd122498	-0.03567943
50	0xbb5a09a0	-0.0033269897
51	0xba2dceb7	-0.0006630229
52	0xb80af000	-3.312528e-05
53	0xbd9a5a2f	-0.075367324
54	0x3c524418	0.012833618
55	0xbda362b6	-0.07977812
56	0xbd321c4b	-0.043484014
57	0xbd147272	-0.036241956
58	0x3cc8f9b8	0.024533138
59	0xbd308f9b	-0.043105703
60	0xbd1f5f5b	-0.038909297
61	0x39b35c9c	0.0003421054
62	0xbc352868	-0.011056997
63	0xbc4179f0	-0.011808857
64	0xbcc029ff	-0.023457525
65	0xbd021342	-0.031756647
66	0x3cc45ef0	0.023971051
67	0xbd78689e	-0.060646646
68	0xbdd47948	-0.10374695
69	0xbd062e0e	-0.032758765
70	0xbc5e9b10	-0.0135867745
71	0x3bf81e66	0.007571983
72	0xbc2f1ac0	-0.01068753
73	0xbda25145	-0.07925657
74	0xbdb67d66	-0.089106366
75	0xbca0a77c	-0.019611113
76	0xbbfb1438	-0.0076623224
77	0xbd5c688e	-0.05381065
78	0xbaa7ac62	-0.0012792463
79	0x3c5e5de8	0.013572194
80	0xbbab9c35	-0.005237127
81	0xbd8b42da	-0.0679986
82	0x3d08f118	0.03343305
83	0x3d06d606	0.032918952
84	0xbc029813	-0.007970828
85	0x3ce17a0c	0.027524017
86	0xbda4d1e8	-0.08047849
87	0x3cd9c4c4	0.026583083
88	0xbd7df29b	-0.061998945
89	0xbc338b7c	-0.010958549
90	0xbd3528c9	-0.04422835
91	0xbd1a719f	-0.037706014
92	0x3ca8ac50	0.020589978
93	0xbdb98aa9	-0.090596505
94	0xbd408707	-0.047003772
95	0x3c2ac4a8	0.010422863
96	0xbd009859	-0.03139529
97	0xbd68f771	-0.056876604
98	0xbd1f6efb	-0.0389242
99	0xbc15e973	-0.009149897
100	0x3ce5367e	0.027980085
101	0x3cfa2dc0	0.030539393
102	0xbae4ec46	-0.0017465435
103	0x3cdb4974	0.026768424
104	0xbd0bf2a3	-0.034166943
105	0xbc28e650	-0.010308817
106	0x3b4a1517	0.0030835324
107	0xbd356fde	-0.044296138
108	0xbc8bae70	-0.017050952
109	0xbd0c2d3b	-0.034222823
110	0x3cf2c731	0.029635997
111	0xbd811559	-0.063029
112	0xbd950aca	-0.072774485
113	0xbc080a9f	-0.0083033135
114	0x3d5a2b88	0.05326417
115	0xbd431be9	-0.04763404
116	0x3d0d13b4	0.03444262
117	0xbda58d68	-0.08083612
118	0xbb8bb422	-0.004263417
119	0xbceb83cb	-0.028749367
120	0xbd182f7d	-0.037154663
121	0xbc1bc960	-0.009508461
122	0x3cf0ae84	0.02938009
123	0xbbb160ca	-0.0054131495
124	0xbcb475dd	-0.022028858
125	0x3cdfe719	0.027331876
126	0x3c6e622e	0.014549775
127	0xbd80c351	-0.06287254
128	0xbd16dba4	-0.03683056
129	0xbda0612c	-0.07831034
130	0xbd1d53e9	-0.0384101
131	0xbce5d6a6	-0.028056454
132	0xbd94fb2a	-0.07274468
133	0x3d6adc4e	0.057339005
134	0x3a8effe5	0.0010910003
135	0x3c93a369	0.018022256
136	0x3d011b9e	0.03152048
137	0xbd00dac1	-0.03145862
138	0xba99e120	-0.0011740066
139	0xbd4cdc09	-0.05001453
140	0xbd1b5430	-0.037922084
141	0xbd5af5a0	-0.053456903
142	0xbd84f58d	-0.064921476
143	0x3cd0d004	0.025489815
144	0x3d250540	0.04028821
145	0xbba17685	-0.0049274587
146	0xbc7bc7e9	-0.0153674865
147	0xbd86e5a6	-0.06586771
148	0xbd4185a8	-0.047246605
149	0x3cf7ef86	0.03026558
150	0xbca6e7f6	-0.02037428
151	0x3b3af5f2	0.0028527942
152	0xbd0d07fb	-0.03443144
153	0xbceef69e	-0.02917033
154	0xbd2fb03a	-0.042892672
155	0xbda097dc	-0.07841465
156	0xbd51316d	-0.051072527
157	0x3d326722	0.043555386
158	0xbd399e31	-0.04531688
159	0xbd1ec702	-0.038764007
160	0xbcb4d51a	-0.022074271
161	0xbd594bac	-0.053050682
162	0xbdb51dd5	-0.08843581
163	0xbd89ef01	-0.067350395
164	0xbd35dd3e	-0.044400446
165	0xbd239197	-0.039933767
166	0xbd63b3c5	-0.055591363
167	0xbd3e0e44	-0.046400324
168	0xbcb29d33	-0.021803474
169	0xbd204ded	-0.039136816
170	0xbdad26bf	-0.08454656
171	0x3cc3cf9a	0.023902703
172	0xbd4d27c5	-0.050086755
173	0xbd670b3f	-0.05640721
174	0x3a941c81	0.0011299999
175	0x3d0055f1	0.03133196
176	0xbd4bd650	-0.04976493
177	0x3d040f14	0.032240942
178	0xbd1028c6	-0.035195135
179	0xbcf77355	-0.030206362
180	0x3c8eb995	0.017422477
181	0xbd8ae902	-0.06782724
182	0x3d48b96e	0.049004965
183	0xbcdf5e61	-0.027266683
184	0xbd171a24	-0.036890164
185	0xbd8c38f3	-0.068468
186	0xbc9ec31a	-0.019380141
187	0xbdc18d78	-0.09450811
188	0xbc7710dd	-0.015079704
189	0xbd6ea0ae	-0.058258705
190	0xbc4ebc83	-0.012618187
191	0x3c82c30b	0.015962144
192	0x3d6a7cb0	0.057247818
193	0xbcfa2b9a	-0.030538369
194	0xbd460aa4	-0.04834999
195	0x3c8611d8	0.01636593
196	0x3bcbaf40	0.00621596
197	0xbd07ef47	-0.033187177
198	0x3b653e4e	0.0034979763
199	0xbd3135d2	-0.043264218
200	0x3c00e5b8	0.007867269
201	0xbd890888	-0.0669108
202	0xbd94a53a	-0.07258077
203	0xbc2516b4	-0.010076214
204	0x3d021efa	0.031767823
205	0xbd88d1d8	-0.066806495
206	0x3d1d1fce	0.03836041
207	0xbd156e0c	-0.036481902
208	0xbb158e30	-0.0022820346
209	0xbc9bf070	-0.019035548
210	0xbd72f9fa	-0.059320427
211	0x3cffb7bc	0.031215541
212	0xbaf2b9a0	-0.0018518455
213	0xbc9433f2	-0.018091176
214	0xbd0fb77e	-0.0350871
215	0xbcf41414	-0.02979473
216	0xbd9368d1	-0.071977265
217	0xbcd7cb0a	-0.026341934
218	0xbd6ade60	-0.05734098
219	0x3ce755c0	0.028239131
220	0xbd9e03b2	-0.077155486
221	0xbcbefd36	-0.0233141
222	0x375465c0	1.2659875e-05
223	0xbd2d3c6e	-0.04229396
224	0xbd676130	-0.05648917
225	0xbbcc97b8	-0.006243672
226	0x3c3d9e20	0.0115733445
227	0xbd12c4c0	-0.035832167
228	0xbcee5676	-0.029093962
229	0x3cbc3484	0.02297426
230	0x3c653810	0.013990417
231	0xbcadb747	-0.021205558
232	0xbceaf343	-0.02868045
233	0xbd43b442	-0.04777933
234	0xbda5f6e1	-0.08103729
235	0x3af4b940	0.0018670931
236	0xbd93a751	-0.072096474
237	0xbc53b3c8	-0.012921281
238	0xbd899529	-0.06717903
239	0xbcafa7a2	-0.021442238
240	0xbd19d176	-0.037553273
241	0xbd9eaf92	-0.07748331
242	0xbd4db2e2	-0.050219424
243	0xbd46852d	-0.04846685
244	0x3b94e3ba	0.0045437487
245	0x3d3a6362	0.045504935
246	0xbc17d98d	-0.009268177
247	0xbd4bca98	-0.049753755
248	0xbd69ddea	-0.0570964
249	0x3bd55ae0	0.0065110773
250	0x3c202a7c	0.009775754
251	0x3ce30014	0.027709998
252	0xbd0ac1f2	-0.033876367
253	0x3d324242	0.04352022
254	0xbca0abfa	-0.019613255
255	0x3cf2ef38	0.029655084

fc2.bias f4 [200]
0	0xbc31ed6b	-0.0108598275
1	0x3e29dee4	0.16588932
2	0xbfac2678	-1.344924
3	0x4025e892	2.59232
4	0xbd8cbdc3	-0.06872132
5	0xbdc784d5	-0.097421326
6	0x3ffa894f	1.9573153
7	0xbd9f7e9b	-0.0778782
8	0xbd30d042	-0.04316736
9	0x3eba59b2	0.36396557
10	0xbd8c7773	-0.06858721
11	0xbdbaa002	-0.0911255
12	0xbf94d41a	-1.1627228
13	0xbd744dd3	-0.05964453
14	0xbdc81945	-0.09770445
15	0x3c97e92d	0.018543804
16	0xbcd0b46d	-0.025476659
17	0xbd8c3123	-0.068453096
18	0xbd67a780	-0.056556225
19	0x3f8704e6	1.054837
20	0x401522fa	2.3302598
21	0x3f872fdf	1.0561484
22	0x3f65c3de	0.89751995
23	0x3e0b7da5	0.13622148
24	0x3e86b6c6	0.2631132
25	0x3b8e6f5d	0.0043467716
26	0xbf0b1012	-0.54321396
27	0x3f68c891	0.9093104
28	0xbd3c22bb	-0.04593156
29	0x4002d839	2.0444472
30	0x3f802329	1.001073
31	0x40172482	2.3616033
32	0x3b495d7d	0.003072589
33	0x4004ea48	2.0767994
34	0xbd2bf60e	-0.041982703
35	0xbce3909d	-0.027778918
36	0x3f4c5350	0.79814625
37	0xbfad3e2f	-1.3534602
38	0xbfd25666	-1.6432617
39	0x3fb3b674	1.4040055
40	0x3a346255	0.00068811077
41	0xbd86aef6	-0.0657634
42	0x3f5d6677	0.86484474
43	0xbd4c6ea9	-0.04991022
44	0x3bef96c7	0.007311675
45	0xbd59bcf4	-0.053158715
46	0xbec3f2c2	-0.38271147
47	0xbe865906	-0.26239794
48	0x3f3fa916	0.7486738
49	0x3d8250f4	0.06363097
50	0xbdccef91	-0.10006631
51	0x3df4903b	0.11941572
52	0xbce1cb7b	-0.027562847
53	0xbd96c04c	-0.073608965
54	0x3cb7e4c8	0.022447959
55	0xbd3e9f75	-0.04653879
56	0x3cc9078e	0.024539735
57	0x3d1345a9	0.035955105
58	0x3f2efd27	0.6835503
59	0x3f1afe3f	0.605442
60	0xbdbde00d	-0.0927125
61	0x3d18a11e	0.03726303
62	0x3dbf3d38	0.093378484
63	0xbd30a54a	-0.043126382
64	0x4014947e	2.3215632
65	0xbc094320	-0.00837782
66	0xbd0226ca	-0.031775273
67	0x3f1268d4	0.57191205
68	0xbd596aec	-0.053080484
69	0x3c47b3b5	0.012188842
70	0xbf6905eb	-0.91024655
71	0x3ea0ce8c	0.31407583
72	0x401607ef	2.3442342
73	0x3f5148dc	0.817518
74	0xbcecd366	-0.028909396
75	0x3d55d8d9	0.052208755
76	0xbd133221	-0.03593648
77	0xbd4f54db	-0.050618034
78	0x3fa0af4c	1.2553496
79	0x4019f281	2.4054263
80	0xbf32cffb	-0.69848603
81	0xc0225cfd	-2.5369256
82	0x3fb1511f	1.3852881
83	0xbd4a35c7	-0.049367692
84	0x3f36f7fc	0.71472144
85	0xbf2301ca	-0.63674605
86	0x4055d6a3	3.3412254
87	0x3fe2a833	1.770758
88	0x3f4dd9f2	0.80410683
89	0x3d81c13a	0.06335683
90	0xbf0f8c86	-0.56073797
91	0xbfbc325b	-1.4702867
92	0x401513a9	2.329325
93	0xbf02f885	-0.5116046
94	0x3b7f8cc4	0.0038993815
95	0x3f32994b	0.69765157
96	0x403cb93e	2.9488063
97	0xbc0b239a	-0.008492375
98	0x3e8923e0	0.26785183
99	0xbd0a3551	-0.033742253
100	0xbd438179	-0.047730897
101	0xbd6f6016	-0.058441244
102	0x3c66ebff	0.014094352
103	0x3fd00e7b	1.6254419
104	0x401808fd	2.3755486
105	0xbdad171f	-0.084516756
106	0x3f3e6b95	0.7438291
107	0xbd8904a0	-0.06690335
108	0x3fca0913	1.5784019
109	0x3c90441e	0.017610606
110	0x3e1a69cf	0.15079425
111	0x3f9bbdf2	1.2167342
112	0x3be91a99	0.0071137664
113	0x3fff5a37	1.9949406
114	0xbe50088c	-0.2031576
115	0xc012ad50	-2.2918282
116	0xbdbfdfc6	-0.09368853
117	0x3f943faa	1.1581929
118	0xbd37543f	-0.044758078
119	0x401ecbeb	2.4811962
120	0x3c84e5ed	0.016222918
121	0xbda235ed	-0.07920442
122	0x3fe80d10	1.8128986
123	0x3fba5796	1.4557979
124	0x3f5b87be	0.85754
125	0x3eb35b8b	0.3503078
126	0x3fe1b2f7	1.7632741
127	0xbdb1baa2	-0.086781755
128	0x3eda7c5d	0.42673007
129	0x3fdbcc4e	1.7171724
130	0x401b5067	2.4267824
131	0x3c42e921	0.011896403
132	0x3ceaa13a	0.028641332
133	0x400a4cc0	2.1609344
134	0x3fdbe16d	1.717817
135	0x4010815b	2.2578952
136	0x400a2775	2.1586583
137	0x401ee642	2.4828038
138	0xbd6e622e	-0.0581991
139	0xbe0d0413	-0.13771085
140	0xbd4b68f0	-0.049660623
141	0xbd2b1f35	-0.04177781
142	0xbeec2fac	-0.4613012
143	0x40239b9b	2.5563724
144	0xbd128640	-0.035772562
145	0x3e167de9	0.14696468
146	0xbc84af3c	-0.01619684
147	0x3fae9556	1.3639324
148	0xbdac348e	-0.084084615
149	0xbe81b96a	-0.25336772
150	0x3c765d2c	0.015036862
151	0xbd0883b8	-0.03332874
152	0x402ed1f9	2.7315657
153	0x402e71d3	2.7256973
154	0x3f034707	0.51280254
155	0x3f5b2455	0.85602313
156	0xbbbf91a6	-0.00584622
157	0x3fe064ee	1.7530801
158	0xbfa2746e	-1.2691782
159	0xbd0f80ce	-0.035034947
160	0x3feecb34	1.8655763
161	0x401be3ea	2.4357858
162	0xbd59631c	-0.053073034
163	0xbfb11d8f	-1.3837146
164	0xbd80e291	-0.06293214
165	0x3fcbaf43	1.5912861
166	0x3f4609eb	0.77358884
167	0x3d3479c5	0.04406144
168	0xbfd6b39a	-1.677356
169	0x40152b82	2.3307805
170	0xbdc1fad8	-0.09471673
171	0xbda769fa	-0.0817451
172	0x3f9d7711	1.2301961
173	0xbc8d5234	-0.017251112
174	0xbc2d6d0f	-0.010585084
175	0x401b6296	2.4278922
176	0x4001764e	2.0228457
177	0x3fba269c	1.4543033
178	0x3f2d4bcd	0.6769379
179	0x3eeb2222	0.4592448
180	0x3f51481f	0.81750673
181	0xc03bcccb	-2.9343746
182	0xbc0f4635	-0.008744766
183	0x3e8be1c2	0.27320677
184	0xbd98eafe	-0.07466696
185	0xbd3be823	-0.04587568
186	0xba8d0be4	-0.001076099
187	0xc0177bcc	-2.366931
188	0x3f3d4625	0.7393516
189	0x3f018fd5	0.50610095
190	0x40122973	2.2837799
191	0x3ed22b6e	0.4104876
192	0xbd7f61cc	-0.062349126
193	0x3ffd65fa	1.9796746
194	0x3fd1101c	1.6333041
195	0xbd89c021	-0.06726099
196	0x3fdc810d	1.7226883
197	0xbe1fb51f	-0.15596436
198	0x3e9024de	0.28153127
199	0x3f23b7c7	0.63952297

fc3.weight f4 [1, 200]
0	0xbc06a726	-0.008218562
1	0xba91b34f	-0.001111606
2	0x3ed50353	0.416041
3	0xc04aecc6	-3.1707015
4	0x37be2c39	2.2670358e-05
5	0xbc807d01	-0.015684607
6	0xbf191396	-0.5979551
7	0xbcd3d91f	-0.025860367
8	0xbd763234	-0.06010647
9	0xbfcbb710	-1.5915241
10	0x3a5c83e7	0.0008411989
11	0xbabd99bc	-0.0014465372
12	0x3e19aa66	0.15006408
13	0xbcb5c9b6	-0.02219091
14	0xbc3fbc9e	-0.011702685
15	0xbc7e9a93	-0.015539783
16	0x3b535067	0.0032243968
17	0xbb70d330	-0.0036746971
18	0xbf5465bf	-0.8296775
19	0x3d749423	0.059711587
20	0xbf5a901b	-0.8537614
21	0x3e0105b9	0.1259984
22	0xc094f957	-4.655437
23	0xc061228a	-3.517733
24	0xbfc43cfa	-1.5331109
25	0x3b8c544b	0.0042825094
26	0x3e5651f1	0.20929696
27	0x3fb0dbfa	1.3817132
28	0xbca47fdf	-0.020080505
29	0xbf5a2413	-0.85211295
30	0x40130ef9	2.2977889
31	0x3fd408c8	1.656518
32	0x3c364a9e	0.011126189
33	0xbfcdce16	-1.6078517
34	0x3bc87aee	0.00611817
35	0x3cd563a9	0.026048498
36	0xbfce1489	-1.6100017
37	0xbd1f3463	-0.03886832
38	0x3cc379a8	0.023861721
39	0x3cbaf20a	0.022820491
40	0x3c6d605d	0.014488307
41	0x3c7e4c73	0.015521157
42	0x3f9a0ff6	1.2036121
43	0xba722ed9	-0.0009238548
44	0x3c183b35	0.00929146
45	0x3d0c4893	0.0342489
46	0xbb881a3f	-0.0041535194
47	0x3d01e07a	0.03170822
48	0x3fb6b417	1.4273709
49	0xc005a2b6	-2.088056
50	0x3d020f5a	0.03175292
51	0xbf84c6ad	-1.0373131
52	0x3cb160ca	0.021652598
53	0x3ad5f431	0.0016323385
54	0xbb901926	-0.004397529
55	0x3ca6a6a9	0.020343142
56	0xbc66401f	-0.014053374
57	0xbc9370a1	-0.017998042
58	0xc005d2c6	-2.0909896
59	0xbfb78ed7	-1.4340466
60	0xbbc7ee4d	-0.0061014057
61	0x3f9d30af	1.2280482
62	0x3e9256fd	0.28581992
63	0x3cd150ad	0.025551165
64	0x3fe28d4f	1.7699374
65	0xbcf2a409	-0.029619234
66	0x3ceff487	0.029291404
67	0xc094a65c	-4.6453075
68	0x3ce9b6da	0.028529573
69	0x3ff55774	1.9167314
70	0x3f5b138c	0.855767
71	0xbf1bf840	-0.60925674
72	0xc01c347e	-2.4407039
73	0x401c6987	2.4439409
74	0x3f8af8a8	1.0857134
75	0x3c15494a	0.009111712
76	0x3ca7fe6a	0.020507056
77	0xbc8d0be4	-0.017217584
78	0xbe874f1f	-0.26427552
79	0xc075c35f	-3.8400495
80	0xbc2b984d	-0.010473323
81	0xbcde6460	-0.027147472
82	0x3e2f9ef7	0.17150484
83	0xbcf52cbf	-0.029928563
84	0x400dacce	2.2136722
85	0x402a4d0a	2.660952
86	0x3ed752d8	0.42055392
87	0x40da307f	6.81842
88	0x3cb018a9	0.021496134
89	0xbe18c7d5	-0.1491998
90	0x3cb2f323	0.021844452
91	0x3c7478cb	0.014921377
92	0x4003ded2	2.0604749
93	0x3f007b43	0.5018808
94	0x3b217e55	0.002464195
95	0x3f532187	0.82473034
96	0xc020fdcf	-2.5154912
97	0xbb9c4278	-0.004768666
98	0xbf00f231	-0.50369555
99	0xbc605c4a	-0.013693878
100	0xbd27a87a	-0.040932156
101	0xbbc1f6f0	-0.00591933
102	0x3bf8977e	0.0075864187
103	0xc033273e	-2.7992702
104	0xc0ae352c	-5.4439907
105	0x3ca7cba2	0.020482842
106	0xc08cbc0d	-4.3979554
107	0x3cb2435b	0.021760633
108	0xbfa01eef	-1.250944
109	0x3ce8a951	0.028401049
110	0x3ac30091	0.0014877488
111	0x404d9c6c	3.2126722
112	0x3c7236a9	0.01478354
113	0x3ea72bd0	0.32650614
114	0xbf231c65	-0.637152
115	0x3df54bba	0.11977334
116	0xbcc4d16b	-0.02402564
117	0xbf0497cc	-0.51794124
118	0xbd234b46	-0.03986671
119	0xbfa5cfd1	-1.2954046
120	0x3c735f8a	0.014854321
121	0xbce190e3	-0.027534908
122	0x3f8806b7	1.0627049
123	0xc05a3ce4	-3.4099665
124	0xc02813cb	-2.626208
125	0x3f971bb4	1.1805329
126	0xbf9fba73	-1.2478775
127	0xbbbc5583	-0.0057474985
128	0x3ceddd5d	0.029036218
129	0xc0086090	-2.1308937
130	0xbf0d606a	-0.5522524
131	0xbcab137d	-0.020883316
132	0x3cafa379	0.021440255
133	0xc00f26f5	-2.2367527
134	0xc02d6543	-2.7093055
135	0xc054705d	-3.319358
136	0xbe7d7ac6	-0.24753866
137	0xbf99cd8e	-1.2015855
138	0x3cc90b76	0.024541598
139	0xbcf0a838	-0.029377088
140	0xbcc6f834	-0.024288274
141	0xbd64ffce	-0.055908017
142	0xbd087030	-0.033310115
143	0x400c8259	2.1954558
144	0x3b016b4a	0.0019747787
145	0xc03c6bf2	-2.9440885
146	0x3c167de3	0.009185287
147	0x409cea9a	4.903638
148	0xbcc127e7	-0.023578597
149	0xbe584dc3	-0.21123414
150	0x3d02848b	0.031864684
151	0xbd123820	-0.035698056
152	0x406f9280	3.7433167
153	0x3f988e9b	1.191852
154	0x3fff4beb	1.9945043
155	0xc08e5fbd	-4.449187
156	0x3caa82f4	0.020814396
157	0xc0912446	-4.535678
158	0x3c9d4c19	0.019201325
159	0x3cf9c05f	0.030487237
160	0xc01ba807	-2.4321306
161	0xbfc4cca1	-1.5374948
162	0x3d14f742	0.036368616
163	0x3e14ec0d	0.14543171
164	0x3d06c666	0.03290405
165	0x4081fc08	4.0620155
166	0xc0756ee3	-3.834893
167	0x3b3dd83d	0.0028968
168	0xbce80540	-0.028322816
169	0x40358832	2.8364377
170	0x3cb23f73	0.02175877
171	0xbc916cff	-0.017752169
172	0xbc72a7f1	-0.014810548
173	0xbc971254	-0.018441357
174	0x3c6c0c84	0.014407281
175	0xc0878b64	-4.2357655
176	0x3fc1fe6c	1.5155768
177	0x406a083a	3.656752
178	0xbff8345e	-1.9390981
179	0x3f5897fa	0.846069
180	0x3fb0335a	1.3765671
181	0x3e01731a	0.12641564
182	0x3c3cf5ac	0.011533182
183	0x3c1af292	0.009457247
184	0xbd110f3f	-0.03541493
185	0x3d164f03	0.036696445
186	0x3c9e0b82	0.019292597
187	0x3f107ace	0.56437385
188	0x4080a97b	4.0206885
189	0xbf66e7a6	-0.9019722
190	0xbedd6ba8	-0.43246198
191	0xbfa59d08	-1.2938547
192	0x3cdbc096	0.02682523
193	0xbfc5d723	-1.545628
194	0xc00cd1f9	-2.2003157
195	0x3a4c7291	0.0007799054
196	0x40825e0a	4.0739794
197	0x407738cb	3.8628414
198	0xbf87ef47	-1.0619897
199	0x3f848074	1.0351701
