log/train_2_1k800/models/1500_critic.pt (torch_old, 251021 bytes, 5 tensors)

fc1.weight f4 [300, 6]
0.14643264 0.9434749 2.3797834 -0.4224853 1.7779691 3.1165144 0.46218878 -0.5729287
0.37319326 5.5157075 0.7359209 3.001227 -0.12151327 0.27328593 -0.67630386 0.41780838
-1.5707661 -1.6533686 -0.56684476 -0.46365175 1.0990438 0.7770057 2.2770174 0.6107314
0.36998627 0.32155746 -1.9821048 -0.15654515 -3.7742867 0.68434644 0.056411006 0.22232376
-0.5701521 0.29521713 -3.6663377 1.2117429 0.150686 -0.032482915 -1.2694502 -1.6035738
-2.4651635 1.0358537 0.2380718 0.9471321 0.00016906671 -0.9991283 -0.17422874 -3.1949983
-0.2715503 0.5572577 1.4849705 -0.10742283 1.9785736 -0.1297203 0.052240856 0.4851723
0.75041497 3.1669378 1.4047654 3.3365884 0.2179803 1.1313151 1.7784938 1.0268875
3.0392203 0.4295415 0.10429366 -0.7882147 2.9981744 0.073423095 -3.9147696 1.5014226
-0.1498634 0.35982826 -0.46777645 -0.06705904 3.792194 0.6968747 0.041796446 0.2642004
-1.9596043 2.6646864 0.59402853 -0.46826333 -0.07789594 0.7237757 -0.36368364 1.6575023
-0.5994381 3.315713 0.07364503 0.3993809 1.7158787 0.75307786 -0.09041747 3.385417
0.31116852 0.33487666 1.1283172 1.1490282 -3.1444526 0.5668488 -0.05184426 -0.33365893
-4.4302583 -1.9671564 -2.575173 -2.2420228 -0.28271526 -0.12398905 -0.86537915 -0.30504325
-3.3926244 0.468656 0.24562378 0.20694098 2.2955184 -3.5632424 1.8461615 -2.733556
0.05300221 0.17225488 0.3543076 -1.060206 -0.106342524 0.45204934 0.0063655176 0.106819116
-0.8562622 -0.7259582 0.27275282 0.53742224 0.48659343 -1.6790748 0.86175805 0.76613694
2.06607 -1.7483724 -0.02180481 0.3245595 0.5459769 3.1742818 0.6748194 3.951558
0.16247995 0.12681344 -1.188468 1.9766127 -4.770468 1.8674217 0.30875036 0.09142242
1.9588224 1.2526686 -0.7805321 -0.550141 0.09113194 -0.2333604 3.7899878 1.5849164
1.3115922 2.8622437 -0.02222445 0.70527655 0.06679921 0.14347768 0.29686323 -0.9268906
-0.084735155 0.097036876 -1.0947671 0.62423444 -3.9917853 -0.7186355 -0.0171364 0.80628663
1.1168948 1.0929183 4.3837643 -0.89984477 -0.027815187 0.23182622 -0.36822215 -2.9867778
-0.32762396 -2.9318187 0.41213644 0.3062246 1.7621508 -2.3136094 -1.2172958 -1.13081
0.19318435 1.0192517 1.6208814 -4.8539286 0.5057249 -2.7321672 -0.07970675 1.5263734
0.58009404 -0.3112878 1.2953155 -1.4679849 0.8259802 -0.2882092 -2.31143 -0.97343475
-2.4377568 0.43906146 0.15294674 -0.3978602 1.5138143 0.8743074 1.6720765 3.6754813
0.84599936 -1.3521175 0.7143136 0.33470088 -2.0962374 -0.36673164 0.034017723 0.3798803
-0.6094872 2.0098207 2.7636726 -0.8092484 0.36195055 -0.3029646 0.08893107 0.18292874
0.8408888 0.040535092 0.17524531 0.24517666 -2.8228967 0.2622061 2.1130795 0.91266394
0.03262682 1.0184685 1.3178436 0.7088726 0.21352372 2.6521633 0.05761401 0.1187862
-0.20108041 -0.1709341 -0.2984737 0.88329357 -0.0026274673 -0.15300146 1.8309147 -2.8569126
00000000: 70f2 153e 9287 713f 5f4e 1840 fe4f d8be
00000010: 7e94 e33f f974 4740 02a4 ec3e 75ab 12bf
00000020: 3013 bf3e ad80 b040 5065 3c3f 1a14 4040
00000030: f3db f8bd 22ec 8b3e 4022 2dbf fbea d53e
00000040: dd0e c9bf 95a1 d3bf bd1c 11bf c363 edbe
00000050: 78ad 8c3f d8e9 463f a7ba 1140 e558 1c3f
00000060: d76e bd3e 2ea3 a43e 9cb5 fdbf 5f4d 20be
00000070: ea8d 71c0 5431 2f3f 3a0f 673d d7a8 633e
00000080: 7df5 11bf b326 973e 47a5 6ac0 641a 9b3f
00000090: 6e4d 1a3e ce0c 05bd 587d a2bf e841 cdbf
000000a0: 3dc5 1dc0 db96 843f 18c9 733e 4077 723f
000000b0: 8047 3139 dfc6 7fbf 0569 32be da7a 4cc0
000000c0: a408 8bbe 71a8 0e3f 8313 be3f 8000 dcbd
000000d0: e641 fd3f 66d5 04be 82fa 553d 8168 f83e
000000e0: 321b 403f 1caf 4a40 5acf b33f aa8a 5540
000000f0: 3a36 5f3e efce 903f afa5 e33f 0d71 833f
00000100: 9682 4240 ddec db3e ea97 d53d 70c8 49bf
00000110: 17e2 3f40 d95e 963d 968b 7ac0 9e2e c03f
00000120: cb75 19be 693b b83e 6580 efbe 4056 89bd
00000130: 4eb3 7240 6166 323f c032 2b3d 4645 873e
00000140: 50d4 fabf 398a 2a40 4112 183f 36c0 efbe
00000150: e887 9fbd 5d49 393f be34 babe 0929 d43f
00000160: c674 19bf a434 5440 35d3 963d a77b cc3e
00000170: eaa1 db3f b6c9 403f cb2c b9bd acaa 5840
00000180: 7b51 9f3e f474 ab3e b36c 903f 5b13 933f
00000190: b63e 49c0 011d 113f a65a 54bd 58d5 aabe
000001a0: adc4 8dc0 c8cb fbbf a2cf 24c0 4d7d 0fc0
000001b0: 0ec0 90be f9ed fdbd 7d89 5dbf a12e 9cbe
000001c0: c220 59c0 aef3 ef3e cd84 7b3e 56e8 533e
000001d0: c6e9 1240 2a0c 64c0 054f ec3f 95f2 2ec0
000001e0: d818 593d 9563 303e ce67 b53e d5b4 87bf
000001f0: 1cca d9bd 0373 e73e d595 d03b fbc3 da3d
00000200: 0034 5bbf 66d8 39bf 42a6 8b3e 8194 093f
00000210: c622 f93e eceb d6bf 2d9c 5c3f 8d21 443f
00000220: 7e3a 0440 abca dfbf 00a0 b2bc aa2c a63e
00000230: 24c5 0b3f 6f27 4b40 f7c0 2c3f 54e6 7c40
00000240: 2561 263e 62db 013e b81f 98bf a501 fd3f
00000250: ada7 98c0 ad07 ef3f 8714 9e3e ae3b bb3d
00000260: b1ba fa3f 7257 a03f f4d0 47bf 0ad6 0cbf
00000270: 62a3 ba3d 07f6 6ebe 298f 7240 8ade ca3f
00000280: 41e2 a73f 002f 3740 0d10 b6bc 018d 343f
00000290: 06ce 883d d0eb 123e 75fe 973e b448 6dbf
000002a0: a089 adbd 45bb c63d 5421 8cbf d4cd 1f3f
000002b0: 6979 7fc0 7ff8 37bf a361 8cbc cd68 4e3f
000002c0: 69f6 8e3f bfe4 8b3f cc47 8c40 3a5c 66bf
000002d0: addc e3bc da63 6d3e 9d87 bcbe 5e27 3fc0
000002e0: 54be a7be eba2 3bc0 8c03 d33e 79c9 9c3e
000002f0: 288e e13f 2d12 14c0 59d0 9bbf 62be 90bf
00000300: 1ed2 453e d776 823f 0b79 cf3f 6253 9bc0
00000310: 3077 013f d4db 2ec0 4b3d a3bd 3460 c33f
00000320: 0b81 143f 1d61 9fbe e6cc a53f eee6 bbbf
00000330: 7073 533f 2890 93be 78ee 13c0 0533 79bf
00000340: 3504 1cc0 aacc e03e 129e 1c3e 55b4 cbbe
00000350: abc4 c13f 9cd2 5f3f 9a06 d63f 163b 6b40
00000360: 6a93 583f 3012 adbf 42dd 363f ea5d ab3e
00000370: c128 06c0 40c4 bbbe 2b56 0b3d ac7f c23e
00000380: 5a07 1cbf e7a0 0040 03e0 3040 e72a 4fbf
00000390: 9551 b93e 2d1e 9bbe 7e21 b63d ac51 3b3e
000003a0: 7d44 573f 2008 263d 8273 333e 970f 7b3e
000003b0: 57aa 34c0 e13f 863e b23c 0740 58a4 693f
000003c0: b3a3 053d 2d5d 823f 19af a83f ad78 353f
000003d0: f6a5 5a3e 0bbd 2940 abfc 6b3d 2e46 f33d
000003e0: 06e8 4dbe 5909 2fbe 8bd1 98be 871f 623f
000003f0: 9631 2cbb 6aac 1cbe 6a5b ea3f a8d7 36c0

fc1.bias f4 [300]
-0.8247319 -5.833375 1.0616817 -5.123377 -3.6630604 2.2426233 -1.1968734 -0.4869987
0.09786697 4.202164 -4.0488667 4.58253 1.6834587 3.7761776 -0.7738902 3.2914577
4.505388 -3.9185543 -5.344365 0.93700117 4.586264 4.654021 -3.148828 -9.261415
1.4078158 2.9119725 3.471123 4.934215 -0.8387027 -1.671804 5.030077 -3.7938638
-1.3015008 0.42847368 -4.754045 2.8453689 -6.3925242 1.4166074 -5.154186 2.8887854
0.8156004 3.6463032 0.017715015 1.2883098 -0.28702623 6.4639773 -3.7287955 -0.45392656
3.8268337 0.26464054 1.5319303 4.497206 0.72775716 2.8943186 -6.0113745 -1.4881287
0.14387307 0.235072 1.5834526 -10.486863 -0.21869183 2.5679908 -0.45754495 2.0059779
3.980709 3.3313897 -2.7545545 -2.8631554 4.720279 3.7901769 1.1718472 3.621389
3.8586729 -2.7823539 -4.360757 -0.45749325 4.670261 1.5198511 1.0814008 -6.4402046
-0.42517677 1.3757497 0.10915466 3.7520874 2.9739125 2.278048 -0.910282 -2.3916032
2.6402566 -3.597902 -1.9621372 1.5412107 1.957476 1.3106631 2.6351361 1.2951158
3.8732693 -0.37221357 1.3309295 3.692598 0.6126665 -6.898216 -2.6633048 -0.90529764
-1.931413 1.4901062 -3.4983268 3.299566 0.08315692 4.089932 2.991032 4.8861637
3.788436 4.06876 -0.31160733 3.6237671 0.34799471 -4.914258 -0.131078 3.4948041
-0.07810688 3.3451786 -3.1208115 1.8343688 2.8210173 0.8562047 4.1931186 2.620042
2.8770077 4.255946 -1.3420846 0.95656216 3.6527886 -1.848691 6.718434 0.98116374
-2.2465425 4.089417 -2.686287 3.5189188 -4.4079647 -4.6730857 2.05659 -5.356439
-6.7312775 3.5545382 3.6878598 2.687422 4.254708 0.95051587 -4.269846 2.7600858
3.6303966 1.3247155 -0.34593287 4.4209604 0.3144844 -6.282253 2.6965888 4.4304786
1.319113 2.7256212 5.090158 2.516954 3.9755015 -3.3213546 4.0899053 0.8516739
3.2373388 -1.6904889 -0.10130132 -3.4455948 -2.4316673 5.1022573 -2.5758965 3.198475
-1.7612242 4.9786425 5.098133 -2.472049 1.6248434 4.2957635 -1.5923127 4.3256392
2.8250933 2.0015283 2.0246253 0.0063813785 3.1402817 -3.4558227 0.8430959 3.2059798
-1.9625129 -0.33660266 3.5159793 -0.61416554 5.253452 3.844652 0.28483534 2.2236676
-1.2306678 6.699661 -0.93413955 -4.6075096 1.7884185 -2.2238305 -0.18060811 2.6285713
-0.14801893 1.3333213 -2.462992 -1.7984277 -4.260557 -2.1804955 -2.7461665 -7.870827
4.410999 0.1452867 -4.692766 1.1808162 3.4528465 -4.9520392 3.2951558 2.3324192
5.845847 -7.0550246 -1.4287698 -3.9567943 3.8492465 -2.4636629 -3.6236012 4.7328396
0.70867693 -3.5457182 -4.113319 -4.3573794 3.519362 -4.207595 3.8867533 1.0741607
4.8704305 -3.507692 4.318716 -0.7452604 3.2017832 -1.9953228 -4.6918 -0.18188769
4.322331 2.8944 -3.4159536 3.2611697 3.2291892 -0.49284306 -0.39372393 2.1395805
00000000: a121 53bf 02ab bac0 30e5 873f b4f2 a3c0
00000010: 956f 6ac0 2487 0f40 2633 99bf e557 f9be
00000020: 7a6e c83d 2178 8640 5190 81c0 16a4 9240
00000030: 937b d73f e5ac 7140 ab1d 46bf 3ea7 5240
00000040: 232c 9040 98c9 7ac0 0a05 abc0 4fdf 6f3f
00000050: adc2 9240 bded 9440 6686 49c0 c12e 14c1
00000060: 4f33 b43f c25d 3a40 e126 5e40 17e5 9d40
00000070: 38b5 56bf acfd d5bf 64f6 a040 aace 72c0
00000080: 9497 a6bf e760 db3e 2321 98c0 861a 3640
00000090: 8f8f ccc0 6453 b53f 17ef a4c0 dce1 3840
000000a0: 30cb 503f 085d 6940 141f 913c 56e7 a43f
000000b0: 1af5 92be e7d8 ce40 96a4 6ec0 1069 e8be
000000c0: d8ea 7440 f77e 873e 4b16 c43f 1de9 8f40
000000d0: 4b4e 3a3f 843c 3940 2e5d c0c0 007b bebf
000000e0: 7653 133e b7b6 703e 93ae ca3f 31ca 27c1
000000f0: c0f0 5fbe f659 2440 5543 eabe f161 0040
00000100: f0c3 7e40 7d35 5540 9f4a 30c0 f03d 37c0
00000110: 870c 9740 4292 7240 17ff 953f d6c4 6740
00000120: 7ff4 7640 1612 32c0 528b 8bc0 8e3c eabe
00000130: c772 9540 7b8a c23f 576b 8a3f 2816 cec0
00000140: c5b0 d9be 9118 b03f 7a8c df3d 3322 7040
00000150: 9554 3e40 8acb 1140 3e08 69bf 0710 19c0
00000160: f7f9 2840 0744 66c0 5027 fbbf 6446 c53f
00000170: 938e fa3f cfc3 a73f 12a6 2840 5bc6 a53f
00000180: a5e3 7740 c792 bebe e65b aa3f 8753 6c40
00000190: b6d7 1c3f 2fbe dcc0 9673 2ac0 96c1 67bf
000001a0: 8b38 f7bf cdbb be3f 96e4 5fc0 172c 5340
000001b0: 2d4e aa3d b9e0 8240 116d 3f40 745b 9c40
000001c0: bc75 7240 4833 8240 ff8a 9fbe cdeb 6740
000001d0: 5d2c b23e 9a41 9dc0 5039 06be dfaa 5f40
000001e0: 80f6 9fbd 6817 5640 60bb 47c0 99cc ea3f
000001f0: 8c8b 3440 3b30 5b3f 072e 8640 c5ae 2740
00000200: e520 3840 b630 8840 6ec9 abbf 42e1 743f
00000210: 4ac7 6940 e8a1 ecbf 69fd d640 8c2d 7b3f
00000220: 5ac7 0fc0 81dc 8240 20ec 2bc0 f735 6140
00000230: 0c0e 8dc0 eb89 95c0 2c9f 0340 f367 abc0
00000240: a066 d7c0 8e7d 6340 e505 6c40 b9fe 2b40
00000250: 9126 8840 0255 733f 94a2 88c0 3fa5 3040
00000260: 6b58 6840 4790 a93f 1d1e b1be 8278 8d40
00000270: 1904 a13e 3708 c9c0 e994 2c40 7bc6 8d40
00000280: b2d8 a83f 9470 2e40 93e2 a240 c615 2140
00000290: 9e6e 7e40 1391 54c0 81e0 8240 4d07 5a3f
000002a0: 8f30 4f40 f161 d8bf 1177 cfbd a084 5cc0
000002b0: 70a0 1bc0 b145 a340 7ddb 24c0 d0b3 4c40
000002c0: cb6f e1bf 0a51 9f40 e823 a340 0d36 1ec0
000002d0: defa cf3f e576 8940 e7d0 cbbf a36b 8a40
000002e0: 54ce 3440 0a19 0040 7693 0140 e21a d13b
000002f0: 60fa 4840 332c 5dc0 22d5 573f c62e 4d40
00000300: 9f33 fbbf 2f57 acbe ce05 6140 f439 1dbf
00000310: 471c a840 c70e 7640 f0d5 913e 9250 0e40
00000320: 8686 9dbf 9f63 d640 c523 6fbf b870 93c0
00000330: e6ea e43f 3d53 0ec0 55f1 38be 833a 2840
00000340: 4692 17be 46aa aa3f a9a1 1dc0 e132 e6bf
00000350: 7c56 88c0 3d8d 0bc0 31c1 2fc0 d1dd fbc0
00000360: e726 8d40 09c6 143e 242b 96c0 fc24 973f
00000370: 70fb 5c40 1b77 9ec0 d5e3 5240 5b46 1540
00000380: 2e11 bb40 c3c2 e1c0 eee1 b6bf 1e3c 7dc0
00000390: 0e5a 7640 a7ac 1dc0 15e9 67c0 6c73 9740
000003a0: da6b 353f 0ced 62c0 4fa0 83c0 a76f 8bc0
000003b0: 3a3d 6140 9ea4 86c0 91c0 7840 197e 893f
000003c0: 91da 9b40 077e 60c0 ec32 8a40 63c9 3ebf
000003d0: 04ea 4c40 bd66 ffbf 3a23 96c0 c440 3abe
000003e0: 8950 8a40 d93d 3940 fc9e 5ac0 01b7 5040
000003f0: 09ab 4e40 ed55 fcbe 2f96 c9be e3ee 0840

fc2.weight f4 [200, 300]
-0.04793495 -0.015508577 0.002660375 -0.07772174 0.043109402 -0.034099884 -0.04031279 -0.019465825
-0.019018784 -0.005275931 -0.05771582 -0.07421992 -0.022175133 0.036200978 -0.051190462 -0.04355107
-0.0058499454 0.009740363 0.032977916 -0.0136711 -0.02750138 -0.08125336 -0.088592276 0.024084471
-0.04151331 -0.09086473 -0.03256877 0.033637945 0.008578057 0.00056910515 -0.014235415 -0.04705193
-0.044847485 -0.024566717 0.015563998 -0.060806837 -0.057848915 -0.028921638 -0.026702294 -0.085299075
-0.05658884 -0.04113705 -0.086386874 0.013809547 -0.015003528 0.009297048 0.055826902 -0.05562961
-0.0068292436 -0.03567943 -0.0033269897 -0.0006630229 -3.312528e-05 -0.075367324 0.012833618 -0.07977812
-0.043484014 -0.036241956 0.024533138 -0.043105703 -0.038909297 0.0003421054 -0.011056997 -0.011808857
-0.023457525 -0.031756647 0.023971051 -0.060646646 -0.10374695 -0.032758765 -0.0135867745 0.007571983
-0.01068753 -0.07925657 -0.089106366 -0.019611113 -0.0076623224 -0.05381065 -0.0012792463 0.013572194
-0.005237127 -0.0679986 0.03343305 0.032918952 -0.007970828 0.027524017 -0.08047849 0.026583083
-0.061998945 -0.010958549 -0.04422835 -0.037706014 0.020589978 -0.090596505 -0.047003772 0.010422863
-0.03139529 -0.056876604 -0.0389242 -0.009149897 0.027980085 0.030539393 -0.0017465435 0.026768424
-0.034166943 -0.010308817 0.0030835324 -0.044296138 -0.017050952 -0.034222823 0.029635997 -0.063029
-0.072774485 -0.0083033135 0.05326417 -0.04763404 0.03444262 -0.08083612 -0.004263417 -0.028749367
-0.037154663 -0.009508461 0.02938009 -0.0054131495 -0.022028858 0.027331876 0.014549775 -0.06287254
-0.03683056 -0.07831034 -0.0384101 -0.028056454 -0.07274468 0.057339005 0.0010910003 0.018022256
0.03152048 -0.03145862 -0.0011740066 -0.05001453 -0.037922084 -0.053456903 -0.064921476 0.025489815
0.04028821 -0.0049274587 -0.0153674865 -0.06586771 -0.047246605 0.03026558 -0.02037428 0.0028527942
-0.03443144 -0.02917033 -0.042892672 -0.07841465 -0.051072527 0.043555386 -0.04531688 -0.038764007
-0.022074271 -0.053050682 -0.08843581 -0.067350395 -0.044400446 -0.039933767 -0.055591363 -0.046400324
-0.021803474 -0.039136816 -0.08454656 0.023902703 -0.050086755 -0.05640721 0.0011299999 0.03133196
-0.04976493 0.032240942 -0.035195135 -0.030206362 0.017422477 -0.06782724 0.049004965 -0.027266683
-0.036890164 -0.068468 -0.019380141 -0.09450811 -0.015079704 -0.058258705 -0.012618187 0.015962144
0.057247818 -0.030538369 -0.04834999 0.01636593 0.00621596 -0.033187177 0.0034979763 -0.043264218
0.007867269 -0.0669108 -0.07258077 -0.010076214 0.031767823 -0.066806495 0.03836041 -0.036481902
-0.0022820346 -0.019035548 -0.059320427 0.031215541 -0.0018518455 -0.018091176 -0.0350871 -0.02979473
-0.071977265 -0.026341934 -0.05734098 0.028239131 -0.077155486 -0.0233141 1.2659875e-05 -0.04229396
-0.05648917 -0.006243672 0.0115733445 -0.035832167 -0.029093962 0.02297426 0.013990417 -0.021205558
-0.02868045 -0.04777933 -0.08103729 0.0018670931 -0.072096474 -0.012921281 -0.06717903 -0.021442238
-0.037553273 -0.07748331 -0.050219424 -0.04846685 0.0045437487 0.045504935 -0.009268177 -0.049753755
-0.0570964 0.0065110773 0.009775754 0.027709998 -0.033876367 0.04352022 -0.019613255 0.029655084
00000000: 7057 44bd b017 7ebc b059 2e3b 932c 9fbd
00000010: 7c93 303d 52ac 0bbd 061f 25bd cb76 9fbc
00000020: 48cd 9bbc b8e1 acbb 6c67 6cbd 9d00 98bd
00000030: a0a8 b5bc 7a47 143d 17ad 51bd 9b62 32bd
00000040: e6b0 bfbb 0b96 1f3c da13 073d c0fc 5fbc
00000050: 934a e1bc 2968 a6bd de6f b5bd cc4c c53c
00000060: dc09 2abd 4a17 babd d566 05bd f1c7 093d
00000070: fb8a 0c3c 0030 153a a83b 69bc 86b9 40bd
00000080: ffb1 37bd 2440 c9bc 2400 7f3c 9710 79bd
00000090: fcf2 6cbd 12ed ecbc c5be dabc 48b1 aebd
000000a0: b3c9 67bd 537f 28bd 9aeb b0bd 7041 623c
000000b0: 5cd1 75bc a552 183c c0aa 643d e0db 63bd
000000c0: d9c7 dfbb 9824 12bd a009 5abb b7ce 2dba
000000d0: 00f0 0ab8 2f5a 9abd 1844 523c b662 a3bd
000000e0: 4b1c 32bd 7272 14bd b8f9 c83c 9b8f 30bd
000000f0: 5b5f 1fbd 9c5c b339 6828 35bc f079 41bc
00000100: ff29 c0bc 4213 02bd f05e c43c 9e68 78bd
00000110: 4879 d4bd 0e2e 06bd 109b 5ebc 661e f83b
00000120: c01a 2fbc 4551 a2bd 667d b6bd 7ca7 a0bc
00000130: 3814 fbbb 8e68 5cbd 62ac a7ba e85d 5e3c
00000140: 359c abbb da42 8bbd 18f1 083d 06d6 063d
00000150: 1398 02bc 0c7a e13c e8d1 a4bd c4c4 d93c
00000160: 9bf2 7dbd 7c8b 33bc c928 35bd 9f71 1abd
00000170: 50ac a83c a98a b9bd 0787 40bd a8c4 2a3c
00000180: 5998 00bd 71f7 68bd fb6e 1fbd 73e9 15bc
00000190: 7e36 e53c c02d fa3c 46ec e4ba 7449 db3c
000001a0: a3f2 0bbd 50e6 28bc 1715 4a3b de6f 35bd
000001b0: 70ae 8bbc 3b2d 0cbd 31c7 f23c 5915 81bd
000001c0: ca0a 95bd 9f0a 08bc 882b 5a3d e91b 43bd
000001d0: b413 0d3d 688d a5bd 22b4 8bbb cb83 ebbc
000001e0: 7d2f 18bd 60c9 1bbc 84ae f03c ca60 b1bb
000001f0: dd75 b4bc 19e7 df3c 2e62 6e3c 51c3 80bd
00000200: a4db 16bd 2c61 a0bd e953 1dbd a6d6 e5bc
00000210: 2afb 94bd 4edc 6a3d e5ff 8e3a 69a3 933c
00000220: 9e1b 013d c1da 00bd 20e1 99ba 09dc 4cbd
00000230: 3054 1bbd a0f5 5abd 8df5 84bd 04d0 d03c
00000240: 4005 253d 8576 a1bb e9c7 7bbc a6e5 86bd
00000250: a885 41bd 86ef f73c f6e7 a6bc f2f5 3a3b
00000260: fb07 0dbd 9ef6 eebc 3ab0 2fbd dc97 a0bd
00000270: 6d31 51bd 2267 323d 319e 39bd 02c7 1ebd
00000280: 1ad5 b4bc ac4b 59bd d51d b5bd 01ef 89bd
00000290: 3edd 35bd 9791 23bd c5b3 63bd 440e 3ebd
000002a0: 339d b2bc ed4d 20bd bf26 adbd 9acf c33c
000002b0: c527 4dbd 3f0b 67bd 811c 943a f155 003d
000002c0: 50d6 4bbd 140f 043d c628 10bd 5573 f7bc
000002d0: 95b9 8e3c 02e9 8abd 6eb9 483d 615e dfbc
000002e0: 241a 17bd f338 8cbd 1ac3 9ebc 788d c1bd
000002f0: dd10 77bc aea0 6ebd 83bc 4ebc 0bc3 823c
00000300: b07c 6a3d 9a2b fabc a40a 46bd d811 863c
00000310: 40af cb3b 47ef 07bd 4e3e 653b d235 31bd
00000320: b8e5 003c 8808 89bd 3aa5 94bd b416 25bc
00000330: fa1e 023d d8d1 88bd ce1f 1d3d 0c6e 15bd
00000340: 308e 15bb 70f0 9bbc faf9 72bd bcb7 ff3c
00000350: a0b9 f2ba f233 94bc 7eb7 0fbd 1414 f4bc
00000360: d168 93bd 0acb d7bc 60de 6abd c055 e73c
00000370: b203 9ebd 36fd bebc c065 5437 6e3c 2dbd
00000380: 3061 67bd b897 ccbb 209e 3d3c c0c4 12bd
00000390: 7656 eebc 8434 bc3c 1038 653c 47b7 adbc
000003a0: 43f3 eabc 42b4 43bd e1f6 a5bd 40b9 f43a
000003b0: 51a7 93bd c8b3 53bc 2995 89bd a2a7 afbc
000003c0: 76d1 19bd 92af 9ebd e2b2 4dbd 2d85 46bd
000003d0: bae3 943b 6263 3a3d 8dd9 17bc 98ca 4bbd
000003e0: eadd 69bd e05a d53b 7c2a 203c 1400 e33c
000003f0: f2c1 0abd 4242 323d faab a0bc 38ef f23c

fc2.bias f4 [200]
-0.0108598275 0.16588932 -0.612488 2.5999982 -0.06872132 -0.097421326 1.9976568 -0.0778782
-0.04316736 0.36396557 -0.06858721 -0.0911255 -1.1627228 -0.05964453 -0.09770445 0.018543804
-0.025476659 -0.068453096 -0.0883166 1.054837 2.353401 1.0561484 0.8348036 0.03171194
0.2631132 0.0043467716 -0.54321396 0.9093104 -0.04593156 2.0465467 1.001073 2.3130229
0.003072589 2.0154586 -0.041982703 -0.027778918 0.79814625 -1.3534602 -1.6432617 1.4040055
0.00068811077 -0.0657634 0.86484474 -0.04991022 0.007311675 -0.053158715 -0.38271147 -0.26239794
0.7486738 0.08999601 -0.10006631 0.11941572 -0.027562847 -0.073608965 0.022447959 -0.04653879
0.024539735 0.035955105 0.66876984 0.605442 -0.0927125 -0.0021765623 0.34624606 -0.043126382
2.298734 -0.00837782 -0.031775273 0.6579726 -0.053080484 -0.033383563 -1.0027782 0.31407583
2.3442342 0.817518 -0.11747109 0.052208755 -0.03593648 -0.050618034 1.2553496 2.4673932
-0.69848603 -2.5369256 1.7367672 -0.049367692 0.5598183 -0.6160134 3.5788434 1.646185
0.80410683 0.06335683 -0.56073797 -1.4702867 2.2558262 -0.5468499 0.0038993815 0.69765157
2.9668415 -0.008492375 0.26785183 -0.033742253 -0.047730897 -0.058441244 0.014094352 1.6364666
2.4806042 -0.084516756 0.8208082 -0.06690335 1.572381 0.017610606 0.15079425 1.1811225
0.0071137664 2.2318697 -0.2031576 -2.2918282 -0.09368853 1.1581929 -0.044758078 2.6554492
0.016222918 -0.07920442 1.8128986 1.4688371 0.9075065 0.3386206 1.6494722 -0.086781755
0.42673007 1.7171724 3.0417585 0.011896403 0.028641332 2.1609344 1.7759748 2.2288086
2.190193 2.4828038 -0.0581991 -0.13771085 -0.049660623 -0.04177781 -0.4613012 2.5668755
-0.035772562 0.10914734 -0.01619684 1.3644104 -0.084084615 -0.25336772 0.015036862 -0.03332874
2.7702446 2.7490287 0.51106155 0.85602313 -0.00584622 1.7907791 -1.2691782 -0.035034947
1.9386218 2.3638837 -0.053073034 -1.2352353 -0.06293214 1.6479422 0.74181914 0.04406144
-1.677356 2.5315397 -0.09471673 -0.0817451 1.2301961 -0.017251112 -0.010585084 2.3699632
2.1496558 1.4935486 0.6769379 0.4592448 0.8798685 -2.9343746 -0.008744766 0.27320677
-0.07466696 -0.04587568 -0.001076099 -2.366931 0.81471467 0.48459587 2.3787785 0.4104876
-0.062349126 1.9796746 1.6047606 -0.06726099 1.6600739 -0.26612327 0.28153127 0.6484906
00000000: 6bed 31bc e4de 293e 03cc 1cbf 5f66 2640
00000010: c3bd 8cbd d584 c7bd 38b3 ff3f 9b7e 9fbd
00000020: 42d0 30bd b259 ba3e 7377 8cbd 02a0 babd
00000030: 1ad4 94bf d34d 74bd 4519 c8bd 2de9 973c
00000040: 6db4 d0bc 2331 8cbd 55df b4bd e604 873f
00000050: 1f9e 1640 df2f 873f b0b5 553f 61e4 013d
00000060: c6b6 863e 5d6f 8e3b 1210 0bbf 91c8 683f
00000070: bb22 3cbd 9ffa 0240 2923 803f 9108 1440
00000080: 7d5d 493b 46fd 0040 0ef6 2bbd 9d90 e3bc
00000090: 5053 4c3f 2f3e adbf 6656 d2bf 74b6 b33f
000000a0: 5562 343a f6ae 86bd 7766 5d3f a96e 4cbd
000000b0: c796 ef3b f4bc 59bd c2f2 c3be 0659 86be
000000c0: 16a9 3f3f d44f b83d 91ef ccbd 3b90 f43d
000000d0: 7bcb e1bc 4cc0 96bd c8e4 b73c 759f 3ebd
000000e0: 8e07 c93c a945 133d 8034 2b3f 3ffe 1a3f
000000f0: 0de0 bdbd a8a4 0ebb 2a47 b13e 4aa5 30bd
00000100: 751e 1340 2043 09bc ca26 02bd e470 283f
00000110: ec6a 59bd 34bd 08bd 095b 80bf 8cce a03e
00000120: ef07 1640 dc48 513f af94 f0bd d9d8 553d
00000130: 2132 13bd db54 4fbd 4caf a03f c5e9 1d40
00000140: fbcf 32bf fd5c 22c0 634e de3f c735 4abd
00000150: 4150 0f3f 0eb3 1dbf c50b 6540 31b6 d23f
00000160: f2d9 4d3f 3ac1 813d 868c 0fbf 5b32 bcbf
00000170: 755f 1040 5bfe 0bbf c48c 7f3b 4b99 323f
00000180: bbe0 3d40 9a23 0bbc e023 893e 5135 0abd
00000190: 7981 43bd 1660 6fbd ffeb 663c bd77 d13f
000001a0: 38c2 1e40 1f17 adbd 7c20 523f a004 89bd
000001b0: c843 c93f 1e44 903c cf69 1a3e 062f 973f
000001c0: 991a e93b f4d6 0e40 8c08 50be 50ad 12c0
000001d0: c6df bfbd aa3f 943f 3f54 37bd e1f2 2940
000001e0: ede5 843c ed35 a2bd 100d e83f db02 bc3f
000001f0: 5952 683f ae5f ad3e e821 d33f a2ba b1bd
00000200: 5d7c da3e 4ecc db3f 2cac 4240 21e9 423c
00000210: 3aa1 ea3c c04c 0a40 2453 e33f cda4 0e40
00000220: 1f2c 0c40 42e6 1e40 2e62 6ebd 1304 0dbe
00000230: f068 4bbd 351f 2bbd ac2f ecbe b047 2440
00000240: 4086 12bd a488 df3d 3caf 84bc 00a5 ae3f
00000250: 8e34 acbd 6ab9 81be 2c5d 763c b883 08bd
00000260: b04b 3140 16f0 2f40 eed4 023f 5524 5b3f
00000270: a691 bfbb 4038 e53f 6e74 a2bf ce80 0fbd
00000280: c224 f83f df49 1740 1c63 59bd 311c 9ebf
00000290: 91e2 80bd c5ef d23f dce7 3d3f c579 343d
000002a0: 9ab3 d6bf bf04 2240 d8fa c1bd fa69 a7bd
000002b0: 1177 9d3f 3452 8dbc 0f6d 2dbc 7aad 1740
000002c0: f693 0940 9a2c bf3f cd4b 2d3f 2222 eb3e
000002d0: 103f 613f cbcc 3bc0 3546 0fbc c2e1 8b3e
000002e0: feea 98bd 23e8 3bbd e40b 8dba cc7b 17c0
000002f0: 2491 503f f31c f83e e83d 1840 6e2b d23e
00000300: cc61 7fbd fa65 fd3f cc68 cd3f 21c0 89bd
00000310: 4d7d d43f 4f41 88be de24 903e 7b03 263f

fc3.weight f4 [1, 200]
-0.008218562 -0.001111606 0.9035872 -3.1798882 2.283316e-05 -0.015684607 -0.41370508 -0.025860367
-0.06010647 -1.5915241 0.0008411989 -0.0014465372 0.15006408 -0.02219091 -0.011702685 -0.015539783
0.0032243968 -0.0036746971 -0.7979078 0.059711587 -0.62405306 0.1259984 -4.335221 -3.212374
-1.5331109 0.0042825094 0.20929696 1.3817132 -0.020080505 -0.559079 2.2977889 1.6009679
0.011126189 -1.5018283 0.00611817 0.026048498 -1.6100017 -0.03886832 0.023861721 0.022820491
0.014488307 0.015521157 1.2036121 -0.0009238548 0.00929146 0.0342489 -0.0041535194 0.03170822
1.4273709 -3.21612 0.03175292 -1.0373131 0.021652598 0.0016323385 -0.004397529 0.020343142
-0.014053374 -0.017998042 -2.4828289 -1.4340466 -0.0061014057 1.3702277 0.2500517 0.025551165
1.177131 -0.029619234 0.029291404 -5.1097345 0.028529573 1.807406 0.7158244 -0.60925674
-2.4407039 2.4439409 1.0532871 0.009111712 0.020507056 -0.017217584 -0.26427552 -5.306975
-0.010473323 -0.027147472 0.27418214 -0.029928563 2.1130505 2.6556745 0.34795418 6.6204286
0.021496134 -0.1491998 0.021844452 0.014921377 1.9293675 0.624158 0.002464195 0.82473034
-2.6122606 -0.004768666 -0.50369555 -0.013693878 -0.040932156 -0.00591933 0.0075864187 -2.7982357
-6.812469 0.020482842 -4.480091 0.021760633 -1.446038 0.028401049 0.0014877488 3.4710584
0.01478354 0.2850553 -0.637152 0.11977334 -0.02402564 -0.51794124 -0.03986671 -1.5086398
0.014854321 -0.027534908 1.0627049 -3.5451236 -3.6652749 0.90836626 -0.63686836 -0.0057474985
0.029036218 -2.1308937 -1.4130957 -0.020883316 0.021440255 -2.2367527 -3.935469 -3.9576871
-0.70483065 -1.2015855 0.024541598 -0.029377088 -0.024288274 -0.055908017 -0.033310115 2.6092849
0.0019747787 -2.4298372 0.009185287 5.108536 -0.023578597 -0.21123414 0.031864684 -0.035698056
4.1304874 0.7434784 2.3877034 -4.449187 0.020814396 -4.527673 0.019201325 0.030487237
-2.4069817 -1.6047628 0.036368616 0.27730063 0.03290405 4.3505726 -3.8031828 0.0028968
-0.028322816 4.2432895 0.02175877 -0.017752169 -0.014810548 -0.018441357 0.014407281 -4.0131316
1.5091115 3.4445417 -1.9390981 0.846069 1.3373655 0.12641564 0.011533182 0.009457247
-0.03541493 0.036696445 0.019292597 0.56437385 5.110612 -0.5218491 -0.24912076 -1.2938547
0.02682523 -1.545628 -2.485173 0.0007799054 4.210292 3.7431006 -1.0619897 1.6864772
00000000: 26a7 06bc 4fb3 91ba 7e51 673f 4a83 4bc0
00000010: d689 bf37 017d 80bc 27d1 d3be 1fd9 d3bc
00000020: 3432 76bd 10b7 cbbf e783 5c3a bc99 bdba
00000030: 66aa 193e b6c9 b5bc 9ebc 3fbc 939a 7ebc
00000040: 6750 533b 30d3 70bb b043 4cbf 2394 743d
00000050: f1c1 1fbf b905 013e 21ba 8ac0 8997 4dc0
00000060: fa3c c4bf 4b54 8c3b f151 563e fadb b03f
00000070: df7f a4bc cd1f 0fbf f90e 1340 84ec cc3f
00000080: 9e4a 363c e93b c0bf ee7a c83b a963 d53c
00000090: 8914 cebf 6334 1fbd a879 c33c 0af2 ba3c
000000a0: 5d60 6d3c 734c 7e3c f60f 9a3f d92e 72ba
000000b0: 353b 183c 9348 0c3d 3f1a 88bb 7ae0 013d
000000c0: 17b4 b63f e9d4 4dc0 5a0f 023d adc6 84bf
000000d0: ca60 b13c 31f4 d53a 2619 90bb a9a6 a63c
000000e0: 1f40 66bc a170 93bc abe6 1ec0 d78e b7bf
000000f0: 4dee c7bb 9f63 af3f c706 803e ad50 d13c
00000100: 3bac 963f 09a4 f2bc 87f4 ef3c f282 a3c0
00000110: dab6 e93c 1459 e73f 4540 373f 40f8 1bbf
00000120: 7e34 1cc0 8769 1c40 1dd2 863f 4a49 153c
00000130: 6afe a73c e40b 8dbc 1f4f 87be bdd2 a9c0
00000140: 4d98 2bbc 6064 debc 9a61 8c3e bf2c f5bc
00000150: 383c 0740 92f6 2940 0d27 b23e 8dda d340
00000160: a918 b03c d5c7 18be 23f3 b23c cb78 743c
00000170: 84f5 f63f d2c8 1f3f 557e 213b 8721 533f
00000180: 472f 27c0 7842 9cbb 31f2 00bf 4a5c 60bc
00000190: 7aa8 27bd f0f6 c1bb 7e97 f83b 4b16 33c0
000001a0: bfff d9c0 a2cb a73c e85c 8fc0 5b43 b23c
000001b0: c617 b9bf 51a9 e83c 9100 c33a d225 5e40
000001c0: a936 723c c5f2 913e 651c 23bf ba4b f53d
000001d0: 6bd1 c4bc cc97 04bf 464b 23bd 1c1b c1bf
000001e0: 8a5f 733c e390 e1bc b706 883f 4ee3 62c0
000001f0: dd93 6ac0 b18a 683f ce09 23bf 8355 bcbb
00000200: 5ddd ed3c 9060 08c0 52e0 b4bf 7d13 abbc
00000210: 79a3 af3c f526 0fc0 b9de 7bc0 bf4a 7dc0
00000220: c86f 34bf 8ecd 99bf 760b c93c 38a8 f0bc
00000230: 34f8 c6bc ceff 64bd 3070 08bd 86fe 2640
00000240: 4a6b 013b 7482 1bc0 e37d 163c 2079 a340
00000250: e727 c1bc c34d 58be 8b84 023d 2038 12bd
00000260: f42c 8440 9a54 3e3f 22d0 1840 bd5f 8ec0
00000270: f482 aa3c b2e2 90c0 194c 9d3c 5fc0 f93c
00000280: fd0b 1ac0 de68 cdbf 42f7 143d 59fa 8d3e
00000290: 66c6 063d e437 8b40 5967 73c0 3dd8 3d3b
000002a0: 4005 e8bc 07c9 8740 733f b23c ff6c 91bc
000002b0: f1a7 72bc 5412 97bc 840c 6c3c 936b 80c0
000002c0: 912a c13f 5f73 5c40 5e34 f8bf fa97 583f
000002d0: cb2e ab3f 1a73 013e acf5 3c3c 92f2 1a3c
000002e0: 3f0f 11bd 034f 163d 820b 9e3c ce7a 103f
000002f0: 228a a340 e797 05bf 8319 7fbe 089d a5bf
00000300: 96c0 db3c 23d7 c5bf 130d 1fc0 9172 4c3a
00000310: b6ba 8640 f68e 6f40 47ef 87bf 7cde d73f
