log/train_2_1k800/models/1520_critic.pt (torch_old, 251021 bytes, 5 tensors)

fc1.weight f4 [300, 6]
000000 10 3f 1e 3e ba 9b 71 3f 3c 25 15 40 bc c5 ca be
       0.15453744 0.94378245 2.3303976 -0.39603984
000010 3b f9 df 3f 77 43 4c 40 42 7c f6 3e db 57 1b bf
       1.7497934 3.1916177 0.48141676 -0.6068093
000020 01 d5 08 3e 4d 0c b8 40 92 04 66 3f 36 c4 50 40
       0.13362505 5.7515016 0.89850724 3.2619758
000030 84 60 18 be af 6f 9e 3e 41 1f 1c bf a0 af d5 3e
       -0.14880568 0.30944583 -0.6098519 0.41735554
000040 ad bc b6 bf 93 fd d7 bf f6 58 22 bf 10 d5 ea be
       -1.4276329 -1.687426 -0.63416994 -0.4586568
000050 4c 77 96 3f 89 30 32 3f 5e e0 16 40 06 9f 01 3f
       1.1755157 0.6960531 2.3574443 0.50633276
000060 47 20 b9 3e 1c c7 ab 3e 76 6d 0a c0 f4 85 37 be
       0.36157438 0.33550346 -2.162931 -0.17922193
000070 4d 99 76 c0 09 ce 34 3f 34 cd 9b 3c 82 fe 55 3e
       -3.8531067 0.70626885 0.019018747 0.20897868
000080 7c f1 10 bf 41 5a d2 3e 92 db 66 c0 e2 9c a4 3f
       -0.56618476 0.41084483 -3.6071515 1.2860377
000090 ed 2a 21 3e 27 8f 2c bd 6f 18 b0 bf db 69 d6 bf
       0.15739031 -0.04212871 -1.3757457 -1.6751055
0000a0 5b e8 24 c0 c9 58 78 3f 91 2a 8a 3e 51 6b 6c 3f
       -2.5766819 0.97010475 0.269856 0.9235125
0000b0 ed 50 cd bc 6e 2a 77 bf c7 08 86 be 5c 8f 49 c0
       -0.025063002 -0.9654912 -0.26178572 -3.149375
0000c0 74 7a 5c be 7d cd e8 3e 87 57 be 3f 19 93 3c be
       -0.21531087 0.45469275 1.4870461 -0.18415488
0000d0 e3 d3 0b 40 ed 83 3d be 22 ac 3d 3d 0f c4 d0 3e
       2.1848075 -0.18507357 0.046306737 0.4077458
0000e0 cb d5 2c 3f ec c8 51 40 df fc ac 3f 32 1e 5d 40
       0.6751372 3.2778883 1.351467 3.454968
0000f0 ff d1 40 3e 21 af 8f 3f 4e 07 e9 3f da 3b 91 3f
       0.18830107 1.122532 1.8205354 1.134639
000100 8b e2 31 40 ec da 0c 3f 8f a9 c8 3d 21 67 46 bf
       2.779452 0.5502155 0.09797966 -0.7750111
000110 7f fa 4e 40 d5 bf 61 3c 2e 2d 75 c0 7a 9a b2 3f
       3.234039 0.0137786465 -3.8308825 1.3953393
000120 93 1f 16 be 44 0e cc 3e 76 0e ce be c0 6a a5 bd
       -0.14660482 0.39854634 -0.40245408 -0.080770016
000130 56 70 6e 40 b9 ce 2d 3f ce 10 38 bd 6a 51 83 3e
       3.7256064 0.6789356 -0.0449379 0.25648052
000140 b0 e8 fa bf 5a 4f 28 40 13 28 0a 3f 10 e1 f0 be
       -1.960226 2.6298432 0.539674 -0.4704671
000150 1a 10 08 be 48 9a 35 3f ab 4a 8b be e8 0e db 3f
       -0.13287392 0.7093854 -0.27205405 1.7113924
000160 4f 91 12 bf d4 7f 5a 40 76 b1 a0 3d 6c 93 e0 3e
       -0.57252973 3.414052 0.07846348 0.43862474
000170 09 ce ca 3f ff ea 4a 3f fa a7 eb bd f4 6b 5b 40
       1.5844127 0.79264826 -0.11506648 3.428464
000180 7d 97 79 3e 89 2e cb 3e f0 98 98 3f 18 14 8a 3f
       0.24374194 0.3968394 1.1921673 1.0787382
000190 47 52 41 c0 96 c9 ea 3e 7d ee c3 3c 85 a6 72 be
       -3.0206468 0.45856923 0.023917431 -0.23696335
0001a0 cc 3d 8d c0 39 25 00 c0 b4 40 33 c0 13 47 10 c0
       -4.4137936 -2.002272 -2.8008242 -2.254338
0001b0 c3 b3 b2 be 71 8e 8c bd 33 8d 73 bf 22 87 9f be
       -0.34902772 -0.06863106 -0.9513733 -0.31157786
0001c0 64 f9 4f c0 b8 38 e9 3e db 10 96 3e 83 ee 5c 3e
       -3.2495966 0.45551085 0.29309735 0.2157536
0001d0 79 e2 08 40 fa 87 5d c0 70 32 ed 3f 49 9e 29 c0
       2.1388228 -3.4614244 1.8531017 -2.650286
0001e0 cc 31 a5 3d 34 b1 31 3e be f2 cb 3e 71 c6 76 bf
       0.080661386 0.17352754 0.39833635 -0.9639655
0001f0 06 08 8d bd 22 50 06 3f 36 a7 92 3c 42 fb ca 3d
       -0.06886296 0.5246602 0.017901998 0.09911205
000200 df 68 50 bf 87 22 2b bf 56 46 ac 3e ec 90 0c 3f
       -0.8141002 -0.6684956 0.33647412 0.54908633
000210 9a 6a f4 3e 71 c7 e2 bf 21 53 99 3f 06 e7 41 3f
       0.4773758 -1.7717115 1.1978494 0.7574314
000220 b0 fd 00 40 07 46 e1 bf 36 18 13 3d b0 a9 97 3e
       2.0154839 -1.7599496 0.03591176 0.2962165
000230 dd 15 55 3f 9d 6c 4f 40 73 0e 1a 3f 38 e4 81 40
       0.83236486 3.2410042 0.601783 4.0591087
000240 7d a1 52 3e 93 9f dc 3d 26 f8 a2 bf 2a a2 05 40
       0.20569415 0.10772624 -1.2731979 2.0880227
000250 7e 03 95 c0 4e 96 fc 3f 69 bf a0 3e 51 81 d4 3d
       -4.6566763 1.9733369 0.31396034 0.10376228
000260 36 18 01 40 1e dc a5 3f c0 b8 38 bf aa 42 0d bf
       2.0171027 1.29578 -0.72156906 -0.55179846
000270 c2 0f 1f 3e 53 e1 1c be d3 a7 74 40 74 6b ca 3f
       0.15533355 -0.1532033 3.8227432 1.5814042
000280 71 23 9f 3f b4 e5 36 40 6e 15 fd bc 73 a5 35 3f
       1.2432691 2.85777 -0.030894008 0.7095558
000290 8c fc bf 3d 58 d5 17 3e 21 a2 76 3e be be 6e bf
       0.09374341 0.14827478 0.24085285 -0.932598
0002a0 ad 10 50 bc ae 77 83 3d 01 70 92 bf 42 78 39 3f
       -0.012699288 0.064193115 -1.1440431 0.72449124
0002b0 cd fb 80 c0 b2 79 14 bf ff 2f 91 bd 55 09 3b 3f
       -4.0307374 -0.5799819 -0.07089233 0.73061115
0002c0 52 d0 57 3f 89 3f 95 3f 3c 4a 8f 40 a0 8e 50 bf
       0.84302247 1.1660014 4.477812 -0.8146763
0002d0 04 4d 1b bd fa 89 73 3e d3 ed b7 be a8 ac 3b c0
       -0.037915245 0.23783103 -0.35923633 -2.932413
0002e0 2b 19 95 be f8 1c 3a c0 ee 31 cc 3e 90 87 b4 3e
       -0.29120764 -2.908018 0.39881843 0.35259676
0002f0 01 76 d9 3f 1e 60 14 c0 8b ee ab bf ac 7e 8e bf
       1.6989137 -2.3183665 -1.3432173 -1.1132407
000300 1b 01 0c 3e 94 87 85 3f 53 d7 d3 3f 3e 14 98 c0
       0.13672297 1.0432 1.6550087 -4.752471
000310 4e 2f fa 3e ff d8 28 c0 e0 b3 23 bd 49 32 c4 3f
       0.48864216 -2.6382444 -0.039966464 1.5327846
000320 6c 4b 14 3f c1 32 a7 be ab 48 a9 3f 83 7d bb bf
       0.57927585 -0.3265591 1.3225302 -1.4647678
000330 7d df 56 3f 36 00 75 be bf f9 17 c0 01 4a 87 bf
       0.83934766 -0.23925862 -2.3746183 -1.0569459
000340 bf f3 1f c0 ae 1c e2 3e 67 cd 1d 3e 36 ca df be
       -2.499252 0.44162506 0.15410386 -0.43708962
000350 69 2b b7 3f 60 6a 5d 3f 7a a7 eb 3f 7c 0d 6b 40
       1.4310123 0.8649044 1.8410485 3.672698
000360 e4 41 5b 3f c8 03 ae bf b3 f0 66 3f 31 2e b5 3e
       0.85647416 -1.3594904 0.9021103 0.35386804
000370 ed ba 04 c0 eb 07 a5 be d6 34 25 bb dc 21 c8 3e
       -2.073909 -0.32232603 -0.0025208495 0.39088333
000380 70 4e 28 bf 69 7d 00 40 b7 e1 2f 40 eb 39 4f bf
       -0.65744686 2.0076544 2.7481515 -0.8094775
000390 95 8a d7 3e dd cd a4 be 7f f8 8a be a0 e0 65 3e
       0.42097917 -0.3218831 -0.27142712 0.22448969
0003a0 f5 a5 3c 3f 3d 99 f4 3d 0a ae d8 3d 1b f0 b1 3e
       0.7369073 0.119432904 0.1058007 0.34753498
0003b0 44 92 39 c0 16 e5 13 3e 0c 85 07 40 3c 31 47 3f
       -2.8995523 0.14442858 2.1174955 0.778095
0003c0 8a a9 f8 bc 79 41 81 3f 29 6d a9 3f 9e 6b 2c 3f
       -0.03035428 1.0098106 1.3236438 0.6735171
0003d0 83 83 62 3e 98 88 27 40 28 bf d4 3d 1b 70 e5 3d
       0.2212048 2.617712 0.10388023 0.11203023
0003e0 f5 eb 47 be 55 ab 84 bd 7e e0 88 be 1d 0f 78 3f
       -0.19523604 -0.064779915 -0.26733774 0.9689806
0003f0 32 f9 cb 3d 4f e3 dd bd 18 0c f7 3f 71 72 35 c0
       0.099596396 -0.10834371 1.9300566 -2.83511

fc1.bias f4 [300]
000000 4d 30 52 bf 49 c0 b8 c0 fc be 89 3f 90 5b a2 c0
       -0.8210495 -5.7734723 1.0761409 -5.073677
000010 6d 5e 6a c0 b2 ac 0b 40 7e e4 90 bf 88 2a 04 bf
       -3.6620133 2.1824155 -1.131973 -0.516274
000020 b8 82 00 3e c5 ab 83 40 8e 20 86 c0 b3 e4 95 40
       0.12549865 4.114718 -4.191474 4.6841674
000030 23 c4 d9 3f ac 5a 72 40 e0 6b 4f bf 13 b6 4f 40
       1.7012981 3.7867842 -0.8102398 3.245488
000040 64 0d 93 40 65 e4 7c c0 1a 66 aa c0 0b 15 66 3f
       4.5953846 -3.95144 -5.3249636 0.8987586
000050 c4 5c 90 40 4f e7 93 40 44 25 43 c0 ae 05 16 c1
       4.511324 4.621986 -3.0491495 -9.376387
000060 f8 b8 a8 3f df 64 3b 40 ba c7 5e 40 56 c2 9d 40
       1.3181448 2.9280317 3.4809403 4.9299726
000070 f1 8a 73 bf 19 e6 e1 bf a0 fa 9f 40 bf 2a 74 c0
       -0.9513388 -1.7648345 4.999344 -3.815109
000080 41 f2 ae bf 48 39 e6 3e c2 1a 98 c0 cc 18 36 40
       -1.366768 0.44965577 -4.7532663 2.8452635
000090 de 54 cd c0 2c 3e b3 3f b1 1b a4 c0 49 16 3e 40
       -6.41661 1.4003348 -5.1283803 2.9701102
0000a0 b9 d1 5b 3f 1f bc 63 40 38 9f 30 bd 83 76 a3 3f
       0.85866886 3.558357 -0.043120593 1.2770542
0000b0 e0 9a 91 be ff 0b ce 40 78 fc 6b c0 b1 be fb be
       -0.28438473 6.4389644 -3.6872845 -0.49168923
0000c0 81 da 75 40 18 64 5f 3e b4 d7 c1 3f c0 16 91 40
       3.8414614 0.21815526 1.5143952 4.534027
0000d0 02 a0 35 3f 52 47 3b 40 7d 4d c1 c0 52 e4 ba bf
       0.7094728 2.926228 -6.040709 -1.4600928
0000e0 51 6d 21 3e fc 9a 21 3e 6f 1c cf 3f 23 87 28 c1
       0.15764357 0.15781778 1.6180552 -10.532992
0000f0 3a 30 75 be ea d5 25 40 ce 69 f5 be 20 b7 01 40
       -0.23944178 2.5911813 -0.47932285 2.026802
000100 e0 e7 77 40 da 39 54 40 cc 7c 2f c0 66 d0 36 c0
       3.8735275 3.316031 -2.741992 -2.8564696
000110 88 62 95 40 58 44 75 40 0b eb 96 3f 4f ba 63 40
       4.6682777 3.8322964 1.179048 3.5582464
000120 da 86 75 40 ab d4 36 c0 68 05 8b c0 ae 21 08 bf
       3.8363557 -2.8567302 -4.34441 -0.5317639
000130 ba b6 94 40 09 42 c7 3f b3 b8 86 3f d2 e8 ce c0
       4.6473055 1.5567027 1.0525116 -6.4659204
000140 93 02 d8 be 59 f6 a0 3f 9a 82 b6 3d a7 99 6f 40
       -0.42189464 1.2575179 0.08911629 3.7437532
000150 ba 6f 41 40 c0 20 11 40 3a 3f 6a bf 33 f6 17 c0
       3.0224442 2.267624 -0.91502726 -2.3744018
000160 80 79 2c 40 d2 60 67 c0 74 5b fb bf bc 81 c1 3f
       2.6949158 -3.6152844 -1.9637284 1.5117717
000170 aa 78 ff 3f 20 9c a1 3f 80 6e 28 40 5b d4 a0 3f
       1.9958699 1.262577 2.6317444 1.2564806
000180 62 07 7e 40 2a 97 c2 be ba 3e a9 3f 83 00 6a 40
       3.9692006 -0.38005954 1.3222268 3.6562812
000190 9d 20 10 3f 86 e0 dc c0 09 5b 32 c0 5b bf 58 bf
       0.56299764 -6.9024076 -2.7868063 -0.84666985
0001a0 06 bf fd bf 0f e9 b8 3f 7c a2 62 c0 b1 cc 50 40
       -1.9823921 1.4446124 -3.5411673 3.2624934
0001b0 e1 13 c8 3c 54 52 81 40 aa cf 3e 40 c4 9d 9a 40
       0.024423542 4.0413 2.9814248 4.8317585
0001c0 bb 59 6f 40 15 37 81 40 17 49 af be b9 37 64 40
       3.7398517 4.037974 -0.3423545 3.565901
0001d0 15 02 ab 3e 1c 96 9b c0 0c 1e 98 bd 20 2f 5b 40
       0.33400026 -4.862074 -0.07427606 3.4247513
0001e0 8c 5c a9 bd 14 14 50 40 90 a1 48 c0 95 fd eb 3f
       -0.08269605 3.2512255 -3.134861 1.8436762
0001f0 ae 27 31 40 14 76 54 3f 7c 89 84 40 a1 5e 1e 40
       2.7680469 0.8299267 4.1417828 2.4745257
000200 fe f4 34 40 85 84 86 40 71 65 ae bf 25 56 6d 3f
       2.8274531 4.2036767 -1.3624707 0.9270957
000210 2c 7a 67 40 34 e0 f7 bf a2 13 d6 40 7f 76 79 3f
       3.6168318 -1.9365296 6.6898966 0.97446436
000220 25 10 13 c0 ae 5f 81 40 0e 4b 29 c0 53 50 5b 40
       -2.2978604 4.0429296 -2.645206 3.4267776
000230 bd 09 8c c0 24 d9 92 c0 e4 63 02 40 54 56 ab c0
       -4.3761888 -4.5890064 2.0373468 -5.354288
000240 01 df d6 c0 da 23 5d 40 3d 08 6a 40 e0 e2 2a 40
       -6.714722 3.4553132 3.6567528 2.6700974
000250 1f c2 87 40 62 96 61 3f f9 09 87 c0 6e bb 27 40
       4.2424464 0.8812009 -4.2199674 2.6208148
000260 d8 84 68 40 9c 2f 9b 3f 80 28 cf be a2 d4 8c 40
       3.6331081 1.2123904 -0.40460587 4.400956
000270 4b f0 b5 3e ec 48 c7 c0 c2 d3 2a 40 31 3e 8c 40
       0.3553489 -6.2276516 2.6691747 4.3825917
000280 a4 23 a2 3f af 03 33 40 d6 af a2 40 f9 cc 20 40
       1.2667127 2.7970998 5.0839643 2.5125105
000290 56 ff 7e 40 98 d5 51 c0 f2 4b 81 40 a9 d3 54 3f
       3.9843345 -3.2786617 4.0405207 0.8313547
0002a0 03 ec 54 40 9b 06 db bf fe 84 41 bd 48 b5 60 c0
       3.326905 -1.7111391 -0.04724597 -3.5110645
0002b0 89 16 1d c0 e5 4c a1 40 95 c5 24 c0 05 58 47 40
       -2.4545004 5.0406365 -2.5745595 3.1147473
0002c0 45 2d de bf 9f d8 9c 40 91 cd a1 40 e4 b0 1a c0
       -1.7357565 4.901443 5.0563436 -2.4170465
0002d0 0c 04 cc 3f 79 f0 86 40 56 1e dd bf cb 5a 88 40
       1.5938735 4.2168546 -1.7274883 4.261083
0002e0 18 04 32 40 93 e2 fb 3f 88 b8 06 40 04 fc b7 3c
       2.7814999 1.967852 2.105013 0.022459038
0002f0 0a 6a 4a 40 03 f1 54 c0 e8 10 4e 3f 84 92 4a 40
       3.162722 -3.3272102 0.80494547 3.1651926
000300 79 88 00 c0 4a b8 af be 44 c3 62 40 59 7a 1a bf
       -2.0083296 -0.3432029 3.543168 -0.6034294
000310 a7 56 a6 40 dd 49 75 40 a8 74 a4 3e 00 18 0f 40
       5.1980777 3.8326333 0.32120252 2.2358398
000320 52 6a 8f bf 7d 76 d5 40 db 2d 72 bf 32 ce 93 c0
       -1.1204321 6.670714 -0.9460122 -4.6189203
000330 10 fc d5 3f e4 80 0b c0 d5 0b f3 bd 37 da 28 40
       1.6717548 -2.1797419 -0.11867491 2.6383188
000340 5c 00 93 bd 34 f6 9f 3f 44 fa 1f c0 1f 27 df bf
       -0.07177803 1.249701 -2.49965 -1.7433814
000350 70 98 89 c0 54 54 0d c0 80 a6 32 c0 df 65 fb c0
       -4.299858 -2.208272 -2.7914124 -7.8561854
000360 b0 a2 8c 40 16 89 90 3d 84 e1 92 c0 ea 02 95 3f
       4.3948593 0.07057397 -4.590029 1.1641514
000370 65 c4 5a 40 f0 b1 9d c0 75 c8 4f 40 ae 6c 14 40
       3.418237 -4.927971 3.24661 2.3191333
000380 a4 e9 b9 40 ad 41 e3 c0 7b fa c2 bf db 95 7d c0
       5.8097706 -7.101767 -1.523269 -3.9622715
000390 51 6e 77 40 ad b8 17 c0 2c 28 6b c0 2d 59 96 40
       3.8661082 -2.3706467 -3.674327 4.6983857
0003a0 da 82 3d 3f 89 1d 60 c0 05 8c 84 c0 fc ff 90 c0
       0.7402779 -3.5018027 -4.142092 -4.531248
0003b0 1a ba 5d 40 30 9d 86 c0 96 a6 71 40 e6 3e 8a 3f
       3.4644837 -4.206688 3.7757926 1.0800445
0003c0 b2 3b 9e 40 3c 4d 65 c0 5c 0d 88 40 6e c9 3d bf
       4.944787 -3.582839 4.251631 -0.7413548
0003d0 9e aa 47 40 18 b6 07 c0 a8 14 95 c0 ed 83 ff bd
       3.1197886 -2.1204891 -4.6587715 -0.12476335
0003e0 e6 c7 87 40 47 c1 36 40 42 f4 59 c0 88 3d 50 40
       4.2431517 2.8555467 -3.4055333 3.2537556
0003f0 36 b1 4c 40 12 79 0c bf aa 67 b0 be 36 e1 09 40
       3.198316 -0.5487224 -0.3445409 2.1543708

fc2.weight f4 [200, 300]
000000 70 57 44 bd b0 17 7e bc b0 59 2e 3b 93 2c 9f bd
       -0.04793495 -0.015508577 0.002660375 -0.07772174
000010 7c 93 30 3d 52 ac 0b bd 06 1f 25 bd cb 76 9f bc
       0.043109402 -0.034099884 -0.04031279 -0.019465825
000020 48 cd 9b bc b8 e1 ac bb 6c 67 6c bd 9d 00 98 bd
       -0.019018784 -0.005275931 -0.05771582 -0.07421992
000030 a0 a8 b5 bc 7a 47 14 3d 17 ad 51 bd 9b 62 32 bd
       -0.022175133 0.036200978 -0.051190462 -0.04355107
000040 e6 b0 bf bb 0b 96 1f 3c da 13 07 3d c0 fc 5f bc
       -0.0058499454 0.009740363 0.032977916 -0.0136711
000050 93 4a e1 bc 29 68 a6 bd de 6f b5 bd cc 4c c5 3c
       -0.02750138 -0.08125336 -0.088592276 0.024084471
000060 dc 09 2a bd 4a 17 ba bd d5 66 05 bd f1 c7 09 3d
       -0.04151331 -0.09086473 -0.03256877 0.033637945
000070 fb 8a 0c 3c 00 30 15 3a a8 3b 69 bc 86 b9 40 bd
       0.008578057 0.00056910515 -0.014235415 -0.04705193
000080 ff b1 37 bd 24 40 c9 bc 24 00 7f 3c 97 10 79 bd
       -0.044847485 -0.024566717 0.015563998 -0.060806837
000090 fc f2 6c bd 12 ed ec bc c5 be da bc 48 b1 ae bd
       -0.057848915 -0.028921638 -0.026702294 -0.085299075
0000a0 b3 c9 67 bd 53 7f 28 bd 9a eb b0 bd 70 41 62 3c
       -0.05658884 -0.04113705 -0.086386874 0.013809547
0000b0 5c d1 75 bc a5 52 18 3c c0 aa 64 3d e0 db 63 bd
       -0.015003528 0.009297048 0.055826902 -0.05562961
0000c0 d9 c7 df bb 98 24 12 bd a0 09 5a bb b7 ce 2d ba
       -0.0068292436 -0.03567943 -0.0033269897 -0.0006630229
0000d0 00 f0 0a b8 2f 5a 9a bd 18 44 52 3c b6 62 a3 bd
       -3.312528e-05 -0.075367324 0.012833618 -0.07977812
0000e0 4b 1c 32 bd 72 72 14 bd b8 f9 c8 3c 9b 8f 30 bd
       -0.043484014 -0.036241956 0.024533138 -0.043105703
0000f0 5b 5f 1f bd 9c 5c b3 39 68 28 35 bc f0 79 41 bc
       -0.038909297 0.0003421054 -0.011056997 -0.011808857
000100 ff 29 c0 bc 42 13 02 bd f0 5e c4 3c 9e 68 78 bd
       -0.023457525 -0.031756647 0.023971051 -0.060646646
000110 48 79 d4 bd 0e 2e 06 bd 10 9b 5e bc 66 1e f8 3b
       -0.10374695 -0.032758765 -0.0135867745 0.007571983
000120 c0 1a 2f bc 45 51 a2 bd 66 7d b6 bd 7c a7 a0 bc
       -0.01068753 -0.07925657 -0.089106366 -0.019611113
000130 38 14 fb bb 8e 68 5c bd 62 ac a7 ba e8 5d 5e 3c
       -0.0076623224 -0.05381065 -0.0012792463 0.013572194
000140 35 9c ab bb da 42 8b bd 18 f1 08 3d 06 d6 06 3d
       -0.005237127 -0.0679986 0.03343305 0.032918952
000150 13 98 02 bc 0c 7a e1 3c e8 d1 a4 bd c4 c4 d9 3c
       -0.007970828 0.027524017 -0.08047849 0.026583083
000160 9b f2 7d bd 7c 8b 33 bc c9 28 35 bd 9f 71 1a bd
       -0.061998945 -0.010958549 -0.04422835 -0.037706014
000170 50 ac a8 3c a9 8a b9 bd 07 87 40 bd a8 c4 2a 3c
       0.020589978 -0.090596505 -0.047003772 0.010422863
000180 59 98 00 bd 71 f7 68 bd fb 6e 1f bd 73 e9 15 bc
       -0.03139529 -0.056876604 -0.0389242 -0.009149897
000190 7e 36 e5 3c c0 2d fa 3c 46 ec e4 ba 74 49 db 3c
       0.027980085 0.030539393 -0.0017465435 0.026768424
0001a0 a3 f2 0b bd 50 e6 28 bc 17 15 4a 3b de 6f 35 bd
       -0.034166943 -0.010308817 0.0030835324 -0.044296138
0001b0 70 ae 8b bc 3b 2d 0c bd 31 c7 f2 3c 59 15 81 bd
       -0.017050952 -0.034222823 0.029635997 -0.063029
0001c0 ca 0a 95 bd 9f 0a 08 bc 88 2b 5a 3d e9 1b 43 bd
       -0.072774485 -0.0083033135 0.05326417 -0.04763404
0001d0 b4 13 0d 3d 68 8d a5 bd 22 b4 8b bb cb 83 eb bc
       0.03444262 -0.08083612 -0.004263417 -0.028749367
0001e0 7d 2f 18 bd 60 c9 1b bc 84 ae f0 3c ca 60 b1 bb
       -0.037154663 -0.009508461 0.02938009 -0.0054131495
0001f0 dd 75 b4 bc 19 e7 df 3c 2e 62 6e 3c 51 c3 80 bd
       -0.022028858 0.027331876 0.014549775 -0.06287254
000200 a4 db 16 bd 2c 61 a0 bd e9 53 1d bd a6 d6 e5 bc
       -0.03683056 -0.07831034 -0.0384101 -0.028056454
000210 2a fb 94 bd 4e dc 6a 3d e5 ff 8e 3a 69 a3 93 3c
       -0.07274468 0.057339005 0.0010910003 0.018022256
000220 9e 1b 01 3d c1 da 00 bd 20 e1 99 ba 09 dc 4c bd
       0.03152048 -0.03145862 -0.0011740066 -0.05001453
000230 30 54 1b bd a0 f5 5a bd 8d f5 84 bd 04 d0 d0 3c
       -0.037922084 -0.053456903 -0.064921476 0.025489815
000240 40 05 25 3d 85 76 a1 bb e9 c7 7b bc a6 e5 86 bd
       0.04028821 -0.0049274587 -0.0153674865 -0.06586771
000250 a8 85 41 bd 86 ef f7 3c f6 e7 a6 bc f2 f5 3a 3b
       -0.047246605 0.03026558 -0.02037428 0.0028527942
000260 fb 07 0d bd 9e f6 ee bc 3a b0 2f bd dc 97 a0 bd
       -0.03443144 -0.02917033 -0.042892672 -0.07841465
000270 6d 31 51 bd 22 67 32 3d 31 9e 39 bd 02 c7 1e bd
       -0.051072527 0.043555386 -0.04531688 -0.038764007
000280 1a d5 b4 bc ac 4b 59 bd d5 1d b5 bd 01 ef 89 bd
       -0.022074271 -0.053050682 -0.08843581 -0.067350395
000290 3e dd 35 bd 97 91 23 bd c5 b3 63 bd 44 0e 3e bd
       -0.044400446 -0.039933767 -0.055591363 -0.046400324
0002a0 33 9d b2 bc ed 4d 20 bd bf 26 ad bd 9a cf c3 3c
       -0.021803474 -0.039136816 -0.08454656 0.023902703
0002b0 c5 27 4d bd 3f 0b 67 bd 81 1c 94 3a f1 55 00 3d
       -0.050086755 -0.05640721 0.0011299999 0.03133196
0002c0 50 d6 4b bd 14 0f 04 3d c6 28 10 bd 55 73 f7 bc
       -0.04976493 0.032240942 -0.035195135 -0.030206362
0002d0 95 b9 8e 3c 02 e9 8a bd 6e b9 48 3d 61 5e df bc
       0.017422477 -0.06782724 0.049004965 -0.027266683
0002e0 24 1a 17 bd f3 38 8c bd 1a c3 9e bc 78 8d c1 bd
       -0.036890164 -0.068468 -0.019380141 -0.09450811
0002f0 dd 10 77 bc ae a0 6e bd 83 bc 4e bc 0b c3 82 3c
       -0.015079704 -0.058258705 -0.012618187 0.015962144
000300 b0 7c 6a 3d 9a 2b fa bc a4 0a 46 bd d8 11 86 3c
       0.057247818 -0.030538369 -0.04834999 0.01636593
000310 40 af cb 3b 47 ef 07 bd 4e 3e 65 3b d2 35 31 bd
       0.00621596 -0.033187177 0.0034979763 -0.043264218
000320 b8 e5 00 3c 88 08 89 bd 3a a5 94 bd b4 16 25 bc
       0.007867269 -0.0669108 -0.07258077 -0.010076214
000330 fa 1e 02 3d d8 d1 88 bd ce 1f 1d 3d 0c 6e 15 bd
       0.031767823 -0.066806495 0.03836041 -0.036481902
000340 30 8e 15 bb 70 f0 9b bc fa f9 72 bd bc b7 ff 3c
       -0.0022820346 -0.019035548 -0.059320427 0.031215541
000350 a0 b9 f2 ba f2 33 94 bc 7e b7 0f bd 14 14 f4 bc
       -0.0018518455 -0.018091176 -0.0350871 -0.02979473
000360 d1 68 93 bd 0a cb d7 bc 60 de 6a bd c0 55 e7 3c
       -0.071977265 -0.026341934 -0.05734098 0.028239131
000370 b2 03 9e bd 36 fd be bc c0 65 54 37 6e 3c 2d bd
       -0.077155486 -0.0233141 1.2659875e-05 -0.04229396
000380 30 61 67 bd b8 97 cc bb 20 9e 3d 3c c0 c4 12 bd
       -0.05648917 -0.006243672 0.0115733445 -0.035832167
000390 76 56 ee bc 84 34 bc 3c 10 38 65 3c 47 b7 ad bc
       -0.029093962 0.02297426 0.013990417 -0.021205558
0003a0 43 f3 ea bc 42 b4 43 bd e1 f6 a5 bd 40 b9 f4 3a
       -0.02868045 -0.04777933 -0.08103729 0.0018670931
0003b0 51 a7 93 bd c8 b3 53 bc 29 95 89 bd a2 a7 af bc
       -0.072096474 -0.012921281 -0.06717903 -0.021442238
0003c0 76 d1 19 bd 92 af 9e bd e2 b2 4d bd 2d 85 46 bd
       -0.037553273 -0.07748331 -0.050219424 -0.04846685
0003d0 ba e3 94 3b 62 63 3a 3d 8d d9 17 bc 98 ca 4b bd
       0.0045437487 0.045504935 -0.009268177 -0.049753755
0003e0 ea dd 69 bd e0 5a d5 3b 7c 2a 20 3c 14 00 e3 3c
       -0.0570964 0.0065110773 0.009775754 0.027709998
0003f0 f2 c1 0a bd 42 42 32 3d fa ab a0 bc 38 ef f2 3c
       -0.033876367 0.04352022 -0.019613255 0.029655084

fc2.bias f4 [200]
000000 6b ed 31 bc e4 de 29 3e d6 1a 17 bf a0 1c 26 40
       -0.0108598275 0.16588932 -0.59025323 2.5954971
000010 c3 bd 8c bd d5 84 c7 bd 12 dd fe 3f 9b 7e 9f bd
       -0.06872132 -0.097421326 1.9911215 -0.0778782
000020 42 d0 30 bd b2 59 ba 3e 73 77 8c bd 02 a0 ba bd
       -0.04316736 0.36396557 -0.06858721 -0.0911255
000030 1a d4 94 bf d3 4d 74 bd 45 19 c8 bd 2d e9 97 3c
       -1.1627228 -0.05964453 -0.09770445 0.018543804
000040 6d b4 d0 bc 23 31 8c bd 55 df b4 bd e6 04 87 3f
       -0.025476659 -0.068453096 -0.0883166 1.054837
000050 bf 5b 14 40 df 2f 87 3f b0 b5 55 3f 61 e4 01 3d
       2.3180997 1.0561484 0.8348036 0.03171194
000060 c6 b6 86 3e 5d 6f 8e 3b 12 10 0b bf 91 c8 68 3f
       0.2631132 0.0043467716 -0.54321396 0.9093104
000070 bb 22 3c bd ef f6 01 40 29 23 80 3f 87 b8 16 40
       -0.04593156 2.0306966 1.001073 2.3550127
000080 7d 5d 49 3b ba 79 ff 3f 0e f6 2b bd 9d 90 e3 bc
       0.003072589 1.9959023 -0.041982703 -0.027778918
000090 50 53 4c 3f 2f 3e ad bf 66 56 d2 bf 74 b6 b3 3f
       0.79814625 -1.3534602 -1.6432617 1.4040055
0000a0 55 62 34 3a f6 ae 86 bd 77 66 5d 3f a9 6e 4c bd
       0.00068811077 -0.0657634 0.86484474 -0.04991022
0000b0 c7 96 ef 3b f4 bc 59 bd c2 f2 c3 be 06 59 86 be
       0.007311675 -0.053158715 -0.38271147 -0.26239794
0000c0 16 a9 3f 3f 8a 66 6d 3d 91 ef cc bd 3b 90 f4 3d
       0.7486738 0.057959117 -0.10006631 0.11941572
0000d0 7b cb e1 bc 4c c0 96 bd c8 e4 b7 3c 75 9f 3e bd
       -0.027562847 -0.073608965 0.022447959 -0.04653879
0000e0 8e 07 c9 3c a9 45 13 3d b4 ce 34 3f 3f fe 1a 3f
       0.024539735 0.035955105 0.70627904 0.605442
0000f0 0d e0 bd bd b7 b1 51 bb 5e ea af 3e 4a a5 30 bd
       -0.0927125 -0.0031996795 0.34358495 -0.043126382
000100 02 a4 11 40 20 43 09 bc ca 26 02 bd 6a 16 22 3f
       2.2756352 -0.00837782 -0.031775273 0.6331545
000110 ec 6a 59 bd 1d 50 0e bd 58 f6 7b bf 8c ce a0 3e
       -0.053080484 -0.03474437 -0.98422766 0.31407583
000120 ef 07 16 40 dc 48 51 3f af 94 f0 bd d9 d8 55 3d
       2.3442342 0.817518 -0.11747109 0.052208755
000130 21 32 13 bd db 54 4f bd 4c af a0 3f fc 49 1d 40
       -0.03593648 -0.050618034 1.2553496 2.4576406
000140 fb cf 32 bf fd 5c 22 c0 65 0d df 3f c7 35 4a bd
       -0.69848603 -2.5369256 1.7425963 -0.049367692
000150 38 48 1c 3f 8e a8 1a bf 5b 05 68 40 57 ea d2 3f
       0.610477 -0.60413444 3.6253269 1.6477765
000160 f2 d9 4d 3f 3a c1 81 3d 86 8c 0f bf 5b 32 bc bf
       0.80410683 0.06335683 -0.56073797 -1.4702867
000170 75 5f 10 40 5b fe 0b bf c4 8c 7f 3b 4b 99 32 3f
       2.2558262 -0.5468499 0.0038993815 0.69765157
000180 de 41 3d 40 9a 23 0b bc e0 23 89 3e 51 35 0a bd
       2.9571452 -0.008492375 0.26785183 -0.033742253
000190 79 81 43 bd 16 60 6f bd ff eb 66 3c bd 77 d1 3f
       -0.047730897 -0.058441244 0.014094352 1.6364666
0001a0 ac 59 20 40 1f 17 ad bd f2 2f 32 3f a0 04 89 bd
       2.5054731 -0.084516756 0.6960441 -0.06690335
0001b0 49 a4 c5 3f 1e 44 90 3c cf 69 1a 3e 62 fd 95 3f
       1.5440761 0.017610606 0.15079425 1.1717951
0001c0 99 1a e9 3b 8c 72 0f 40 8c 08 50 be 50 ad 12 c0
       0.0071137664 2.2413664 -0.2031576 -2.2918282
0001d0 c6 df bf bd aa 3f 94 3f 3f 54 37 bd ee 5d 28 40
       -0.09368853 1.1581929 -0.044758078 2.630733
0001e0 ed e5 84 3c ed 35 a2 bd 10 0d e8 3f 91 3b b7 3f
       0.016222918 -0.07920442 1.8128986 1.4315053
0001f0 76 b9 67 3f fb 0e 9c 3e f5 08 d2 3f a2 ba b1 bd
       0.90517366 0.3048018 1.6408983 -0.086781755
000200 5d 7c da 3e 4e cc db 3f bb f1 42 40 21 e9 42 3c
       0.42673007 1.7171724 3.046004 0.011896403
000210 3a a1 ea 3c c0 4c 0a 40 34 c2 e6 3f b2 53 0d 40
       0.028641332 2.1609344 1.8028016 2.2082334
000220 54 57 0d 40 42 e6 1e 40 2e 62 6e bd 13 04 0d be
       2.208455 2.4828038 -0.0581991 -0.13771085
000230 f0 68 4b bd 35 1f 2b bd ac 2f ec be cc 93 22 40
       -0.049660623 -0.04177781 -0.4613012 2.5402708
000240 40 86 12 bd ac 12 87 3d 3c af 84 bc ee 70 aa 3f
       -0.035772562 0.06595358 -0.01619684 1.3315713
000250 8e 34 ac bd 6a b9 81 be 2c 5d 76 3c b8 83 08 bd
       -0.084084615 -0.25336772 0.015036862 -0.03332874
000260 75 f9 2f 40 2a ad 30 40 c2 be 03 3f 55 24 5b 3f
       2.7496006 2.760569 0.5146295 0.85602313
000270 a6 91 bf bb 17 48 e4 3f 6e 74 a2 bf ce 80 0f bd
       -0.00584622 1.78345 -1.2691782 -0.035034947
000280 e1 08 f9 3f 25 8d 19 40 1c 63 59 bd 67 d6 99 bf
       1.9455835 2.3992398 -0.053073034 -1.2018555
000290 91 e2 80 bd 86 e5 cc 3f 7d 99 43 3f c5 79 34 3d
       -0.06293214 1.6007545 0.7640608 0.04406144
0002a0 9a b3 d6 bf 20 e3 22 40 d8 fa c1 bd fa 69 a7 bd
       -1.677356 2.5451126 -0.09471673 -0.0817451
0002b0 11 77 9d 3f 34 52 8d bc 0f 6d 2d bc 4b cf 15 40
       1.2301961 -0.017251112 -0.010585084 2.3407772
0002c0 d7 4e 0b 40 cc d0 bd 3f cd 4b 2d 3f 22 22 eb 3e
       2.176687 1.4829345 0.6769379 0.4592448
0002d0 95 bd 68 3f cb cc 3b c0 35 46 0f bc c2 e1 8b 3e
       0.9091428 -2.9343746 -0.008744766 0.27320677
0002e0 fe ea 98 bd 23 e8 3b bd e4 0b 8d ba cc 7b 17 c0
       -0.07466696 -0.04587568 -0.001076099 -2.366931
0002f0 88 cb 4d 3f 33 a1 f1 3e 37 88 18 40 6e 2b d2 3e
       0.8038869 0.47193298 2.383314 0.4104876
000300 cc 61 7f bd fa 65 fd 3f bd 4e cf 3f 21 c0 89 bd
       -0.062349126 1.9796746 1.6195904 -0.06726099
000310 1f b8 d3 3f 4f 41 88 be de 24 90 3e b7 d0 2e 3f
       1.6540564 -0.26612327 0.28153127 0.68287224

fc3.weight f4 [1, 200]
000000 26 a7 06 bc 4f b3 91 ba e3 31 58 3f bd 27 44 c0
       -0.008218562 -0.001111606 0.8445112 -3.0649254
000010 d6 89 bf 37 01 7d 80 bc ce 50 b6 be 1f d9 d3 bc
       2.283316e-05 -0.015684607 -0.35608524 -0.025860367
000020 34 32 76 bd 10 b7 cb bf e7 83 5c 3a bc 99 bd ba
       -0.06010647 -1.5915241 0.0008411989 -0.0014465372
000030 66 aa 19 3e b6 c9 b5 bc 9e bc 3f bc 93 9a 7e bc
       0.15006408 -0.02219091 -0.011702685 -0.015539783
000040 67 50 53 3b 30 d3 70 bb b0 43 4c bf 23 94 74 3d
       0.0032243968 -0.0036746971 -0.7979078 0.059711587
000050 47 fc 10 bf b9 05 01 3e 21 ba 8a c0 89 97 4d c0
       -0.56634945 0.1259984 -4.335221 -3.212374
000060 fa 3c c4 bf 4b 54 8c 3b f1 51 56 3e fa db b0 3f
       -1.5331109 0.0042825094 0.20929696 1.3817132
000070 df 7f a4 bc 99 20 00 bf f9 0e 13 40 2f 86 dd 3f
       -0.020080505 -0.5004974 2.2977889 1.7306575
000080 9e 4a 36 3c 6a 71 a8 bf ee 7a c8 3b a9 63 d5 3c
       0.011126189 -1.3159611 0.00611817 0.026048498
000090 89 14 ce bf 63 34 1f bd a8 79 c3 3c 0a f2 ba 3c
       -1.6100017 -0.03886832 0.023861721 0.022820491
0000a0 5d 60 6d 3c 73 4c 7e 3c f6 0f 9a 3f d9 2e 72 ba
       0.014488307 0.015521157 1.2036121 -0.0009238548
0000b0 35 3b 18 3c 93 48 0c 3d 3f 1a 88 bb 7a e0 01 3d
       0.00929146 0.0342489 -0.0041535194 0.03170822
0000c0 17 b4 b6 3f 70 c5 4b c0 5a 0f 02 3d ad c6 84 bf
       1.4273709 -3.1839256 0.03175292 -1.0373131
0000d0 ca 60 b1 3c 31 f4 d5 3a 26 19 90 bb a9 a6 a6 3c
       0.021652598 0.0016323385 -0.004397529 0.020343142
0000e0 1f 40 66 bc a1 70 93 bc 77 2a 23 c0 d7 8e b7 bf
       -0.014053374 -0.017998042 -2.5494668 -1.4340466
0000f0 4d ee c7 bb c2 e9 a3 3f fe 4d 4b 3e ad 50 d1 3c
       -0.0061014057 1.2805712 0.1985397 0.025551165
000100 8b 13 90 3f 09 a4 f2 bc 87 f4 ef 3c 3e 50 a1 c0
       1.1255964 -0.029619234 0.029291404 -5.041045
000110 da b6 e9 3c 67 2e e7 3f 96 71 39 3f 40 f8 1b bf
       0.028529573 1.8061036 0.72438943 -0.60925674
000120 7e 34 1c c0 87 69 1c 40 1d d2 86 3f 4a 49 15 3c
       -2.4407039 2.4439409 1.0532871 0.009111712
000130 6a fe a7 3c e4 0b 8d bc 1f 4f 87 be 48 73 a0 c0
       0.020507056 -0.017217584 -0.26427552 -5.0140724
000140 4d 98 2b bc 60 64 de bc bf a6 81 3e bf 2c f5 bc
       -0.010473323 -0.027147472 0.2532253 -0.029928563
000150 54 3d 00 40 9e 2f 27 40 70 48 ba 3e ae 58 cf 40
       2.0037432 2.6122813 0.3638339 6.479575
000160 a9 18 b0 3c d5 c7 18 be 23 f3 b2 3c cb 78 74 3c
       0.021496134 -0.1491998 0.021844452 0.014921377
000170 84 f5 f6 3f d2 c8 1f 3f 55 7e 21 3b 87 21 53 3f
       1.9293675 0.624158 0.002464195 0.82473034
000180 e4 c2 29 c0 78 42 9c bb 31 f2 00 bf 4a 5c 60 bc
       -2.6525202 -0.004768666 -0.50369555 -0.013693878
000190 7a a8 27 bd f0 f6 c1 bb 7e 97 f8 3b 4b 16 33 c0
       -0.040932156 -0.00591933 0.0075864187 -2.7982357
0001a0 1d 23 d7 c0 a2 cb a7 3c 0e 38 8d c0 5b 43 b2 3c
       -6.7230363 0.020482842 -4.4130926 0.021760633
0001b0 ce fe bb bf 51 a9 e8 3c 91 00 c3 3a 1e e5 59 40
       -1.4687135 0.028401049 0.0014877488 3.4046092
0001c0 a9 36 72 3c f0 fc 86 3e 65 1c 23 bf ba 4b f5 3d
       0.01478354 0.2636485 -0.637152 0.11977334
0001d0 6b d1 c4 bc cc 97 04 bf 46 4b 23 bd db 02 ac bf
       -0.02402564 -0.51794124 -0.03986671 -1.3438371
0001e0 8a 5f 73 3c e3 90 e1 bc b7 06 88 3f ba b8 64 c0
       0.014854321 -0.027534908 1.0627049 -3.5737748
0001f0 97 4c 5f c0 77 fd 46 3f 6f 77 08 bf 83 55 bc bb
       -3.4890497 0.77730507 -0.5330724 -0.0057474985
000200 5d dd ed 3c 90 60 08 c0 19 6e ad bf 7d 13 ab bc
       0.029036218 -2.1308937 -1.3549224 -0.020883316
000210 79 a3 af 3c f5 26 0f c0 11 41 6e c0 66 14 7c c0
       0.021440255 -2.2367527 -3.7227213 -3.938745
000220 f7 35 ac be 8e cd 99 bf 76 0b c9 3c 38 a8 f0 bc
       -0.33634922 -1.2015855 0.024541598 -0.029377088
000230 34 f8 c6 bc ce ff 64 bd 30 70 08 bd b7 d7 20 40
       -0.024288274 -0.055908017 -0.033310115 2.5131662
000240 4a 6b 01 3b 36 b6 1b c0 e3 7d 16 3c 40 f1 9f 40
       0.0019747787 -2.4329963 0.009185287 4.9981995
000250 e7 27 c1 bc c3 4d 58 be 8b 84 02 3d 20 38 12 bd
       -0.023578597 -0.21123414 0.031864684 -0.035698056
000260 9c b5 82 40 b4 c8 27 3f ec a0 29 40 bd 5f 8e c0
       4.084669 0.65540624 2.650447 -4.449187
000270 f4 82 aa 3c ee 19 8d c0 19 4c 9d 3c 5f c0 f9 3c
       0.020814396 -4.4094152 0.019201325 0.030487237
000280 f0 1d 1b c0 31 a2 c9 bf 42 f7 14 3d 6b cf 7c 3e
       -2.4237022 -1.5752622 0.036368616 0.24688499
000290 66 c6 06 3d 28 36 89 40 f9 67 76 c0 3d d8 3d 3b
       0.03290405 4.287861 -3.850096 0.0028968
0002a0 40 05 e8 bc 3f f4 85 40 73 3f b2 3c ff 6c 91 bc
       -0.028322816 4.186065 0.02175877 -0.017752169
0002b0 f1 a7 72 bc 54 12 97 bc 84 0c 6c 3c 56 27 7e c0
       -0.014810548 -0.018441357 0.014407281 -3.9711509
0002c0 7d b7 c3 3f 9e c1 62 40 5e 34 f8 bf fa 97 58 3f
       1.5290371 3.5430675 -1.9390981 0.846069
0002d0 8b ff a8 3f 1a 73 01 3e ac f5 3c 3c 92 f2 1a 3c
       1.3202986 0.12641564 0.011533182 0.009457247
0002e0 3f 0f 11 bd 03 4f 16 3d 82 0b 9e 3c ce 7a 10 3f
       -0.03541493 0.036696445 0.019292597 0.56437385
0002f0 9f bc a4 40 02 20 dd be 98 95 6e be 08 9d a5 bf
       5.148025 -0.43188483 -0.23299253 -1.2938547
000300 96 c0 db 3c 23 d7 c5 bf 02 1b 1c c0 91 72 4c 3a
       0.02682523 -1.545628 -2.4391484 0.0007799054
000310 86 54 86 40 f6 8e 6f 40 47 ef 87 bf 8d 0e e2 3f
       4.197818 3.7431006 -1.0619897 1.766069
