log/train_2_1k800/models/1560_critic.pt (torch_old, 251021 bytes, 5 tensors)

fc1.weight f4 [300, 6]
0.24025694 1.1954445 1.7221966 -0.3416561 1.6031228 3.6297932 0.51520234 -0.8783687
-0.0131015675 5.839196 -0.51576906 3.3614504 -0.086728536 0.42415312 -0.13440216 0.60495895
-1.191898 -1.9011999 -0.6322208 -0.44944742 1.3571825 0.90043515 2.7365582 0.5641416
0.6357929 0.61967623 -3.7140055 -0.8055291 -3.3640587 0.09687204 -0.051543668 0.3345993
-0.53750396 0.4931906 -5.0569987 1.2976557 -0.039638694 -0.55613333 -1.4860246 -1.5824934
-2.6174178 0.9742064 0.059861775 0.8407968 -0.081028074 -1.160797 -0.28186938 -2.993817
-0.035913978 0.30722752 1.5662345 -0.20638111 2.607122 -0.060189236 0.22192223 0.5248556
0.8833606 3.72441 0.3353006 4.2141833 0.11281922 1.0356908 1.2178658 1.2962896
3.257344 0.5880304 0.106010556 -0.8026358 3.7636685 -0.19355449 -4.269882 1.1130587
-0.22477305 0.39164534 -0.7306822 0.0933706 4.131621 1.0336939 -0.057764053 0.19808029
-1.9661745 2.5230486 1.1179537 -0.32682425 -0.28001642 0.6753949 -0.5181093 1.8786932
-0.6080439 3.980292 0.10175187 0.49647176 0.9359458 0.88568753 -0.37401795 3.8439603
0.3051633 0.28318954 0.973317 0.66834855 -2.2446573 0.13588013 0.028468957 -0.20322336
-5.1335754 -2.0428388 -2.7202597 -2.1368103 -0.53633696 -0.13423732 -0.55948573 -0.107432395
-2.7474053 0.80280006 0.3905954 0.19411561 2.1986523 -3.6962194 2.1141334 -2.6138892
0.10723536 0.16524409 0.18620074 -0.9657345 -0.17357397 0.31264007 -0.081062585 0.086759545
-0.5031581 -0.60937136 0.6942293 0.22836503 0.65563166 -1.8171663 1.7792423 0.64361286
1.8988692 -2.0632286 0.24658906 0.2455115 -0.63876945 3.4926581 0.19614258 4.065588
0.37725264 0.2843118 -1.6316555 1.7852465 -4.867464 1.7107714 0.31100327 0.27025977
2.5737045 1.2076479 -1.2370039 -0.7019978 0.19914697 -0.013570418 4.3525624 1.3811413
1.199487 2.619244 -0.089707136 0.73189354 0.12525791 0.25214383 0.20350555 -1.1136228
0.018101761 0.21966776 -1.0198257 0.65697175 -4.4179053 -0.60483545 -0.103853986 0.7217502
0.7653865 0.9260302 5.390904 -1.2707062 -0.13058855 0.2176459 -0.11122888 -2.8874316
-0.044154182 -3.168126 0.5293651 0.31668633 1.9594117 -2.004117 -1.9481702 -0.8978474
0.23217136 1.1313245 1.1633672 -4.9658437 0.5415014 -3.181072 -0.043249957 1.5177242
0.3709319 -0.4104264 1.3267543 -1.302345 0.93437654 -0.087398246 -2.5217688 -1.0544938
-2.2827861 0.5432089 0.19369799 -0.33102778 1.7384547 1.1866869 1.3973203 3.8633282
0.77024895 -1.5114322 1.5548965 0.120271444 -2.5887945 -0.37164918 0.013352646 0.28256094
-0.4636299 2.0670743 3.3895617 -0.97684836 0.4358753 -0.23290376 -0.0486697 0.84743404
0.9502781 0.8340068 0.0846032 0.12075843 -3.8205574 0.16875397 1.8484639 0.8876644
0.08453354 1.090975 1.2125361 0.94682914 -0.51166344 3.0643055 0.11644531 0.06004139
-0.22775604 -0.13812548 0.08553037 0.71225685 0.24250919 -0.36292207 2.1683292 -2.823703
00000000: ea05 763e 5304 993f f070 dc3f 8ced aebe
00000010: 2133 cd3f 884e 6840 4de4 033f c5dc 60bf
00000020: f5a7 56bc b2da ba40 7109 04bf 0122 5740
00000030: bb9e b1bd 992a d93e b8a0 09be 97de 1a3f
00000040: 1d90 98bf 855a f3bf 39d9 21bf f91d e6be
00000050: 28b8 ad3f eb82 663f c523 2f40 956b 103f
00000060: 53c3 223f 1aa3 1e3f 44b2 6dc0 2837 4ebf
00000070: bd4c 57c0 d964 c63d 741f 53bd 9950 ab3e
00000080: dc99 09bf 7a83 fc3e efd2 a1c0 9519 a63f
00000090: 2f5c 22bd c15e 0ebf 0e36 bebf 258f cabf
000000a0: c683 27c0 9765 793f 9f31 753d 763e 573f
000000b0: 0cf2 a5bd ff94 94bf 2f51 90be b39a 3fc0
000000c0: 891a 13bd ed4c 9d3e 5f7a c83f 9255 53be
000000d0: 16db 2640 fd88 76bd 953f 633e f05c 063f
000000e0: ec23 623f bc5c 6e40 85ac ab3e 97da 8640
000000f0: c30d e73d 8491 843f 07e3 9b3f d1ec a53f
00000100: 5378 5040 2989 163f 101c d93d 8a79 4dbf
00000110: f2df 7040 2633 46be e0a2 88c0 b578 8e3f
00000120: e82a 66be bd85 c83e fd0d 3bbf 1639 bf3d
00000130: 3d36 8440 1550 843f 009a 6cbd 8fd5 4a3e
00000140: 9bab fbbf a179 2140 1b19 8f3f 8255 a7be
00000150: 505e 8fbe aee6 2c3f d0a2 04bf 0579 f03f
00000160: c4a8 1bbf 1bbd 7e40 4963 d03d 8c31 fe3e
00000170: 259a 6f3f 6bbc 623f 487f bfbe 7203 7640
00000180: 5d3e 9c3e 38fe 903e 4e2b 793f e418 2b3f
00000190: 77a8 0fc0 2924 0b3e bb37 e93c c919 50be
000001a0: 4046 a4c0 dfbd 02c0 bc18 2ec0 80c1 08c0
000001b0: 614d 09bf 8275 09be 753a 0fbf 8405 dcbd
000001c0: 7dd5 2fc0 4e84 4d3f 1ffc c73e 3ec6 463e
000001d0: b8b6 0c40 dc8e 6cc0 f64d 0740 f649 27c0
000001e0: 369e db3d bf35 293e 68ab 3e3e 603a 77bf
000001f0: 60bd 31be 5c12 a03e 2404 a6bd fdae b13d
00000200: f8ce 00bf c3ff 1bbf 03b9 313f 86d8 693e
00000210: 7ad7 273f e898 e8bf 36be e33f d0c3 243f
00000220: 250e f33f f00b 04c0 d881 7c3e 5e67 7b3e
00000230: 6586 23bf b687 5f40 9ad9 483e 4c19 8240
00000240: 4227 c13e 5191 913e 16da d0bf f582 e43f
00000250: 44c2 9bc0 8ffa da3f d23b 9f3e 7d5f 8a3e
00000260: 93b7 2440 3594 9a3f 2556 9ebf 21b6 33bf
00000270: 2fed 4b3e 7556 5ebc 3148 8b40 3dc9 b03f
00000280: ca88 993f b2a1 2740 60b8 b7bd 605d 3b3f
00000290: 9c43 003e ff18 813e c263 503e 318b 8ebf
000002a0: 254a 943c 96f0 603e a689 82bf 4d2f 283f
000002b0: 7b5f 8dc0 7fd6 1abf 66b1 d4bd 9fc4 383f
000002c0: 5ff0 433f 5110 6d3f 4982 ac40 80a6 a2bf
000002d0: 01b9 05be 91de 5e3e f8cb e3bd aecb 38c0
000002e0: 04db 34bd 94c2 4ac0 7984 073f b624 a23e
000002f0: 01ce fa3f 7443 00c0 a45d f9bf 54d9 65bf
00000300: 54be 6d3e 3ecf 903f 37e9 943f 31e8 9ec0
00000310: d69f 0a3f af96 4bc0 de26 31bd c944 c23f
00000320: c9ea bd3e 6923 d2be 16d3 a93f 3eb3 a6bf
00000330: 4d33 6f3f dafd b2bd a964 21c0 a7f9 86bf
00000340: 2b19 12c0 bd0f 0b3f c458 463e 797c a9be
00000350: af85 de3f 5be5 973f 64db b23f c540 7740
00000360: 092f 453f 9c76 c1bf d906 c73f e050 f63d
00000370: cfae 25c0 cd48 bebe 0ec5 5a3c d4ab 903e
00000380: e660 edbe f24a 0440 94ee 5840 bc12 7abf
00000390: 0c2b df3e 537e 6ebe e159 47bd 70f1 583f
000003a0: 6d45 733f 7881 553f 7144 ad3d 3250 f73d
000003b0: 0384 74c0 d7cd 2c3e 779a ec3f f93d 633f
000003c0: ec1f ad3d 12a5 8b3f 6234 9b3f 6563 723f
000003d0: 60fc 02bf 951d 4440 e17a ee3d f6ed 753d
000003e0: e138 69be c470 0dbe 8c2a af3d 7756 363f
000003f0: 5454 783e ecd0 b9be e8c5 0a40 8db7 34c0

fc1.bias f4 [300]
-0.9121059 -5.680868 1.1580569 -5.2174315 -3.121587 2.1603777 -1.174638 -0.5218458
-0.01687277 3.9347446 -4.5188065 4.963208 1.6813741 4.028399 -0.7877331 3.176066
4.8111787 -4.193074 -5.434962 0.9085557 4.791259 4.7982726 -2.7048185 -10.183438
1.4801991 3.0151525 3.68324 5.0781264 -0.99905974 -1.7407591 5.1509037 -4.0729733
-1.0231808 0.36164844 -5.040609 2.5360613 -6.3481603 1.3565948 -5.813341 2.609085
0.7111786 3.82661 -0.15062344 1.3600249 -0.31502742 6.4360356 -3.548863 -0.5863754
3.9375434 0.043334097 1.3325413 4.2774277 0.8455639 3.3710206 -6.3138227 -1.2906482
0.44685468 0.48518947 1.70359 -11.66028 -0.3145862 2.5951076 -1.0319209 1.9675245
3.9750326 3.5263908 -2.886684 -3.165391 4.9993286 4.051004 1.1127605 3.4690313
4.3067245 -3.0770376 -4.434602 -0.7189599 4.7534676 1.1898847 0.9894771 -6.654859
-0.3727064 1.0633305 0.30688614 4.1474123 3.014607 2.4213285 -0.86397696 -2.2789578
2.9477317 -4.2374616 -2.0166292 1.523628 2.0872648 1.382927 2.3649886 1.5326836
4.3806458 -0.24125259 1.3708278 3.9176342 0.47892275 -7.0022593 -3.2071102 -1.0413176
-1.8325307 1.2578425 -3.2162354 3.207188 0.29959217 4.223406 3.1122658 5.210831
4.1647587 4.3821087 -0.41170526 3.952843 0.26505336 -4.759703 0.011340887 3.7786448
-0.26335466 3.539922 -2.9242816 1.7689133 3.0271661 0.82327735 4.3032336 2.886202
3.0632806 4.5666866 -1.2839776 0.9322149 3.7352178 -2.2314062 6.868354 1.1532446
-2.3409953 4.3507247 -2.7775319 3.5244267 -4.4756093 -4.647719 1.9692817 -5.851678
-6.924492 3.3889165 3.8273938 2.5294533 4.2331505 1.2131665 -4.8069997 2.9135478
3.5064545 1.210517 -0.1065915 4.66124 0.6238354 -6.521223 3.0434365 4.6645427
1.2324146 3.057773 5.422877 2.4737887 3.8794742 -3.1789663 3.8905213 0.7522141
3.3826559 -1.656712 -0.24742243 -3.7423027 -2.4191346 5.377782 -2.4766781 3.32705
-1.9588467 5.1513267 5.274907 -2.7140992 1.8193588 4.2811103 -1.6248047 4.5128174
3.2144537 2.0940185 2.1461105 0.13184883 3.6534011 -3.7324643 0.7354116 3.384556
-2.3134804 -0.45267466 3.4435384 -0.2787569 5.495368 4.095109 0.02018464 2.322638
-1.0948578 6.956742 -0.5328542 -4.6588054 1.5429542 -1.1342217 0.29018384 2.7386732
-0.09959461 1.0691291 -2.4549284 -1.8340404 -4.569824 -2.149898 -2.757434 -7.5665445
4.773575 -0.3630648 -4.5489955 0.704141 3.39642 -4.743212 3.048109 2.3000143
6.0968647 -7.345166 -1.6624689 -4.2289987 3.8784852 -2.5274005 -3.8987699 4.6507654
0.42090002 -3.5884724 -3.970223 -4.905379 3.6488779 -4.754788 4.081307 0.9480694
5.1134567 -3.6319163 4.571591 -1.0993012 2.96235 -2.4907646 -4.9803452 -0.078885384
4.5024033 2.821622 -3.3490984 3.1726499 3.4071608 -0.65624565 -0.21374309 1.8983223
00000000: c67f 69bf acc9 b5c0 353b 943f 33f5 a6c0
00000010: 15c8 47c0 a143 0a40 8a5a 96bf b097 05bf
00000020: c338 8abc dbd2 7b40 109a 90c0 9ad2 9e40
00000030: 4437 d73f a5e8 8040 e0a8 49bf aa44 4b40
00000040: 2df5 9940 aa2d 86c0 35eb adc0 1b97 683f
00000050: fe51 9940 738b 9940 bf1b 2dc0 5def 22c1
00000060: 2a77 bd3f 42f8 4040 34ba 6b40 0380 a240
00000070: 61c2 7fbf 32d1 debf 34d4 a440 cc55 82c0
00000080: 97f7 82bf fc29 b93e ab4c a1c0 d44e 2240
00000090: 2124 cbc0 e6a4 ad3f e406 bac0 40fb 2640
000000a0: cd0f 363f 2ee7 7440 083d 1abe 4c15 ae3f
000000b0: 464b a1be 01f4 cd40 9220 63c0 b31c 16bf
000000c0: b600 7c40 187f 313d b790 aa3f b0e0 8840
000000d0: e076 583f cdbe 5740 d60a cac0 f633 a5bf
000000e0: 23ca e43e c16a f83e 3d0f da3f 8290 3ac1
000000f0: 7111 a1be 3e16 2640 fc15 84bf d8d7 fb3f
00000100: ef66 7e40 63b0 6140 6ebf 38c0 c495 4ac0
00000110: 80fa 9f40 d3a1 8140 f06e 8e3f 9c04 5e40
00000120: b0d0 8940 2fee 44c0 42e8 8dc0 c20d 38bf
00000130: 681c 9840 244e 983f 5f4e 7d3f 9bf4 d4c0
00000140: 60d3 bebe 371b 883f 2e20 9d3e 9ab7 8440
00000150: 52ef 4040 0cf7 1a40 982d 5dbf 72da 11c0
00000160: a3a7 3c40 4999 87c0 7410 01c0 3e06 c33f
00000170: bf95 0540 c003 b13f f95b 1740 fa2e c43f
00000180: 402e 8c40 eb0a 77be 4977 af3f 85ba 7a40
00000190: 5d35 f53e 8212 e0c0 4b41 4dc0 e549 85bf
000001a0: 5e90 eabf fc00 a13f cdd6 4dc0 9142 4d40
000001b0: 2564 993e 2426 8740 5d2f 4740 21bf a640
000001c0: b445 8540 3c3a 8c40 08cb d2be 61fb 7c40
000001d0: 13b5 873e 7d4f 98c0 21cf 393c 51d5 7140
000001e0: 6cd6 86be 158e 6240 6e27 3bc0 c06b e23f
000001f0: 17bd 4140 4ec2 523f 17b4 8940 89b7 3840
00000200: ca0c 4440 4c22 9240 6159 a4bf a3a5 6e3f
00000210: cf0d 6f40 5ccf 0ec0 8ec9 db40 859d 933f
00000220: ded2 15c0 2339 8b40 15c3 31c0 3590 6140
00000230: 3138 8fc0 1dba 94c0 6c11 fc3f f240 bbc0
00000240: 7095 ddc0 02e4 5840 05f4 7440 90e2 2140
00000250: f875 8740 0a49 9b3f f1d2 99c0 9177 3a40
00000260: c069 6040 39f2 9a3f a54c dabd e128 9540
00000270: adb3 1f3f dcad d0c0 aac7 4240 ef43 9540
00000280: c3bf 9d3f 8eb2 4340 3588 ad40 8e52 1e40
00000290: 4e49 7840 2f74 4bc0 4dfe 7840 1a91 403f
000002a0: 6f7d 5840 240f d4bf 4e5c 7dbe e381 6fc0
000002b0: 1ad3 1ac0 ca16 ac40 e581 1ec0 63ee 5440
000002c0: 7dbb fabf abd7 a440 0acc a840 cdb3 2dc0
000002d0: c0e0 e83f dbfe 8840 9af9 cfbf 0069 9040
000002e0: 9cb9 4d40 6604 0640 e059 0940 6103 073e
000002f0: 53d1 6940 b2e0 6ec0 ef43 3c3f 919c 5840
00000300: 1010 14c0 f9c4 e7be ef62 5c40 39b9 8ebe
00000310: 0eda af40 220b 8340 425a a53c 1aa6 1440
00000320: 4d24 8cbf a19d de40 2269 08bf ef14 95c0
00000330: 867f c53f 2d2e 91bf fa92 943e 6c46 2f40
00000340: 42f8 cbbd 39d9 883f 8c1d 1dc0 d6c1 eabf
00000350: 003c 92c0 ee97 09c0 cc79 30c0 2221 f2c0
00000360: 20c1 9840 a1e3 b9be 5f91 91c0 9642 343f
00000370: f25e 5940 65c8 97c0 3814 4340 6f33 1340
00000380: 8419 c340 9a0b ebc0 c8cb d4bf f553 87c0
00000390: 1a39 7840 eec0 21c0 7285 79c0 12d3 9440
000003a0: 3580 d73e 88a9 65c0 2218 7ec0 ddf8 9cc0
000003b0: 3787 6940 3927 98c0 119a 8240 adb4 723f
000003c0: 70a1 a340 5171 68c0 794a 9240 e7b5 8cbf
000003d0: 2497 3d40 b068 1fc0 fd5e 9fc0 a98e a1bd
000003e0: b013 9040 7495 3440 a157 56c0 b20c 4b40
000003f0: ec0e 5a40 b7ff 27bf 78df 5abe 3afc f23f

fc2.weight f4 [200, 300]
-0.04793495 -0.015508577 0.002660375 -0.07772174 0.043109402 -0.034099884 -0.04031279 -0.019465825
-0.019018784 -0.005275931 -0.05771582 -0.07421992 -0.022175133 0.036200978 -0.051190462 -0.04355107
-0.0058499454 0.009740363 0.032977916 -0.0136711 -0.02750138 -0.08125336 -0.088592276 0.024084471
-0.04151331 -0.09086473 -0.03256877 0.033637945 0.008578057 0.00056910515 -0.014235415 -0.04705193
-0.044847485 -0.024566717 0.015563998 -0.060806837 -0.057848915 -0.028921638 -0.026702294 -0.085299075
-0.05658884 -0.04113705 -0.086386874 0.013809547 -0.015003528 0.009297048 0.055826902 -0.05562961
-0.0068292436 -0.03567943 -0.0033269897 -0.0006630229 -3.312528e-05 -0.075367324 0.012833618 -0.07977812
-0.043484014 -0.036241956 0.024533138 -0.043105703 -0.038909297 0.0003421054 -0.011056997 -0.011808857
-0.023457525 -0.031756647 0.023971051 -0.060646646 -0.10374695 -0.032758765 -0.0135867745 0.007571983
-0.01068753 -0.07925657 -0.089106366 -0.019611113 -0.0076623224 -0.05381065 -0.0012792463 0.013572194
-0.005237127 -0.0679986 0.03343305 0.032918952 -0.007970828 0.027524017 -0.08047849 0.026583083
-0.061998945 -0.010958549 -0.04422835 -0.037706014 0.020589978 -0.090596505 -0.047003772 0.010422863
-0.03139529 -0.056876604 -0.0389242 -0.009149897 0.027980085 0.030539393 -0.0017465435 0.026768424
-0.034166943 -0.010308817 0.0030835324 -0.044296138 -0.017050952 -0.034222823 0.029635997 -0.063029
-0.072774485 -0.0083033135 0.05326417 -0.04763404 0.03444262 -0.08083612 -0.004263417 -0.028749367
-0.037154663 -0.009508461 0.02938009 -0.0054131495 -0.022028858 0.027331876 0.014549775 -0.06287254
-0.03683056 -0.07831034 -0.0384101 -0.028056454 -0.07274468 0.057339005 0.0010910003 0.018022256
0.03152048 -0.03145862 -0.0011740066 -0.05001453 -0.037922084 -0.053456903 -0.064921476 0.025489815
0.04028821 -0.0049274587 -0.0153674865 -0.06586771 -0.047246605 0.03026558 -0.02037428 0.0028527942
-0.03443144 -0.02917033 -0.042892672 -0.07841465 -0.051072527 0.043555386 -0.04531688 -0.038764007
-0.022074271 -0.053050682 -0.08843581 -0.067350395 -0.044400446 -0.039933767 -0.055591363 -0.046400324
-0.021803474 -0.039136816 -0.08454656 0.023902703 -0.050086755 -0.05640721 0.0011299999 0.03133196
-0.04976493 0.032240942 -0.035195135 -0.030206362 0.017422477 -0.06782724 0.049004965 -0.027266683
-0.036890164 -0.068468 -0.019380141 -0.09450811 -0.015079704 -0.058258705 -0.012618187 0.015962144
0.057247818 -0.030538369 -0.04834999 0.01636593 0.00621596 -0.033187177 0.0034979763 -0.043264218
0.007867269 -0.0669108 -0.07258077 -0.010076214 0.031767823 -0.066806495 0.03836041 -0.036481902
-0.0022820346 -0.019035548 -0.059320427 0.031215541 -0.0018518455 -0.018091176 -0.0350871 -0.02979473
-0.071977265 -0.026341934 -0.05734098 0.028239131 -0.077155486 -0.0233141 1.2659875e-05 -0.04229396
-0.05648917 -0.006243672 0.0115733445 -0.035832167 -0.029093962 0.02297426 0.013990417 -0.021205558
-0.02868045 -0.04777933 -0.08103729 0.0018670931 -0.072096474 -0.012921281 -0.06717903 -0.021442238
-0.037553273 -0.07748331 -0.050219424 -0.04846685 0.0045437487 0.045504935 -0.009268177 -0.049753755
-0.0570964 0.0065110773 0.009775754 0.027709998 -0.033876367 0.04352022 -0.019613255 0.029655084
00000000: 7057 44bd b017 7ebc b059 2e3b 932c 9fbd
00000010: 7c93 303d 52ac 0bbd 061f 25bd cb76 9fbc
00000020: 48cd 9bbc b8e1 acbb 6c67 6cbd 9d00 98bd
00000030: a0a8 b5bc 7a47 143d 17ad 51bd 9b62 32bd
00000040: e6b0 bfbb 0b96 1f3c da13 073d c0fc 5fbc
00000050: 934a e1bc 2968 a6bd de6f b5bd cc4c c53c
00000060: dc09 2abd 4a17 babd d566 05bd f1c7 093d
00000070: fb8a 0c3c 0030 153a a83b 69bc 86b9 40bd
00000080: ffb1 37bd 2440 c9bc 2400 7f3c 9710 79bd
00000090: fcf2 6cbd 12ed ecbc c5be dabc 48b1 aebd
000000a0: b3c9 67bd 537f 28bd 9aeb b0bd 7041 623c
000000b0: 5cd1 75bc a552 183c c0aa 643d e0db 63bd
000000c0: d9c7 dfbb 9824 12bd a009 5abb b7ce 2dba
000000d0: 00f0 0ab8 2f5a 9abd 1844 523c b662 a3bd
000000e0: 4b1c 32bd 7272 14bd b8f9 c83c 9b8f 30bd
000000f0: 5b5f 1fbd 9c5c b339 6828 35bc f079 41bc
00000100: ff29 c0bc 4213 02bd f05e c43c 9e68 78bd
00000110: 4879 d4bd 0e2e 06bd 109b 5ebc 661e f83b
00000120: c01a 2fbc 4551 a2bd 667d b6bd 7ca7 a0bc
00000130: 3814 fbbb 8e68 5cbd 62ac a7ba e85d 5e3c
00000140: 359c abbb da42 8bbd 18f1 083d 06d6 063d
00000150: 1398 02bc 0c7a e13c e8d1 a4bd c4c4 d93c
00000160: 9bf2 7dbd 7c8b 33bc c928 35bd 9f71 1abd
00000170: 50ac a83c a98a b9bd 0787 40bd a8c4 2a3c
00000180: 5998 00bd 71f7 68bd fb6e 1fbd 73e9 15bc
00000190: 7e36 e53c c02d fa3c 46ec e4ba 7449 db3c
000001a0: a3f2 0bbd 50e6 28bc 1715 4a3b de6f 35bd
000001b0: 70ae 8bbc 3b2d 0cbd 31c7 f23c 5915 81bd
000001c0: ca0a 95bd 9f0a 08bc 882b 5a3d e91b 43bd
000001d0: b413 0d3d 688d a5bd 22b4 8bbb cb83 ebbc
000001e0: 7d2f 18bd 60c9 1bbc 84ae f03c ca60 b1bb
000001f0: dd75 b4bc 19e7 df3c 2e62 6e3c 51c3 80bd
00000200: a4db 16bd 2c61 a0bd e953 1dbd a6d6 e5bc
00000210: 2afb 94bd 4edc 6a3d e5ff 8e3a 69a3 933c
00000220: 9e1b 013d c1da 00bd 20e1 99ba 09dc 4cbd
00000230: 3054 1bbd a0f5 5abd 8df5 84bd 04d0 d03c
00000240: 4005 253d 8576 a1bb e9c7 7bbc a6e5 86bd
00000250: a885 41bd 86ef f73c f6e7 a6bc f2f5 3a3b
00000260: fb07 0dbd 9ef6 eebc 3ab0 2fbd dc97 a0bd
00000270: 6d31 51bd 2267 323d 319e 39bd 02c7 1ebd
00000280: 1ad5 b4bc ac4b 59bd d51d b5bd 01ef 89bd
00000290: 3edd 35bd 9791 23bd c5b3 63bd 440e 3ebd
000002a0: 339d b2bc ed4d 20bd bf26 adbd 9acf c33c
000002b0: c527 4dbd 3f0b 67bd 811c 943a f155 003d
000002c0: 50d6 4bbd 140f 043d c628 10bd 5573 f7bc
000002d0: 95b9 8e3c 02e9 8abd 6eb9 483d 615e dfbc
000002e0: 241a 17bd f338 8cbd 1ac3 9ebc 788d c1bd
000002f0: dd10 77bc aea0 6ebd 83bc 4ebc 0bc3 823c
00000300: b07c 6a3d 9a2b fabc a40a 46bd d811 863c
00000310: 40af cb3b 47ef 07bd 4e3e 653b d235 31bd
00000320: b8e5 003c 8808 89bd 3aa5 94bd b416 25bc
00000330: fa1e 023d d8d1 88bd ce1f 1d3d 0c6e 15bd
00000340: 308e 15bb 70f0 9bbc faf9 72bd bcb7 ff3c
00000350: a0b9 f2ba f233 94bc 7eb7 0fbd 1414 f4bc
00000360: d168 93bd 0acb d7bc 60de 6abd c055 e73c
00000370: b203 9ebd 36fd bebc c065 5437 6e3c 2dbd
00000380: 3061 67bd b897 ccbb 209e 3d3c c0c4 12bd
00000390: 7656 eebc 8434 bc3c 1038 653c 47b7 adbc
000003a0: 43f3 eabc 42b4 43bd e1f6 a5bd 40b9 f43a
000003b0: 51a7 93bd c8b3 53bc 2995 89bd a2a7 afbc
000003c0: 76d1 19bd 92af 9ebd e2b2 4dbd 2d85 46bd
000003d0: bae3 943b 6263 3a3d 8dd9 17bc 98ca 4bbd
000003e0: eadd 69bd e05a d53b 7c2a 203c 1400 e33c
000003f0: f2c1 0abd 4242 323d faab a0bc 38ef f23c

fc2.bias f4 [200]
-0.0108598275 0.16588932 0.12293128 2.643489 -0.06872132 -0.097421326 1.8803973 -0.0778782
-0.04316736 0.36396557 -0.06858721 -0.0911255 -1.1627228 -0.05964453 -0.09770445 0.018543804
-0.025476659 -0.068453096 -0.0883166 1.054837 2.3017201 1.0561484 0.8348036 0.03171194
0.2631132 0.0043467716 -0.54321396 0.9093104 -0.04593156 2.197147 1.001073 2.4622686
0.003072589 2.1048641 -0.041982703 -0.027778918 0.79814625 -1.3534602 -1.6432617 1.4040055
0.00068811077 -0.0657634 0.86484474 -0.04991022 0.007311675 -0.053158715 -0.38271147 -0.26239794
0.7486738 0.06401074 -0.10006631 0.11941572 -0.027562847 -0.073608965 0.022447959 -0.04653879
0.0077722194 0.035955105 0.7541659 0.605442 -0.0927125 -0.023053495 0.78458196 -0.043126382
2.2105262 -0.00837782 -0.031775273 0.8694503 -0.053080484 -0.03474437 -1.2094946 0.31407583
2.3442342 0.817518 -0.12900847 0.052208755 -0.03593648 -0.050618034 1.2553496 2.3723755
-0.69848603 -2.5369256 1.9322456 -0.049367692 0.8416549 -0.6175031 3.7787783 1.6544063
0.80410683 0.06335683 -0.56073797 -1.4702867 2.3016036 -0.5669673 0.0038993815 0.69765157
3.028124 -0.008492375 0.26785183 -0.033742253 -0.047730897 -0.058441244 0.014094352 1.6364666
2.5101278 -0.084516756 0.5934613 -0.06690335 1.4946461 0.017610606 0.15079425 1.2036204
0.0071137664 2.5237212 -0.2031576 -2.2918282 -0.09368853 1.1581929 -0.044758078 2.5682395
0.016222918 -0.07920442 1.8128986 1.2293682 0.9758714 0.24103886 1.8040329 -0.086781755
0.42673007 1.7171724 2.3906014 0.011896403 -0.0027568669 2.1609344 2.0111759 2.4157817
2.2220306 2.4828038 -0.0581991 -0.13771085 -0.049660623 -0.04177781 -0.4613012 2.58564
-0.035772562 -0.049923856 -0.01619684 1.1524706 -0.084084615 -0.25336772 0.015036862 -0.03332874
2.7086205 3.025763 0.5626281 0.85602313 -0.00584622 1.9717282 -1.2691782 -0.035034947
1.9366776 2.3778334 -0.053073034 -0.71362466 -0.06293214 1.6958221 1.0878131 0.04406144
-1.677356 2.5991974 -0.09471673 -0.0817451 1.2301961 -0.017251112 -0.010585084 2.3238678
2.653402 1.5404855 0.6769379 0.4592448 0.89943707 -2.9343746 -0.008744766 0.27320677
-0.07466696 -0.04587568 -0.001076099 -2.366931 0.77454436 0.5361574 2.4286513 0.4104876
-0.062349126 1.9796746 1.4628955 -0.06726099 1.7298996 -0.29786316 0.28153127 0.61480993
00000000: 6bed 31bc e4de 293e 65c3 fb3d ec2e 2940
00000010: c3bd 8cbd d584 c7bd dcb0 f03f 9b7e 9fbd
00000020: 42d0 30bd b259 ba3e 7377 8cbd 02a0 babd
00000030: 1ad4 94bf d34d 74bd 4519 c8bd 2de9 973c
00000040: 6db4 d0bc 2331 8cbd 55df b4bd e604 873f
00000050: 624f 1340 df2f 873f b0b5 553f 61e4 013d
00000060: c6b6 863e 5d6f 8e3b 1210 0bbf 91c8 683f
00000070: bb22 3cbd 0e9e 0c40 2923 803f cf95 1d40
00000080: 7d5d 493b 18b6 0640 0ef6 2bbd 9d90 e3bc
00000090: 5053 4c3f 2f3e adbf 6656 d2bf 74b6 b33f
000000a0: 5562 343a f6ae 86bd 7766 5d3f a96e 4cbd
000000b0: c796 ef3b f4bc 59bd c2f2 c3be 0659 86be
000000c0: 16a9 3f3f 1018 833d 91ef ccbd 3b90 f43d
000000d0: 7bcb e1bc 4cc0 96bd c8e4 b73c 759f 3ebd
000000e0: 1aae fe3b a945 133d 0411 413f 3ffe 1a3f
000000f0: 0de0 bdbd afda bcbc 5dda 483f 4aa5 30bd
00000100: 4379 0d40 2043 09bc ca26 02bd 4b94 5e3f
00000110: ec6a 59bd 1d50 0ebd b8d0 9abf 8cce a03e
00000120: ef07 1640 dc48 513f cc1a 04be d9d8 553d
00000130: 2132 13bd db54 4fbd 4caf a03f 00d5 1740
00000140: fbcf 32bf fd5c 22c0 d353 f73f c735 4abd
00000150: b276 573f af14 1ebf 81d7 7140 96c3 d33f
00000160: f2d9 4d3f 3ac1 813d 868c 0fbf 5b32 bcbf
00000170: 794d 1340 c524 11bf c48c 7f3b 4b99 323f
00000180: c9cc 4140 9a23 0bbc e023 893e 5135 0abd
00000190: 7981 43bd 1660 6fbd ffeb 663c bd77 d13f
000001a0: efa5 2040 1f17 adbd 14ed 173f a004 89bd
000001b0: 9050 bf3f 1e44 903c cf69 1a3e 3c10 9a3f
000001c0: 991a e93b a684 2140 8c08 50be 50ad 12c0
000001d0: c6df bfbd aa3f 943f 3f54 37bd 095e 2440
000001e0: ede5 843c ed35 a2bd 100d e83f f05b 9d3f
000001f0: b5d2 793f e4d2 763e 8dea e63f a2ba b1bd
00000200: 5d7c da3e 4ecc db3f 9dff 1840 21e9 423c
00000210: 8dac 34bb c04c 0a40 1bb7 0040 2b9c 1a40
00000220: c035 0e40 42e6 1e40 2e62 6ebd 1304 0dbe
00000230: f068 4bbd 351f 2bbd ac2f ecbe 207b 2540
00000240: 4086 12bd f57c 4cbd 3caf 84bc 2884 933f
00000250: 8e34 acbd 6ab9 81be 2c5d 763c b883 08bd
00000260: 0a5a 2d40 1aa6 4140 6508 103f 5524 5b3f
00000270: a691 bfbb 9761 fc3f 6e74 a2bf ce80 0fbd
00000280: 0de5 f73f 6c2e 1840 1c63 59bd 1bb0 36bf
00000290: 91e2 80bd b310 d93f 763d 8b3f c579 343d
000002a0: 9ab3 d6bf 4059 2640 d8fa c1bd fa69 a7bd
000002b0: 1177 9d3f 3452 8dbc 0f6d 2dbc 40ba 1440
000002c0: 57d1 2940 a12e c53f cd4b 2d3f 2222 eb3e
000002d0: 8241 663f cbcc 3bc0 3546 0fbc c2e1 8b3e
000002e0: feea 98bd 23e8 3bbd e40b 8dba cc7b 17c0
000002f0: 8a48 463f 9d41 093f 066f 1b40 6e2b d23e
00000300: cc61 7fbd fa65 fd3f 2940 bb3f 21c0 89bd
00000310: 5a6d dd3f 8581 98be de24 903e 2f64 1d3f

fc3.weight f4 [1, 200]
-0.008218562 -0.001111606 1.827628 -4.541773 2.283316e-05 -0.015684607 -0.26788896 -0.025860367
-0.06010647 -1.5915241 0.0008411989 -0.0014465372 0.15006408 -0.02219091 -0.011702685 -0.015539783
0.0032243968 -0.0036746971 -0.7979078 0.059711587 -0.6138178 0.1259984 -4.335221 -3.212374
-1.5331109 0.0042825094 0.20929696 1.3817132 -0.020080505 -1.829365 2.2977889 2.714489
0.011126189 -1.9064467 0.00611817 0.026048498 -1.6100017 -0.03886832 0.023861721 0.022820491
0.014488307 0.015521157 1.2036121 -0.0009238548 0.00929146 0.0342489 -0.0041535194 0.03170822
1.4273709 -3.3948753 0.03175292 -1.0373131 0.021652598 0.0016323385 -0.004397529 0.020343142
0.005203599 -0.017998042 -3.0962465 -1.4340466 -0.0061014057 2.2073183 0.36509266 0.025551165
1.0638022 -0.029619234 0.029291404 -5.520913 0.028529573 1.8061036 0.6934736 -0.60925674
-2.4407039 2.4439409 1.0371938 0.009111712 0.020507056 -0.017217584 -0.26427552 -6.109552
-0.010473323 -0.027147472 0.39343116 -0.029928563 3.444322 2.4942634 0.3350705 7.390825
0.021496134 -0.1491998 0.021844452 0.014921377 2.0150206 0.60404044 0.002464195 0.82473034
-4.177199 -0.004768666 -0.50369555 -0.013693878 -0.040932156 -0.00591933 0.0075864187 -2.7982357
-8.074747 0.020482842 -4.3571553 0.021760633 -2.5606012 0.028401049 0.0014877488 4.083551
0.01478354 0.15885603 -0.637152 0.11977334 -0.02402564 -0.51794124 -0.03986671 -3.6318982
0.014854321 -0.027534908 1.0627049 -3.694268 -4.317919 1.3455955 -1.4314939 -0.0057474985
0.029036218 -2.1308937 -0.924448 -0.020883316 -0.010159464 -2.2367527 -4.8635755 -4.6586175
-0.41050905 -1.2015855 0.024541598 -0.029377088 -0.024288274 -0.055908017 -0.033310115 4.1180825
0.0019747787 -3.0732248 0.009185287 4.7467365 -0.023578597 -0.21123414 0.031864684 -0.035698056
4.815213 0.8953335 4.347753 -4.449187 0.020814396 -4.602833 0.019201325 0.030487237
-2.3283064 -1.834411 0.036368616 0.89645284 0.03290405 5.700811 -4.8920336 0.0028968
-0.028322816 5.510752 0.02175877 -0.017752169 -0.014810548 -0.018441357 0.014407281 -5.5664763
2.5989199 4.8336334 -1.9390981 0.846069 2.3561168 0.12641564 0.011533182 0.009457247
-0.03541493 0.036696445 0.019292597 0.56437385 6.3119206 -0.62965643 -0.19667417 -1.2938547
0.02682523 -1.545628 -2.150444 0.0007799054 5.0372944 3.7113905 -1.0619897 2.700496
00000000: 26a7 06bc 4fb3 91ba b7ef e93f 3456 91c0
00000010: d689 bf37 017d 80bc be28 89be 1fd9 d3bc
00000020: 3432 76bd 10b7 cbbf e783 5c3a bc99 bdba
00000030: 66aa 193e b6c9 b5bc 9ebc 3fbc 939a 7ebc
00000040: 6750 533b 30d3 70bb b043 4cbf 2394 743d
00000050: 2a23 1dbf b905 013e 21ba 8ac0 8997 4dc0
00000060: fa3c c4bf 4b54 8c3b f151 563e fadb b03f
00000070: df7f a4bc a228 eabf f90e 1340 30ba 2d40
00000080: 9e4a 363c 7206 f4bf ee7a c83b a963 d53c
00000090: 8914 cebf 6334 1fbd a879 c33c 0af2 ba3c
000000a0: 5d60 6d3c 734c 7e3c f60f 9a3f d92e 72ba
000000b0: 353b 183c 9348 0c3d 3f1a 88bb 7ae0 013d
000000c0: 17b4 b63f a345 59c0 5a0f 023d adc6 84bf
000000d0: ca60 b13c 31f4 d53a 2619 90bb a9a6 a63c
000000e0: f482 aa3b a170 93bc e728 46c0 d78e b7bf
000000f0: 4dee c7bb b444 0d40 6ded ba3e ad50 d13c
00000100: ac2a 883f 09a4 f2bc 87f4 ef3c 52ab b0c0
00000110: dab6 e93c 672e e73f 7c87 313f 40f8 1bbf
00000120: 7e34 1cc0 8769 1c40 c4c2 843f 4a49 153c
00000130: 6afe a73c e40b 8dbc 1f4f 87be 7381 c3c0
00000140: 4d98 2bbc 6064 debc cf6f c93e bf2c f5bc
00000150: c66f 5c40 03a2 1f40 5c8e ab3e a381 ec40
00000160: a918 b03c d5c7 18be 23f3 b23c cb78 743c
00000170: 19f6 0040 65a2 1a3f 557e 213b 8721 533f
00000180: 9dab 85c0 7842 9cbb 31f2 00bf 4a5c 60bc
00000190: 7aa8 27bd f0f6 c1bb 7e97 f83b 4b16 33c0
000001a0: 2a32 01c1 a2cb a73c d16d 8bc0 5b43 b23c
000001b0: e4e0 23c0 51a9 e83c 9100 c33a 73ac 8240
000001c0: a936 723c 28ab 223e 651c 23bf ba4b f53d
000001d0: 6bd1 c4bc cc97 04bf 464b 23bd 0571 68c0
000001e0: 8a5f 733c e390 e1bc b706 883f e36e 6cc0
000001f0: 642c 8ac0 793c ac3f 313b b7bf 8355 bcbb
00000200: 5ddd ed3c 9060 08c0 a0a8 6cbf 7d13 abbc
00000210: e173 26bc f526 0fc0 69a2 9bc0 6513 95c0
00000220: 3e2e d2be 8ecd 99bf 760b c93c 38a8 f0bc
00000230: 34f8 c6bc ceff 64bd 3070 08bd 55c7 8340
00000240: 4a6b 013b b7af 44c0 e37d 163c 44e5 9740
00000250: e727 c1bc c34d 58be 8b84 023d 2038 12bd
00000260: 3a16 9a40 9434 653f cb20 8b40 bd5f 8ec0
00000270: f482 aa3c 684a 93c0 194c 9d3c 5fc0 f93c
00000280: f902 15c0 fbcd eabf 42f7 143d ef7d 653f
00000290: 66c6 063d 0b6d b640 8a8b 9cc0 3dd8 3d3b
000002a0: 4005 e8bc 1558 b040 733f b23c ff6c 91bc
000002b0: f1a7 72bc 5412 97bc 840c 6c3c 9320 b2c0
000002c0: b454 2640 20ad 9a40 5e34 f8bf fa97 583f
000002d0: 9eca 1640 1a73 013e acf5 3c3c 92f2 1a3c
000002e0: 3f0f 11bd 034f 163d 820b 9e3c ce7a 103f
000002f0: 41fb c940 2a31 21bf f464 49be 089d a5bf
00000300: 96c0 db3c 23d7 c5bf e0a0 09c0 9172 4c3a
00000310: 8431 a140 6c87 6d40 47ef 87bf edd4 2c40
