log/train_2_1k800/models/1620_actor.pt (torch_old, 249426 bytes, 6 tensors)

fc1.weight f4 [300, 4]
0.1739821 -0.11469038 -1.2060653 -0.730246 -0.26466393 0.104071476 1.2868358 -0.17591415
-0.10990472 0.05431777 -1.5508513 -0.47480056 -0.30011535 -0.075964764 -1.0578923 0.5801981
-0.16133098 0.3251244 -1.0184445 0.27027503 -0.13048041 0.11758594 1.0617987 0.7028724
-0.1105976 -0.6273469 0.4276789 -0.7547641 0.40288794 0.101586245 0.6508973 -0.669003
0.29205865 -0.12351435 -1.0946239 0.18017644 -0.11761624 0.4758979 0.26820207 0.75001943
-0.0858562 -0.17038622 -0.31099895 -0.09673341 0.35048112 -0.01523369 0.8311474 0.644318
-0.33942828 -0.1806682 0.6436786 0.23237935 -0.09294149 -0.23429999 1.0853688 0.6642761
0.30844116 0.19587924 0.49872464 0.18340516 0.2170721 -0.007039829 1.2738324 -0.89037174
-0.02482076 0.3619693 0.4389168 0.78692764 0.14667974 0.13035399 1.028914 0.8441443
-0.22579615 -0.193351 -1.4902209 -0.021959778 -0.2697126 -0.47937214 -0.29750293 0.6177258
0.226246 0.5368974 -0.16076595 -0.63484144 0.2765753 -0.01159459 -0.15198508 -0.7147076
-0.38039473 -0.35678652 -1.003767 0.38236403 0.27255836 -0.58894974 -0.34838024 0.4028301
0.4198196 0.048334587 0.8592051 -0.73993725 0.14227544 0.09125663 -0.99604374 -0.48516226
0.2110183 0.021257652 -0.8395733 0.18258016 0.005451817 0.27362907 -0.47444934 0.6955105
0.35784265 0.27566916 0.5371324 0.13798416 -0.13210715 -0.4803312 -1.3972323 0.5822253
-0.23747134 0.26269302 1.3666515 0.049770642 -0.099994816 -0.21779676 -0.4807639 0.34148896
0.25277898 0.062205 -0.33828264 -0.66573876 -0.24786344 -0.0016364576 0.4533752 0.012479833
0.1389557 0.2734441 1.3534683 0.48747084 -0.19399364 -0.357778 0.488328 -0.13181245
0.00941022 -0.41646346 0.045520484 -0.32736924 -0.19915803 -0.15503839 1.0686525 0.57694864
0.17451413 -0.26465595 0.388998 0.20218146 -0.10708566 0.5098174 0.9258561 0.17302294
0.013715256 0.42995545 -1.0252062 -0.6505732 -0.20675959 -0.02031417 -0.26118255 0.055483695
0.13944584 -0.39011696 -0.14482495 -0.43811107 0.28263932 -0.3961245 0.27219892 0.23847014
0.008063128 0.5280864 -0.4691369 -0.15347505 -0.22188018 0.037289824 -0.13497634 1.6337911
-0.073434554 0.5083839 0.21511608 0.9997197 0.17002206 -0.53645796 -1.0159513 -0.04330183
0.23030466 0.037598584 -0.8892806 0.88893974 0.12597433 0.2603067 -0.26569998 0.10900697
-0.027989844 -0.53420365 0.53589153 0.33893576 -0.13615234 -0.26722443 -0.3544772 0.5831685
0.09057681 0.17462446 -0.9384967 -0.11180491 0.32561287 0.093119584 -0.3732275 -0.34897637
-0.13372895 -0.18650001 -0.28401423 -0.4249525 -0.10363923 -0.0148314675 -1.0494933 -0.23500186
0.31340602 -0.16179271 1.5945387 0.72536045 0.079704285 0.2636456 -0.16098893 0.39731815
0.10197961 0.56123185 -0.69621915 -0.17144807 0.27358377 0.31184006 0.5769023 -0.2913234
-0.019056842 -0.5571764 -0.067620315 -0.09342556 0.08083285 0.14278859 -0.46334594 -1.0064434
-0.25108454 -0.20011635 -0.68673855 0.09289662 -0.19990899 -0.0372213 1.4188468 -0.5981368
00000000: 5d28 323e cae2 eabd 5960 9abf 67f1 3abf
00000010: 0882 87be 6d23 d53d 09b7 a43f d722 34be
00000020: ba15 e1bd 4f7c 5e3d 4c82 c6bf 0f19 f3be
00000030: b8a8 99be 6a93 9bbd 0469 87bf dd87 143f
00000040: f333 25be b576 a63e 645c 82bf 7d61 8a3e
00000050: a89c 05be e6d0 f03d 05e9 873f 72ef 333f
00000060: ff80 e2bd ce99 20bf bbf8 da3e 3838 41bf
00000070: 5447 ce3e 730c d03d 35a1 263f c843 2bbf
00000080: b688 953e 17f5 fcbd a31c 8cbf 2c80 383e
00000090: c9e0 f0bd e4a8 f33e c851 893e 4601 403f
000000a0: 60d5 afbd ba79 2ebe 413b 9fbe 2b1c c6bd
000000b0: 4372 b33e ba96 79bc 13c6 543f 06f2 243f
000000c0: 8bc9 adbe 1601 39be 1fc8 243f daf4 6d3e
000000d0: 1c58 bebd 56ec 6fbe 5ded 8a3f 000e 2a3f
000000e0: 00ec 9d3e 9194 483e d658 ff3e 90ce 3b3e
000000f0: 2648 5e3e 5eae e6bb f10c a33f 67ef 63bf
00000100: e854 cbbc 0a54 b93e b4b9 e03e 1774 493f
00000110: 3733 163e 847b 053e 74b3 833f d719 583f
00000120: 1b37 67be cefd 45be 8fbf bebf fee4 b3bc
00000130: c517 8abe 4470 f5be 4e52 98be 4723 1e3f
00000140: 08ad 673e 1c72 093f d49f 24be f884 22bf
00000150: 479b 8d3e 3cf7 3dbc faa1 1bbe 14f7 36bf
00000160: 19c3 c2be b9ac b6be 707b 80bf 38c5 c33e
00000170: c58c 8b3e 69c5 16bf e55e b2be bf3f ce3e
00000180: 98f2 d63e 7dfa 453d def4 5b3f 876c 3dbf
00000190: a7b0 113e c2e4 ba3d b9fc 7ebf 3067 f8be
000001a0: 2e15 583e 8724 ae3c 47ee 56bf 4bf6 3a3e
000001b0: 28a5 b23b 1c19 8c3e 06eb f2be fa0c 323f
000001c0: 2737 b73e 8224 8d3e 8281 093f b84b 0d3e
000001d0: 1947 07be f9ed f5be 82d8 b2bf b80c 153f
000001e0: b02b 73be b37f 863e 70ee ae3f 4ddc 4b3d
000001f0: 15ca ccbd 1d06 5fbe b026 f6be a4d7 ae3e
00000200: 3f6c 813e acca 7e3d 6233 adbe db6d 2abf
00000210: eacf 7dbe 687e d6ba cb20 e83e 3778 4c3c
00000220: 674a 0e3e dd00 8c3e 733e ad3f c795 f93e
00000230: 45a6 46be ae2e b7be 2106 fa3e d8f9 06be
00000240: 532d 1a3c b33a d5be b073 3a3d f19c a7be
00000250: 15f0 4bbe 62c2 1ebe 9bc9 883f e8b2 133f
00000260: d5b3 323e fc80 87be bf2a c73e a808 4f3e
00000270: ba4f dbbd 6583 023f e804 6d3f ed2c 313e
00000280: f4b5 603c 1f23 dc3e f539 83bf f78b 26bf
00000290: c9b8 53be e769 a6bc b8b9 85be df42 633d
000002a0: e4ca 0e3e 69bd c7be fe4c 14be 1850 e0be
000002b0: 1ab6 903e d5d0 cabe a85d 8b3e 8431 743e
000002c0: 361b 043c ac30 073f b632 f0be 9028 1dbe
000002d0: 8f34 63be 37bd 183d 3d37 0abe 1120 d13f
000002e0: db64 96bd 7325 023f 6447 5c3e a1ed 7f3f
000002f0: 431a 2e3e 4f55 09bf b10a 82bf 425d 31bd
00000300: fcd4 6b3e f900 1a3d e5a7 63bf 8e91 633f
00000310: 6aff 003e eb46 853e d409 88be 0c3f df3d
00000320: f54a e5bc 92c1 08bf 3030 093f fd88 ad3e
00000330: 856b 0bbe a4d1 88be 097e b5be 884a 153f
00000340: 5680 b93d c1d0 323e 5241 70bf f9f9 e4bd
00000350: bbb6 a63e 7bb5 be3d ad17 bfbe 08ad b2be
00000360: 3ef0 08be dcf9 3ebe 506a 91be 6093 d9be
00000370: ce40 d4bd afff 72bc cc55 86bf 54a4 70be
00000380: c176 a03e fdac 25be d819 cc3f 39b1 393f
00000390: 003c a33d 8efc 863e 48da 24be 496d cb3e
000003a0: b0da d03d e4ac 0f3f 6b3b 32bf 1590 2fbe
000003b0: 2c13 8c3e 80a9 9f3e deaf 133f 5728 95be
000003c0: 181d 9cbc 1da3 0ebf 857c 8abd e655 bfbd
000003d0: b18b a53d 2c37 123e ae3b edbe 23d3 80bf
000003e0: 278e 80be 4deb 4cbe 19ce 2fbf 9540 be3d
000003f0: f1b4 4cbe 5d75 18bd c69c b53f 7e1f 19bf

fc1.bias f4 [300]
0.5078302 -1.0402809 0.4271497 -0.3665575 -0.19846489 -0.24573432 0.006754282 -0.20045288
-0.27652335 -1.151447 1.3940679 -1.2317848 -0.95746917 0.42790526 -0.74696994 0.85482335
-1.8212823 -0.043526493 0.11509906 -1.1441921 -0.3910582 0.36131138 -0.2609388 -0.01711215
-0.2535974 0.42409047 0.7242707 -0.8669467 -1.319133 -0.8082928 0.68807554 0.5727875
-0.20706144 -1.5896223 0.55792326 0.848258 -0.6847919 0.95893216 0.2341733 -0.11335172
0.4422224 -0.768049 0.65780455 -1.086504 0.38313752 -1.0164639 0.12864763 -0.044273775
-0.60566026 -1.2768337 0.43703276 -1.0665284 -0.80246896 0.43741438 1.0498123 0.8944983
0.31135133 -1.3997933 -0.65450054 -0.98881 0.28216943 0.4221563 -0.17935763 -0.6473091
-0.7252768 -0.33403093 -0.30606768 -0.69185823 0.6950243 -0.5335729 -0.7484253 -0.4145635
0.65484786 -1.2991885 0.5046025 -1.0119921 0.19627085 1.1629422 -0.771505 -0.9130418
1.3433114 -1.4455147 0.20194176 -0.030685192 -0.02465963 -0.41014925 -1.3546219 -0.038436588
0.099378265 0.7746927 -0.87388605 -0.86171585 0.9679183 1.0511826 0.84687364 -0.26030263
-0.28860423 0.7199319 -0.32189295 -0.97943074 0.61633855 0.81343704 0.46865118 0.89789486
0.32780752 -0.3412041 -0.29738572 -0.99719894 -0.11158009 -0.51237625 -0.084221534 -0.59754914
1.1462698 -0.9436643 0.10970502 -1.458069 1.2096734 -0.55922985 -0.983852 -1.211804
0.40802115 1.2550498 0.016463395 -0.6611594 0.032188203 -0.6693941 0.35559914 0.13076805
1.3232545 0.76398236 -0.3795394 -0.88571084 0.939208 0.5958305 -0.84591347 -1.1070068
-0.45686775 -0.47248948 1.5823554 0.57746756 -0.9625212 -1.3505297 -1.0320661 0.24329859
-0.7071188 0.9370634 0.65603924 1.001031 0.6308637 0.6099109 -0.7201533 0.33211675
1.0490823 0.3199997 -0.44351712 -0.60919577 -0.5237836 0.97827965 0.95076287 0.21620382
0.24350832 0.30166185 0.5471383 -0.06480041 -0.18936339 0.29193187 0.08399937 0.98158425
0.028953994 0.60300344 1.7420849 0.09843276 0.6522309 -0.3977853 -0.751728 -0.004807402
0.62026674 0.9377072 0.29145736 -1.0177419 -0.8466612 -0.64921224 0.82242316 0.83271396
0.93399996 0.101584725 -0.7609654 1.007586 -0.21480884 0.61408037 -0.22077508 -1.2332551
-1.2667301 1.4598681 -0.6059826 -1.0241733 -0.94423646 -0.27482876 0.035939235 -0.0002776566
0.20759876 1.4589589 -1.4522002 -0.0926578 1.0029255 0.42659104 -0.5344241 1.1759307
-0.68978757 -0.9913841 -0.43871278 -1.260215 -1.2401011 -0.9695111 -0.1319054 0.20936571
0.84489363 -0.5369625 0.8794699 -0.3186162 0.53571296 -0.63881904 1.0638142 -0.7340955
0.1943177 -0.7394778 -0.46379 0.33804968 -0.8868143 0.846423 -0.8353541 -0.23073748
-0.3028194 -0.8859685 -1.2454468 0.82968265 -0.5961137 -1.0244985 -0.093078665 -1.1588367
0.6949701 -1.134744 0.35947502 -1.287859 -1.0045007 -0.14162564 -0.9428666 -1.2746034
0.16214956 0.8968332 -0.9481295 0.4591128 -0.10006034 0.13438858 1.0941471 0.63821
00000000: 2901 023f ed27 85bf 5eb3 da3e 6dad bbbe
00000010: 613a 4bbe c7a1 7bbe 0653 dd3b 8543 4dbe
00000020: 7894 8dbe 9e62 93bf d170 b23f 20ab 9dbf
00000030: b31c 75bf 6616 db3e 6c39 3fbf b4d5 5a3f
00000040: c71f e9bf d648 32bd 0eb9 eb3d e374 92bf
00000050: c838 c8be cefd b83e c599 85be c82e 8cbc
00000060: 85d7 81be 6322 d93e ce69 393f 38f0 5dbf
00000070: 5ad9 a8bf 47ec 4ebf b825 303f 34a2 123f
00000080: ea07 54be be78 cbbf 0fd4 0e3f 7027 593f
00000090: 864e 2fbf 947c 753f 20cb 6f3e f224 e8bd
000000a0: f96a e23e dc9e 44bf e165 283f 9012 8bbf
000000b0: 9a2a c43e 7d1b 82bf 34bc 033e 6b58 35bd
000000c0: 8d0c 1bbf 496f a3bf c2c2 df3e 0184 88bf
000000d0: 9b6e 4dbf c7f4 df3e 4060 863f d7fd 643f
000000e0: 7169 9f3e 6d2c b3bf 598d 27bf a722 7dbf
000000f0: 8378 903e df24 d83e 87a9 37be 0db6 25bf
00000100: beab 39bf 1a06 abbe e7b4 9cbe 9f1d 31bf
00000110: 1ded 313f 3c98 08bf cd98 3fbf ab41 d4be
00000120: 1ca4 273f cf4b a6bf a12d 013f f588 81bf
00000130: 3afb 483e 4adb 943f 5a81 45bf 1bbd 69bf
00000140: a1f1 ab3f a006 b9bf d2c9 4e3e 835f fbbc
00000150: fe02 cabc 15ff d1be 4064 adbf af6f 1dbd
00000160: d586 cb3d 4352 463f ffb6 5fbf 6999 5cbf
00000170: 7ec9 773f 278d 863f b6cc 583f 6346 85be
00000180: efc3 93be 754d 383f 27cf a4be f9bb 7abf
00000190: 5dc8 1d3f 693d 503f 0cf3 ef3e 70dc 653f
000001a0: 63d6 a73e 4eb2 aebe f142 98be 6e48 7fbf
000001b0: 1a84 e4bd 172b 03bf 577c acbd fbf8 18bf
000001c0: f8b8 923f fc93 71bf 07ad e03d 01a2 babf
000001d0: 94d6 9a3f b029 0fbf badd 7bbf 651c 9bbf
000001e0: 26e8 d03e 79a5 a03f 3ede 863c be41 29bf
000001f0: c7d7 033d 695d 2bbf 1711 b63e 0fe8 053e
00000200: 6760 a93f 5994 433f fd52 c2be f2bd 62bf
00000210: ef6f 703f 5988 183f c98d 58bf 66b2 8dbf
00000220: 92ea e9be 24ea f1be 9f8a ca3f ead4 133f
00000230: ca67 76bf 28de acbf be1a 84bf 4423 793e
00000240: bd05 35bf 63e3 6f3f 30f2 273f c921 803f
00000250: 4980 213f 1f23 1c3f f75b 38bf 350b aa3e
00000260: 5448 863f 00d7 a33e ad14 e3be 41f4 1bbf
00000270: af16 06bf 8970 7a3f 3265 733f 8964 5d3e
00000280: 3f5a 793e 6c73 9a3e 4111 0c3f 14b6 84bd
00000290: 7ae8 41be 1878 953e dd07 ac3d 1b49 7b3f
000002a0: ed30 ed3c 6f5e 1a3f a3fc de3f 1d97 c93d
000002b0: 9bf8 263f 84aa cbbe 3f71 40bf 6987 9dbb
000002c0: cdc9 1e3f 940d 703f e639 953e 5e45 82bf
000002d0: cabe 58bf c632 26bf 538a 523f be2c 553f
000002e0: 9f1a 6f3f a70b d03d a1ce 42bf 94f8 803f
000002f0: d9f6 5bbe 5f34 1d3f dd12 62be 4edb 9dbf
00000300: 3624 a2bf f5dc ba3f ad21 1bbf 1c18 83bf
00000310: 7bb9 71bf 5bb6 8cbe 0535 133d 7092 91b9
00000320: c594 543e 2abf ba3f b2e1 b9bf 5fc3 bdbd
00000330: dd5f 803f 246a da3e 05d0 08bf e684 963f
00000340: eb95 30bf 59cb 7dbf f69e e0be ba4e a1bf
00000350: a2bb 9ebf e131 78bf 3612 07be f763 563e
00000360: f34a 583f 6076 09bf f024 613f aa21 a3be
00000370: 7c24 093f a589 23bf 102b 883f afed 3bbf
00000380: 38fb 463e 6b4e 3dbf e275 edbe d914 ad3e
00000390: 4306 63bf 2daf 583f c4d9 55bf 7246 6cbe
000003a0: 250b 9bbe d5ce 62bf cd6a 9fbf 1566 543f
000003b0: e89a 18bf c422 83bf 07a0 bebd c354 94bf
000003c0: 8fe9 313f 4b3f 91bf 1c0d b83e 90d8 a4bf
000003d0: 7b93 80bf 5006 11be b55f 71bf 3426 a3bf
000003e0: 890a 263e dc96 653f 9db8 72bf d510 eb3e
000003f0: 6fec ccbd 299d 093e 030d 8c3f bb61 233f

fc2.weight f4 [200, 300]
0.019720517 0.0062099057 -0.43721893 0.0014503789 0.014626925 0.06164131 0.018682392 0.09366463
0.0036203186 -0.19131418 0.22959045 0.024715412 0.05804263 0.030600553 0.02871511 0.17790103
-0.60010064 0.042758413 -0.010313463 -0.15806611 0.016258229 0.062000412 0.015574242 0.058783334
0.09772327 -0.07215651 -0.05897087 -0.8752171 0.07449765 -0.24038771 0.2777345 -0.31056145
0.035670683 0.08123845 0.08985056 -0.05178517 -0.11713376 0.09883076 -0.008397515 -0.05512721
0.009614111 0.093554415 0.02047997 -0.01578017 -0.009986316 -0.6824522 -0.28317162 0.025124488
0.010071909 -0.48169386 -0.089174956 -0.23293051 -0.0256832 -0.017583266 -0.07719418 -0.022351516
0.116785415 -0.2357808 0.05459477 0.09207457 -0.048031434 -0.025522364 0.046039592 -0.02614163
-0.0034856999 -0.12382518 -0.03561583 -0.23359293 0.020947328 -0.15177943 -0.15803845 -0.07635081
-0.16210264 -0.60835385 0.018711442 -0.42354116 0.0919483 0.16156645 0.108767584 -0.16963084
-0.12851025 -0.23406301 -0.106028676 -0.15094556 -0.059697475 0.025901623 -0.057274226 0.068205655
0.004938905 -0.06396816 -0.36971748 -0.2631863 0.04321114 0.15940075 0.077561095 0.027312377
-0.12975354 0.112808354 -0.029866157 -0.12299035 -0.04922476 -0.026925625 0.024951847 -0.10858059
-0.08929867 -0.3816283 -0.13842613 -0.2632324 -0.1138565 0.07581224 0.02156323 -0.29363
0.049477253 0.005001372 -0.18817694 -0.057960678 -0.018853804 0.019989233 -0.015962144 0.14988586
0.03946471 0.015332791 -0.013510084 0.046482194 0.283081 -0.07558664 -0.047781162 -0.060566235
0.10955418 -0.06855891 -0.070736445 -0.14872296 -0.09694334 -0.114006534 0.3335966 -0.0020686106
0.051715683 0.15629403 0.08523469 0.18881372 -0.14878318 -0.32473037 -0.42890567 -0.1315419
0.10061574 -0.02806148 -0.009389988 -0.16262928 -0.09074179 0.05385874 -0.0020672826 0.042873636
-0.08206753 -0.0014080503 -0.104834236 0.028456926 0.003569933 0.0010986329 -0.08631653 0.0027742763
0.35104746 0.14624621 0.026464723 -0.041563928 0.031187346 -0.013308002 -0.09926328 0.019156786
-0.33395493 0.09351552 0.019074988 0.04056698 0.10101958 0.067365706 -0.3932783 -0.026451152
0.127827 0.3403364 0.034842737 -0.23180209 0.014555342 -0.7692364 -0.055768907 -0.03749953
-0.19313197 0.03262929 -0.0607927 -0.040943332 0.07768422 0.07020846 -0.19799714 -0.015807543
-0.061484847 0.019903198 -0.12190792 -0.01507191 -0.026268292 0.033729967 0.12234463 0.041204102
0.01803316 0.24136253 -0.27694166 0.037652235 -0.023094093 -0.08252742 -0.052495606 -0.15840748
-0.07033066 -0.4117476 0.028182285 0.19135572 -0.01020587 -0.35103887 0.019389298 0.038333904
-0.012285483 -0.20902683 0.09956622 0.14375648 -0.018484091 -0.023069916 -0.06449396 -0.020232191
0.13129982 -0.0035191507 0.37061155 0.089300446 -0.14786178 0.058256637 -0.071375765 -0.17361322
-0.022481486 -0.07910538 -0.6732044 -0.078113005 -0.24856527 -0.1326742 0.10105065 -0.16658206
-0.03040106 -0.037792806 0.079195105 -0.15688688 -0.47322953 0.05879684 -0.2941315 -0.101191364
0.04336699 0.11672329 -0.51924676 0.00837431 0.070690446 0.07148867 -0.09014302 0.010363704
00000000: ec8c a13c 777c cb3b 29db dfbe a41a be3a
00000010: c5a5 6f3c 997b 7c3d d10b 993c 3ed3 bf3d
00000020: de42 6d3b dde7 43be c219 6b3e fa77 ca3c
00000030: 1cbe 6d3d 03ae fa3c f33b eb3c b02b 363e
00000040: 32a0 19bf 7223 2f3d cdf9 28bc 15dc 21be
00000050: fa2f 853c 25f4 7d3d 1b2b 7f3c cbc6 703d
00000060: 2323 c83d cbc6 93bd 708b 71bd 3a0e 60bf
00000070: 3992 983d 3228 76be 3733 8e3e e901 9fbe
00000080: 6c1b 123d 5860 a63d 9203 b83d b01c 54bd
00000090: d3e3 efbd c867 ca3d bb95 09bc 12cd 61bd
000000a0: 8184 1d3c 7599 bf3d 9cc5 a73c 6a45 81bc
000000b0: a59d 23bc 30b5 2ebf dffb 90be dfd1 cd3c
000000c0: a604 253c 94a0 f6be 5ca1 b6bd 5685 6ebe
000000d0: 9365 d2bc c80a 90bc fb17 9ebd 871a b7bc
000000e0: 312d ef3d 8670 71be c49e 5f3d 9891 bc3d
000000f0: 9cbc 44bd 4714 d1bc 0394 3c3d f926 d6bc
00000100: 5770 64bb 0e98 fdbd e8e1 11bd fc32 6fbe
00000110: bb99 ab3c 116c 1bbe d5d4 21be d05d 9cbd
00000120: 3cfe 25be 14bd 1bbf bd48 993c 63da d8be
00000130: 644f bc3d ad71 253e 8ac1 de3d b5b3 2dbe
00000140: 3198 03be 37ae 6fbe 9025 d9bd 7991 1abe
00000150: 5785 74bd a42f d43c 6198 6abd 68af 8b3d
00000160: 8ad6 a13b bd01 83bd 9c4b bdbe 5bc0 86be
00000170: 2afe 303d f339 233e 5ad8 9e3d 35be df3c
00000180: 1dde 04be 1108 e73d dfa9 f4bc 5de2 fbbd
00000190: e79f 49bd 2193 dcbc d167 cc3c 805f debd
000001a0: 39e2 b6bd c964 c3be 94bf 0dbe 66c6 86be
000001b0: 992d e9bd 7343 9b3d 5fa5 b03c ac56 96be
000001c0: a9a8 4a3d 8de2 a33b 75b1 40be 2d68 6dbd
000001d0: 4b73 9abc 76c0 a33c 0bc3 82bc ae7b 193e
000001e0: bfa5 213d 6336 7b3c 6659 5dbc 1d64 3e3d
000001f0: feef 903e 2bcd 9abd 2eb6 43bd 4d14 78bd
00000200: f15d e03d 9d68 8cbd 45de 90bd d54a 18be
00000210: 3b8a c6bd 427c e9bd 2ccd aa3e 8791 07bb
00000220: d3d3 533d 8b0b 203e 868f ae3d 6258 413e
00000230: 9e5a 18be 0f43 a6be 8699 dbbe ebb2 06be
00000240: a00f ce3d 30e1 e5bc 77d8 19bc 4a88 26be
00000250: d5d6 b9bd fb9a 5c3d 3f7b 07bb 449c 2f3d
00000260: 0513 a8bd 548e b8ba 55b3 d6bd 801e e93c
00000270: 89f5 693b 0100 903a b9c6 b0bd a2d0 353b
00000280: 7ebc b33e 91c1 153e 8ccc d83c f03e 2abd
00000290: 9b7c ff3c ce09 5abc 8c4a cbbd b1ee 9c3c
000002a0: 24fc aabe 1185 bf3d 2643 9c3c 9029 263d
000002b0: 5be3 ce3d 08f7 893d c65b c9be 16b0 d8bc
000002c0: 15e5 023e 9340 ae3e 42b7 0e3d 875d 6dbe
000002d0: 8779 6e3c adec 44bf f06d 64bd 1b99 19bd
000002e0: 63c4 45be 4aa6 053d c401 79bd 32b4 27bd
000002f0: e818 9f3d 74c9 8f3d c3bf 4abe d27e 81bc
00000300: 89d7 7bbd 080c a33c dcaa f9bd 2cf0 76bc
00000310: 9a30 d7bc 6f28 0a3d d28f fa3d a2c5 283d
00000320: 47ba 933c bd27 773e 4ccb 8dbe 3b39 1a3d
00000330: d32f bdbc 2304 a9bd a205 57bd 9235 22be
00000340: 8509 90bd 95d0 d2be 89de e63c c1f2 433e
00000350: 8536 27bc 5ebb b3be 4ed6 9e3c 0304 1d3d
00000360: 0d49 49bc 210b 56be 60e9 cb3d e634 133e
00000370: f36b 97bc 1ffd bcbc 6915 84bd fbbd a5bc
00000380: 7673 063e 8da1 66bb ccc0 bd3e 27e3 b63d
00000390: 1469 17be 839e 6e3d 752d 92bd aac7 31be
000003a0: 182b b8bc 0002 a2bd 2057 2cbf b6f9 9fbd
000003b0: e587 7ebe bfdb 07be a5f3 ce3d 7d94 2abe
000003c0: a50b f9bc a1cc 1abd 0b31 a23d f4a6 20be
000003d0: 244b f2be f5d4 703d 6798 96be 6b3d cfbd
000003e0: 96a1 313d 9f0c ef3d 5bed 04bf 6734 093c
000003f0: 27c6 903d a768 923d e79c b8bd 86cc 293c

fc2.bias f4 [200]
0.14120847 -0.034252625 -0.124310814 0.2199894 0.028917007 0.5815928 -0.12197875 0.033079144
0.29466698 0.2341524 0.76816964 -0.06996558 -0.031015815 -0.089352734 0.060974475 0.00948186
0.012171146 0.03690134 0.0027952844 -0.040965684 9.826198e-05 0.0071933954 0.1889626 -0.031495873
-0.061134666 0.40449724 0.028665582 -0.0046294313 0.28118512 0.23908827 0.12687416 0.21054865
-0.0015992761 0.2034074 -0.06671709 -0.4632086 0.013461976 0.2271407 0.46243352 0.34355068
0.278736 0.3710283 -0.02238649 -0.02583429 -0.0208597 0.14890465 -0.3136586 0.20814088
0.043610673 0.26118532 -0.032151535 0.45639506 -0.25952733 0.09172901 0.09969114 0.15076834
0.015962142 -0.019612975 0.36176014 0.25041723 0.03656403 -0.052450903 0.43876573 -0.008671191
0.05355733 0.4976903 -0.015656667 0.101961546 0.31453675 0.049068294 0.41126934 -0.018998295
0.043633025 0.300903 0.02980605 0.09038043 -0.009850261 -0.14323926 -0.019534744 0.12477276
-0.4380551 0.015513706 0.3187342 0.48811737 0.14211501 -0.044225354 -0.0021664007 -0.13719082
0.23722209 0.022542901 0.035668254 0.26889053 -0.042779922 -0.033220705 0.25111416 -0.00082996464
0.27527267 -0.1545941 -0.033243056 0.19959113 0.28162065 0.037527192 0.0039514196 0.17323384
-0.013877351 0.024001421 -0.36739284 0.03769391 0.21636958 -0.15502314 0.14103404 0.16171214
-0.17612655 -0.0006065608 0.040644564 0.3347887 0.015699508 0.3459945 -0.022870785 -0.022500113
-0.055054914 -0.043867882 0.09855364 -0.04473945 -0.051586624 -0.0034316187 -0.029695604 0.076820195
0.47223043 0.026445245 -0.04546217 0.04641958 -0.3685552 0.06269012 0.015577037 0.10960091
-0.047455225 0.015622671 -0.042385038 -0.09762249 0.20978063 0.3439139 -0.034681037 -0.048473835
-0.011515487 0.26037106 -0.007647421 -0.06581491 0.05777661 0.024388857 -0.38157895 0.3669682
-0.025299704 0.07053927 0.04232184 0.43267536 -0.080664754 0.44264388 -0.00020265987 -0.20994121
0.31715384 0.14459002 0.10646987 0.06256009 0.4277488 0.017150527 -0.043402053 -0.00685439
0.01737591 0.022410704 0.034353208 0.039065767 0.032464463 -0.02643407 0.38946363 -0.0036642195
-0.07160473 0.73882216 0.041707028 0.46753678 0.4765818 0.23680486 -0.021261437 0.22190113
0.24993293 0.49389312 0.01944906 0.08265117 -0.0946163 -0.19929816 -0.39475176 -0.110884696
-0.050878808 0.30695918 0.011648668 0.009758058 0.0072874604 -0.03712486 -0.38354594 0.0053502843
00000000: f498 103e 7b4c 0cbd ab96 febd e744 613e
00000010: 5ce3 ec3c 44e3 143f ffcf f9bd ff7d 073d
00000020: 97de 963e a6c5 6f3e c4a6 443f 1d4a 8fbd
00000030: e114 febc 91fe b6bd 5fc0 793d ce59 1b3c
00000040: 7d69 473c dc25 173d 1731 373b a2cb 27bd
00000050: 0012 ce38 93b6 eb3b 697f 413e d101 01bd
00000060: 5868 7abd 431a cf3e 15d4 ea3c 7cb2 97bb
00000070: 7ff7 8f3e 8ed3 743e 4deb 013e 119a 573e
00000080: cd9e d1ba 084a 503e f8a2 88bd ad29 edbe
00000090: 9f8f 5c3c 9297 683e 16c4 ec3e e0e5 af3e
000000a0: 7cb6 8e3e 6cf7 bd3e df63 b7bc 6fa2 d3bc
000000b0: f6e1 aabc 767a 183e dc97 a0be e222 553e
000000c0: 1ba1 323d 15ba 853e 54b1 03bd 9dac e93e
000000d0: c4e0 84be 6bdc bb3d de2a cc3d 0463 1a3e
000000e0: 0ac3 823c 64ab a0bc a038 b93e b036 803e
000000f0: 2ac4 153d c2d6 56bd e7a5 e03e 9c11 0ebc
00000100: ee5e 5b3d 43d1 fe3e 6942 80bc 37d1 d03d
00000110: f60a a13e d6fb 483d e591 d23e 50a2 9bbc
00000120: 8bb8 323d f50f 9a3e d12b f43c 6019 b93d
00000130: fd62 21bc 50ad 12be 5407 a0bc dc88 ff3d
00000140: c248 e0be 332d 7e3c 2131 a33e 85ea f93e
00000150: 9986 113e a525 35bd 2cfa 0dbb c07b 0cbe
00000160: 59ea 723e e4ab b83c e018 123d 05ac 893e
00000170: 003a 2fbd 6f12 08bd 0992 803e fc91 59ba
00000180: 8af0 8c3e ea4d 1ebe df29 08bd 9e61 4c3e
00000190: 9530 903e 1db6 193d e97a 813b 3664 313e
000001a0: d45d 63bc a19e c43c ea1a bcbe ee64 1a3d
000001b0: fd8f 5d3e 63be 1ebe 3a6b 103e de97 253e
000001c0: 855a 34be 9b01 1fba ea7a 263d 6d69 ab3e
000001d0: 419c 803c 3126 b13e 835b bbbc 2852 b8bc
000001e0: 4381 61bd cfae 33bd 7ed6 c93d b740 37bd
000001f0: 7f4c 53bd 02e5 60bb 3244 f3bc e853 9d3d
00000200: 30c8 f13e b3a3 d83c 8a36 3abd 7522 3e3d
00000210: 44b3 bcbe ad63 803d d436 7f3c 7176 e03d
00000220: 6960 42bd 3bf6 7f3c ef9b 2dbd 4dee c7bd
00000230: bcd0 563e 7c15 b03e b40d 0ebd 808c 46bd
00000240: 74ab 3cbc 5b4f 853e 3897 fabb f8c9 86bd
00000250: 2ba7 6c3d 24cb c73c 515e c3be 42e3 bb3e
00000260: 5341 cfbc e576 903d aa59 2d3d a087 dd3e
00000270: 9033 a5bd 38a2 e23e 1881 54b9 d4fa 56be
00000280: fd61 a23e 680f 143e e00c da3d 811f 803d
00000290: e401 db3e 437f 8c3c 5ac6 31bd ca9a e0bb
000002a0: ed57 8e3c a796 b73c f3b5 0c3d 6d03 203d
000002b0: 75f9 043d 438c d8bc c767 c73e 6723 70bb
000002c0: 80a5 92bd 7323 3d3f fdd4 2a3d fb60 ef3e
000002d0: 8802 f43e f97c 723e 772c aebc 0d3a 633e
000002e0: 6bee 7f3e 8fdf fc3e a353 9f3c 0445 a93d
000002f0: 31c6 c1bd d114 4cbe e71c cabe 8417 e3bd
00000300: 4c66 50bd c129 9d3e 0eda 3e3c 43e0 1f3c
00000310: a6cb ee3b 3d10 18bd 2260 c4be 7051 af3b

fc3.weight f4 [2, 200]
0.16589552 0.000454273 -0.45653278 0.38695714 0.02389339 0.55916804 -0.0010979853 0.0315145
-1.1581942 0.15448977 -0.6548248 -0.06319291 -0.15342474 0.20692214 0.13964804 0.0042312485
0.014368164 0.0549357 -0.0072897887 0.043055594 -0.053554207 -0.030112842 -0.14032437 0.08152158
0.038853414 0.3984175 -0.24929848 -0.31705606 -0.1353343 0.15741661 0.21704417 -0.48570958
-0.060885068 0.3398069 -0.0038057824 -0.10549041 -0.06383368 -0.1942167 -0.4284812 -0.4516451
0.043744702 0.21314728 0.040164735 0.06303645 -0.070108324 0.18797137 -0.14395452 -0.07179905
0.00597521 0.18834175 0.042697966 0.2091121 -0.79856575 -0.14966175 -0.47272617 0.10600721
-0.032624647 0.03159646 0.14215145 -1.2123144 -0.034248486 -0.042284455 0.14981365 0.02753677
-0.12891906 -0.6577755 0.016045963 -0.18414672 0.061856627 0.0010270874 0.18695384 -0.07039027
0.059443362 -0.3227782 -0.1252039 -0.07041262 0.060765855 -0.11968394 0.06334938 -0.071679235
-0.11743383 -0.12329008 0.113245115 0.23593904 0.14505844 0.03247564 0.0383803 -0.18233532
-1.1461525 -0.034348045 -0.0013595739 -0.1793975 0.006088833 0.044296138 0.14883827 0.019756401
0.5707516 -0.16779669 -0.00037231555 0.115171984 -0.5096561 0.009129407 0.058687113 0.26376215
0.0499661 -0.042921484 -0.034152042 -0.016540471 -0.6454868 0.110483386 -0.2367463 -0.24535845
-0.11122742 -0.027086005 0.0780706 -0.5206831 -0.004250844 0.07680529 -0.036290385 -0.008199936
0.04071236 0.18526603 -0.036052343 0.05254031 0.06219266 0.013544865 -0.03941222 -0.19286075
-0.24620764 -0.012698282 0.050074138 -0.032900326 -0.44869465 -0.08551853 0.03211428 -0.14958252
0.06350584 -0.047119938 0.046121553 -0.1261474 -0.34670475 -0.11491305 -0.04478788 -0.052217092
0.008599478 -0.30383265 0.03150705 0.048693202 -0.24275179 0.1646823 -0.16669399 -0.22426064
0.008292138 -0.2577785 0.043228023 -0.2701905 -0.0020264678 -0.6597195 -0.06138054 -0.37280676
-0.16959709 -0.24521776 0.12469948 -0.3138453 -0.26366857 7.602792e-06 0.065390855 -0.030259993
0.05194053 0.0001170171 0.06103408 0.2552917 -0.061175644 0.024608653 -0.17336634 0.016584275
-0.012324817 0.44150293 0.032971106 -0.34890297 -0.27416578 -0.17763159 0.060680173 -0.04324248
-0.5301007 -0.33736196 -0.027706273 0.17659773 -0.08971452 -0.08849541 -0.24760832 -0.066001825
-0.001045947 -0.06038815 -0.060601942 0.023522718 0.038391475 0.014399829 -0.18417327 0.04508218
0.040533543 0.018355673 -0.13276361 -0.27464685 0.0034826093 -0.2607588 -0.0072972393 0.03130961
0.035690606 -0.06672454 -0.035772562 -0.028043415 0.025303427 -0.030207837 -0.18256393 -0.14937863
0.03092869 -0.038089722 0.052599914 0.035809815 0.033493727 -0.0048929993 -0.019056037 -0.037679937
0.04207211 -0.116726026 -0.042634636 0.014310421 0.00093677704 -0.11649506 -0.033380896 -0.015936067
0.03225957 -0.034155767 -0.115496665 -0.027207078 0.006098146 -0.07040517 -0.028374972 -0.12845711
-0.114401415 -0.18424779 0.014159545 0.05403417 -0.046796955 -0.055714298 -0.059368856 -0.100401595
0.025793312 -0.23890595 -0.0016962513 -0.09635588 -0.05177289 -0.036729973 -0.15657598 -0.16092718
00000000: 84e0 293e 7d2b ee39 aabe e9be 3f1f c63e
00000010: 12bc c33c a325 0f3f 46ea 8fba 5915 013d
00000020: b53f 94bf 9132 1e3e 99a2 27bf 496b 81bd
00000030: 601b 1dbe 66e3 533e e5ff 0e3e 49a6 8a3b
00000040: 7368 6b3c 4204 613d 2edf eebb 105b 303d
00000050: a85b 5bbd 35af f6bc 31b1 0fbe c9f4 a63d
00000060: c224 1f3d 61fd cb3e 1a48 7fbe 2c55 a2be
00000070: 1395 0abe d231 213e d440 5e3e edae f8be
00000080: 9f62 79bd 2cfb ad3e 6f6a 79bb 5b0b d8bd
00000090: 3bbb 82bd bee0 46be e361 dbbe 073e e7be
000000a0: a52d 333d 4843 5a3e c783 243d 4119 813d
000000b0: f494 8fbd 917b 403e d068 13be 610b 93bd
000000c0: b2cb c33b a9dc 403e 10e4 2e3d 7b21 563e
000000d0: ce6e 4cbf ee40 19be 2a09 f2be 4f1a d93d
000000e0: 6ca1 05bd 4a6b 013d 2690 113e 1e2d 9bbf
000000f0: 2448 0cbd 7732 2dbd c068 193e cb94 e13c
00000100: 5c03 04be fa63 28bf d372 833c f590 3cbe
00000110: 605d 7d3d 569f 863a d470 3f3e c628 90bd
00000120: e27a 733d 2f43 a5be 7335 00be 7e34 90bd
00000130: 9ee5 783d db1c f5bd 52bd 813d 90cc 92bd
00000140: 2681 f0bd 827f fcbd 0eed e73d 019a 713e
00000150: 338a 143e 2d05 053d a934 1d3d 1cb6 3abe
00000160: 20b5 92bf 89b0 0cbd bb33 b2ba fab3 37be
00000170: d584 c73b de6f 353d 0f69 183e 2dd8 a13c
00000180: c71c 123f e5d2 2bbe 5933 c3b9 4adf eb3d
00000190: d278 02bf 8293 153c e661 703d d50b 873e
000001a0: 41a9 4c3d 70ce 2fbd 03e3 0bbd e27f 87bc
000001b0: 9f3e 25bf 1d45 e23d 9f6d 72be 3f3f 7bbe
000001c0: 34cb e3bd 78e3 ddbc 7be3 9f3d 7d4b 05bf
000001d0: aa4a 8bbb 184c 9d3d 3aa5 14bd 0659 06bc
000001e0: 01c2 263d 61b6 3d3e 9fab 13bd 8234 573d
000001f0: bbbd 7e3d 48eb 5d3c b56e 21bd 4a7d 45be
00000200: db1d 7cbe 740c 50bc 8a1a 4d3d 7ec2 06bd
00000210: 4ebb e5be 5724 afbd 438a 033d 292c 19be
00000220: 5a0f 823d d600 41bd f4e9 3c3d c92c 01be
00000230: 4983 b1be 8857 ebbd 7f73 37bd 97e1 55bd
00000240: d3e4 0c3c f48f 9bbe 890d 013d 8672 473d
00000250: ed93 78be 7aa2 283e d4b1 2abe 95a4 65be
00000260: bfdb 073c 8bfb 83be de0f 313d 6956 8abe
00000270: 7dce 04bb 61e3 28bf 296a 7bbd 87e0 bebe
00000280: dcaa 2dbe 5d1a 7bbe 7162 ff3d 55b0 a0be
00000290: 91ff 86be 7c1b ff36 a4eb 853d cee3 f7bc
000002a0: 98bf 543d 1467 f538 dffe 793d 98b5 823e
000002b0: 5093 7abd 1698 c93c f286 31be bfdb 873c
000002c0: 07ee 49bc ac0c e23e b60c 073d 69a3 b2be
000002d0: 755f 8cbe 0ee5 35be c68b 783d 071f 31bd
000002e0: aeb4 07bf b5ba acbe 44f8 e2bc 09d6 343e
000002f0: 3fbc b7bd 153d b5bd 098d 7dbe f72b 87bd
00000300: 2818 89ba 9159 77bd be39 78bd b7b2 c03c
00000310: 6140 1d3d 43ed 6b3c eb97 3cbe 18a8 383d
00000320: 8006 263d a35e 963c 2ff3 07be 839e 8cbe
00000330: 7d3c 643b 2d82 85be ae1d efbb 813e 003d
00000340: 5030 123d e0a6 88bd 4086 12bd 4ebb e5bc
00000350: 2249 cf3c 6d76 f7bc 0af2 3abe b6f6 18be
00000360: 2a5e fd3c f803 1cbd 0273 573d 50ad 123d
00000370: b830 093d 7455 a0bb 681b 9cbc 4756 1abd
00000380: ce53 2c3d 0e0e efbd a8a1 2ebd 4276 6a3c
00000390: 0b92 753a f694 eebd 68ba 08bd 5b8c 82bc
000003a0: 9c22 043d ebe6 0bbd 8489 ecbd 61e1 debc
000003b0: f5d2 c73b 9630 90bd a172 e8bc 438a 03be
000003c0: 4a4b eabd 74ab 3cbe 70fd 673c ef52 5d3d
000003d0: 2aae 3fbd ad34 64bd c22c 73bd 5a9f cdbd
000003e0: 7f4c d33c c3a3 74be c054 deba 3b56 c5bd
000003f0: cf0f 54bd 2b72 16bd 7455 20be 18ca 24be

fc3.bias f4 [2]
0.12625708 -0.100654915
00000000: 8949 013e 2a24 cebd
