log/train_2_1k800/models/1720_critic.pt (torch_old, 251021 bytes, 5 tensors)

fc1.weight f4 [300, 6]
0	0x3f0b9791	0.54528147
1	0x3f72ccb3	0.94843596
2	0x4004da7e	2.0758357
3	0xbb337067	-0.002738023
4	0x3f86c863	1.0529903
5	0x409d0d30	4.90786
6	0x3f8e70a1	1.1128122
7	0xbf8e4f94	-1.1118035
8	0xbfd1fa09	-1.640443
9	0x40a5bdf0	5.1794357
10	0xbffb80de	-1.9648702
11	0x4044b991	3.073826
12	0xbd2d2106	-0.04226782
13	0x3ed3bab8	0.41353393
14	0x3f671cba	0.9027821
15	0x3f9e428b	1.2364057
16	0xc001d7da	-2.0287995
17	0xbfe1204e	-1.7587984
18	0xbf2a126c	-0.6643436
19	0xbee1b64d	-0.44084397
20	0x3ffb93ac	1.9654441
21	0x3fecceff	1.850067
22	0x4073a270	3.8067894
23	0x3fc4b657	1.5368146
24	0x3f2afe19	0.6679397
25	0x3f4b79a1	0.79482466
26	0xc0910cdb	-4.5328193
27	0xbf526f02	-0.82200634
28	0xc04ed10c	-3.2315092
29	0xbec83ae5	-0.39107433
30	0xbe9086d7	-0.28227875
31	0x3e85cf2b	0.2613462
32	0xbf837309	-1.0269481
33	0x3f09ce63	0.53830546
34	0xc09f1ec8	-4.9725075
35	0x3f95ed0b	1.1712965
36	0x3d81112e	0.06302105
37	0xbfad0adc	-1.3518939
38	0xc0781546	-3.8762984
39	0xbff510f3	-1.9145797
40	0xc04848e7	-3.1294496
41	0x3f0e0460	0.55475426
42	0x3d38660f	0.045019206
43	0x3f47e436	0.780826
44	0xbe2ca3ff	-0.16859435
45	0xbf9d3631	-1.2282163
46	0xbf82f3f9	-1.0230705
47	0xc01ee87d	-2.48294
48	0xbdf46c2a	-0.11934693
49	0x3e75a7a6	0.23989734
50	0x3fe5d645	1.7956015
51	0xbf2eef9d	-0.6833437
52	0x405ae067	3.4199464
53	0xbdfcabfa	-0.123374894
54	0x3d8f7e3c	0.07006499
55	0x3f34d9c1	0.70644766
56	0x3fa16f28	1.2612047
57	0x407aba9d	3.91764
58	0x3df526fc	0.11970326
59	0x40abdfe9	5.371083
60	0x3d4a73bd	0.049426783
61	0x3f70f75b	0.94127434
62	0x3f5f3367	0.8718781
63	0x3febf560	1.8434258
64	0x40399cd1	2.9001963
65	0x3f08d9e7	0.5345749
66	0x3da15ac0	0.07878637
67	0xbf7114dc	-0.94172454
68	0x40835768	4.1044197
69	0xbf59b418	-0.85040426
70	0xc09f3d22	-4.9762125
71	0xbd43fb8d	-0.04784732
72	0xbd8d0104	-0.06884959
73	0x3e8f87d5	0.2803332
74	0xbf1e88af	-0.6192731
75	0x3e8470e5	0.25867382
76	0x4092462c	4.571066
77	0x402b3182	2.6748967
78	0xbe27b678	-0.163782
79	0x3e2eceec	0.17071122
80	0xc01780cc	-2.3672361
81	0x40217621	2.522835
82	0x3fa53a8b	1.2908491
83	0xbc623c74	-0.013808358
84	0xbe255bf8	-0.16148365
85	0x3f30a006	0.68994176
86	0xbf63f02b	-0.8903834
87	0x3fe35730	1.7760983
88	0xbf53dd12	-0.827592
89	0x40abb016	5.365245
90	0x3e7297d1	0.23690726
91	0x3e3aa58d	0.18227215
92	0x3fc17fa8	1.5117083
93	0x3fa08f02	1.2543643
94	0x3e4d2c29	0.20036377
95	0x409de944	4.934725
96	0x3e65e4ba	0.22450534
97	0x3dd7404a	0.10510309
98	0x3fbaaa9b	1.4583315
99	0x3ef2ea15	0.47444215
100	0xc04bab51	-3.1823313
101	0x3ebc384e	0.36761707
102	0xbd8976b1	-0.06712092
103	0xbee5dfaf	-0.4489722
104	0xc094dec8	-4.652195
105	0xbfeed147	-1.8657616
106	0xc086e390	-4.2152786
107	0xc0086a0e	-2.131473
108	0xbf3b2b6f	-0.7311315
109	0xbd3e09f7	-0.046396222
110	0xbcf2e02e	-0.029647913
111	0xbeca73ed	-0.3954157
112	0xc04f13a1	-3.235573
113	0x3e712041	0.2354746
114	0x3ee794fa	0.45230848
115	0x3e27ff29	0.1640593
116	0x40308f0a	2.7587304
117	0xc081883a	-4.047879
118	0x4009b7f3	2.1518524
119	0xc03102ad	-2.7657883
120	0x3da94bcb	0.082664095
121	0x3dd4be1c	0.10387823
122	0x3ef943b7	0.48684475
123	0xbf2bd908	-0.6712804
124	0xbe25a758	-0.16177118
125	0xbe1671ee	-0.14691898
126	0xbb4eb722	-0.003154226
127	0x3be8daea	0.0071061747
128	0xbf07fbf8	-0.5311885
129	0xbebdaf6e	-0.37047905
130	0x3edeaf6d	0.43493214
131	0x3f121060	0.57056236
132	0x3f767995	0.9627927
133	0xbffd9ad6	-1.9812877
134	0x4008199b	2.1265628
135	0xbef69f4a	-0.48168403
136	0x402a1aa5	2.6578763
137	0xc042d380	-3.044159
138	0x3e8ab0b0	0.27087927
139	0x3f0544eb	0.52058285
140	0x3f451fc7	0.77001613
141	0x400f99b1	2.2437556
142	0x3ff18a5b	1.8870348
143	0x40842030	4.128929
144	0x3ec5b90b	0.3861774
145	0x3ea14998	0.3150146
146	0xbf75373c	-0.95787406
147	0x40075590	2.1145973
148	0xc09ca774	-4.895441
149	0x403494c3	2.8215797
150	0x3ed1a972	0.4094959
151	0x3eb6fe0f	0.35740706
152	0x3ffe5834	1.9870667
153	0x3f84b6ce	1.0368288
154	0xbee6ce4a	-0.4507926
155	0xbf5e7e0c	-0.8691108
156	0x3e0fea58	0.14054239
157	0x3bc5152b	0.0060144863
158	0x408e792f	4.452293
159	0x3fc19416	1.5123317
160	0x403a3925	2.9097378
161	0x404fdd00	3.2478638
162	0xbdf438b7	-0.1192488
163	0x3f20ae74	0.62766194
164	0x3e1cb834	0.15304643
165	0x3ee55070	0.4478793
166	0x3e5318dd	0.20614953
167	0xbfa8427d	-1.3145291
168	0xbdb02e67	-0.086026005
169	0x3e29ccdd	0.16582055
170	0xbfcf9fb2	-1.622061
171	0x3f3faba7	0.74871296
172	0xc0917195	-4.545115
173	0xbf33d9ab	-0.7025401
174	0x3e808880	0.2510414
175	0x3f0549be	0.52065647
176	0x3f4a8a97	0.7911772
177	0x3fb0fc48	1.382699
178	0x409e4008	4.9453163
179	0xbfd685f8	-1.6759634
180	0xbe36cf01	-0.17852403
181	0x3e1ba682	0.15200236
182	0x3ce8d3c2	0.028421286
183	0xc02907b9	-2.6410964
184	0xbe795eee	-0.24352619
185	0xc043eeb2	-3.0614438
186	0x3f38e7f0	0.7222891
187	0x3ef22047	0.4729025
188	0x4026d908	2.6069965
189	0xbfd28924	-1.6448102
190	0xbfb03dbe	-1.3768842
191	0xbfbadc91	-1.4598562
192	0x3ee25355	0.44204202
193	0x3f3f690e	0.74769676
194	0x3fef2ba4	1.8685193
195	0xc0a55289	-5.166325
196	0x3f78bcb1	0.9716292
197	0xc07055ae	-3.7552295
198	0xbdc62a82	-0.096760765
199	0x3fba40ba	1.4551003
200	0xbd903f51	-0.07043327
201	0xbf162e99	-0.5866485
202	0x3fc4a883	1.5363926
203	0xbf9a392e	-1.20487
204	0x3f8ebbaf	1.1151026
205	0x3f07554b	0.5286452
206	0xc08e11ad	-4.4396577
207	0xc0107d02	-2.2576299
208	0xc0241478	-2.5637493
209	0x3e8922d6	0.2678439
210	0x3df8c332	0.121466056
211	0xbddf67db	-0.10908481
212	0x40037d7f	2.0545347
213	0x3fa0cc6a	1.2562382
214	0x3fd0d758	1.6315718
215	0x40748439	3.8205702
216	0x3f286bef	0.65789694
217	0xc0480ef8	-3.1259136
218	0x40187938	2.3823986
219	0xbf81e81f	-1.0148963
220	0xc038a774	-2.8852205
221	0xbf87ff16	-1.0624721
222	0x3d60ef57	0.054915752
223	0x3eb7948d	0.35855523
224	0xbf1ac0aa	-0.6045023
225	0x3ff34297	1.9004697
226	0x403ba9ef	2.932247
227	0xbf9430cf	-1.1577395
228	0x3f178b0e	0.59196556
229	0xbe3448eb	-0.17605941
230	0xbf80990b	-1.0046705
231	0x3fde12e0	1.734951
232	0x3f981bd8	1.1883497
233	0x3fa8037d	1.3126065
234	0x3be22e17	0.006902467
235	0xbd224e17	-0.039625254
236	0xc0884aed	-4.259146
237	0x3dca4774	0.0987691
238	0x40443ecd	3.066333
239	0x3f5e434b	0.8682143
240	0x3e82a0de	0.25513357
241	0x3f92f5e1	1.1481286
242	0x3fb2a0c8	1.3955317
243	0x3f65d5fb	0.89779633
244	0xbf9ab889	-1.2087566
245	0x40838351	4.10978
246	0x3e15fc7b	0.14647095
247	0x3bf35af6	0.007426615
248	0xbf3ddc4c	-0.7416427
249	0x3f05a041	0.52197653
250	0x3e3d00f7	0.184574
251	0x3f71634f	0.9429216
252	0x3e7eaa42	0.24869636
253	0xbe44ac14	-0.19206268
254	0x4049cb10	3.153019
255	0xc02fe072	-2.748074

fc1.bias f4 [300]
0	0xbfec64ce	-1.8468263
1	0xc0ae2b74	-5.4428043
2	0x3f15e5ed	0.58553964
3	0xc0bb18c1	-5.8467717
4	0xc0307903	-2.757386
5	0x40183e1e	2.3787913
6	0xbe8b83cc	-0.2724899
7	0xbf6a7e10	-0.91598606
8	0x3ec12416	0.37722844
9	0x4086c7ee	4.2119055
10	0xc0983e4a	-4.7576036
11	0x40b470f5	5.6387887
12	0x3fb8bd9b	1.4432863
13	0x408e8ecd	4.4549317
14	0xbf578ab3	-0.84196013
15	0x4048be0e	3.1366
16	0x40a52c61	5.1616673
17	0xc0893440	-4.287628
18	0xc0b39607	-5.612064
19	0x3fab88bf	1.3401107
20	0x40aae2fe	5.340209
21	0x409c76d3	4.889505
22	0xbfd7aaa4	-1.684895
23	0xc131f51c	-11.122341
24	0x3fa72c05	1.3060309
25	0x405eedfc	3.4832754
26	0x4085eaa1	4.184891
27	0x40a477d1	5.139626
28	0xbf8692bd	-1.0513531
29	0xc00f228a	-2.236483
30	0x40a58c95	5.173411
31	0xc087b1ce	-4.2404547
32	0xbf5ed718	-0.87046957
33	0x3ef7ffdd	0.48437396
34	0xc087891f	-4.2354884
35	0x40500dd1	3.2508433
36	0xc0b01699	-5.5027585
37	0x3fe892b7	1.8169774
38	0xc0ce8872	-6.454156
39	0x4023aa5f	2.5572736
40	0x3f4d8732	0.80284417
41	0x40918cbc	4.5484295
42	0x3d8cee5a	0.068813995
43	0x3fabc9d2	1.3420966
44	0xbdaace53	-0.083401345
45	0x40d1b93d	6.553862
46	0xc06fb220	-3.745247
47	0xbf71b2ab	-0.9441325
48	0x40855a53	4.167276
49	0xbddfbd24	-0.109247476
50	0x3fa44a85	1.2835242
51	0x4084d272	4.150689
52	0x3eafca0d	0.3433384
53	0x407f7e88	3.9920979
54	0xc0f081e7	-7.515857
55	0xbcc0f9c1	-0.023556592
56	0x3e9b0eb3	0.30284652
57	0x3eb7b9c4	0.35883915
58	0x3fbdd08f	1.4829272
59	0xc162cd32	-14.1750965
60	0xbf10432d	-0.563525
61	0x402df62b	2.71815
62	0xbe91d67c	-0.2848395
63	0x40203e02	2.5037847
64	0x408b7aee	4.358756
65	0x40802fc9	4.005833
66	0xc06e5fd0	-3.724598
67	0xc07bc085	-3.9336255
68	0x40b748ce	5.7276373
69	0x4080cdf9	4.025143
70	0x3fc2a789	1.5207378
71	0x406a2ba0	3.6589127
72	0x4099e180	4.808777
73	0xc068d89c	-3.6382208
74	0xc097bdb4	-4.741907
75	0xbeb53613	-0.35392818
76	0x40a31d4d	5.0973268
77	0x4014386a	2.3159432
78	0x3f10a93e	0.56508243
79	0xc0ddf086	-6.935611
80	0x3c66412a	0.014053622
81	0x3f8a9d42	1.0829241
82	0x3d42ca82	0.047556408
83	0x408ec15c	4.4611034
84	0x403b9943	2.9312294
85	0x402fb5db	2.7454746
86	0xbf000c9c	-0.5001924
87	0xc03b08f3	-2.9224212
88	0x40294a79	2.6451705
89	0xc08133f7	-4.0375934
90	0xc0000633	-2.0003784
91	0x3ff9f81f	1.9528846
92	0x400f8a0c	2.2428007
93	0x3fc9b9fc	1.5759883
94	0x402686b3	2.6019714
95	0x3fff6b5e	1.9954641
96	0x409826b8	4.7547264
97	0xbea5e12e	-0.3239836
98	0x3f80b57b	1.0055383
99	0x40815806	4.041995
100	0xbd9ee6fb	-0.077589
101	0xc0f7b061	-7.7402806
102	0xc083887b	-4.11041
103	0xbf95d0aa	-1.1704304
104	0xc0012428	-2.0178318
105	0x3fca0284	1.5782018
106	0xc038eca7	-2.889444
107	0x40678adc	3.6178503
108	0x3f3ce160	0.73781395
109	0x40a000f7	5.000118
110	0x406a1445	3.6574872
111	0x40b0e5ac	5.528036
112	0x40918231	4.5471425
113	0x4097fb45	4.7494226
114	0xbed5c627	-0.4175274
115	0x408d1dd4	4.409891
116	0x3e8457fa	0.2584837
117	0xc05f766f	-3.4916036
118	0xbef02a60	-0.4690733
119	0x4087de8b	4.245916
120	0xbd9a470f	-0.075330846
121	0x40854d2c	4.1656704
122	0xc01a5f78	-2.412077
123	0x3fe801f5	1.8125597
124	0x403c7df4	2.9451876
125	0x3f3f2931	0.7467223
126	0x4088ae46	4.2712736
127	0x405a93c6	3.4152694
128	0x404398e5	3.056207
129	0x40a04697	5.008617
130	0xbf5fe052	-0.8745166
131	0x3f49506c	0.7863834
132	0x408ceede	4.4041586
133	0xc0171c1b	-2.3610904
134	0x40ebacfe	7.364867
135	0x3fbbce59	1.4672347
136	0xc0334939	-2.8013442
137	0x409690d8	4.705181
138	0xc02a4e87	-2.661043
139	0x407a0803	3.906739
140	0xc09995d6	-4.7995405
141	0xc0ab116a	-5.3458757
142	0x400b1d46	2.1736617
143	0xc0baf1ef	-5.842033
144	0xc0f96ac9	-7.7942853
145	0x4045d1b5	3.0909245
146	0x4080a342	4.019929
147	0x4017c8f3	2.37164
148	0x40938ed5	4.6111856
149	0x3fd1ea02	1.6399539
150	0xc0973149	-4.7247663
151	0x4037abf0	2.8698692
152	0x402be611	2.6859171
153	0x3fdfe4aa	1.7491658
154	0xbebad494	-0.3649031
155	0x409e1515	4.9400735
156	0x3e36e225	0.17859705
157	0xc0d28fa6	-6.580035
158	0x405f34b8	3.4875927
159	0x409fb239	4.9905057
160	0x3f7755bf	0.96615213
161	0x403d8e55	2.9618123
162	0x40b8eda6	5.77901
163	0x40123c97	2.284948
164	0x407edfaa	3.9824014
165	0xc02dcad5	-2.715505
166	0x408b344d	4.3501344
167	0x3f49925d	0.7873896
168	0x40780db8	3.8758373
169	0xbfdc4465	-1.7208372
170	0xbf022714	-0.5084088
171	0xc03dfba6	-2.9684844
172	0xc026f15c	-2.6084814
173	0x40bb1d56	5.847331
174	0xc01e3757	-2.4721277
175	0x4055997c	3.337493
176	0xc022009f	-2.531288
177	0x40ba98c6	5.831149
178	0x40b2e478	5.5903893
179	0xc0411fb9	-3.0175612
180	0x3fcbc845	1.5920492
181	0x40951f48	4.6600685
182	0xc0070f8a	-2.1103234
183	0x409bda2a	4.8703814
184	0x40639b3e	3.5563502
185	0x4007bd05	2.1209118
186	0x40053f2e	2.0819812
187	0x3eab870c	0.3350147
188	0x407889a7	3.8834016
189	0xc04a91fb	-3.16516
190	0x3f1b20c7	0.6059689
191	0x4063819e	3.5547862
192	0xc044b11f	-3.0733106
193	0xbec4cab4	-0.384359
194	0x405c4ac1	3.4420626
195	0xbf5cd78b	-0.8626639
196	0x40c263b0	6.074669
197	0x4098aa9b	4.770826
198	0xbdbc914d	-0.092074014
199	0x40299f0e	2.650333
200	0xbfdcb489	-1.7242595
201	0x40ea9b4a	7.331456
202	0xbf0aebb9	-0.54265934
203	0xc0aaecd4	-5.3414097
204	0x3fb5b48f	1.4195727
205	0xbf8ca9e4	-1.0989347
206	0x3e53f158	0.20697534
207	0x40444008	3.0664082
208	0xbea21821	-0.31659034
209	0x3f65da34	0.89786077
210	0xc019a95d	-2.400962
211	0xc00ba980	-2.1822205
212	0xc09cf066	-4.9043455
213	0xc0120562	-2.2815785
214	0xc0096b54	-2.1471758
215	0xc0dbf891	-6.8740926
216	0x40a570a1	5.1699986
217	0xbf66e027	-0.9018578
218	0xc09069e9	-4.5129285
219	0x3f0c03db	0.5469338
220	0x4056b788	3.3549519
221	0xc0961cf4	-4.6910343
222	0x402e1d4a	2.7205377
223	0x4019f760	2.4057236
224	0x40d25358	6.572674
225	0xc0ebd33f	-7.369537
226	0xbfa3d232	-1.2798522
227	0xc090e1d4	-4.527567
228	0x4079b6e4	3.9017878
229	0xc02232d7	-2.534353
230	0xc05a6530	-3.412426
231	0x40969d1a	4.7066774
232	0x3e2aa7f3	0.1666563
233	0xc03f96b9	-2.9935744
234	0xc086fa2a	-4.2180376
235	0xc08e60f7	-4.4493365
236	0x4079a2d8	3.9005642
237	0xc0be20d3	-5.941507
238	0x40a6f1ce	5.217017
239	0x3f82fe45	1.0233847
240	0x4097b404	4.7407246
241	0xc0407f0c	-3.0077543
242	0x40a55680	5.166809
243	0xbf8aad45	-1.0834128
244	0x4045a69c	3.088294
245	0xc0357802	-2.8354497
246	0xc098a1d6	-4.7697554
247	0xbf269bc8	-0.65081453
248	0x408ee4e5	4.465441
249	0x4031b0ca	2.7764153
250	0xc00eb7a0	-2.2299576
251	0x40544994	3.3169909
252	0x4055d38a	3.3410363
253	0xbf357c3a	-0.7089268
254	0x3b6e192c	0.0036330922
255	0x4008fbe7	2.140375

fc2.weight f4 [200, 300]
0	0xbd445770	-0.04793495
1	0xbc7e17b0	-0.015508577
2	0x3b2e59b0	0.002660375
3	0xbd9f2c93	-0.07772174
4	0x3d30937c	0.043109402
5	0xbd0bac52	-0.034099884
6	0xbd251f06	-0.04031279
7	0xbc9f76cb	-0.019465825
8	0xbc9bcd48	-0.019018784
9	0xbbace1b8	-0.005275931
10	0xbd6c676c	-0.05771582
11	0xbd98009d	-0.07421992
12	0xbcb5a8a0	-0.022175133
13	0x3d14477a	0.036200978
14	0xbd51ad17	-0.051190462
15	0xbd32629b	-0.04355107
16	0xbbbfb0e6	-0.0058499454
17	0x3c1f960b	0.009740363
18	0x3d0713da	0.032977916
19	0xbc5ffcc0	-0.0136711
20	0xbce14a93	-0.02750138
21	0xbda66829	-0.08125336
22	0xbdb56fde	-0.088592276
23	0x3cc54ccc	0.024084471
24	0xbd2a09dc	-0.04151331
25	0xbdba174a	-0.09086473
26	0xbd0566d5	-0.03256877
27	0x3d09c7f1	0.033637945
28	0x3c0c8afb	0.008578057
29	0x3a153000	0.00056910515
30	0xbc693ba8	-0.014235415
31	0xbd40b986	-0.04705193
32	0xbd37b1ff	-0.044847485
33	0xbcc94024	-0.024566717
34	0x3c7f0024	0.015563998
35	0xbd791097	-0.060806837
36	0xbd6cf2fc	-0.057848915
37	0xbceced12	-0.028921638
38	0xbcdabec5	-0.026702294
39	0xbdaeb148	-0.085299075
40	0xbd67c9b3	-0.05658884
41	0xbd287f53	-0.04113705
42	0xbdb0eb9a	-0.086386874
43	0x3c624170	0.013809547
44	0xbc75d15c	-0.015003528
45	0x3c1852a5	0.009297048
46	0x3d64aac0	0.055826902
47	0xbd63dbe0	-0.05562961
48	0xbbdfc7d9	-0.0068292436
49	0xbd122498	-0.03567943
50	0xbb5a09a0	-0.0033269897
51	0xba2dceb7	-0.0006630229
52	0xb80af000	-3.312528e-05
53	0xbd9a5a2f	-0.075367324
54	0x3c524418	0.012833618
55	0xbda362b6	-0.07977812
56	0xbd321c4b	-0.043484014
57	0xbd147272	-0.036241956
58	0x3cc8f9b8	0.024533138
59	0xbd308f9b	-0.043105703
60	0xbd1f5f5b	-0.038909297
61	0x39b35c9c	0.0003421054
62	0xbc352868	-0.011056997
63	0xbc4179f0	-0.011808857
64	0xbcc029ff	-0.023457525
65	0xbd021342	-0.031756647
66	0x3cc45ef0	0.023971051
67	0xbd78689e	-0.060646646
68	0xbdd47948	-0.10374695
69	0xbd062e0e	-0.032758765
70	0xbc5e9b10	-0.0135867745
71	0x3bf81e66	0.007571983
72	0xbc2f1ac0	-0.01068753
73	0xbda25145	-0.07925657
74	0xbdb67d66	-0.089106366
75	0xbca0a77c	-0.019611113
76	0xbbfb1438	-0.0076623224
77	0xbd5c688e	-0.05381065
78	0xbaa7ac62	-0.0012792463
79	0x3c5e5de8	0.013572194
80	0xbbab9c35	-0.005237127
81	0xbd8b42da	-0.0679986
82	0x3d08f118	0.03343305
83	0x3d06d606	0.032918952
84	0xbc029813	-0.007970828
85	0x3ce17a0c	0.027524017
86	0xbda4d1e8	-0.08047849
87	0x3cd9c4c4	0.026583083
88	0xbd7df29b	-0.061998945
89	0xbc338b7c	-0.010958549
90	0xbd3528c9	-0.04422835
91	0xbd1a719f	-0.037706014
92	0x3ca8ac50	0.020589978
93	0xbdb98aa9	-0.090596505
94	0xbd408707	-0.047003772
95	0x3c2ac4a8	0.010422863
96	0xbd009859	-0.03139529
97	0xbd68f771	-0.056876604
98	0xbd1f6efb	-0.0389242
99	0xbc15e973	-0.009149897
100	0x3ce5367e	0.027980085
101	0x3cfa2dc0	0.030539393
102	0xbae4ec46	-0.0017465435
103	0x3cdb4974	0.026768424
104	0xbd0bf2a3	-0.034166943
105	0xbc28e650	-0.010308817
106	0x3b4a1517	0.0030835324
107	0xbd356fde	-0.044296138
108	0xbc8bae70	-0.017050952
109	0xbd0c2d3b	-0.034222823
110	0x3cf2c731	0.029635997
111	0xbd811559	-0.063029
112	0xbd950aca	-0.072774485
113	0xbc080a9f	-0.0083033135
114	0x3d5a2b88	0.05326417
115	0xbd431be9	-0.04763404
116	0x3d0d13b4	0.03444262
117	0xbda58d68	-0.08083612
118	0xbb8bb422	-0.004263417
119	0xbceb83cb	-0.028749367
120	0xbd182f7d	-0.037154663
121	0xbc1bc960	-0.009508461
122	0x3cf0ae84	0.02938009
123	0xbbb160ca	-0.0054131495
124	0xbcb475dd	-0.022028858
125	0x3cdfe719	0.027331876
126	0x3c6e622e	0.014549775
127	0xbd80c351	-0.06287254
128	0xbd16dba4	-0.03683056
129	0xbda0612c	-0.07831034
130	0xbd1d53e9	-0.0384101
131	0xbce5d6a6	-0.028056454
132	0xbd94fb2a	-0.07274468
133	0x3d6adc4e	0.057339005
134	0x3a8effe5	0.0010910003
135	0x3c93a369	0.018022256
136	0x3d011b9e	0.03152048
137	0xbd00dac1	-0.03145862
138	0xba99e120	-0.0011740066
139	0xbd4cdc09	-0.05001453
140	0xbd1b5430	-0.037922084
141	0xbd5af5a0	-0.053456903
142	0xbd84f58d	-0.064921476
143	0x3cd0d004	0.025489815
144	0x3d250540	0.04028821
145	0xbba17685	-0.0049274587
146	0xbc7bc7e9	-0.0153674865
147	0xbd86e5a6	-0.06586771
148	0xbd4185a8	-0.047246605
149	0x3cf7ef86	0.03026558
150	0xbca6e7f6	-0.02037428
151	0x3b3af5f2	0.0028527942
152	0xbd0d07fb	-0.03443144
153	0xbceef69e	-0.02917033
154	0xbd2fb03a	-0.042892672
155	0xbda097dc	-0.07841465
156	0xbd51316d	-0.051072527
157	0x3d326722	0.043555386
158	0xbd399e31	-0.04531688
159	0xbd1ec702	-0.038764007
160	0xbcb4d51a	-0.022074271
161	0xbd594bac	-0.053050682
162	0xbdb51dd5	-0.08843581
163	0xbd89ef01	-0.067350395
164	0xbd35dd3e	-0.044400446
165	0xbd239197	-0.039933767
166	0xbd63b3c5	-0.055591363
167	0xbd3e0e44	-0.046400324
168	0xbcb29d33	-0.021803474
169	0xbd204ded	-0.039136816
170	0xbdad26bf	-0.08454656
171	0x3cc3cf9a	0.023902703
172	0xbd4d27c5	-0.050086755
173	0xbd670b3f	-0.05640721
174	0x3a941c81	0.0011299999
175	0x3d0055f1	0.03133196
176	0xbd4bd650	-0.04976493
177	0x3d040f14	0.032240942
178	0xbd1028c6	-0.035195135
179	0xbcf77355	-0.030206362
180	0x3c8eb995	0.017422477
181	0xbd8ae902	-0.06782724
182	0x3d48b96e	0.049004965
183	0xbcdf5e61	-0.027266683
184	0xbd171a24	-0.036890164
185	0xbd8c38f3	-0.068468
186	0xbc9ec31a	-0.019380141
187	0xbdc18d78	-0.09450811
188	0xbc7710dd	-0.015079704
189	0xbd6ea0ae	-0.058258705
190	0xbc4ebc83	-0.012618187
191	0x3c82c30b	0.015962144
192	0x3d6a7cb0	0.057247818
193	0xbcfa2b9a	-0.030538369
194	0xbd460aa4	-0.04834999
195	0x3c8611d8	0.01636593
196	0x3bcbaf40	0.00621596
197	0xbd07ef47	-0.033187177
198	0x3b653e4e	0.0034979763
199	0xbd3135d2	-0.043264218
200	0x3c00e5b8	0.007867269
201	0xbd890888	-0.0669108
202	0xbd94a53a	-0.07258077
203	0xbc2516b4	-0.010076214
204	0x3d021efa	0.031767823
205	0xbd88d1d8	-0.066806495
206	0x3d1d1fce	0.03836041
207	0xbd156e0c	-0.036481902
208	0xbb158e30	-0.0022820346
209	0xbc9bf070	-0.019035548
210	0xbd72f9fa	-0.059320427
211	0x3cffb7bc	0.031215541
212	0xbaf2b9a0	-0.0018518455
213	0xbc9433f2	-0.018091176
214	0xbd0fb77e	-0.0350871
215	0xbcf41414	-0.02979473
216	0xbd9368d1	-0.071977265
217	0xbcd7cb0a	-0.026341934
218	0xbd6ade60	-0.05734098
219	0x3ce755c0	0.028239131
220	0xbd9e03b2	-0.077155486
221	0xbcbefd36	-0.0233141
222	0x375465c0	1.2659875e-05
223	0xbd2d3c6e	-0.04229396
224	0xbd676130	-0.05648917
225	0xbbcc97b8	-0.006243672
226	0x3c3d9e20	0.0115733445
227	0xbd12c4c0	-0.035832167
228	0xbcee5676	-0.029093962
229	0x3cbc3484	0.02297426
230	0x3c653810	0.013990417
231	0xbcadb747	-0.021205558
232	0xbceaf343	-0.02868045
233	0xbd43b442	-0.04777933
234	0xbda5f6e1	-0.08103729
235	0x3af4b940	0.0018670931
236	0xbd93a751	-0.072096474
237	0xbc53b3c8	-0.012921281
238	0xbd899529	-0.06717903
239	0xbcafa7a2	-0.021442238
240	0xbd19d176	-0.037553273
241	0xbd9eaf92	-0.07748331
242	0xbd4db2e2	-0.050219424
243	0xbd46852d	-0.04846685
244	0x3b94e3ba	0.0045437487
245	0x3d3a6362	0.045504935
246	0xbc17d98d	-0.009268177
247	0xbd4bca98	-0.049753755
248	0xbd69ddea	-0.0570964
249	0x3bd55ae0	0.0065110773
250	0x3c202a7c	0.009775754
251	0x3ce30014	0.027709998
252	0xbd0ac1f2	-0.033876367
253	0x3d324242	0.04352022
254	0xbca0abfa	-0.019613255
255	0x3cf2ef38	0.029655084

fc2.bias f4 [200]
0	0xbc31ed6b	-0.0108598275
1	0x3e29dee4	0.16588932
2	0x3e962332	0.29323727
3	0x4034939a	2.821509
4	0xbd8cbdc3	-0.06872132
5	0xbdc784d5	-0.097421326
6	0x400e4f77	2.2236001
7	0xbd9f7e9b	-0.0778782
8	0xbd30d042	-0.04316736
9	0x3eba59b2	0.36396557
10	0xbd8c7773	-0.06858721
11	0xbdbaa002	-0.0911255
12	0xbf94d41a	-1.1627228
13	0xbd744dd3	-0.05964453
14	0xbdc81945	-0.09770445
15	0x3c97e92d	0.018543804
16	0xbcd0b46d	-0.025476659
17	0xbd8c3123	-0.068453096
18	0xbdb4df55	-0.0883166
19	0x3f8704e6	1.054837
20	0x4022d289	2.5441
21	0x3f872fdf	1.0561484
22	0x3f55b5b0	0.8348036
23	0x3d01e461	0.03171194
24	0x3e86b6c6	0.2631132
25	0x3b8e6f5d	0.0043467716
26	0xbf0b1012	-0.54321396
27	0x3f68c891	0.9093104
28	0xbd3c22bb	-0.04593156
29	0x401d53a8	2.458231
30	0x3f802329	1.001073
31	0x400ff5fd	2.249389
32	0x3b495d7d	0.003072589
33	0x401f2ff2	2.4873013
34	0xbd2bf60e	-0.041982703
35	0xbce3909d	-0.027778918
36	0x3f7bd5eb	0.9837329
37	0xbfad3e2f	-1.3534602
38	0xbfd25666	-1.6432617
39	0x3fb3b674	1.4040055
40	0x3a346255	0.00068811077
41	0xbd86aef6	-0.0657634
42	0x3f5d6677	0.86484474
43	0xbd4c6ea9	-0.04991022
44	0x3bef96c7	0.007311675
45	0xbd59bcf4	-0.053158715
46	0xbec3f2c2	-0.38271147
47	0xbe865906	-0.26239794
48	0x3f3fa916	0.7486738
49	0x3ee91d3a	0.4553011
50	0xbdccef91	-0.10006631
51	0x3df4903b	0.11941572
52	0xbce1cb7b	-0.027562847
53	0xbd96c04c	-0.073608965
54	0x3cb7e4c8	0.022447959
55	0xbd3e9f75	-0.04653879
56	0x3bfeae1a	0.0077722194
57	0x3d1345a9	0.035955105
58	0x3f54daf0	0.8314657
59	0x3f1afe3f	0.605442
60	0xbdbde00d	-0.0927125
61	0xbdf0fccf	-0.117669694
62	0x3f849874	1.0359025
63	0xbd30a54a	-0.043126382
64	0x400d7943	2.2105262
65	0xbc094320	-0.00837782
66	0xbd0226ca	-0.031775273
67	0x3f6bc35d	0.92094976
68	0xbd596aec	-0.053080484
69	0xbd0e501d	-0.03474437
70	0xbfe89437	-1.8170232
71	0x3ea0ce8c	0.31407583
72	0x401607ef	2.3442342
73	0x3f5148dc	0.817518
74	0xbd1d2120	-0.03836167
75	0x3d55d8d9	0.052208755
76	0xbd133221	-0.03593648
77	0xbd4f54db	-0.050618034
78	0x3fa0af4c	1.2553496
79	0x400e96d3	2.2279556
80	0xbf32cffb	-0.69848603
81	0xc0225cfd	-2.5369256
82	0x4020bb33	2.5114257
83	0xbd4a35c7	-0.049367692
84	0x3faac27b	1.3340601
85	0xbe22b47b	-0.1588916
86	0x407b0d40	3.9226837
87	0x3fcfa6e3	1.6222805
88	0x3f4dd9f2	0.80410683
89	0x3d81c13a	0.06335683
90	0xbf0f8c86	-0.56073797
91	0xbfbc325b	-1.4702867
92	0x40134d79	2.3016036
93	0xbf1d6771	-0.61485964
94	0x3b7f8cc4	0.0038993815
95	0x3f32994b	0.69765157
96	0x404371e9	3.0538275
97	0xbc0b239a	-0.008492375
98	0x3e703ad6	0.23459944
99	0xbd0a3551	-0.033742253
100	0xbd438179	-0.047730897
101	0xbd6f6016	-0.058441244
102	0x3c66ebff	0.014094352
103	0x3fd177bd	1.6364666
104	0x401e6544	2.4749308
105	0xbdad171f	-0.084516756
106	0x3f17ed14	0.5934613
107	0xbd8904a0	-0.06690335
108	0x3fb813a7	1.4380997
109	0x3c90441e	0.017610606
110	0x3e1a69cf	0.15079425
111	0x3f9ccaa3	1.224934
112	0x3be91a99	0.0071137664
113	0x4054ce1f	3.3250806
114	0xbe50088c	-0.2031576
115	0xc012ad50	-2.2918282
116	0xbdbfdfc6	-0.09368853
117	0x3f943faa	1.1581929
118	0xbd37543f	-0.044758078
119	0x40280a95	2.6256459
120	0x3c84e5ed	0.016222918
121	0xbda235ed	-0.07920442
122	0x3fe80d10	1.8128986
123	0x3faf69a1	1.370411
124	0x3f8b3339	1.0875007
125	0x3f4e069f	0.80478853
126	0x4005a547	2.0882127
127	0xbdb1baa2	-0.086781755
128	0x3eda7c5d	0.42673007
129	0x3fdbcc4e	1.7171724
130	0x4030cc44	2.7624674
131	0x3c42e921	0.011896403
132	0xbb34ac8d	-0.0027568669
133	0x400a4cc0	2.1609344
134	0x4003eb6d	2.0612442
135	0x401bc30e	2.4337802
136	0x4028c130	2.6367912
137	0x401ee642	2.4828038
138	0xbd6e622e	-0.0581991
139	0xbe0d0413	-0.13771085
140	0xbd4b68f0	-0.049660623
141	0xbd9531da	-0.07284899
142	0xbeec2fac	-0.4613012
143	0x402831b4	2.6280336
144	0xbd128640	-0.035772562
145	0xbe53fc47	-0.20701705
146	0xbc84af3c	-0.01619684
147	0x3f938428	1.1524706
148	0xbdac348e	-0.084084615
149	0xbe81b96a	-0.25336772
150	0x3c765d2c	0.015036862
151	0xbd0883b8	-0.03332874
152	0x40317999	2.7730467
153	0x40670850	3.6098824
154	0x3f092baf	0.5358228
155	0x3f5b2455	0.85602313
156	0xbbbf91a6	-0.00584622
157	0x4001f064	2.0302973
158	0xbfa2746e	-1.2691782
159	0xbd0f80ce	-0.035034947
160	0x3ff3d0d1	1.9048101
161	0x4011ab7e	2.276092
162	0xbd59631c	-0.053073034
163	0xbf0db6ff	-0.55357355
164	0xbd80e291	-0.06293214
165	0x3fdef8d1	1.7419683
166	0x3f954179	1.1660606
167	0x3d3479c5	0.04406144
168	0xbfd6b39a	-1.677356
169	0x4028cdba	2.6375566
170	0xbdc1fad8	-0.09471673
171	0xbda769fa	-0.0817451
172	0x3f9d7711	1.2301961
173	0xbc8d5234	-0.017251112
174	0xbc2d6d0f	-0.010585084
175	0x4018662d	2.3812363
176	0x401a14a1	2.407509
177	0x3faf45b7	1.369315
178	0x3f2d4bcd	0.6769379
179	0x3eeb2222	0.4592448
180	0x3f8d61d6	1.1045482
181	0xc03bcccb	-2.9343746
182	0xbc0f4635	-0.008744766
183	0x3e8be1c2	0.27320677
184	0xbd98eafe	-0.07466696
185	0xbd3be823	-0.04587568
186	0xba8d0be4	-0.001076099
187	0xc0177bcc	-2.366931
188	0x3f546cf7	0.8297877
189	0x3f0fb63f	0.5613746
190	0x40260728	2.5941868
191	0x3ed22b6e	0.4104876
192	0xbd7f61cc	-0.062349126
193	0x3ffd65fa	1.9796746
194	0x3fb73116	1.4311855
195	0xbd89c021	-0.06726099
196	0x3fd740a3	1.68166
197	0xbe988185	-0.29786316
198	0x3e9024de	0.28153127
199	0x3f34411c	0.7041185

fc3.weight f4 [1, 200]
0	0xbc06a726	-0.008218562
1	0xba91b34f	-0.001111606
2	0x400ffa1a	2.24964
3	0xc0c39dde	-6.113021
4	0x37bf89d6	2.283316e-05
5	0xbc807d01	-0.015684607
6	0xbede1bf7	-0.4338071
7	0xbcd3d91f	-0.025860367
8	0xbd763234	-0.06010647
9	0xbfcbb710	-1.5915241
10	0x3a5c83e7	0.0008411989
11	0xbabd99bc	-0.0014465372
12	0x3e19aa66	0.15006408
13	0xbcb5c9b6	-0.02219091
14	0xbc3fbc9e	-0.011702685
15	0xbc7e9a93	-0.015539783
16	0x3b535067	0.0032243968
17	0xbb70d330	-0.0036746971
18	0xbf4c43b0	-0.7979078
19	0x3d749423	0.059711587
20	0xc0837f93	-4.109323
21	0x3e0105b9	0.1259984
22	0xc08aba21	-4.335221
23	0xc04d9789	-3.212374
24	0xbfc43cfa	-1.5331109
25	0x3b8c544b	0.0042825094
26	0x3e5651f1	0.20929696
27	0x3fb0dbfa	1.3817132
28	0xbca47fdf	-0.020080505
29	0xc0700424	-3.7502527
30	0x40130ef9	2.2977889
31	0x406ceb2b	3.7018535
32	0x3c364a9e	0.011126189
33	0xc050fe6a	-3.2655282
34	0x3bc87aee	0.00611817
35	0x3cd563a9	0.026048498
36	0xbff89038	-1.9419012
37	0xbd1f3463	-0.03886832
38	0x3cc379a8	0.023861721
39	0x3cbaf20a	0.022820491
40	0x3c6d605d	0.014488307
41	0x3c7e4c73	0.015521157
42	0x3f9a0ff6	1.2036121
43	0xba722ed9	-0.0009238548
44	0x3c183b35	0.00929146
45	0x3d0c4893	0.0342489
46	0xbb881a3f	-0.0041535194
47	0x3d01e07a	0.03170822
48	0x3fb6b417	1.4273709
49	0xc06a6b0a	-3.6627831
50	0x3d020f5a	0.03175292
51	0xbf84c6ad	-1.0373131
52	0x3cb160ca	0.021652598
53	0x3ad5f431	0.0016323385
54	0xbb901926	-0.004397529
55	0x3ca6a6a9	0.020343142
56	0x3baa82f4	0.005203599
57	0xbc9370a1	-0.017998042
58	0xc089f6d1	-4.311379
59	0xbfb78ed7	-1.4340466
60	0xbbc7ee4d	-0.0061014057
61	0x406d337d	3.7062676
62	0x3e7abb8f	0.2448561
63	0x3cd150ad	0.025551165
64	0x3f8829de	1.0637777
65	0xbcf2a409	-0.029619234
66	0x3ceff487	0.029291404
67	0xc0b0c3f9	-5.5239224
68	0x3ce9b6da	0.028529573
69	0x3fe72e67	1.8061036
70	0x3f883b89	1.0643169
71	0xbf1bf840	-0.60925674
72	0xc01c347e	-2.4407039
73	0x401c6987	2.4439409
74	0x3f698029	0.9121118
75	0x3c15494a	0.009111712
76	0x3ca7fe6a	0.020507056
77	0xbc8d0be4	-0.017217584
78	0xbe874f1f	-0.26427552
79	0xc10b4cbc	-8.706234
80	0xbc2b984d	-0.010473323
81	0xbcde6460	-0.027147472
82	0x3f16f63a	0.5896946
83	0xbcf52cbf	-0.029928563
84	0x40b2ac44	5.5835285
85	0x407689e3	3.852166
86	0x3ea47b7e	0.32125467
87	0x40e7c2d7	7.242534
88	0x3cb018a9	0.021496134
89	0xbe18c7d5	-0.1491998
90	0x3cb2f323	0.021844452
91	0x3c7478cb	0.014921377
92	0x4000f619	2.0150206
93	0x3f1ca421	0.6118794
94	0x3b217e55	0.002464195
95	0x3f532187	0.82473034
96	0xc0a01988	-5.0031166
97	0xbb9c4278	-0.004768666
98	0xbee2ec8b	-0.44321093
99	0xbc605c4a	-0.013693878
100	0xbd27a87a	-0.040932156
101	0xbbc1f6f0	-0.00591933
102	0x3bf8977e	0.0075864187
103	0xc033164b	-2.7982357
104	0xc112d1d1	-9.176225
105	0x3ca7cba2	0.020482842
106	0xc08b6dd1	-4.3571553
107	0x3cb2435b	0.021760633
108	0xc03f3f9d	-2.9882576
109	0x3ce8a951	0.028401049
110	0x3ac30091	0.0014877488
111	0x40a72563	5.223314
112	0x3c7236a9	0.01478354
113	0x3eb5bfb0	0.35497808
114	0xbf231c65	-0.637152
115	0x3df54bba	0.11977334
116	0xbcc4d16b	-0.02402564
117	0xbf0497cc	-0.51794124
118	0xbd234b46	-0.03986671
119	0xc0886848	-4.2627296
120	0x3c735f8a	0.014854321
121	0xbce190e3	-0.027534908
122	0x3f8806b7	1.0627049
123	0xc04596af	-3.087322
124	0xc0b2723b	-5.576444
125	0x4061fa82	3.5309148
126	0xc0586689	-3.3812582
127	0xbbbc5583	-0.0057474985
128	0x3ceddd5d	0.029036218
129	0xc0086090	-2.1308937
130	0xc0067de4	-2.1014338
131	0xbcab137d	-0.020883316
132	0xbc2673e1	-0.010159464
133	0xc00f26f5	-2.2367527
134	0xc0c0b66f	-6.0222697
135	0xc0a6ef8c	-5.2167416
136	0xbf964716	-1.1740444
137	0xbf99cd8e	-1.2015855
138	0x3cc90b76	0.024541598
139	0xbcf0a838	-0.029377088
140	0xbcc6f834	-0.024288274
141	0xbd47520c	-0.04866223
142	0xbd087030	-0.033310115
143	0x40a9747f	5.2954707
144	0x3b016b4a	0.0019747787
145	0xc062fc2b	-3.546641
146	0x3c167de3	0.009185287
147	0x4097e544	4.7467365
148	0xbcc127e7	-0.023578597
149	0xbe584dc3	-0.21123414
150	0x3d02848b	0.031864684
151	0xbd123820	-0.035698056
152	0x40b4b4c2	5.647065
153	0x3fabd851	1.342539
154	0x40c20e60	6.0642548
155	0xc08e5fbd	-4.449187
156	0x3caa82f4	0.020814396
157	0xc0c6c994	-6.2121067
158	0x3c9d4c19	0.019201325
159	0x3cf9c05f	0.030487237
160	0xc0130b10	-2.2975502
161	0xc0013499	-2.0188353
162	0x3d14f742	0.036368616
163	0x3fbd88bb	1.4807352
164	0x3d06c666	0.03290405
165	0x40f284c9	7.578709
166	0xc0a10153	-5.0314116
167	0x3b3dd83d	0.0028968
168	0xbce80540	-0.028322816
169	0x40c9914f	6.298988
170	0x3cb23f73	0.02175877
171	0xbc916cff	-0.017752169
172	0xbc72a7f1	-0.014810548
173	0xbc971254	-0.018441357
174	0x3c6c0c84	0.014407281
175	0xc0da5935	-6.8233895
176	0x3fe23295	1.7671686
177	0x40c29b00	6.081421
178	0xbff8345e	-1.9390981
179	0x3f5897fa	0.846069
180	0x40ad76ad	5.420737
181	0x3e01731a	0.12641564
182	0x3c3cf5ac	0.011533182
183	0x3c1af292	0.009457247
184	0xbd110f3f	-0.03541493
185	0x3d164f03	0.036696445
186	0x3c9e0b82	0.019292597
187	0x3f107ace	0.56437385
188	0x40da1922	6.815568
189	0xbfbb3065	-1.4624144
190	0xbfd49556	-1.6608074
191	0xbfa59d08	-1.2938547
192	0x3cdbc096	0.02682523
193	0xbfc5d723	-1.545628
194	0xc0079956	-2.118734
195	0x3a4c7291	0.0007799054
196	0x40c4e4d1	6.1529317
197	0x406d876c	3.7113905
198	0xbf87ef47	-1.0619897
199	0x405dce60	3.4657211
