log/train_2_1k800/models/1720_actor.pt (torch_old, 249426 bytes, 6 tensors)

fc1.weight f4 [300, 4]
0	0x3e31a4ca	0.17348018
1	0xbddbc4fa	-0.1073093
2	0xbf95c4a5	-1.1700636
3	0xbf41e518	-0.75740194
4	0xbe8069bf	-0.25080678
5	0x3d90ea18	0.070759
6	0x3fa8ea99	1.3196594
7	0xbe0eebf2	-0.13957193
8	0xbe1df741	-0.15426351
9	0x3da6a2c8	0.08136517
10	0xbfc49b0c	-1.5359817
11	0xbee32323	-0.44362745
12	0xbea9888b	-0.33111987
13	0xbda648f9	-0.08119387
14	0xbf87b889	-1.0603191
15	0x3f0fa24a	0.5610701
16	0xbe26a32c	-0.16273183
17	0x3e97696c	0.29572618
18	0xbf74b508	-0.9558873
19	0x3ea240d7	0.31690094
20	0xbe08f51f	-0.13374756
21	0x3dd3fdf1	0.1035117
22	0x3f8fc0b3	1.1230682
23	0x3f3ba1a6	0.7329353
24	0xbda49a34	-0.080372244
25	0xbf2d2b39	-0.6764408
26	0x3efa3048	0.4886496
27	0xbf480c46	-0.7814373
28	0x3ecbbe96	0.39793843
29	0x3ded8790	0.11598122
30	0x3f1ac1fc	0.60452247
31	0xbf2f814e	-0.6855668
32	0x3e94119d	0.28919688
33	0xbe3de782	-0.18545344
34	0xbf85a266	-1.0440185
35	0x3e1bf87d	0.1523151
36	0xbda61663	-0.08109739
37	0x3eee9cc6	0.46603984
38	0x3ec69a8f	0.38789794
39	0x3f530f3d	0.82445127
40	0xbd97f34c	-0.07419452
41	0xbe199864	-0.14999539
42	0xbe960acf	-0.2930512
43	0xbe077e6e	-0.13231823
44	0x3ead43b5	0.3384072
45	0xbd41ae62	-0.047285445
46	0x3f6967ac	0.91173816
47	0x3f322aad	0.6959637
48	0xbeb1aaf7	-0.34700748
49	0xbe50c215	-0.20386536
50	0x3f21a0ba	0.63135874
51	0x3e74506a	0.238588
52	0xbde94aea	-0.11391242
53	0xbe638b55	-0.2222112
54	0x3f8a0cfd	1.0785214
55	0x3f24743b	0.64239854
56	0x3e9ada66	0.3024475
57	0x3e5df722	0.21676305
58	0x3f089410	0.53350925
59	0x3e305a08	0.17221844
60	0x3e29a68c	0.16567439
61	0xba91e5de	-0.0011131128
62	0x3fa37dd9	1.2772781
63	0xbf6c7a09	-0.9237371
64	0x3a8c3aab	0.0010698637
65	0x3eb6b9a5	0.3568851
66	0x3eda6056	0.42651623
67	0x3f568af2	0.83805764
68	0x3ddc7aa2	0.10765578
69	0x3e466998	0.19376218
70	0x3f8801f9	1.0625602
71	0x3f548c29	0.8302637
72	0xbe43a979	-0.19107617
73	0xbe60cc36	-0.219529
74	0xbfc483e6	-1.5352752
75	0xbb1a05be	-0.0023501958
76	0xbe82c376	-0.2553975
77	0xbf000390	-0.50005436
78	0xbe936a73	-0.28792152
79	0x3f23cae2	0.6398145
80	0x3e6185cf	0.220237
81	0x3f0a1b83	0.5394823
82	0xbde4b423	-0.11167171
83	0xbf25c3c5	-0.64751846
84	0x3e87cff3	0.2652584
85	0x3bd46067	0.0064812186
86	0xbe184d40	-0.14873219
87	0xbf3876ea	-0.7205645
88	0xbebb045a	-0.36526757
89	0xbeba1538	-0.36344314
90	0xbf7d401c	-0.9892595
91	0x3ed4e351	0.4157968
92	0x3e6d6be1	0.23185684
93	0xbf252f0e	-0.64524925
94	0xbe8fda27	-0.28096125
95	0x3eee02f9	0.46486643
96	0x3ed1cd69	0.40977028
97	0xbc463b40	-0.012099087
98	0x3f584929	0.84486634
99	0xbf37db1f	-0.7181873
100	0x3ddafc7e	0.1069269
101	0x3e01d729	0.12679733
102	0xbf864b6c	-1.0491767
103	0xbf02636f	-0.50932974
104	0x3e2807e9	0.16409267
105	0x3dacd9d3	0.08439984
106	0xbf6382ae	-0.88871276
107	0x3e21f67f	0.15816687
108	0x3cc0acae	0.02351984
109	0x3e8ea0c9	0.27857044
110	0xbec3c98a	-0.382397
111	0x3f353f1a	0.7079941
112	0x3ec6fe75	0.3886601
113	0x3e87ff3d	0.2656192
114	0x3f1137e9	0.5672594
115	0x3e1db461	0.1540084
116	0xbe1b8bbc	-0.15190023
117	0xbf02b850	-0.5106249
118	0xbfae264d	-1.3605438
119	0x3f0ebfb6	0.5576128
120	0xbe89201c	-0.2678231
121	0x3e8358e7	0.25653765
122	0x3fa726de	1.3058736
123	0x3d55c2aa	0.0521876
124	0xbe13322e	-0.14374611
125	0xbe2b839d	-0.16749425
126	0xbeee4b7a	-0.4654196
127	0x3ead0ccf	0.33798835
128	0x3e8fc72d	0.28081647
129	0x3d2b9ad1	0.04189569
130	0xbeb156af	-0.34636447
131	0xbf2d5a5f	-0.6771602
132	0xbe6d4ebe	-0.23174569
133	0xbb1168ef	-0.002218779
134	0x3efcaf55	0.49352518
135	0x3daea872	0.08528222
136	0x3e1a291b	0.15054743
137	0x3e8d9b74	0.27657664
138	0x3facd430	1.3502254
139	0x3ee12ac9	0.43977955
140	0xbe4dd448	-0.2010051
141	0xbec119f9	-0.37715128
142	0x3edcafd3	0.43102893
143	0xbdeb9fad	-0.11505065
144	0xbc27e559	-0.010247552
145	0xbecdcd7d	-0.40195838
146	0x3d23d15c	0.039994583
147	0xbea25b1d	-0.3171014
148	0xbe4d5719	-0.20052756
149	0xbe200ab7	-0.15629087
150	0x3f86d6e6	1.0534332
151	0x3f12d0ab	0.5734965
152	0x3e1f5f08	0.15563595
153	0xbea17311	-0.315331
154	0x3ed696eb	0.41912016
155	0x3e40a1ca	0.18811718
156	0xbdc2eeca	-0.09518202
157	0x3f032a9c	0.5123689
158	0x3f870c03	1.0550541
159	0x3e865285	0.26234832
160	0xbaacfb2d	-0.0013197415
161	0x3ec93d2a	0.39304477
162	0xbf866d72	-1.050215
163	0xbf10d3ab	-0.5657298
164	0xbe41e778	-0.18935955
165	0xbc4b6c0b	-0.012415896
166	0xbe71eb87	-0.23625003
167	0x3db43ac7	0.088002734
168	0x3dea7278	0.114476144
169	0xbecc9a96	-0.3996169
170	0xbdc8fd45	-0.09813932
171	0xbeedf4dd	-0.46475878
172	0x3e9e8129	0.30957916
173	0xbed6a696	-0.4192397
174	0x3e8328b2	0.25616986
175	0x3e70009b	0.23437731
176	0x3c6bbbf4	0.014388073
177	0x3efdaedb	0.49547467
178	0xbee77dbe	-0.4521312
179	0xbdcb15d1	-0.099162705
180	0xbe65b1aa	-0.22431055
181	0x3d23da4b	0.040003102
182	0xbe2eeee6	-0.1708332
183	0x3fcdbcdb	1.6073259
184	0xbe005697	-0.12533031
185	0x3efd7223	0.49501142
186	0x3e84ef57	0.25963852
187	0x3f869b15	1.0516077
188	0x3ddcc0c6	0.10778956
189	0xbf299c63	-0.6625425
190	0xbf80b6a0	-1.0055733
191	0xbc87b07d	-0.016563648
192	0x3e9ad111	0.3023763
193	0x3d2956c7	0.041342523
194	0xbf739a60	-0.9515743
195	0x3f47e254	0.78079724
196	0x3e2bf109	0.16791166
197	0x3e848218	0.25880504
198	0xbe4eb810	-0.20187402
199	0x3dc87b93	0.09789195
200	0xbcd233a5	-0.025659392
201	0xbf0c73a9	-0.54863983
202	0x3eeea190	0.46607637
203	0x3ebc3316	0.36757725
204	0xbe166ce6	-0.14689979
205	0xbe893d85	-0.26804748
206	0xbec7ba30	-0.39009237
207	0x3f1ad06d	0.6047428
208	0x3d87dbba	0.066337064
209	0x3e2dc287	0.16968738
210	0xbf71b644	-0.9441874
211	0xbd6e8128	-0.05822864
212	0x3ec11488	0.37710977
213	0x3d4c07d0	0.049812138
214	0xbeae8b0c	-0.3409046
215	0xbedd83ef	-0.4326472
216	0xbdfe7464	-0.124245435
217	0xbe5bb884	-0.21457106
218	0xbe747aa4	-0.23874909
219	0xbed69553	-0.419108
220	0xbe145dec	-0.14488953
221	0xbd6a022a	-0.05713097
222	0xbf788a0e	-0.97085655
223	0xbe21d308	-0.15803158
224	0x3eb3e8b5	0.3513848
225	0xbe01a2fc	-0.1265983
226	0x3fda269d	1.7043034
227	0x3f31f3da	0.6951271
228	0x3dac6e25	0.08419446
229	0x3e89da38	0.269243
230	0xbddbea16	-0.10738008
231	0x3ec11be0	0.3771658
232	0x3dffd627	0.12492018
233	0x3f0fe2fe	0.5620574
234	0xbf36ef6b	-0.7145907
235	0xbe27a969	-0.16373219
236	0x3e8341f9	0.2563627
237	0x3e9ef1ff	0.31044003
238	0x3f0fe0ed	0.56202585
239	0xbe976d72	-0.29575688
240	0xbd6134de	-0.05498206
241	0xbf07c6ee	-0.5303792
242	0xbdc729f7	-0.09724801
243	0xbd7af586	-0.061269306
244	0x3dbb7877	0.09153836
245	0x3dec1fdb	0.115295134
246	0xbf00b558	-0.5027671
247	0xbf7d1b42	-0.9886972
248	0xbe95cedb	-0.2925938
249	0xbe1d8340	-0.15382099
250	0xbf1df1dd	-0.6169718
251	0x3d74cb01	0.059763912
252	0xbe376cef	-0.17912649
253	0xbda83007	-0.082122855
254	0x3fbd67e1	1.4797326
255	0xbf01c0c4	-0.5068476

fc1.bias f4 [300]
0	0x3f098529	0.5371881
1	0xbf8df220	-1.1089516
2	0x3edc6a51	0.43049863
3	0xbeb7e3eb	-0.35916075
4	0xbe7814fd	-0.24226756
5	0xbe99134e	-0.2989754
6	0x3d1bb19e	0.038011186
7	0xbe40efde	-0.18841502
8	0xbe711840	-0.23544407
9	0xbf9db419	-1.2320586
10	0x3fb9c9b9	1.4514686
11	0xbfa17cba	-1.2616189
12	0xbf78f53e	-0.9724921
13	0x3ede0d13	0.4336935
14	0xbf3b924a	-0.73270094
15	0x3f671b8c	0.9027641
16	0xbfed288f	-1.8528003
17	0xbc938ea4	-0.018012352
18	0x3dd0f9df	0.10203909
19	0xbf93a59e	-1.1534917
20	0xbeb8a43c	-0.360628
21	0x3ed27795	0.4110686
22	0xbe97f15c	-0.2967633
23	0xbd874c57	-0.066063575
24	0xbe7fe4a8	-0.24989569
25	0x3ed7ed30	0.42173147
26	0x3f4ca764	0.7994292
27	0xbf616878	-0.8805003
28	0xbfa78d57	-1.3090008
29	0xbf4e2b95	-0.8053525
30	0x3f27f2e9	0.65605026
31	0x3f13dd90	0.5775995
32	0xbe834d46	-0.25644892
33	0xbfd7150d	-1.6803299
34	0x3f1b4c58	0.60663366
35	0x3f4ee20b	0.80813664
36	0xbf3a9849	-0.7288862
37	0x3f7775c7	0.9666409
38	0x3e824c00	0.25448608
39	0xbe644cc1	-0.22294904
40	0x3ed5a155	0.4172465
41	0xbf51acda	-0.81904376
42	0x3f344fa0	0.70434
43	0xbf8d3f52	-1.1034949
44	0x3ebbd30b	0.3668445
45	0xbf804b0c	-1.0022902
46	0x3d1c6e87	0.038191345
47	0xbd70f1d3	-0.05882437
48	0xbf047568	-0.5174165
49	0xbfa698b8	-1.3015356
50	0x3ecb7af8	0.39742255
51	0xbf876ec9	-1.0580684
52	0xbf57e555	-0.8433431
53	0x3edb31ef	0.42811534
54	0x3f86e629	1.0538989
55	0x3f56be5b	0.8388421
56	0x3eab6d09	0.33481625
57	0xbfb4ad11	-1.4115316
58	0xbf2178d1	-0.63074976
59	0xbf80637d	-1.0030361
60	0x3e71e6c3	0.23623185
61	0x3ed2b6c9	0.4115508
62	0xbe1ff9d0	-0.1562264
63	0xbf40471c	-0.75108504
64	0xbf3bd1ac	-0.7336681
65	0xbeb95657	-0.36198685
66	0xbe9a614f	-0.30152366
67	0xbf3a01d0	-0.72659016
68	0x3f2dc0a6	0.67872083
69	0xbf0c6cd6	-0.5485357
70	0xbf3fa942	-0.7486764
71	0xbef4371f	-0.47698304
72	0x3f242a54	0.6412709
73	0xbfae5652	-1.3620093
74	0x3f05f35c	0.5232446
75	0xbf837d7b	-1.0272669
76	0x3e55748f	0.20845245
77	0x3f921b81	1.1414644
78	0xbf4a8928	-0.79115534
79	0xbf721ff7	-0.94580024
80	0x3faf0032	1.3671935
81	0xbfbcc586	-1.4747779
82	0x3e3e68ce	0.18594667
83	0xbdd67291	-0.104710706
84	0xbceae2b1	-0.028672548
85	0xbebbdbe6	-0.36691207
86	0xbfb543fa	-1.416137
87	0xbc3228e7	-0.01087401
88	0x3d7274c9	0.059193406
89	0x3f47eff8	0.7810054
90	0xbf623e31	-0.88376147
91	0xbf64fcc7	-0.8944821
92	0x3f71cce2	0.9445325
93	0x3f871094	1.0551934
94	0x3f5388bb	0.8263051
95	0xbe5198af	-0.204684
96	0xbea8f94c	-0.33002698
97	0x3f3cd351	0.73759943
98	0xbe878cda	-0.2647465
99	0xbf78f5c0	-0.97249985
100	0x3f1ee97a	0.62075007
101	0x3f436064	0.76318955
102	0x3eefadc7	0.4681227
103	0x3f5e4798	0.86827993
104	0x3eb23a05	0.3480989
105	0xbedbfdb6	-0.42967004
106	0xbebd4355	-0.36965433
107	0xbf80a8d7	-1.0051526
108	0x3ccadb74	0.024762847
109	0xbf06a098	-0.52588797
110	0xbd75d256	-0.060015045
111	0xbf3cd095	-0.7375577
112	0x3f96181a	1.1726105
113	0xbf763b87	-0.9618458
114	0x3df6e107	0.12054639
115	0xbfc9de30	-1.5770931
116	0x3f9ba1ea	1.2158787
117	0xbf09ce3d	-0.5383032
118	0xbf84dee5	-1.0380522
119	0xbf9c0b1c	-1.219089
120	0x3ecd7387	0.40127203
121	0x3fa65f22	1.2997782
122	0x3d6c1072	0.05763287
123	0xbf2996b1	-0.6624556
124	0x3d4c1dc4	0.049833074
125	0xbf29257e	-0.66072834
126	0x3ea5d1ee	0.32386726
127	0x3e235331	0.15949704
128	0x3fb01d43	1.375893
129	0x3f41a72c	0.7564571
130	0xbecdecf7	-0.40219852
131	0xbf5a2848	-0.85217714
132	0x3f7cdffc	0.98779273
133	0x3f085dfe	0.5326842
134	0xbf740b79	-0.95330006
135	0xbf8be6ee	-1.0929849
136	0xbef1aca5	-0.4720203
137	0xbef42ea4	-0.47691834
138	0x3fceabd1	1.6146184
139	0x3f1d40f1	0.6142722
140	0xbf7d0b7b	-0.9884564
141	0xbfb0bf5c	-1.3808398
142	0xbf85721d	-1.042545
143	0x3e2fd4ba	0.17170992
144	0xbf3b2a99	-0.73111874
145	0x3f750c2d	0.95721704
146	0x3f24f427	0.64435047
147	0x3f83c6a9	1.0295001
148	0x3f2c7f25	0.6738151
149	0x3f18126a	0.594031
150	0xbf37a048	-0.71728945
151	0x3ebc485b	0.36773953
152	0x3f8a0d69	1.0785342
153	0x3eb752bb	0.35805306
154	0xbf006400	-0.5015259
155	0xbf35e03f	-0.710453
156	0xbf0491b5	-0.5178483
157	0x3f7a11f7	0.9768366
158	0x3f7dfeb2	0.9921676
159	0x3e698621	0.22805072
160	0x3e8c9670	0.27458525
161	0x3ead875c	0.33892334
162	0x3f053d47	0.52046627
163	0xbd5c6299	-0.053804968
164	0xbe3c6e46	-0.18401441
165	0x3e95121b	0.29115376
166	0x3c8a4d91	0.01688269
167	0x3f8a5a1c	1.0808749
168	0xbc9acb1e	-0.018895682
169	0x3f1fa2c6	0.6235775
170	0x3fe981c7	1.824273
171	0x3da040c5	0.07824854
172	0x3f332930	0.6998472
173	0xbed72b49	-0.4202521
174	0xbf46da39	-0.7767673
175	0x3bbbd45d	0.005732103
176	0x3f28d341	0.6594735
177	0x3f6be2fa	0.92143214
178	0x3e8086f0	0.2510295
179	0xbf83a494	-1.02846
180	0xbf5902e0	-0.8477001
181	0xbf35ac0c	-0.7096565
182	0x3f527215	0.82205325
183	0x3f544d76	0.82930696
184	0x3f659537	0.8968081
185	0x3d9272a2	0.07150771
186	0xbf3bb070	-0.733161
187	0x3f778cfe	0.9669951
188	0xbe674432	-0.22584608
189	0x3f23abc4	0.6393397
190	0xbe4ef87c	-0.20211977
191	0xbf9b17ca	-1.2116635
192	0xbfa62845	-1.2981039
193	0x3fb748a3	1.4319042
194	0xbf2efd8b	-0.68355626
195	0xbf8510fa	-1.0395806
196	0xbf71ce49	-0.9445539
197	0xbe898125	-0.26856342
198	0x3c877993	0.016537463
199	0xbc113bfa	-0.008864397
200	0x3e66e3d1	0.22547843
201	0x3fbde4ca	1.4835446
202	0xbfb963b0	-1.4483547
203	0xbdc13a81	-0.09434987
204	0x3f857d7b	1.0428919
205	0x3ecb5a7c	0.39717472
206	0xbf04b6eb	-0.5184161
207	0x3f90bae8	1.1307039
208	0xbf2b4d85	-0.6691516
209	0xbf84c03e	-1.0371168
210	0xbee387ee	-0.44439644
211	0xbfada042	-1.3564532
212	0xbf9a745b	-1.2066759
213	0xbf830d15	-1.0238367
214	0xbe25da27	-0.161965
215	0x3e6b4ee6	0.22979316
216	0x3f620170	0.88283443
217	0xbf01641e	-0.5054339
218	0x3f5bca72	0.8585578
219	0xbeacda4f	-0.33760306
220	0x3f0bdf0f	0.54637235
221	0xbf26f6b3	-0.65220183
222	0x3f898d36	1.0746219
223	0xbf40ad12	-0.75264084
224	0x3e8d8c7e	0.2764625
225	0xbf3eb38b	-0.7449271
226	0xbf09171e	-0.535509
227	0x3e917542	0.28409773
228	0xbf68e86f	-0.90979666
229	0x3f59ec49	0.8512617
230	0xbf511d7e	-0.81685627
231	0xbe63af45	-0.22234829
232	0xbec2d5bb	-0.38053688
233	0xbf6acdcf	-0.9172029
234	0xbf9de85c	-1.2336535
235	0x3f4f68b4	0.8101914
236	0xbf2b9b53	-0.6703388
237	0xbf8429d2	-1.0325263
238	0xbe07a567	-0.1324669
239	0xbf93f60e	-1.1559465
240	0x3f379f72	0.7172767
241	0xbf9a874d	-1.207254
242	0x3eaa1523	0.3321925
243	0xbfa5d561	-1.2955743
244	0xbf82ee5f	-1.0228995
245	0xbe1b7a31	-0.15183331
246	0xbf830c34	-1.0238099
247	0xbfaa10c4	-1.3286366
248	0x3dfd0c90	0.12355912
249	0x3f65478b	0.8956229
250	0xbf802ad6	-1.0013072
251	0x3ef29168	0.4737656
252	0xbdce52c8	-0.10074383
253	0x3e1ab892	0.1510947
254	0x3f8840a1	1.0644723
255	0x3f21f639	0.6326633

fc2.weight f4 [200, 300]
0	0xbbcb868e	-0.0062111085
1	0x3bcb7c77	0.0062099057
2	0xbebe5155	-0.37171426
3	0x3abe1aa4	0.0014503789
4	0x3da88ef3	0.082303904
5	0x3d9c8cb1	0.07644022
6	0x3d02f9bb	0.031976443
7	0x3d668494	0.05627878
8	0xbd82329a	-0.06357308
9	0xbe3aabba	-0.18229571
10	0x3e80a743	0.2512761
11	0xbd6a4dae	-0.057202987
12	0x3d6dbe1c	0.05804263
13	0x3d8e3c95	0.06945149
14	0xbcef19cb	-0.029187104
15	0x3e26b621	0.16280414
16	0xbf2af825	-0.6678489
17	0xbc674377	-0.014115206
18	0xbc8ae901	-0.016956808
19	0xbe21dc15	-0.15806611
20	0xbca47bbb	-0.02007853
21	0x3d089034	0.033340648
22	0x3c7f2b1b	0.015574242
23	0x3c7fa1b8	0.015602522
24	0x3d76d512	0.060261793
25	0xbdca3fd4	-0.098754555
26	0xbdbe6cad	-0.09298072
27	0xbf65da8e	-0.89786613
28	0x3c0aa715	0.008462687
29	0xbe826933	-0.25470886
30	0x3e9b7b3f	0.30367467
31	0xbea03e03	-0.3129731
32	0xbb78901a	-0.0037927688
33	0x3da66058	0.08123845
34	0x3d8e5ba2	0.06951071
35	0xbd26a6a9	-0.040686283
36	0xbdf4af7a	-0.11947532
37	0x3dc44c9a	0.09584923
38	0xbd57c289	-0.052675758
39	0xbc61e5aa	-0.013787666
40	0x3ca32937	0.019917114
41	0x3dbf9975	0.093554415
42	0xbb7365b7	-0.0037139484
43	0xbdc15908	-0.094408095
44	0xbb599f17	-0.0033206397
45	0xbf2eb530	-0.6824522
46	0xbe623cc3	-0.22093491
47	0xbc14d801	-0.0090847025
48	0xbdd88475	-0.10572139
49	0xbf147a41	-0.57999045
50	0xbd9151a6	-0.07095651
51	0xbe6e8556	-0.23293051
52	0xbd87186e	-0.065964565
53	0xbd4e23e4	-0.050327197
54	0xbd816b4a	-0.06319292
55	0x3cb8001f	0.022460995
56	0x3d92f12a	0.07174905
57	0xbeb2d7cb	-0.34930262
58	0x3cda7fe0	0.026672304
59	0x3d1fe813	0.039039683
60	0xbd26d1a0	-0.040727258
61	0xbd010c9b	-0.031506162
62	0x3d3c9403	0.046039592
63	0xbcd626f9	-0.02614163
64	0xbbd0a0e4	-0.006366836
65	0xbe14dbd4	-0.14536983
66	0xbdd563a8	-0.104193985
67	0xbe85822d	-0.2607588
68	0x3d0bbf76	0.03411814
69	0xbe335c9b	-0.17515795
70	0xbe28b21a	-0.1647419
71	0xbd9c5dd0	-0.07635081
72	0xbd829fe3	-0.06378152
73	0xbf1b15af	-0.6057996
74	0x3c9948bd	0.018711442
75	0xbed8da63	-0.42354116
76	0x3d73e558	0.05954489
77	0x3e22f555	0.15913899
78	0x3d5125b5	0.05106135
79	0xbe475dc5	-0.19469364
80	0xbdabb04d	-0.08383236
81	0xbe6fae37	-0.23406301
82	0xbdceace2	-0.100915685
83	0xbe3e117f	-0.18561362
84	0xbd8de6a3	-0.06928756
85	0xbce752c6	-0.028237712
86	0xbd218a0c	-0.039438292
87	0x3d0caa51	0.034342114
88	0xbcf60f0b	-0.03003647
89	0xbd4c4a0b	-0.0498753
90	0xbebd4b9c	-0.36971748
91	0xbe7860cd	-0.24255677
92	0x3cf3d8f0	0.02976653
93	0x3e455108	0.19269192
94	0x3d436fc5	0.047714014
95	0xbd1dcac1	-0.03852344
96	0xbe04de1d	-0.12975354
97	0x3df344de	0.1187837
98	0xbdae78a1	-0.08519102
99	0xbe09d791	-0.13461138
100	0xbd499fe7	-0.04922476
101	0xbb05d4b5	-0.0020420973
102	0x3cac4f0e	0.02103379
103	0xbdc5563a	-0.09635587
104	0xbde755ca	-0.1129566
105	0xbeaf73ca	-0.34268028
106	0xbe0dbf94	-0.13842613
107	0xbe86c666	-0.2632324
108	0xbe3883cc	-0.18019027
109	0xbbee99bc	-0.00728151
110	0x3cb89878	0.02253364
111	0xbeb90853	-0.36139163
112	0x3e127a87	0.14304553
113	0xbd88796b	-0.06663784
114	0xbe295c46	-0.16539106
115	0xbd6d682d	-0.057960678
116	0xbc9a91a2	-0.018868271
117	0x3ca3c076	0.019989233
118	0xbc82c30b	-0.015962144
119	0x3d1ab926	0.037774228
120	0x3b94fcd5	0.0045467415
121	0x3d01df55	0.031707127
122	0xbd753a31	-0.05986995
123	0xbbea9824	-0.00715925
124	0x3e90effe	0.283081
125	0xbe16ca22	-0.14725545
126	0xbd37b2ef	-0.04484838
127	0xbdbba41d	-0.091621615
128	0x3e1887a6	0.14895496
129	0xbd1c04aa	-0.038090385
130	0xbe08e94e	-0.13370249
131	0xbe184ad5	-0.14872296
132	0xbd6abda7	-0.057309773
133	0xbde97c42	-0.114006534
134	0x3eaacd2c	0.3335966
135	0xbb079187	-0.0020686106
136	0xbbe4401e	-0.006965651
137	0x3de8b5ff	0.11362838
138	0x3e2dffd4	0.16992122
139	0x3e27b81a	0.16378823
140	0xbe2c24ed	-0.16810961
141	0xbebffb1e	-0.37496275
142	0xbedb9986	-0.42890567
143	0xbdd425e7	-0.10358792
144	0xbbe082f5	-0.006851549
145	0xbb951268	-0.0045493133
146	0xbd6592bf	-0.05604815
147	0xbe25db87	-0.16197024
148	0xbd90bd36	-0.07067339
149	0x3da061bd	0.07831142
150	0xbd7c640a	-0.061618842
151	0xbb90de69	-0.0044210446
152	0xbdb4a0d4	-0.08819738
153	0xbcf835e3	-0.030299133
154	0xbd6e9cc6	-0.05825498
155	0x3ce91e80	0.028456926
156	0xbd00e9c0	-0.03147292
157	0x3c877822	0.016536776
158	0xbd80d2ee	-0.06290232
159	0xbd0e6a91	-0.0347696
160	0x3eb831ff	0.35975644
161	0x3e3d0164	0.18457562
162	0xbb875b6e	-0.0041307723
163	0xbd2d3a46	-0.042291902
164	0xbd77b9c2	-0.060479887
165	0xbda0d2ed	-0.07852731
166	0xbd08b680	-0.03337717
167	0x3d789b66	0.060695074
168	0xbe84fd02	-0.2597428
169	0x3d8be6ce	0.06831132
170	0x3d724d4e	0.059155755
171	0x3caa25be	0.02076995
172	0x3db27661	0.08713985
173	0x3cadc4de	0.021212038
174	0xbed2f2a5	-0.41200748
175	0xbd6de3c3	-0.05807854
176	0x3dda2801	0.106521614
177	0x3ede3197	0.4339721
178	0xbac7af5b	-0.0015234755
179	0xbe73a1f1	-0.23792244
180	0xbd23e718	-0.04001531
181	0xbf4a24b6	-0.78962266
182	0xbd530246	-0.05151584
183	0xbd8e86de	-0.069593176
184	0xbe2c01c6	-0.16797552
185	0xbc83a7f3	-0.016071295
186	0xbdb50a4d	-0.08839855
187	0xbd27b432	-0.040943332
188	0x3d16d3d4	0.03682311
189	0x3d11ec7d	0.035625923
190	0xbe5f6249	-0.21814837
191	0xbc817ed2	-0.015807543
192	0xbd7bd789	-0.061484847
193	0x3cc294a6	0.023752522
194	0xbdcb788f	-0.09935104
195	0xbdb6ac07	-0.0891953
196	0xbcd7309a	-0.026268292
197	0xbca7335d	-0.020410234
198	0x3daa0dd9	0.083034225
199	0x3d28c5a2	0.041204102
200	0xbd00e912	-0.031472273
201	0x3e9ac3a6	0.30227393
202	0xbe8dcb4c	-0.27694166
203	0xbcbfb194	-0.023400106
204	0x3c8441db	0.016144684
205	0xbda90423	-0.08252742
206	0xbd5705a2	-0.052495606
207	0xbe14d031	-0.14532544
208	0xbdb909c0	-0.09035063
209	0xbefd3332	-0.4945312
210	0xbcc5355b	-0.024073293
211	0x3e43f2c1	0.19135572
212	0xbdacd485	-0.084389724
213	0xbea1535c	-0.3150891
214	0xbcb78d56	-0.022406261
215	0xbbb3cf42	-0.0054873535
216	0xbd0c283e	-0.034218065
217	0xbe7aa2ef	-0.24476217
218	0x3db4a0d5	0.08819739
219	0x3e02654b	0.12733953
220	0xbd73dc66	-0.05953636
221	0xbda8afa6	-0.08236627
222	0xbc2e3073	-0.010631668
223	0xbdc05bb4	-0.09392491
224	0x3dfb8b78	0.12282461
225	0xbdb71834	-0.08940163
226	0x3ebdc0cc	0.37061155
227	0x3d5f6ba0	0.054546
228	0xbe6b5cba	-0.22984591
229	0x3db26bca	0.087119654
230	0xbe37c296	-0.17945322
231	0xbe439bf9	-0.19102468
232	0xbcb82b18	-0.022481486
233	0xbe245cb6	-0.16050991
234	0xbf577a2a	-0.8417078
235	0xbd7b104f	-0.06129485
236	0xbea34375	-0.31887403
237	0xbe07dbbf	-0.1326742
238	0x3d4c3721	0.049857263
239	0xbe440e1a	-0.19146004
240	0xbd6d7554	-0.05797322
241	0xbe16b87b	-0.14718811
242	0x3d4c1601	0.049825672
243	0xbe2f1ac0	-0.17100048
244	0xbf0fcc9a	-0.5617157
245	0x3b08f5f0	0.0020898543
246	0xbe925760	-0.28582287
247	0xbdcf3d6b	-0.101191364
248	0x3d89c7f1	0.06727589
249	0x3de51f0d	0.11187563
250	0xbeefb9ef	-0.46821544
251	0xbce286e3	-0.02765221
252	0x3cd59130	0.026070207
253	0x3cb24653	0.021762049
254	0xbc8a1188	-0.016854063
255	0x3c0daff3	0.008647907

fc2.bias f4 [200]
0	0x3e381405	0.17976387
1	0xbd0c4c7b	-0.034252625
2	0xbdfe96ab	-0.124310814
3	0x3e89ef83	0.26940545
4	0x3cece35c	0.028917007
5	0x3f1b03d2	0.60552704
6	0xbdf0a6be	-0.117505535
7	0x3d077dff	0.033079144
8	0x3ea6c976	0.32575577
9	0x3e6fc5a6	0.2341524
10	0x3f44b2b5	0.76835185
11	0xbd8f4a1d	-0.06996558
12	0xbd77e582	-0.06052161
13	0xbdba54ab	-0.090981804
14	0x3d79c05f	0.060974475
15	0x3da44772	0.080214396
16	0x3c47697d	0.012171146
17	0x3d1725dc	0.03690134
18	0x3b373117	0.0027952844
19	0xbd27cba2	-0.040965684
20	0x38ce1200	9.826198e-05
21	0x3bebb693	0.0071933954
22	0x3dfdbc94	0.12389484
23	0xbd0101d1	-0.031495873
24	0xbd7a6858	-0.061134666
25	0x3ecf1a43	0.40449724
26	0x3c8380ef	0.016052691
27	0xbb97b27c	-0.0046294313
28	0x3e854144	0.26026356
29	0x3e65a614	0.22426635
30	0x3e390a2e	0.1807029
31	0x3e579a11	0.21054865
32	0xbad19ecd	-0.0015992761
33	0x3e504a08	0.2034074
34	0xbd88a2f8	-0.06671709
35	0xbeed29ad	-0.4632086
36	0x3c5c8f9f	0.013461976
37	0x3e1e5453	0.15461855
38	0x3ef2ff2b	0.47460303
39	0x3eafe5e0	0.34355068
40	0x3e82d3e2	0.2555228
41	0x3ebf0959	0.3731182
42	0xbcb763df	-0.02238649
43	0xbcd3a26f	-0.02583429
44	0xbcaae1f6	-0.0208597
45	0x3e27737e	0.1635265
46	0xbea097dc	-0.3136586
47	0x3e4a2095	0.19738992
48	0x3d32a11b	0.043610673
49	0x3e8babd4	0.27279532
50	0xbd03b154	-0.032151535
51	0x3eead3b7	0.4586465
52	0xbe878cc0	-0.2647457
53	0x3dbbdc6b	0.09172901
54	0x3dbf274e	0.09333669
55	0x3e27d3f3	0.16389446
56	0x3c82c30a	0.015962142
57	0xbca0ab64	-0.019612975
58	0x3ec644ed	0.3872446
59	0x3e8036b0	0.25041723
60	0xbc03eee2	-0.00805256
61	0xbd56d6c2	-0.052450903
62	0x3ef05a0c	0.469437
63	0xbc0e119c	-0.008671191
64	0x3d54dbe4	0.051967517
65	0x3efed143	0.4976903
66	0xbc804269	-0.015656667
67	0x3d37241a	0.044712164
68	0x3eab6637	0.3347642
69	0x3d48fbd6	0.049068294
70	0x3ee4610a	0.44605285
71	0xbc9ba250	-0.018998295
72	0x3d32b88b	0.043633025
73	0x3e9a0ff5	0.300903
74	0xbd292d63	-0.04130305
75	0x3db91960	0.09038043
76	0xbc2162fd	-0.009850261
77	0xbe12ad50	-0.14323926
78	0xbca00754	-0.019534744
79	0x3dff88dc	0.12477276
80	0xbee048c2	-0.4380551
81	0x3c7e2d33	0.015513706
82	0x3eaf0312	0.3418203
83	0x3f0aa76b	0.5416171
84	0x3e10ca28	0.14139616
85	0xbd3525a5	-0.044225354
86	0xbb0dfa2c	-0.0021664007
87	0xbe1063bc	-0.14100546
88	0x3e72ea59	0.23722209
89	0x3d2f57de	0.042808406
90	0x3d1218e0	0.035668254
91	0x3e9693b3	0.2940956
92	0xbd2f3a00	-0.042779922
93	0xbd08126f	-0.033220705
94	0x3e95d494	0.29263747
95	0xbb1e8727	-0.0024189444
96	0x3e9b81ee	0.30372566
97	0xbe1e4dea	-0.1545941
98	0xbd0829df	-0.033243056
99	0x3e730fda	0.23736516
100	0x3e903095	0.28162065
101	0x3d19b61d	0.037527192
102	0x3b817ae9	0.0039514196
103	0x3e53b309	0.20673765
104	0xbc635dd4	-0.013877351
105	0x3cc49ea1	0.024001421
106	0xbebc1aea	-0.36739284
107	0x3d1a64ee	0.03769391
108	0x3e531fca	0.20617595
109	0xbe07e65d	-0.1327147
110	0x3df98741	0.12184001
111	0x3e0febc5	0.14054783
112	0xbe345a85	-0.17612655
113	0xba1f019b	-0.0006065608
114	0x3cef784b	0.029232165
115	0x3eab696d	0.3347887
116	0x3c809c41	0.015699508
117	0x3eafe9c8	0.34358048
118	0xbcbb5b83	-0.022870785
119	0xbcb85228	-0.022500113
120	0xbd618143	-0.055054914
121	0xbd6835bf	-0.05669188
122	0x3dcd56b9	0.10026307
123	0xbd3740b7	-0.04473945
124	0xbd534c7f	-0.051586624
125	0xbb60e502	-0.0034316187
126	0xbcf34432	-0.029695604
127	0x3d96d3d3	0.07364621
128	0x3eecd554	0.46256506
129	0x3cd8a3b3	0.026445245
130	0xbd3a368a	-0.04546217
131	0x3d3e2275	0.04641958
132	0xbebcb344	-0.3685552
133	0x3d40fdf5	0.047117192
134	0x3c7f36d4	0.015577037
135	0x3de55811	0.11198438
136	0xbd426069	-0.047455225
137	0x3c7ff63b	0.015622671
138	0xbd2d9bef	-0.042385038
139	0xbdc7ee4d	-0.09762249
140	0x3e5dfc0c	0.2167818
141	0x3e95ace8	0.2923348
142	0xbd0e0db4	-0.034681037
143	0xbd468c80	-0.048473835
144	0xbc3cab74	-0.011515487
145	0x3e81e60e	0.2537083
146	0xbbfa9738	-0.007647421
147	0xbdc25b28	-0.09490043
148	0x3b8ef777	0.004362996
149	0x3c95cf68	0.018287376
150	0xbec35e51	-0.38157895
151	0x3eaefd79	0.3417776
152	0xbccf4153	-0.025299704
153	0x3d9076e5	0.07053927
154	0x3d9f0bd4	0.07765928
155	0x3ed2ac5d	0.41147128
156	0xbda53390	-0.080664754
157	0x3ed23ad7	0.41060516
158	0xb9548118	-0.00020265987
159	0xbe4e7602	-0.20162204
160	0x3e8ddebc	0.27708995
161	0x3e1725bb	0.14760487
162	0x3de237b4	0.11045781
163	0x3cb34b93	0.021886623
164	0x3ed4c46f	0.41556117
165	0x3c8c7f43	0.017150527
166	0xbd31c65a	-0.043402053
167	0xbbe09aca	-0.00685439
168	0x3c8e57ed	0.01737591
169	0x3cb796a7	0.022410704
170	0x3d0cb5f3	0.034353208
171	0x3dc42535	0.09577409
172	0x3d04f975	0.032464463
173	0xbcd88c43	-0.02643407
174	0x3ebc0266	0.3672058
175	0xbb702367	-0.0036642195
176	0xbd92a580	-0.07160473
177	0x3f45932b	0.77177685
178	0x3d2ad4fd	0.041707028
179	0x3edbf9cb	0.42964014
180	0x3ef16c72	0.4715305
181	0x3e727cf9	0.23680486
182	0xbcae2c77	-0.021261437
183	0x3e764473	0.24049549
184	0x3e7fee6b	0.24993293
185	0x3ef825c3	0.4846631
186	0x3c9f53a3	0.01944906
187	0x3df85022	0.12124659
188	0xbdcd5724	-0.100263864
189	0xbe4c14d1	-0.19929816
190	0xbeca1ce7	-0.39475176
191	0xbde31784	-0.110884696
192	0xbd50664c	-0.050878808
193	0x3e8a74d5	0.2704226
194	0x3c3eda0e	0.011648668
195	0x3c1fe043	0.009758058
196	0x3beecba6	0.0072874604
197	0xbd18103d	-0.03712486
198	0xbec46022	-0.38354594
199	0x3baf5170	0.0053502843

fc3.weight f4 [2, 200]
0	0x3e3a3abe	0.18186471
1	0x39ee2b7d	0.000454273
2	0xbee9beaa	-0.45653278
3	0x3ee6aaec	0.45052278
4	0x3cc3bc12	0.02389339
5	0x3f0d9284	0.5530169
6	0xbb6e9f39	-0.0036410822
7	0x3d011559	0.0315145
8	0xbf986daf	-1.1908473
9	0x3e1e3291	0.15448977
10	0xbf32cc1f	-0.69842714
11	0xbd816b49	-0.06319291
12	0xbe09fcc0	-0.13475323
13	0x3e561833	0.20907669
14	0x3e0effe5	0.13964804
15	0x3d821cb6	0.063531324
16	0x3c6b6873	0.014368164
17	0x3d610442	0.0549357
18	0xbbeedf2e	-0.0072897887
19	0x3d305b10	0.043055594
20	0xbd5b5ba8	-0.053554207
21	0xbcf6af35	-0.030112842
22	0xbe049bd2	-0.12950066
23	0x3da6f4c9	0.08152158
24	0x3d1f24c2	0.038853414
25	0x3ecbfd61	0.3984175
26	0xbe7a28cb	-0.24429624
27	0xbea2552c	-0.31705606
28	0xbdf5fbe6	-0.120109364
29	0x3e34d3b3	0.17658882
30	0x3e681b75	0.22666724
31	0xbef8aeed	-0.48570958
32	0xbd79629f	-0.060885068
33	0x3eadfb2c	0.3398069
34	0xbb796a6f	-0.0038057824
35	0xbdd80b5b	-0.10549041
36	0xbd82bb3b	-0.06383368
37	0xbe46cf0c	-0.1941492
38	0xbeef0230	-0.46681356
39	0xbee73e07	-0.4516451
40	0x3d9c4fec	0.076324314
41	0x3e6c937c	0.23103136
42	0x3d2483c7	0.040164735
43	0x3d811941	0.06303645
44	0xbd8f94f4	-0.070108324
45	0x3e428450	0.18995786
46	0xbe1368d0	-0.14395452
47	0xbda9ac18	-0.082847774
48	0x3bc3cbb2	0.00597521
49	0x3e50aed9	0.20379199
50	0x3d2ee410	0.042697966
51	0x3e73159d	0.23738714
52	0xbf561d7b	-0.83638734
53	0xbe1940ee	-0.14966175
54	0xbef0b007	-0.47009298
55	0x3dd88678	0.10572523
56	0xbd05a16c	-0.032624647
57	0x3d016b4a	0.03159646
58	0x3e7fd5d8	0.24983919
59	0xbf9b2d1e	-1.2123144
60	0xbc7ec120	-0.015548974
61	0xbd2d3277	-0.042284455
62	0x3e2d9f1d	0.16955228
63	0x3ce194cb	0.02753677
64	0xbe0a919e	-0.13532111
65	0xbf2863fa	-0.6577755
66	0x3c8372d3	0.016045963
67	0xbe223b05	-0.15842827
68	0x3d9350c3	0.071931385
69	0x3a869f56	0.0010270874
70	0x3e597b31	0.212384
71	0xbd9028c6	-0.07039027
72	0x3d737ae2	0.059443362
73	0xbea5432f	-0.3227782
74	0xbe06f044	-0.13177592
75	0xbd90347e	-0.07041262
76	0x3d78e59e	0.060765855
77	0xbdf51cdb	-0.11968394
78	0x3d81bd52	0.06334938
79	0xbd92cc90	-0.071679235
80	0xbdf08126	-0.11743383
81	0xbdfc7f82	-0.12329008
82	0x3dec01fa	0.115238145
83	0x3e8b212e	0.27173752
84	0x3e18593b	0.14877789
85	0x3d05052d	0.03247564
86	0x3d1d34a9	0.0383803
87	0xbe2aaf54	-0.16668445
88	0xbf92b520	-1.1461525
89	0xbd908089	-0.07055766
90	0xbab233bb	-0.0013595739
91	0xbe631416	-0.22175631
92	0x3bc784d5	0.006088833
93	0x3d356fde	0.044296138
94	0x3e1aa27e	0.15101048
95	0x3ca1d82d	0.019756401
96	0x3f0ba40b	0.54547185
97	0xbe2bd2e5	-0.16779669
98	0xb9c33359	-0.00037231555
99	0x3deddf34	0.11614838
100	0xbf0278d2	-0.5096561
101	0x3c159382	0.009129407
102	0x3d7061e6	0.058687113
103	0x3e8d4f48	0.2759955
104	0x3d4ca941	0.0499661
105	0xbd2fce70	-0.042921484
106	0xbd0be303	-0.034152042
107	0xbc877fe2	-0.016540471
108	0xbf1e3de7	-0.61813205
109	0x3de92804	0.113845855
110	0xbe65960e	-0.22420523
111	0xbe88d8a1	-0.26727775
112	0xbde3cb34	-0.11122742
113	0xbcdde378	-0.027086005
114	0x3d88b5eb	0.06675323
115	0xbf054b7d	-0.5206831
116	0xbb8b4aaa	-0.004250844
117	0x3d9898f4	0.074510485
118	0xbd14a53a	-0.036290385
119	0xbc065906	-0.008199936
120	0x3d26c201	0.04071236
121	0x3e3fb3f8	0.18720996
122	0xbcb966fa	-0.02263211
123	0x3d573482	0.05254031
124	0x3d7ebdbb	0.06219266
125	0x3c5deb48	0.013544865
126	0xbd216eb5	-0.03941222
127	0xbe423d3f	-0.18968676
128	0xbe674a3c	-0.22586912
129	0xbc500c74	-0.012698282
130	0x3d4d1a8a	0.050074138
131	0xbd06c27e	-0.032900326
132	0xbee5bb4e	-0.44869465
133	0xbd8f700c	-0.07003793
134	0x3d038a43	0.03211428
135	0xbe14db2d	-0.14536734
136	0x3d820f5a	0.06350584
137	0xbd4100d6	-0.047119938
138	0x3d3ce9f4	0.046121553
139	0xbe012cc9	-0.1261474
140	0xbeb73fa7	-0.3579075
141	0xbdcddc75	-0.100518145
142	0xbd37737f	-0.04478788
143	0xbd55e197	-0.052217092
144	0x3c0ce4d3	0.008599478
145	0xbe8be368	-0.27321935
146	0x3d010d89	0.03150705
147	0x3d6eb1ca	0.05827502
148	0xbe90b535	-0.2826325
149	0x3e218624	0.15773827
150	0xbe2ab1d4	-0.16669399
151	0xbe56eff3	-0.20989971
152	0x3c07dbbf	0.008292138
153	0xbe83fb8b	-0.2577785
154	0x3d3a3bba	0.045467116
155	0xbe8dcb74	-0.27694285
156	0xbb04ce7d	-0.0020264678
157	0xbf230fcd	-0.63695985
158	0xbd7b6a29	-0.06138054
159	0xbec97714	-0.39348662
160	0xbe17cae8	-0.14823496
161	0xbe9ed793	-0.31023845
162	0x3e032f9f	0.12811135
163	0xbea5a2fa	-0.32350904
164	0xbe92e0e6	-0.2868721
165	0x36ff1b7c	7.602792e-06
166	0x3d85eba4	0.065390855
167	0xbcf7e3ce	-0.030259993
168	0x3d54bf98	0.05194053
169	0x38f56714	0.0001170171
170	0x3d79fedf	0.06103408
171	0x3e979e98	0.29613185
172	0xbd7a9350	-0.061175644
173	0x3cc99816	0.024608653
174	0xbe23cb0a	-0.15995422
175	0x3c87dbbf	0.016584275
176	0xbc49ee07	-0.012324817
177	0x3ee31126	0.4434902
178	0x3d070cb6	0.032971106
179	0xbe9d1950	-0.30683374
180	0xbea1a601	-0.31571963
181	0xbe35e50e	-0.17763159
182	0x3d788bc6	0.060680173
183	0xbcced3f1	-0.025247546
184	0xbf07b4ae	-0.5301007
185	0xbeb03ea3	-0.34422788
186	0xbce2f844	-0.027706273
187	0x3e6340dd	0.22192712
188	0xbdf3430e	-0.11878024
189	0xbdb53d15	-0.08849541
190	0xbe7d8d09	-0.24760832
191	0xbd872bf7	-0.066001825
192	0xba891828	-0.001045947
193	0xbd9849e4	-0.074359685
194	0xbd7839be	-0.060601942
195	0x3cc0b2b7	0.023522718
196	0x3d1d4061	0.038391475
197	0x3c6bed43	0.014399829
198	0xbe3c97eb	-0.18417327
199	0x3d38a818	0.04508218
200	0x3da49a65	0.08037261
201	0x3c965ea3	0.018355673
202	0xbe07f32f	-0.13276361
203	0xbea7f668	-0.3280518
204	0x3b643c7d	0.0034826093
205	0xbe82ce91	-0.25548223
206	0xbc47649c	-0.012169983
207	0x3d003e81	0.03130961
208	0x3d123050	0.035690606
209	0xbd88a6e0	-0.06672454
210	0x3d8a2e3e	0.06747101
211	0xbce5bb4e	-0.028043415
212	0xbdac8c58	-0.08425206
213	0x3d055654	0.032553032
214	0xbe3af20a	-0.18256393
215	0xbe06a234	-0.13147813
216	0x3cfd5e2a	0.03092869
217	0xbd1c03f8	-0.038089722
218	0x3d577302	0.052599914
219	0x3d12ad50	0.035809815
220	0x3d0930b8	0.033493727
221	0xbba05574	-0.0048929993
222	0xbe01eb67	-0.12687455
223	0xbd1a5647	-0.037679937
224	0x3d2c53ce	0.04207211
225	0xbdef0e0e	-0.116726026
226	0x3d1a06f3	0.037604284
227	0x3c6a7642	0.014310421
228	0x3d86e948	0.065874636
229	0xbdefc9db	-0.11708423
230	0xbd2c393d	-0.042046774
231	0xbc828c5b	-0.015936067
232	0x3d04229c	0.03225957
233	0xbd0be6eb	-0.034155767
234	0xbdec8984	-0.115496665
235	0xbcdee161	-0.027207078
236	0x3bc7d2f5	0.006098146
237	0xbdf363ea	-0.118842915
238	0xbc8fa2fb	-0.01753377
239	0xbe038a43	-0.12845711
240	0xbe078035	-0.13232501
241	0xbe0d2930	-0.13785243
242	0x3c67fd70	0.014159545
243	0x3d5d52ef	0.05403417
244	0xbd3fae2a	-0.046796955
245	0x3d83e649	0.06440408
246	0xbd732cc2	-0.059368856
247	0xbdcd9f5a	-0.100401595
248	0x3cd34c7f	0.025793312
249	0xbe1ac2e6	-0.1511341
250	0xbade54c0	-0.0016962513
251	0xbdbc935c	-0.09207794
252	0xbcf1c9ae	-0.029515114
253	0xbd16722b	-0.036729973
254	0xbe10ee03	-0.14153294
255	0xbe6e0457	-0.23243843

fc3.bias f4 [2]
0	0x3e20b569	0.15694202
1	0xbd3bb8a6	-0.04583039
