log/train_2_1k800/models/1760_critic.pt (torch_old, 251021 bytes, 5 tensors)

fc1.weight f4 [300, 6]
0.5711662 0.9653354 2.0581565 -0.115662426 1.1287763 4.7039046 1.101653 -1.1913799
-1.5780455 4.8735566 -2.0160167 3.1461112 -0.056739833 0.4123942 0.9496049 1.1146177
-2.1873336 -1.6851727 -0.65394443 -0.4315284 2.3531723 1.9741423 3.728522 1.591454
0.6706078 0.8165264 -4.5368733 -0.8117878 -3.2319007 -0.5311605 -0.24308094 0.28766292
-0.98697126 0.51183563 -5.018931 1.174 0.15584958 -0.91974944 -4.266547 -2.178635
-3.3324394 0.67943865 0.06829422 0.7934905 -0.24897243 -1.3195001 -1.0531162 -2.503656
-0.116384156 0.2661461 1.8059967 -0.63188905 3.4329493 -0.2908938 0.060031112 0.71089053
1.2617065 3.9572465 0.15059103 5.3544054 0.03514311 0.95775205 0.7802771 1.783078
2.8961754 0.5089531 -0.03850787 -0.77121395 4.2106256 -0.8746269 -4.966319 -0.010342766
-0.050037306 0.3140807 -0.5297122 0.014287656 4.591575 2.6413562 -0.16549826 0.17212702
-2.3875816 2.7293987 1.2671466 0.06819283 -0.094453864 0.6578119 -0.8263049 1.8833106
-0.87586033 5.367442 0.2669502 0.15719628 1.4312333 1.2621323 0.3644337 5.127139
0.23323838 0.104723655 1.3986856 0.39629987 -3.2718034 0.33399564 -0.08526764 -0.35182568
-4.839701 -1.9906479 -4.4193544 -2.1191025 -0.70323324 -0.02788436 -0.10382507 -0.30732524
-3.2287936 0.20440707 0.42354447 0.18943082 2.7754054 -4.160557 2.2036316 -2.7102146
0.07779524 0.10534299 0.5230949 -0.73210037 -0.18077776 0.017893938 -0.00890856 0.0127633205
-0.51609343 -0.7892583 0.47140533 0.7210646 1.0578402 -2.009102 2.2227056 -0.72207177
2.5510707 -3.2410305 0.26938966 0.5189099 0.9092272 2.529629 1.802125 3.7960029
0.39378878 0.3074323 -0.8812947 2.2504535 -5.0718718 2.7318645 0.4241022 0.35750932
1.9707139 0.9804183 -0.44298583 -0.87156516 0.08045698 -0.0071342476 4.696278 1.4086399
2.6816177 3.3270407 -0.1289793 0.6289967 0.124629095 0.32628033 0.27159408 -1.2512679
-0.08263323 0.17970191 -1.6010101 0.8422031 -4.48042 -0.7179404 0.23589382 0.5708869
0.71703976 1.2704891 4.8580356 -1.8094536 -0.16803487 0.15245806 0.05079476 -2.7819505
-0.24206612 -2.9249153 0.7530776 0.46756935 2.4347155 -1.5972339 -1.4764147 -1.5614961
0.44910756 0.7498091 1.7663329 -5.172798 0.8817286 -3.7727902 -0.053338323 1.4398676
-0.043233987 -0.52251464 1.482933 -1.2412068 1.1103865 0.5394881 -4.4705772 -2.4388413
-2.6049635 0.14450921 0.14178847 -0.1504091 2.2703831 1.1441678 1.2580106 3.930339
0.6234544 -3.0473428 2.5269272 -0.9235552 -3.1101859 -0.8457885 -0.004648704 0.38436282
-0.63895166 1.710442 2.772351 -1.0785317 0.5873592 -0.16245815 -0.42562798 1.7178148
1.2887549 1.3234249 -0.006112534 -0.052945748 -4.3357186 0.28705817 2.9836464 0.84179795
0.3537533 1.1116376 1.4045345 0.7770285 -1.2081789 4.007414 0.15262097 0.008526759
-0.5793856 0.25810516 0.17258061 1.0827808 0.20291266 -0.21867526 3.337295 -2.6930318
00000000: f337 123f 3920 773f d6b8 0340 6ce0 ecbd
00000010: be7b 903f 6386 9640 f702 8d3f 237f 98bf
00000020: 65fd c9bf 2df4 9b40 6b06 01c0 e359 4940
00000030: 0768 68bd 5525 d33e 4f19 733f cbab 8e3f
00000040: 46fd 0bc0 bdb3 d7bf e768 27bf 4af1 dcbe
00000050: 609a 1640 b2b0 fc3f 1ba0 6e40 c4b4 cb3f
00000060: f4ac 2b3f e007 513f 112e 91c0 53d1 4fbf
00000070: 76d7 4ec0 22fa 07bf 36ea 78be 8e48 933e
00000080: 26aa 7cbf a907 033f 159b a0c0 a245 963f
00000090: 0897 1f3e b374 6bbf 8e87 88c0 c16e 0bc0
000000a0: b046 55c0 b1ef 2d3f d7dd 8b3d 3222 4b3f
000000b0: a1f2 7ebe 61e5 a8bf 83cc 86bf e63b 20c0
000000c0: d15a eebd 4d44 883e e62a e73f 7bc3 21bf
000000d0: 71b5 5b40 08f0 94be 2fe3 753d ecfc 353f
000000e0: 997f a13f 8743 7d40 8934 1a3e 4a57 ab40
000000f0: 39f2 0f3d 3d2f 753f 3dc0 473f e63b e43f
00000100: f05a 3940 c04a 023f 6eba 1dbd 476e 45bf
00000110: 72bd 8640 8ce7 5fbf 16ec 9ec0 b474 29bc
00000120: ebf3 4cbd 2fcf a03e 389b 07bf c616 6a3c
00000130: 2fee 9240 fb0b 2940 6078 29be 1142 303e
00000140: 23ce 18c0 78ae 2e40 dc31 a23f afa8 8b3d
00000150: 0771 c1bd 5c66 283f b888 53bf 5210 f13f
00000160: 6238 60bf 16c2 ab40 b2ad 883e 10f8 203e
00000170: a732 b73f 8d8d a13f 0e97 ba3e 8611 a440
00000180: 0bd6 6e3e 5b79 d63d 2108 b33f d1e7 ca3e
00000190: 3a65 51c0 7a01 ab3e cda0 aebd 7f22 b4be
000001a0: d5de 9ac0 8dcd febf 5a6b 8dc0 609f 07c0
000001b0: 1807 34bf be6d e4bc 3da2 d4bd bc59 9dbe
000001c0: 8ea4 4ec0 1650 513e d2da d83e 27fa 413e
000001d0: 3ea0 3140 4823 85c0 4d08 0d40 2874 2dc0
000001e0: 1c53 9f3d 11be d73d 8ce9 053f ee6a 3bbf
000001f0: ce1d 39be 4f96 923c 35f5 11bc 3f1d 513c
00000200: b31e 04bf d50c 4abf 0a5c f13e b197 383f
00000210: 4f67 873f 2195 00c0 cf40 0e40 b2d9 38bf
00000220: be44 2340 0b6d 4fc0 71ed 893e 47d7 043f
00000230: 1dc3 683f 71e5 2140 08ac e63f b6f1 7240
00000240: af9e c93e c467 9d3e 889c 61bf 6e07 1040
00000250: c64c a2c0 ded6 2e40 ec23 d93e 760b b73e
00000260: 5a40 fc3f b2fc 7a3f 0acf e2be e51e 5fbf
00000270: a1c6 a43d 68c6 e9bb e947 9640 504e b43f
00000280: a09f 2b40 3cee 5440 2613 04be ed05 213f
00000290: 8a3d ff3d 370e a73e 610e 8b3e 8c29 a0bf
000002a0: 9c3b a9bd c703 383e e6ed ccbf 9f9a 573f
000002b0: 9a5f 8fc0 f1ca 37bf 268e 713e a525 123f
000002c0: eb8f 373f 639f a23f 0775 9b40 2d9c e7bf
000002d0: 5511 2cbe f71d 1c3e 2b0e 503d 7a0b 32c0
000002e0: 2ee0 77be d031 3bc0 b2c9 403f 4065 ef3e
000002f0: 61d2 1b40 2972 ccbf 28fb bcbf 1bdf c7bf
00000300: 6df1 e53e 7df3 3f3f 3217 e23f 9087 a5c0
00000310: f7b8 613f 6575 71c0 4979 5abd 954d b83f
00000320: 1f16 31bd 85c3 05bf c0d0 bd3f dddf 9ebf
00000330: 2521 8e3f e41b 0a3f f80e 8fc0 fa15 1cc0
00000340: b9b7 26c0 39fa 133e ff30 113e d804 1abe
00000350: f54d 1140 1774 923f 7e06 a13f ad8a 7b40
00000360: b59a 1f3f aa07 43c0 2db9 2140 1d6e 6cbf
00000370: 490d 47c0 9885 58bf 2854 98bb 34cb c43e
00000380: 5692 23bf c3ef da3f 336e 3140 540d 8abf
00000390: 2c5d 163f 6e5b 26be e9eb d9be 5be1 db3f
000003a0: ecf5 a43f fd65 a93f a74b c8bb a4dd 58bd
000003b0: 35be 8ac0 4af9 923e 10f4 3e40 1280 573f
000003c0: 271f b53e 244a 8e3f c9c7 b33f 57eb 463f
000003d0: 9ba5 9abf bc3c 8040 ac48 1c3e d2b3 0b3c
000003e0: 9d52 14bf 5c26 843e f9b8 303e 9098 8a3f
000003f0: 56c8 4f3e 68ec 5fbe 3e96 5540 a25a 2cc0

fc1.bias f4 [300]
-1.7489698 -5.324373 0.5935807 -5.875777 -2.6785417 2.3612313 -0.12192309 -0.83830994
0.35765797 4.195324 -4.689326 5.6222496 1.6188389 4.3071203 -0.9601111 2.9413025
5.2889996 -4.121387 -5.6303606 1.37035 5.326382 4.98251 -1.5325845 -11.450268
1.3161856 3.4871502 4.1684694 5.1332927 -1.1257643 -2.1687663 5.138551 -4.2754316
-0.8778701 0.45681745 -4.032533 3.1263914 -5.6597443 1.844602 -6.539718 2.5324514
0.76706374 4.5732126 0.06393571 1.273379 -0.08354877 6.4853287 -3.6338778 -1.0180192
4.0649033 -0.13642268 1.3179121 4.1250267 0.41601506 4.0255146 -7.43814 0.01900872
0.07726137 0.41654953 1.4396294 -14.057395 -0.5066536 2.6877003 -0.17819268 2.5280676
4.221984 4.0600452 -3.7842946 -3.9680023 5.73217 3.950437 1.5553573 3.6079266
4.7448144 -3.5186875 -4.7341094 -0.24016422 5.1181474 2.2126598 0.5703443 -6.8056107
0.023861308 1.1878154 0.016956814 4.3685346 2.9494 2.779595 -0.5091699 -2.9132342
2.7369106 -3.9811742 -2.0362506 1.9630443 2.3967416 1.4738576 2.6097867 1.9199196
4.771953 -0.42936552 0.8962424 3.9787352 -0.1593678 -7.702015 -4.133406 -1.1636609
-2.0790563 1.6286935 -3.00447 3.6333528 0.69806534 5.0663047 3.7284522 5.464929
4.487205 4.736497 -0.45540535 4.3912067 0.13088997 -3.374562 -0.5591081 4.2215724
-0.13751227 4.125474 -2.5022755 1.7727146 2.8199458 0.6447327 4.2833056 3.5041146
3.0057163 4.9737554 -0.86056566 0.7841555 4.4655557 -2.3600368 7.3687487 1.41088
-2.810285 4.7411246 -2.6691515 4.0256677 -4.8344364 -5.3649273 2.2090116 -5.816679
-7.7585726 2.9528837 4.0262837 2.3705907 4.4091125 1.7118452 -4.6511474 2.836148
2.7380717 1.8099494 -0.42203745 4.9142456 0.021643592 -6.4523807 3.498891 4.976501
0.95933133 2.8863187 5.7880335 2.3134987 3.9349792 -2.6581852 4.40945 0.7025399
3.8955445 -1.7442359 -0.44126102 -3.0984964 -2.6628234 5.80254 -2.5118313 3.2801926
-2.5043178 5.861065 5.620797 -2.9245958 1.5665824 4.6999 -2.0965166 4.812423
3.549764 2.1121974 2.1218398 0.43289745 3.9183538 -3.1428149 0.53637123 3.5273535
-3.092678 -0.38529718 3.4289567 -0.98665357 6.0849204 4.7425427 0.015438179 2.6456928
-1.7681636 7.34791 -0.5469016 -5.249293 1.4722706 -1.053993 0.1123597 3.1330097
-0.22776659 0.9412804 -2.3362772 -2.1247272 -5.0011983 -2.2697594 -2.1647573 -6.990773
5.1472716 -0.9118846 -4.535605 0.625705 3.2364614 -4.727198 2.7007186 2.4143069
6.5798235 -7.2701707 -1.3250791 -4.4629703 3.8130004 -2.495064 -3.4167213 4.658665
0.15872271 -2.9861202 -4.289791 -4.473858 3.849376 -5.975384 5.2768607 1.0259656
4.754182 -3.1523757 5.127772 -1.0499226 3.1036205 -2.8053772 -4.733234 -0.65081364
4.4715033 2.8322852 -2.160481 3.3060098 3.3555644 -0.68695384 0.024945343 2.2421653
00000000: 3ede dfbf 4361 aac0 e8f4 173f 5d06 bcc0
00000010: 3a6d 2bc0 6a1e 1740 d0b2 f9bd 7b9b 56bf
00000020: f21e b73e 1840 8640 f50e 96c0 78e9 b340
00000030: 1d36 cf3f eed3 8940 d7c9 75bf 4d3e 3c40
00000040: 7c3f a940 67e2 83c0 ea2b b4c0 a167 af3f
00000050: b971 aa40 b970 9f40 bb2b c4bf 4c34 37c1
00000060: c578 a83f 782d 5f40 1a64 8540 ef43 a440
00000070: 0b19 90bf 11cd 0ac0 036f a440 56d0 88c0
00000080: 18bc 60bf fae3 e93e 830a 81c0 cc16 4840
00000090: a01c b5c0 eb1b ec3f 5f45 d1c0 af13 2240
000000a0: 4a5e 443f c257 9240 baf0 823d 15fe a23f
000000b0: 9e1b abbd d087 cf40 7491 68c0 744e 82bf
000000c0: b013 8240 63b2 0bbe 58b1 a83f 3800 8440
000000d0: edff d43e 04d1 8040 3e05 eec0 2db8 9b3c
000000e0: 363b 9e3d fb45 d53e c745 b83f 17eb 60c1
000000f0: 0db4 01bf 4803 2c40 2478 36be dccb 2140
00000100: 7e1a 8740 e4eb 8140 e231 72c0 c0f3 7dc0
00000110: f06d b740 f6d3 7c40 f315 c73f 45e8 6640
00000120: 85d5 9740 2d32 61c0 d37d 97c0 9ced 75be
00000130: ddc7 a340 389c 0d40 1602 123f 90c7 d9c0
00000140: ca78 c33c 560a 983f 04e9 8a3c 09cb 8b40
00000150: f8c2 3c40 e2e4 3140 f558 02bf 6e72 3ac0
00000160: 8b29 2f40 8fcb 7ec0 ee51 02c0 0945 fb3f
00000170: 3764 1940 5ea7 bc3f bf06 2740 edbf f53f
00000180: d7b3 9840 ccd5 dbbe 2470 653f 99a3 7e40
00000190: 5031 23be e876 f6c0 dd44 84c0 d7f2 94bf
000001a0: 420f 05c0 0779 d03f 3d49 40c0 da88 6840
000001b0: 69b4 323f 2b1f a240 f69e 6e40 b3e0 ae40
000001c0: 2f97 8f40 6291 9740 e42a e9be c484 8c40
000001d0: 0508 063e d3f8 57c0 b521 0fbf 1f17 8740
000001e0: 04d0 0cbe e203 8440 4825 20c0 50e8 e23f
000001f0: fe79 3440 340d 253f d710 8940 6a43 6040
00000200: a85d 4040 0129 9f40 084e 5cbf 6abe 483f
00000210: d5e5 8e40 d80a 17c0 cacc eb40 b797 b43f
00000220: b6db 33c0 4bb7 9740 61d3 2ac0 45d2 8040
00000230: b4b3 9ac0 7cad abc0 7260 0d40 3c22 bac0
00000240: 3a46 f8c0 0cfc 3c40 51d7 8040 c2b7 1740
00000250: 7317 8d40 be1d db3f 33d6 94c0 7383 3540
00000260: 913c 2f40 6cac e73f 4b15 d8be 8041 9d40
00000270: e74d b13c e779 cec0 d5ed 5f40 7f3f 9f40
00000280: bd96 753f 72b9 3840 9237 b940 5d10 1440
00000290: b3d6 7b40 b51f 2ac0 371a 8d40 a8d9 333f
000002a0: 9a50 7940 1f43 dfbf f7ec e1be c44d 46c0
000002b0: b36b 2ac0 68ae b940 d8c1 20c0 adee 5140
000002c0: be46 20c0 d88d bb40 92dd b340 942c 3bc0
000002d0: c685 c83f 9565 9640 542d 06c0 5fff 9940
000002e0: 552f 6340 3e2e 0740 39cc 0740 bca4 dd3e
000002f0: 4fc6 7a40 e123 49c0 a04f 093f 29c0 6140
00000300: 70ee 45c0 ac45 c5be 0774 5b40 5495 7cbf
00000310: abb7 c240 e9c2 9740 6af0 7c3c 0853 2940
00000320: 2f53 e2bf 1422 eb40 be01 0cbf 35fa a7c0
00000330: 5d73 bc3f 3ee9 86bf d81c e63d 3b83 4840
00000340: a53b 69be c1f7 703f 9185 15c0 88fb 07c0
00000350: d109 a0c0 bd43 11c0 628b 0ac0 6ab4 dfc0
00000360: 73b6 a440 4571 69bf ad23 91c0 342e 203f
00000370: 2f22 4f40 3545 97c0 93d8 2c40 0184 1a40
00000380: ea8d d240 3da5 e8c0 319c a9bf a7d0 8ec0
00000390: 3308 7440 21af 1fc0 90ab 5ac0 c913 9540
000003a0: 3588 223e 981c 3fc0 f845 89c0 d829 8fc0
000003b0: 2d5c 7640 5936 bfc0 0bdc a840 d752 833f
000003c0: 4222 9840 86c0 49c0 b516 a440 dd63 86bf
000003d0: b8a1 4640 4d8b 33c0 a776 97c0 b99b 26bf
000003e0: 8e16 8f40 2944 3540 5245 0ac0 aa95 5340
000003f0: 91c1 5640 35dc 2fbf 2d5a cc3c a37f 0f40

fc2.weight f4 [200, 300]
-0.04793495 -0.015508577 0.002660375 -0.07772174 0.043109402 -0.034099884 -0.04031279 -0.019465825
-0.019018784 -0.005275931 -0.05771582 -0.07421992 -0.022175133 0.036200978 -0.051190462 -0.04355107
-0.0058499454 0.009740363 0.032977916 -0.0136711 -0.02750138 -0.08125336 -0.088592276 0.024084471
-0.04151331 -0.09086473 -0.03256877 0.033637945 0.008578057 0.00056910515 -0.014235415 -0.04705193
-0.044847485 -0.024566717 0.015563998 -0.060806837 -0.057848915 -0.028921638 -0.026702294 -0.085299075
-0.05658884 -0.04113705 -0.086386874 0.013809547 -0.015003528 0.009297048 0.055826902 -0.05562961
-0.0068292436 -0.03567943 -0.0033269897 -0.0006630229 -3.312528e-05 -0.075367324 0.012833618 -0.07977812
-0.043484014 -0.036241956 0.024533138 -0.043105703 -0.038909297 0.0003421054 -0.011056997 -0.011808857
-0.023457525 -0.031756647 0.023971051 -0.060646646 -0.10374695 -0.032758765 -0.0135867745 0.007571983
-0.01068753 -0.07925657 -0.089106366 -0.019611113 -0.0076623224 -0.05381065 -0.0012792463 0.013572194
-0.005237127 -0.0679986 0.03343305 0.032918952 -0.007970828 0.027524017 -0.08047849 0.026583083
-0.061998945 -0.010958549 -0.04422835 -0.037706014 0.020589978 -0.090596505 -0.047003772 0.010422863
-0.03139529 -0.056876604 -0.0389242 -0.009149897 0.027980085 0.030539393 -0.0017465435 0.026768424
-0.034166943 -0.010308817 0.0030835324 -0.044296138 -0.017050952 -0.034222823 0.029635997 -0.063029
-0.072774485 -0.0083033135 0.05326417 -0.04763404 0.03444262 -0.08083612 -0.004263417 -0.028749367
-0.037154663 -0.009508461 0.02938009 -0.0054131495 -0.022028858 0.027331876 0.014549775 -0.06287254
-0.03683056 -0.07831034 -0.0384101 -0.028056454 -0.07274468 0.057339005 0.0010910003 0.018022256
0.03152048 -0.03145862 -0.0011740066 -0.05001453 -0.037922084 -0.053456903 -0.064921476 0.025489815
0.04028821 -0.0049274587 -0.0153674865 -0.06586771 -0.047246605 0.03026558 -0.02037428 0.0028527942
-0.03443144 -0.02917033 -0.042892672 -0.07841465 -0.051072527 0.043555386 -0.04531688 -0.038764007
-0.022074271 -0.053050682 -0.08843581 -0.067350395 -0.044400446 -0.039933767 -0.055591363 -0.046400324
-0.021803474 -0.039136816 -0.08454656 0.023902703 -0.050086755 -0.05640721 0.0011299999 0.03133196
-0.04976493 0.032240942 -0.035195135 -0.030206362 0.017422477 -0.06782724 0.049004965 -0.027266683
-0.036890164 -0.068468 -0.019380141 -0.09450811 -0.015079704 -0.058258705 -0.012618187 0.015962144
0.057247818 -0.030538369 -0.04834999 0.01636593 0.00621596 -0.033187177 0.0034979763 -0.043264218
0.007867269 -0.0669108 -0.07258077 -0.010076214 0.031767823 -0.066806495 0.03836041 -0.036481902
-0.0022820346 -0.019035548 -0.059320427 0.031215541 -0.0018518455 -0.018091176 -0.0350871 -0.02979473
-0.071977265 -0.026341934 -0.05734098 0.028239131 -0.077155486 -0.0233141 1.2659875e-05 -0.04229396
-0.05648917 -0.006243672 0.0115733445 -0.035832167 -0.029093962 0.02297426 0.013990417 -0.021205558
-0.02868045 -0.04777933 -0.08103729 0.0018670931 -0.072096474 -0.012921281 -0.06717903 -0.021442238
-0.037553273 -0.07748331 -0.050219424 -0.04846685 0.0045437487 0.045504935 -0.009268177 -0.049753755
-0.0570964 0.0065110773 0.009775754 0.027709998 -0.033876367 0.04352022 -0.019613255 0.029655084
00000000: 7057 44bd b017 7ebc b059 2e3b 932c 9fbd
00000010: 7c93 303d 52ac 0bbd 061f 25bd cb76 9fbc
00000020: 48cd 9bbc b8e1 acbb 6c67 6cbd 9d00 98bd
00000030: a0a8 b5bc 7a47 143d 17ad 51bd 9b62 32bd
00000040: e6b0 bfbb 0b96 1f3c da13 073d c0fc 5fbc
00000050: 934a e1bc 2968 a6bd de6f b5bd cc4c c53c
00000060: dc09 2abd 4a17 babd d566 05bd f1c7 093d
00000070: fb8a 0c3c 0030 153a a83b 69bc 86b9 40bd
00000080: ffb1 37bd 2440 c9bc 2400 7f3c 9710 79bd
00000090: fcf2 6cbd 12ed ecbc c5be dabc 48b1 aebd
000000a0: b3c9 67bd 537f 28bd 9aeb b0bd 7041 623c
000000b0: 5cd1 75bc a552 183c c0aa 643d e0db 63bd
000000c0: d9c7 dfbb 9824 12bd a009 5abb b7ce 2dba
000000d0: 00f0 0ab8 2f5a 9abd 1844 523c b662 a3bd
000000e0: 4b1c 32bd 7272 14bd b8f9 c83c 9b8f 30bd
000000f0: 5b5f 1fbd 9c5c b339 6828 35bc f079 41bc
00000100: ff29 c0bc 4213 02bd f05e c43c 9e68 78bd
00000110: 4879 d4bd 0e2e 06bd 109b 5ebc 661e f83b
00000120: c01a 2fbc 4551 a2bd 667d b6bd 7ca7 a0bc
00000130: 3814 fbbb 8e68 5cbd 62ac a7ba e85d 5e3c
00000140: 359c abbb da42 8bbd 18f1 083d 06d6 063d
00000150: 1398 02bc 0c7a e13c e8d1 a4bd c4c4 d93c
00000160: 9bf2 7dbd 7c8b 33bc c928 35bd 9f71 1abd
00000170: 50ac a83c a98a b9bd 0787 40bd a8c4 2a3c
00000180: 5998 00bd 71f7 68bd fb6e 1fbd 73e9 15bc
00000190: 7e36 e53c c02d fa3c 46ec e4ba 7449 db3c
000001a0: a3f2 0bbd 50e6 28bc 1715 4a3b de6f 35bd
000001b0: 70ae 8bbc 3b2d 0cbd 31c7 f23c 5915 81bd
000001c0: ca0a 95bd 9f0a 08bc 882b 5a3d e91b 43bd
000001d0: b413 0d3d 688d a5bd 22b4 8bbb cb83 ebbc
000001e0: 7d2f 18bd 60c9 1bbc 84ae f03c ca60 b1bb
000001f0: dd75 b4bc 19e7 df3c 2e62 6e3c 51c3 80bd
00000200: a4db 16bd 2c61 a0bd e953 1dbd a6d6 e5bc
00000210: 2afb 94bd 4edc 6a3d e5ff 8e3a 69a3 933c
00000220: 9e1b 013d c1da 00bd 20e1 99ba 09dc 4cbd
00000230: 3054 1bbd a0f5 5abd 8df5 84bd 04d0 d03c
00000240: 4005 253d 8576 a1bb e9c7 7bbc a6e5 86bd
00000250: a885 41bd 86ef f73c f6e7 a6bc f2f5 3a3b
00000260: fb07 0dbd 9ef6 eebc 3ab0 2fbd dc97 a0bd
00000270: 6d31 51bd 2267 323d 319e 39bd 02c7 1ebd
00000280: 1ad5 b4bc ac4b 59bd d51d b5bd 01ef 89bd
00000290: 3edd 35bd 9791 23bd c5b3 63bd 440e 3ebd
000002a0: 339d b2bc ed4d 20bd bf26 adbd 9acf c33c
000002b0: c527 4dbd 3f0b 67bd 811c 943a f155 003d
000002c0: 50d6 4bbd 140f 043d c628 10bd 5573 f7bc
000002d0: 95b9 8e3c 02e9 8abd 6eb9 483d 615e dfbc
000002e0: 241a 17bd f338 8cbd 1ac3 9ebc 788d c1bd
000002f0: dd10 77bc aea0 6ebd 83bc 4ebc 0bc3 823c
00000300: b07c 6a3d 9a2b fabc a40a 46bd d811 863c
00000310: 40af cb3b 47ef 07bd 4e3e 653b d235 31bd
00000320: b8e5 003c 8808 89bd 3aa5 94bd b416 25bc
00000330: fa1e 023d d8d1 88bd ce1f 1d3d 0c6e 15bd
00000340: 308e 15bb 70f0 9bbc faf9 72bd bcb7 ff3c
00000350: a0b9 f2ba f233 94bc 7eb7 0fbd 1414 f4bc
00000360: d168 93bd 0acb d7bc 60de 6abd c055 e73c
00000370: b203 9ebd 36fd bebc c065 5437 6e3c 2dbd
00000380: 3061 67bd b897 ccbb 209e 3d3c c0c4 12bd
00000390: 7656 eebc 8434 bc3c 1038 653c 47b7 adbc
000003a0: 43f3 eabc 42b4 43bd e1f6 a5bd 40b9 f43a
000003b0: 51a7 93bd c8b3 53bc 2995 89bd a2a7 afbc
000003c0: 76d1 19bd 92af 9ebd e2b2 4dbd 2d85 46bd
000003d0: bae3 943b 6263 3a3d 8dd9 17bc 98ca 4bbd
000003e0: eadd 69bd e05a d53b 7c2a 203c 1400 e33c
000003f0: f2c1 0abd 4242 323d faab a0bc 38ef f23c

fc2.bias f4 [200]
-0.0108598275 0.16588932 0.30385458 2.7669885 -0.06872132 -0.097421326 2.2745037 -0.0778782
-0.04316736 0.36396557 -0.06858721 -0.0911255 -1.1627228 -0.05964453 -0.09770445 0.018543804
-0.025476659 -0.068453096 -0.0883166 1.054837 2.5824275 1.0561484 0.8348036 0.03171194
0.2631132 0.0043467716 -0.54321396 0.9093104 -0.04593156 2.459694 1.001073 2.249389
0.003072589 2.4853716 -0.041982703 -0.027778918 0.9484687 -1.3534602 -1.6432617 1.4040055
0.00068811077 -0.0657634 0.86484474 -0.04991022 0.007311675 -0.053158715 -0.38271147 -0.26239794
0.7486738 0.45538524 -0.10006631 0.11941572 -0.027562847 -0.073608965 0.022447959 -0.04653879
0.0077722194 0.035955105 0.8314657 0.605442 -0.0927125 -0.10239755 1.1099148 -0.043126382
2.2105262 -0.00837782 -0.031775273 0.9209419 -0.053080484 -0.03474437 -1.7955354 0.31407583
2.3442342 0.817518 -0.03836167 0.052208755 -0.03593648 -0.050618034 1.2553496 2.1871116
-0.69848603 -2.5369256 2.556746 -0.049367692 1.3176826 -0.15797454 3.9497035 1.6222805
0.80410683 0.06335683 -0.56073797 -1.4702867 2.3016036 -0.61485964 0.0038993815 0.69765157
3.0781949 -0.008492375 0.23459944 -0.033742253 -0.047730897 -0.058441244 0.014094352 1.6364666
2.4606304 -0.084516756 0.5934613 -0.06690335 1.4380997 0.017610606 0.15079425 1.2143693
0.0071137664 3.3945804 -0.2031576 -2.2918282 -0.09368853 1.1581929 -0.044758078 2.6275086
0.016222918 -0.07920442 1.8128986 1.4043664 1.0875007 0.7136741 2.009119 -0.086781755
0.42673007 1.7171724 2.8187861 0.011896403 -0.0027568669 2.1609344 2.0935564 2.444274
2.5360134 2.4828038 -0.0581991 -0.13771085 -0.049660623 -0.07284899 -0.4613012 2.658085
-0.035772562 -0.20701705 -0.01619684 1.1524706 -0.084084615 -0.25336772 0.015036862 -0.03332874
2.7693245 3.622262 0.5358228 0.85602313 -0.00584622 2.0546174 -1.2691782 -0.035034947
1.9048101 2.276092 -0.053073034 -0.5629762 -0.06293214 1.7419683 1.1660606 0.04406144
-1.677356 2.6282756 -0.09471673 -0.0817451 1.2301961 -0.017251112 -0.010585084 2.3812363
2.3917031 1.4009883 0.6769379 0.4592448 1.1474237 -2.9343746 -0.008744766 0.27320677
-0.07466696 -0.04587568 -0.001076099 -2.366931 0.81682813 0.6709437 2.4944458 0.4104876
-0.062349126 1.9796746 1.4311855 -0.06726099 1.7084621 -0.29786316 0.28153127 0.71000975
00000000: 6bed 31bc e4de 293e d492 9b3e 5716 3140
00000010: c3bd 8cbd d584 c7bd 7891 1140 9b7e 9fbd
00000020: 42d0 30bd b259 ba3e 7377 8cbd 02a0 babd
00000030: 1ad4 94bf d34d 74bd 4519 c8bd 2de9 973c
00000040: 6db4 d0bc 2331 8cbd 55df b4bd e604 873f
00000050: 7e46 2540 df2f 873f b0b5 553f 61e4 013d
00000060: c6b6 863e 5d6f 8e3b 1210 0bbf 91c8 683f
00000070: bb22 3cbd a06b 1d40 2923 803f fdf5 0f40
00000080: 7d5d 493b 5410 1f40 0ef6 2bbd 9d90 e3bc
00000090: d8ce 723f 2f3e adbf 6656 d2bf 74b6 b33f
000000a0: 5562 343a f6ae 86bd 7766 5d3f a96e 4cbd
000000b0: c796 ef3b f4bc 59bd c2f2 c3be 0659 86be
000000c0: 16a9 3f3f 4128 e93e 91ef ccbd 3b90 f43d
000000d0: 7bcb e1bc 4cc0 96bd c8e4 b73c 759f 3ebd
000000e0: 1aae fe3b a945 133d f0da 543f 3ffe 1a3f
000000f0: 0de0 bdbd cfb5 d1bd b011 8e3f 4aa5 30bd
00000100: 4379 0d40 2043 09bc ca26 02bd d9c2 6b3f
00000110: ec6a 59bd 1d50 0ebd 1bd4 e5bf 8cce a03e
00000120: ef07 1640 dc48 513f 2021 1dbd d9d8 553d
00000130: 2132 13bd db54 4fbd 4caf a03f a3f9 0b40
00000140: fbcf 32bf fd5c 22c0 baa1 2340 c735 4abd
00000150: d3a9 a83f 14c4 21be f1c7 7c40 e3a6 cf3f
00000160: f2d9 4d3f 3ac1 813d 868c 0fbf 5b32 bcbf
00000170: 794d 1340 7167 1dbf c48c 7f3b 4b99 323f
00000180: 2501 4540 9a23 0bbc d63a 703e 5135 0abd
00000190: 7981 43bd 1660 6fbd ffeb 663c bd77 d13f
000001a0: f87a 1d40 1f17 adbd 14ed 173f a004 89bd
000001b0: a713 b83f 1e44 903c cf69 1a3e 7470 9b3f
000001c0: 991a e93b ce40 5940 8c08 50be 50ad 12c0
000001d0: c6df bfbd aa3f 943f 3f54 37bd 1a29 2840
000001e0: ede5 843c ed35 a2bd 100d e83f 47c2 b33f
000001f0: 3933 8b3f 59b3 363f 6895 0040 a2ba b1bd
00000200: 5d7c da3e 4ecc db3f fe66 3440 21e9 423c
00000210: 8dac 34bb c04c 0a40 d4fc 0540 fc6e 1c40
00000220: 0b4e 2240 42e6 1e40 2e62 6ebd 1304 0dbe
00000230: f068 4bbd da31 95bd ac2f ecbe 111e 2a40
00000240: 4086 12bd 47fc 53be 3caf 84bc 2884 933f
00000250: 8e34 acbd 6ab9 81be 2c5d 763c b883 08bd
00000260: 9d3c 3140 24d3 6740 af2b 093f 5524 5b3f
00000270: a691 bfbb da7e 0340 6e74 a2bf ce80 0fbd
00000280: d1d0 f33f 7eab 1140 1c63 59bd 351f 10bf
00000290: 91e2 80bd d1f8 de3f 7941 953f c579 343d
000002a0: 9ab3 d6bf ab35 2840 d8fa c1bd fa69 a7bd
000002b0: 1177 9d3f 3452 8dbc 0f6d 2dbc 2d66 1840
000002c0: aa11 1940 9653 b33f cd4b 2d3f 2222 eb3e
000002d0: c8de 923f cbcc 3bc0 3546 0fbc c2e1 8b3e
000002e0: feea 98bd 23e8 3bbd e40b 8dba cc7b 17c0
000002f0: a61b 513f f7c2 2b3f 00a5 1f40 6e2b d23e
00000300: cc61 7fbd fa65 fd3f 1631 b73f 21c0 89bd
00000310: e3ae da3f 8581 98be de24 903e 33c3 353f

fc3.weight f4 [1, 200]
-0.008218562 -0.001111606 2.345991 -6.1113873 2.283316e-05 -0.015684607 -0.5939984 -0.025860367
-0.06010647 -1.5915241 0.0008411989 -0.0014465372 0.15006408 -0.02219091 -0.011702685 -0.015539783
0.0032243968 -0.0036746971 -0.7979078 0.059711587 -4.4806237 0.1259984 -4.335221 -3.212374
-1.5331109 0.0042825094 0.20929696 1.3817132 -0.020080505 -3.7709672 2.2977889 3.7018535
0.011126189 -3.2182467 0.00611817 0.026048498 -1.9478452 -0.03886832 0.023861721 0.022820491
0.014488307 0.015521157 1.2036121 -0.0009238548 0.00929146 0.0342489 -0.0041535194 0.03170822
1.4273709 -3.5947833 0.03175292 -1.0373131 0.021652598 0.0016323385 -0.004397529 0.020343142
0.005203599 -0.017998042 -4.311379 -1.4340466 -0.0061014057 3.831748 0.25701797 0.025551165
1.0637777 -0.029619234 0.029291404 -5.5344625 0.028529573 1.8061036 0.92159563 -0.60925674
-2.4407039 2.4439409 0.9121118 0.009111712 0.020507056 -0.017217584 -0.26427552 -8.614718
-0.010473323 -0.027147472 0.5667947 -0.029928563 5.479216 4.157099 0.34964997 7.242534
0.021496134 -0.1491998 0.021844452 0.014921377 2.0150206 0.6118794 0.002464195 0.82473034
-5.2117233 -0.004768666 -0.44321093 -0.013693878 -0.040932156 -0.00591933 0.0075864187 -2.7982357
-9.162543 0.020482842 -4.3571553 0.021760633 -2.9882576 0.028401049 0.0014877488 5.2301426
0.01478354 0.36170727 -0.637152 0.11977334 -0.02402564 -0.51794124 -0.03986671 -4.288021
0.014854321 -0.027534908 1.0627049 -3.06284 -5.576444 3.1845717 -3.2156367 -0.0057474985
0.029036218 -2.1308937 -2.383805 -0.020883316 -0.010159464 -2.2367527 -5.9876966 -5.1889215
-0.992101 -1.2015855 0.024541598 -0.029377088 -0.024288274 -0.04866223 -0.033310115 5.320631
0.0019747787 -3.546641 0.009185287 4.7467365 -0.023578597 -0.21123414 0.031864684 -0.035698056
5.957089 1.3261896 6.0642548 -4.449187 0.020814396 -6.363556 0.019201325 0.030487237
-2.2975502 -2.0188353 0.036368616 1.479552 0.03290405 7.578709 -5.0314116 0.0028968
-0.028322816 6.306943 0.02175877 -0.017752169 -0.014810548 -0.018441357 0.014407281 -6.8233895
1.7189369 6.197842 -1.9390981 0.846069 5.4394546 0.12641564 0.011533182 0.009457247
-0.03541493 0.036696445 0.019292597 0.56437385 7.0578985 -1.6400802 -1.4035022 -1.2938547
0.02682523 -1.545628 -2.118734 0.0007799054 6.296178 3.7113905 -1.0619897 3.5427728
00000000: 26a7 06bc 4fb3 91ba b724 1640 7c90 c3c0
00000010: d689 bf37 017d 80bc 4710 18bf 1fd9 d3bc
00000020: 3432 76bd 10b7 cbbf e783 5c3a bc99 bdba
00000030: 66aa 193e b6c9 b5bc 9ebc 3fbc 939a 7ebc
00000040: 6750 533b 30d3 70bb b043 4cbf 2394 743d
00000050: 4561 8fc0 b905 013e 21ba 8ac0 8997 4dc0
00000060: fa3c c4bf 4b54 8c3b f151 563e fadb b03f
00000070: df7f a4bc 8757 71c0 f90e 1340 2beb 6c40
00000080: 9e4a 363c c1f7 4dc0 ee7a c83b a963 d53c
00000090: fe52 f9bf 6334 1fbd a879 c33c 0af2 ba3c
000000a0: 5d60 6d3c 734c 7e3c f60f 9a3f d92e 72ba
000000b0: 353b 183c 9348 0c3d 3f1a 88bb 7ae0 013d
000000c0: 17b4 b63f ee10 66c0 5a0f 023d adc6 84bf
000000d0: ca60 b13c 31f4 d53a 2619 90bb a9a6 a63c
000000e0: f482 aa3b a170 93bc d1f6 89c0 d78e b7bf
000000f0: 4dee c7bb 5c3b 7540 dc97 833e ad50 d13c
00000100: de29 883f 09a4 f2bc 87f4 ef3c 511a b1c0
00000110: dab6 e93c 672e e73f b1ed 6b3f 40f8 1bbf
00000120: 7e34 1cc0 8769 1c40 2980 693f 4a49 153c
00000130: 6afe a73c e40b 8dbc 1f4f 87be e3d5 09c1
00000140: 4d98 2bbc 6064 debc 7519 113f bf2c f5bc
00000150: bd55 af40 f406 8540 5205 b33e d7c2 e740
00000160: a918 b03c d5c7 18be 23f3 b23c cb78 743c
00000170: 19f6 0040 21a4 1c3f 557e 213b 8721 533f
00000180: 70c6 a6c0 7842 9cbb 8bec e2be 4a5c 60bc
00000190: 7aa8 27bd f0f6 c1bb 7e97 f83b 4b16 33c0
000001a0: c799 12c1 a2cb a73c d16d 8bc0 5b43 b23c
000001b0: 9d3f 3fc0 51a9 e83c 9100 c33a 545d a740
000001c0: a936 723c b231 b93e 651c 23bf ba4b f53d
000001d0: 6bd1 c4bc cc97 04bf 464b 23bd 7837 89c0
000001e0: 8a5f 733c e390 e1bc b706 883f 9205 44c0
000001f0: 3b72 b2c0 06d0 4b40 fecc 4dc0 8355 bcbb
00000200: 5ddd ed3c 9060 08c0 4390 18c0 7d13 abbc
00000210: e173 26bc f526 0fc0 369b bfc0 a50b a6c0
00000220: 55fa 7dbf 8ecd 99bf 760b c93c 38a8 f0bc
00000230: 34f8 c6bc 0c52 47bd 3070 08bd 9c42 aa40
00000240: 4a6b 013b 2bfc 62c0 e37d 163c 44e5 9740
00000250: e727 c1bc c34d 58be 8b84 023d 2038 12bd
00000260: 79a0 be40 95c0 a93f 600e c240 bd5f 8ec0
00000270: f482 aa3c 40a2 cbc0 194c 9d3c 5fc0 f93c
00000280: 100b 13c0 9934 01c0 42f7 143d f661 bd3f
00000290: 66c6 063d c984 f240 5301 a1c0 3dd8 3d3b
000002a0: 4005 e8bc 7ad2 c940 733f b23c ff6c 91bc
000002b0: f1a7 72bc 5412 97bc 840c 6c3c 3559 dac0
000002c0: 2006 dc3f b954 c640 5e34 f8bf fa97 583f
000002d0: 0310 ae40 1a73 013e acf5 3c3c 92f2 1a3c
000002e0: 3f0f 11bd 034f 163d 820b 9e3c ce7a 103f
000002f0: 4eda e140 26ee d1bf f6a5 b3bf 089d a5bf
00000300: 96c0 db3c 23d7 c5bf 5699 07c0 9172 4c3a
00000310: 4a7a c940 6c87 6d40 47ef 87bf cabc 6240
