log/train_2_1k800/models/1780_actor.pt (torch_old, 249426 bytes, 6 tensors)

fc1.weight f4 [300, 4]
000000 e1 1f 36 3e 70 87 a8 bd 50 ad 95 bf 8f 48 53 bf
       0.17785598 -0.08228958 -1.1693516 -0.8253259
000010 d3 a3 81 be 82 01 31 3d c4 d0 a5 3f ec d2 04 be
       -0.253203 0.04321433 1.2954335 -0.12971085
000020 91 45 32 be 90 c1 68 3d 31 a8 c2 bf b2 9d e3 be
       -0.1740935 0.05682522 -1.5207578 -0.4445625
000030 54 51 ac be 71 50 b0 bd 08 5e 84 bf d4 40 13 3f
       -0.33655798 -0.08609093 -1.0341196 0.57520795
000040 ef 47 41 be 1a 87 97 3e 1f 53 78 bf 66 7c ae 3e
       -0.18875097 0.29595262 -0.9700183 0.34079283
000050 05 8c 18 be 2c a2 9b 3d 69 5e 92 3f 28 59 41 3f
       -0.14897163 0.07599291 1.1435062 0.75526667
000060 fe 53 96 bd 1b 52 2d bf b1 05 f9 3e be fc 45 bf
       -0.07340239 -0.6770341 0.48637155 -0.7733878
000070 76 be cb 3e c8 a6 d5 3d 1f e3 19 3f f4 2d 2c bf
       0.39793748 0.104322016 0.60112184 -0.6725762
000080 f4 1b 9e 3e 0f 9b 2b be 6c 08 87 bf b2 a6 14 3e
       0.30880702 -0.16758369 -1.0549445 0.14516714
000090 56 0e cc bd ed ad f0 3e cd 9c c5 3e 60 47 5c 3f
       -0.09963672 0.47007695 0.38596192 0.8604641
0000a0 4f cd ca bd 66 6b 0f be 93 96 92 be 75 28 01 be
       -0.09902441 -0.14005813 -0.28630504 -0.1261309
0000b0 da 3b a8 3e 41 53 7a bd a1 98 6f 3f f2 bd 31 3f
       0.32858163 -0.061114553 0.9359227 0.6943046
0000c0 29 71 af be 77 dd 63 be 03 7f 24 3f 08 79 6a 3e
       -0.34266022 -0.22252451 0.64256305 0.22897732
0000d0 b9 d4 e4 bd 91 eb 6a be 22 33 8a 3f 51 22 25 3f
       -0.11173386 -0.22941424 1.0796854 0.6450549
0000e0 35 bd a9 3e cf 22 32 3e f0 f2 09 3f 0c 48 73 3e
       0.33152166 0.17396091 0.5388632 0.23757952
0000f0 19 83 1d 3e c3 4b 01 ba 42 42 a6 3f 09 c0 6d bf
       0.15382041 -0.0004932249 1.298897 -0.9287115
000100 d0 4c 01 bc 1d 41 b6 3e 19 14 dd 3e e6 68 5c 3f
       -0.007891849 0.35596552 0.43179396 0.8609756
000110 58 c8 d5 3d 56 ca 46 3e eb d5 85 3f c4 56 63 3f
       0.10438603 0.19413123 1.0455908 0.8880427
000120 00 9d 41 be 76 d4 5a be 0d 07 c6 bf b3 d0 48 bb
       -0.18907547 -0.2137011 -1.5470902 -0.0030641973
000130 b0 c8 82 be b7 bc fb be 4d a3 92 be 89 52 25 3f
       -0.25543737 -0.49167415 -0.28640214 0.64579064
000140 96 9e 66 3e e4 da 0a 3f 89 f2 e8 bd 29 f2 25 bf
       0.22521433 0.5424025 -0.11374385 -0.6482263
000150 73 96 89 3e 10 9f 0b ba 8a a2 08 be 6d 09 34 bf
       0.26872596 -0.00053261314 -0.13343254 -0.7032688
000160 66 5f bd be 71 ec b7 be e3 ec 78 bf a3 f6 cf 3e
       -0.36986846 -0.35922578 -0.9723646 0.40617856
000170 5f 73 86 3e 2c e4 1e bf eb a3 8e be 45 a0 ea 3e
       0.26259896 -0.6206691 -0.27859434 0.458254
000180 95 b4 cc 3e e1 66 20 bc dd ff 5a 3f 98 af 35 bf
       0.39981523 -0.009790153 0.85546666 -0.7097106
000190 e4 dc c1 3d 7c 43 f8 3d 4b 0c 86 bf c6 06 08 bf
       0.0946596 0.121222466 -1.0472502 -0.53135335
0001a0 37 3d 1e 3e dc d3 c1 3d fb 41 63 bf d6 03 2b 3e
       0.15453039 0.09464237 -0.88772553 0.16700682
0001b0 1e ee 68 3c 9a dc 92 3e 27 f8 c9 be 87 e0 35 3f
       0.014216928 0.2868393 -0.39447138 0.71045727
0001c0 1e f1 d6 3e e4 b4 6e 3e a2 b1 12 3f 5d ef 47 3e
       0.41980833 0.23311192 0.57302296 0.19524904
0001d0 06 4c 21 be 00 74 fe be 55 6c ac bf 66 93 13 3f
       -0.15751657 -0.49697876 -1.347056 0.5764679
0001e0 72 f7 90 be 31 eb 7c 3e 72 24 a7 3f 43 00 3d 3d
       -0.28313786 0.24699093 1.3057997 0.046142828
0001f0 6b 1c 1a be aa bc 28 be d7 d2 ee be ef 0e b1 3e
       -0.15049903 -0.1647822 -0.46645233 0.34581706
000200 6a ab 8f 3e 00 5e 3d 3d c8 94 b9 be 9e 52 34 bf
       0.28060466 0.046232224 -0.36246324 -0.70438564
000210 65 11 69 be 7c fd e6 bc d3 0c 07 3f 41 7f a8 3d
       -0.22760542 -0.028197043 0.52753943 0.08227397
000220 6d c2 20 3e ab b0 89 3e 04 f2 ab 3f 13 12 f1 3e
       0.15699168 0.268926 1.3433232 0.47084102
000230 75 80 46 be 70 2c c9 be c5 ab e0 3e d3 50 ee bd
       -0.1938494 -0.39291716 0.4388105 -0.1163651
000240 94 3e e7 bb bd dc d6 be 5f 48 57 3d fc 8b a3 be
       -0.0070570204 -0.41965285 0.052559253 -0.31942737
000250 7c 96 57 be d9 74 0e be d4 2c 87 3f a0 3c 12 3f
       -0.21053499 -0.13911761 1.0560555 0.57123756
000260 48 75 2b 3e 5f d8 a2 be 1b c9 d8 3e 8d 17 3d 3e
       0.16743958 -0.31805703 0.4234093 0.18466015
000270 a4 30 c4 bd 4d 48 04 3f 75 9a 86 3f 52 32 8a 3e
       -0.0957959 0.5167282 1.0515887 0.26991516
000280 aa f3 43 39 e2 02 c9 3e 9f c0 85 bf 0d 49 12 bf
       0.00018687421 0.39260012 -1.0449408 -0.57142717
000290 ef 0d 40 be fa e9 27 bc 05 ed 84 be e1 b6 61 3d
       -0.18755315 -0.010248655 -0.25962082 0.055106048
0002a0 a6 13 09 3e 19 b5 c2 be b8 14 aa bd 7f 02 f4 be
       0.13386402 -0.38028792 -0.08304733 -0.47658154
0002b0 1d 70 a0 3e 9d 35 ce be 4a ea 74 3e 95 22 6e 3e
       0.31335536 -0.4027528 0.23917499 0.2325538
0002c0 5e 28 a3 3c 7a 1f 01 3f 8e ce e7 be 39 b6 b3 bd
       0.01991671 0.50438654 -0.45274776 -0.087749906
0002d0 14 c6 6d be 2b 75 d8 3c 83 fd 0b be 1c cb cf 3f
       -0.23220092 0.026423058 -0.13670926 1.6233859
0002e0 6f 7b 03 be 6e a1 fe 3e dc 0c 82 3e 77 12 87 3f
       -0.12840055 0.49732536 0.25400436 1.055251
0002f0 c3 ab f6 3d a1 d3 24 bf 48 f4 7f bf 2a 31 b4 bc
       0.1204448 -0.6438542 -0.9998212 -0.0219961
000300 06 31 a9 3e 52 ed a1 3c 2e b9 72 bf 36 9e 4d 3f
       0.33045214 0.019766483 -0.9481381 0.80319536
000310 b3 32 39 3e 0f 24 85 3e 61 14 5b be d0 13 c7 3d
       0.18085746 0.26004073 -0.21394493 0.09720576
000320 08 24 2b bd dc 88 0b bf 63 d3 eb 3e e1 6f b5 3e
       -0.04178241 -0.54505706 0.46059713 0.3543692
000330 e8 3a 22 be 2d d9 71 be 6f 73 ca be c5 0f 1a 3f
       -0.15842783 -0.23618002 -0.39541194 0.6018031
000340 ee 6a a5 3d 4a 22 21 3e d4 4b 72 bf 14 37 24 bd
       0.08077036 0.15735736 -0.94646955 -0.04009159
000350 50 87 c7 3e d1 ec 5c 3d e0 1c b0 be 7f 41 fc be
       0.38970423 0.053936783 -0.3439703 -0.4926872
000360 2e c5 12 be af 2a 4a be a7 fc 76 be be 98 d6 be
       -0.1433303 -0.19742845 -0.24119817 -0.41913408
000370 2c 21 10 be 57 bc 4a bd 71 1e 80 bf f0 c2 12 be
       -0.14075154 -0.04949602 -1.000929 -0.14332175
000380 22 42 b9 3e 10 5a e3 bd 5b 43 dc 3f 35 d1 28 3f
       0.36183268 -0.111011624 1.7208055 0.65944225
000390 7f 6a 80 3d 01 53 8f 3e 36 62 d5 bd ab 5a b8 3e
       0.062703125 0.27993014 -0.10419123 0.36006674
0003a0 63 86 ee 3d 8d 8e 11 3f ce ee 37 bf f8 86 29 be
       0.11646726 0.5685814 -0.7184876 -0.16555393
0003b0 cc 2a 76 3e 3a ee 9d 3e bc ce 11 3f d0 34 96 be
       0.24039763 0.30845815 0.56956077 -0.29337168
0003c0 b4 b6 3b bd 28 1d 06 bf df 88 a6 bd 9d 39 84 bd
       -0.045828536 -0.5238824 -0.08131575 -0.06456301
0003d0 db c1 ba 3d c1 0d e9 3d f7 eb fe be 7f 2b 80 bf
       0.09119006 0.113795765 -0.49789402 -1.0013274
0003e0 df 20 90 be ac 7f 2e be ab fb 1f bf 3b ff 62 3d
       -0.2815008 -0.1704089 -0.6249339 0.055419188
0003f0 fd 5b 2e be b0 81 e1 bd 90 f6 bc 3f 14 0c 02 bf
       -0.17027278 -0.11011064 1.4762745 -0.5079968

fc1.bias f4 [300]
000000 a9 04 10 3f 92 33 90 bf f2 4a d8 3e 52 05 c4 be
       0.5625711 -1.1265738 0.4224468 -0.3828531
000010 e7 0a 81 be bb db a2 be 46 ca f4 3c 1d 67 49 be
       -0.2520363 -0.31808266 0.029881608 -0.19668241
000020 44 9b 5e be c3 dd 9e bf 9b e1 b9 3f 0c 0c a3 bf
       -0.21738917 -1.2411426 1.4521974 -1.2738051
000030 47 fb 77 bf db 29 da 3e e1 ca 42 bf aa 3e 67 3f
       -0.96867794 0.42610058 -0.7609082 0.9032999
000040 9a a8 ed bf 58 ee cc bc b1 6a ed 3d c0 37 93 bf
       -1.8567078 -0.025015995 0.115926154 -1.1501389
000050 42 02 b3 be 57 d5 cc 3e 0e dc 8e be 23 ba 76 bd
       -0.3496266 0.40006515 -0.27902263 -0.060236108
000060 5c f5 88 be 3e 79 d7 3e 26 24 4e 3f 95 b0 5d bf
       -0.26749694 0.42084688 0.8052391 -0.8659757
000070 02 10 aa bf e0 c1 51 bf 04 c7 24 3f 35 de 12 3f
       -1.3286135 -0.81936455 0.64366174 0.5737031
000080 1c 1b 80 be 6c fd d8 bf 72 c2 18 3f 1d 6f 4d 3f
       -0.25020683 -1.6952338 0.596717 0.8024767
000090 cd a4 3b bf fd 2b 77 3f 48 d4 84 3e 25 a4 69 be
       -0.7329834 0.96551496 0.25943208 -0.22816522
0000a0 77 c1 d4 3e 09 69 4b bf 12 08 37 3f 9f 27 8d bf
       0.41553852 -0.79457146 0.7149669 -1.1027716
0000b0 c3 3c bd 3e 96 1b 83 bf 21 6c 0d 3d 26 5c 57 bd
       0.3696042 -1.0242794 0.034526948 -0.052578114
0000c0 11 a1 03 bf a1 58 a6 bf 35 e5 d0 3e 02 81 86 bf
       -0.5141764 -1.2995797 0.4079987 -1.050812
0000d0 f4 0f 5a bf 51 5e db 3e 88 ad 86 3f 17 40 59 3f
       -0.8518059 0.42845395 1.0521708 0.8486342
0000e0 53 54 b3 3e 92 ad b3 bf 3b 00 1e bf 31 08 82 bf
       0.35025272 -1.4037344 -0.617191 -1.015875
0000f0 e5 08 71 3e 72 ff d0 3e d4 23 1c be a7 9d 41 bf
       0.23538549 0.4081989 -0.15248042 -0.75631183
000100 03 ed 3f bf e1 63 bc be 44 b2 96 be d8 49 3e bf
       -0.74971026 -0.36794952 -0.2943288 -0.74331427
000110 ab 53 2d 3f e9 8e 0b bf ac 04 45 bf b0 53 f6 be
       0.6770579 -0.5451494 -0.76960254 -0.48110723
000120 e6 8c 25 3f 3f f8 ac bf ba be 03 3f a5 f0 82 bf
       0.6466812 -1.3513259 0.514629 -1.0229689
000130 43 04 57 3e 0d b2 91 3f 8f a7 4c bf 07 e0 73 bf
       0.2099772 1.1382462 -0.79943174 -0.95263714
000140 79 a7 af 3f d4 c3 bd bf a7 d9 38 3e ce fc db bd
       1.3722984 -1.4825387 0.18051778 -0.10741578
000150 e3 1b c6 bc e1 3d b4 be 4a 2b b6 bf a3 a0 b6 bc
       -0.02418322 -0.3520346 -1.4231961 -0.022293394
000160 26 55 42 3d d1 73 44 3f 71 01 5e bf 44 cd 62 bf
       0.047444485 0.7673922 -0.8672095 -0.8859446
000170 4c c6 6f 3f f1 13 86 3f 28 29 50 3f 43 be 47 be
       0.9366195 1.0474836 0.813128 -0.19506173
000180 6f b4 b6 be 7a da 42 3f 86 8e 83 be 86 5a 74 bf
       -0.35684535 0.7611462 -0.25694674 -0.9545063
000190 d2 8a 1c 3f 38 3f 45 3f 8a fb ee 3e 71 9d 5d 3f
       0.61149323 0.7704959 0.46676284 0.8656836
0001a0 88 bd aa 3e fc 1e e3 be ef 82 d5 be c4 be 7d bf
       0.33347726 -0.44359577 -0.41701457 -0.9911921
0001b0 93 48 51 3d c1 a5 00 bf 42 14 48 bd 91 a0 3b bf
       0.051094603 -0.5025292 -0.048847444 -0.7329188
0001c0 20 48 94 3f e0 c6 74 bf 50 fc f6 3d 6a 47 ca bf
       1.1584511 -0.9561596 0.120598435 -1.5803044
0001d0 7f 1f 9b 3f c2 72 09 bf f1 2a 82 bf 74 2d 9a bf
       1.2118987 -0.5369073 -1.0169355 -1.2045121
0001e0 cb 1c c8 3e ac 22 a7 3f fa 74 3e 3d b4 3b 29 bf
       0.39084467 1.3057456 0.046498276 -0.66106725
0001f0 05 dd 9f 3d 0a f3 2b bf 80 71 a3 3e a9 4c 28 3e
       0.07805828 -0.67167723 0.3192253 0.16435494
000200 51 dc b1 3f a9 9c 41 3f cf 07 c8 be 36 ee 55 bf
       1.389536 0.7562967 -0.39068457 -0.83566606
000210 01 d6 7e 3f e7 8d 0b 3f 27 1b 78 bf 3a ab 90 bf
       0.99545294 0.545134 -0.9691643 -1.1302254
000220 63 b5 f3 be 92 b6 fa be f8 ab ce 3f 74 0e 1d 3f
       -0.47599325 -0.48967415 1.6146231 0.6135018
000230 d7 5c 83 bf 97 00 b0 bf 9b 2b 89 bf 76 5a 1e 3e
       -1.0262707 -1.375018 -1.0716432 0.15464196
000240 05 1d 39 bf 1d 51 7a 3f 6c 36 2a 3f a7 9d 84 3f
       -0.72309905 0.9778002 0.6648929 1.0360612
000250 d3 a0 2a 3f f1 24 16 3f e2 31 35 bf 2f b5 b9 3e
       0.6665165 0.5865012 -0.7077924 0.36271045
000260 8f 2c 89 3f 5c 2d b2 3e 59 83 fe be 18 8b 38 bf
       1.0716723 0.3480023 -0.49709585 -0.7208724
000270 2c a6 0b bf e3 8e 78 3f 9a 8f 7c 3f 5b 63 67 3e
       -0.54550433 0.9709303 0.9865662 0.22596495
000280 0e c1 8c 3e 95 3f ac 3e db fc 01 3f 57 66 2d bd
       0.2749104 0.3364226 0.5077645 -0.042333927
000290 37 16 2d be 4c 38 98 3e 86 ad 03 3c 9d e2 8a 3f
       -0.16903006 0.2973045 0.008036977 1.0850407
0002a0 91 46 08 bd 6d 83 21 3f 47 00 eb 3f 47 27 9a 3d
       -0.033270422 0.63091165 1.835946 0.07527023
0002b0 e1 19 36 3f 53 f3 d7 be 5f b5 46 bf a3 7e d7 bb
       0.7113324 -0.4217783 -0.776205 -0.0065763756
0002c0 d1 b8 26 3f bc b6 6c 3f 8d 9f 7f 3e fa 38 84 bf
       0.6512576 0.9246633 0.24963208 -1.0329888
0002d0 8f 45 56 bf 36 c7 38 bf d6 d8 51 3f 86 dc 56 3f
       -0.8369989 -0.7217897 0.8197149 0.8393024
0002e0 22 89 64 3f 75 cc 88 3d 99 ef 38 bf 42 0a 6f 3f
       0.8927175 0.06679622 -0.72240597 0.9337503
0002f0 54 a3 79 be ac ef 25 3f 3e cc 58 be 83 8d 9a bf
       -0.24378711 0.64818835 -0.21171662 -1.2074436
000300 82 fe a3 bf 41 48 b7 3f cb 38 2b bf 65 0f 84 bf
       -1.2812045 1.4318925 -0.66883534 -1.0317198
000310 1d 6e 71 bf e6 f8 8a be 36 f4 bb 3c 6c 32 b5 bc
       -0.94308645 -0.2714302 0.022943597 -0.02211877
000320 26 c9 73 3e 74 d9 be 3f 1a ee b8 bf de d9 ad bd
       0.23807201 1.4910111 -1.4447663 -0.084888205
000330 25 a3 87 3f cb c5 ca 3e e9 68 02 bf 0f 0b 92 3f
       1.0596663 0.3960403 -0.5094133 1.1409625
000340 9e 47 2b bf ed b3 82 bf 7a fb bc be f3 c1 ac bf
       -0.66906154 -1.0211159 -0.3691061 -1.3496689
000350 fc 0e 99 bf c2 f4 82 bf d8 57 24 be 7f cc 65 3e
       -1.1957698 -1.0230944 -0.16049135 0.2244129
000360 44 a7 64 3f cd ac 06 bf 93 30 59 3f 45 cd a9 be
       0.8931773 -0.52607423 0.84839743 -0.3316442
000370 0c 37 0e 3f af 8f 23 bf 4d c6 89 3f 44 71 3e bf
       0.55552745 -0.6389112 1.0763642 -0.7439158
000380 57 a6 8c 3e 7f 15 3f bf 49 44 0c bf 07 78 93 3e
       0.27470657 -0.74642175 -0.54791695 0.2880251
000390 26 7c 66 bf d1 d3 5a 3f 81 6c 49 bf 40 cb 57 be
       -0.90033185 0.85479456 -0.7868119 -0.21073627
0003a0 aa 1d bb be c4 5c 6d bf 93 9f 9c bf e3 09 52 3f
       -0.3654607 -0.92719674 -1.2236198 0.82046336
0003b0 46 bb 30 bf f6 ce 83 bf e5 57 f0 bd 0d 79 98 bf
       -0.69035757 -1.0297534 -0.117355146 -1.1911942
0003c0 cd 3d 39 3f 55 88 97 bf 66 32 a6 3e 76 de a6 bf
       0.72359926 -1.183848 0.32460326 -1.303664
0003d0 bd 1f 83 bf a0 0b 1e be 69 1b 81 bf cf 76 a7 bf
       -1.0244061 -0.15434122 -1.008649 -1.3083133
0003e0 11 1a ec 3d a1 f4 63 3f 2f a5 81 bf d0 e2 ec 3e
       0.11528409 0.8904515 -1.0128535 0.46266794
0003f0 8b 01 de bd 5b 3f 22 3e 51 07 86 3f 7c db 1b 3f
       -0.10840138 0.1584448 1.0470983 0.6088178

fc2.weight f4 [200, 300]
000000 75 ac b2 3b 77 7c cb 3b 96 b3 b6 be a4 1a be 3a
       0.0054526874 0.0062099057 -0.35683888 0.0014503789
000010 f3 8e a8 3d b1 8c 9c 3d b7 3d 05 3d 9c 90 88 3d
       0.082303904 0.07644022 0.03252956 0.06668207
000020 5c 0f 58 bd 73 57 5b be 21 77 82 3e 49 71 48 bd
       -0.052749023 -0.21420078 0.25481513 -0.048936162
000030 1c be 6d 3d 93 da 91 3d ff 08 91 bc 46 ee 2f 3e
       0.05804263 0.07121768 -0.017704485 0.17180738
000040 25 f8 2a bf 44 22 7e bb 01 e9 8a bc 15 dc 21 be
       -0.6678489 -0.0038777748 -0.016956808 -0.15806611
000050 cb a3 a1 bb 7a 5e 33 3d 1b 2b 7f 3c e8 f4 9b 3c
       -0.0049328557 0.04379127 0.015574242 0.019037679
000060 61 0d 8f 3d 3e 40 a7 bd b2 43 a2 bd 67 6c 63 bf
       0.06984974 -0.0816655 -0.07923068 -0.88837284
000070 25 7c a5 3c 33 69 82 be c8 bb 86 3e 03 3e a0 be
       0.020200798 -0.25470886 0.2631514 -0.3129731
000080 9a c5 f8 3b 58 60 a6 3d 1d d6 a3 3d 04 a9 cd bd
       0.0075919153 0.08123845 0.07999823 -0.10042003
000090 1b 1b ff bd 9a 4c c4 3d 3b 66 3e bd e3 c0 80 bc
       -0.12456342 0.09584923 -0.046484213 -0.015716976
0000a0 b6 39 7d 3d 75 99 bf 3d c7 9d 34 3b 47 36 b4 bd
       0.061822616 0.093554415 0.0027559863 -0.08799415
0000b0 e7 e6 0e 3d 30 b5 2e bf 52 30 87 be 77 2c f5 bb
       0.034888174 -0.6824522 -0.26404053 -0.0074821073
0000c0 91 ad b9 bd 2b 81 08 bf c5 02 8e bd 56 85 6e be
       -0.09066308 -0.53322095 -0.06934122 -0.23293051
0000d0 05 67 cb bc 9b 42 20 bd d4 b3 95 bd e8 73 13 3d
       -0.024829397 -0.03912602 -0.0730969 0.03599921
0000e0 4a df a4 3d 4a 65 c1 be 81 7b 87 3d 71 b5 51 3d
       0.080504015 -0.3777259 0.066153534 0.051198427
0000f0 e6 80 27 bd 5a 06 9a bc 03 94 3c 3d f9 26 d6 bc
       -0.04089441 -0.018801857 0.046039592 -0.02614163
000100 6a 2d 05 bc 02 d8 32 be 27 35 c1 bd 2d 82 85 be
       -0.008128503 -0.17465213 -0.09433966 -0.2607588
000110 e7 76 8e 3d 75 35 33 be e0 4b 3d be d0 5d 9c bd
       0.069562726 -0.17500861 -0.18485975 -0.07635081
000120 b1 32 59 bd 5e 84 24 bf bd 48 99 3c 63 da d8 be
       -0.05302686 -0.64264476 0.018711442 -0.42354116
000130 38 9b 8b 3d be b7 2f 3e 18 d8 83 3d c5 5d 47 be
       0.06816715 0.17159936 0.06437701 -0.19469364
000140 b1 30 90 bd 37 ae 6f be 35 a7 cd bd ee 13 2d be
       -0.07040537 -0.23406301 -0.10041658 -0.16902134
000150 a3 e6 8d bd 18 c7 8d bc 0c 8a 21 bd 0d cc 35 3d
       -0.06928756 -0.01730685 -0.039438292 0.04438405
000160 19 a7 ea bc ed 4b 10 bd 9c 4b bd be cd 60 78 be
       -0.028644131 -0.03522866 -0.36971748 -0.24255677
000170 5e c6 24 3d 74 ac 45 3e 96 ed 70 3d bd 39 e1 bc
       0.04022824 0.19304067 0.05882033 -0.027493352
000180 1d de 04 be ba d8 85 3d 40 dc 9d bd 62 0c dd bd
       -0.12975354 0.06535478 -0.07708025 -0.107933775
000190 e7 9f 49 bd a9 f1 22 3a 9b 69 07 3d ea c1 c5 bd
       -0.04922476 0.000621582 0.033059698 -0.09656127
0001a0 44 b0 de bd 8e ba c5 be 94 bf 0d be 66 c6 86 be
       -0.10873464 -0.38618892 -0.13842613 -0.2632324
0001b0 9c c5 05 be 5a 0b 0b 3b 78 98 b8 3c b0 ee b1 be
       -0.13063663 0.0021216483 0.02253364 -0.34752417
0001c0 76 c6 3c 3e c2 06 e5 bc bf 08 f5 bd 2d 68 6d bd
       0.18435082 -0.027957324 -0.11964559 -0.057960678
0001d0 9f 19 03 bc 76 c0 a3 3c 0b c3 82 bc 5e d7 52 3d
       -0.008001714 0.019989233 -0.015962144 0.05147492
0001e0 e9 72 7f 3c 5d b9 3b 3d 5e 59 4b bd 97 cf 72 3b
       0.015591362 0.045831073 -0.049645774 0.0037050003
0001f0 fe ef 90 3e 0e 3b 0b be 56 62 0b bd 44 6f 9a bd
       0.283081 -0.13596746 -0.034029327 -0.075407535
000200 ff 89 1c 3e 26 07 de bc c3 15 01 be d5 4a 18 be
       0.15287016 -0.027103018 -0.12605958 -0.14872296
000210 d4 cb 2c bd 42 7c e9 bd 2c cd aa 3e 87 91 07 bb
       -0.042186573 -0.114006534 0.3335966 -0.0020686106
000220 2c d0 be 3b 65 99 fc 3d de 12 5f 3e 27 34 31 3e
       0.005823156 0.12333945 0.21784541 0.17305051
000230 ed 24 2c be 1e fb bf be 86 99 db be 35 6e 85 bd
       -0.16810961 -0.37496275 -0.42890567 -0.06515161
000240 5f 18 b2 3b d0 98 70 3b 63 9a 3a bd d7 f7 3d be
       0.005435034 0.0036712177 -0.04555739 -0.18551575
000250 61 6c 8f bd 66 9a b9 3d 8a 1c 51 bd b9 36 cb 3b
       -0.070030935 0.09062652 -0.051052608 0.006201592
000260 d4 a0 b4 bd 45 da a7 bc 37 93 07 bd 80 1e e9 3c
       -0.08819738 -0.020489821 -0.03309938 0.028456926
000270 f3 34 e0 bc f1 10 f2 3c 25 f6 79 bd ad 0e b1 bc
       -0.027368998 0.029549094 -0.061025757 -0.021613443
000280 9b 6c bc 3e f4 c8 3e 3e 87 93 e5 3b 46 3a 2d bd
       0.3680161 0.18631345 0.007006112 -0.042291902
000290 d5 3f 4d bd 4a 99 8c bd ef 3f a9 bc af fa 8c 3d
       -0.050109703 -0.06865175 -0.020660369 0.068837516
0002a0 50 f5 6c be 63 4b a9 3d 72 66 8a 3d 57 4a ff 3c
       -0.23140454 0.08266332 0.06757821 0.031163378
0002b0 0c ea c3 3d ed c4 08 3d a5 f2 d2 be fe ea 3f bd
       0.09566125 0.033390928 -0.41200748 -0.046854965
0002c0 cf db f1 3d c4 9b f2 3e 69 3c 14 3c 44 f5 72 be
       0.11809503 0.47384465 0.009047606 -0.23726374
0002d0 91 17 de 3b b6 24 4a bf 46 02 53 bd b0 31 84 bd
       0.0067777117 -0.78962266 -0.05151584 -0.0645479
0002e0 60 79 27 be 1a fe d1 bb 4d 0a b5 bd 32 b4 27 bd
       -0.16354895 -0.006408465 -0.08839855 -0.040943332
0002f0 bf bb 3e 3d 3d 12 55 3d 88 12 65 be d2 7e 81 bc
       0.046565767 0.052019347 -0.2237035 -0.015807543
000300 89 d7 7b bd f3 25 0c 3d 1b 6e 97 bd 3e 21 37 bd
       -0.061484847 0.03421588 -0.07394048 -0.044709437
000310 9a 30 d7 bc 99 ab 28 bc 09 f8 b6 3d a2 c5 28 3d
       -0.026268292 -0.010294818 0.08934028 0.041204102
000320 f1 1b a9 bc 0e d8 9f 3e 4c cb 8d be 9b 74 59 bc
       -0.020643206 0.31219524 -0.27694166 -0.01327243
000330 26 a8 fd 3c 23 04 a9 bd a2 05 57 bd 2b 45 13 be
       0.030963968 -0.08252742 -0.052495606 -0.14381854
000340 16 99 b5 bd db a9 09 bf fe d0 66 bc c1 f2 43 3e
       -0.088670895 -0.53774804 -0.014087914 0.19135572
000350 7e ff 94 bd 5c 53 a1 be 19 ca 3f bc 60 60 ca 3b
       -0.07275294 -0.3150891 -0.011705899 0.0061760396
000360 c4 d0 bc bc d9 ed 76 be 56 a1 c5 3d 4b 65 02 3e
       -0.023048766 -0.24114169 0.09649913 0.12733953
000370 98 53 36 bc 12 82 94 bd de a8 3e 3d cc cf aa bd
       -0.011128329 -0.072513714 0.046547763 -0.08340415
000380 e8 ec 09 3e e9 45 a3 bd cc c0 bd 3e db 0e 85 3d
       0.13469279 -0.07972319 0.37061155 0.06496974
000390 36 0d 4b be bf 48 be 3d 4e 3e 2f be 6b 78 39 be
       -0.19829258 0.09291219 -0.17113611 -0.18112342
0003a0 18 2b b8 bc 66 0f 00 be b4 d2 54 bf 5b 36 7b bd
       -0.022481486 -0.12505874 -0.8313401 -0.061331134
0003b0 16 0b 9f be bf db 07 be f1 25 70 3d 5d df 72 be
       -0.31063145 -0.1326742 0.058629934 -0.23718019
0003c0 f0 48 56 bd da b2 13 be 4b ee 79 3d c0 1a 2f be
       -0.052315652 -0.14423695 0.06101827 -0.17100048
0003d0 62 86 0c bf e6 ef 48 3c be ee a5 be 6b 3d cf bd
       -0.5489255 0.0122642275 -0.32408708 -0.101191364
0003e0 5c 45 86 3d 5f 22 ff 3d ef b9 ef be ea df 8f bc
       0.06556198 0.12457728 -0.46821544 -0.017562825
0003f0 ef 5f 1f 3d 4a 08 0a 3d 23 23 8a bd f3 af 0d 3c
       0.03890985 0.03369931 -0.06744983 0.008647907

fc2.bias f4 [200]
000000 b7 75 42 3e 7b 4c 0c bd 6f 46 02 be a1 96 89 3e
       0.18990217 -0.034252625 -0.12722181 0.26872733
000010 5c e3 ec 3c d0 3e 1f 3f 8f 4e d1 bd ff 7d 07 3d
       0.028917007 0.6220522 -0.10220062 0.033079144
000020 a3 2e a9 3e a6 c5 6f 3e 0d 27 43 3f 1d 4a 8f bd
       0.33043393 0.2341524 0.7623146 -0.06996558
000030 39 6f 7c bd b7 ed af bd 5f c0 79 3d bd ab ae 3d
       -0.061629508 -0.085902624 0.060974475 0.0852885
000040 7d 69 47 3c dc 25 17 3d 17 31 37 3b a2 cb 27 bd
       0.012171146 0.03690134 0.0027952844 -0.040965684
000050 00 12 ce 38 93 b6 eb 3b ab 45 e0 3d d1 01 01 bd
       9.826198e-05 0.0071933954 0.10950788 -0.031495873
000060 58 68 7a bd 43 1a cf 3e 32 da 84 3c 7c b2 97 bb
       -0.061134666 0.40449724 0.016217325 -0.0046294313
000070 c2 a0 84 3e 14 f8 6a 3e 91 9a 42 3e 11 9a 57 3e
       0.25903898 0.22946197 0.19004275 0.21054865
000080 cd 9e d1 ba 08 4a 50 3e f8 a2 88 bd ad 29 ed be
       -0.0015992761 0.2034074 -0.06671709 -0.4632086
000090 9f 8f 5c 3c eb 37 20 3e e1 9c ea 3e e0 e5 af 3e
       0.013461976 0.15646331 0.45822814 0.34355068
0000a0 07 4f 82 3e ef fc c0 3e df 63 b7 bc 6f a2 d3 bc
       0.25450918 0.37692973 -0.02238649 -0.02583429
0000b0 f6 e1 aa bc ed e9 30 3e dc 97 a0 be d2 90 45 3e
       -0.0208597 0.17276736 -0.3136586 0.19293526
0000c0 1b a1 32 3d b6 11 8c 3e 54 b1 03 bd f1 c1 eb 3e
       0.043610673 0.27357262 -0.032151535 0.46046403
0000d0 64 aa 89 be 6b dc bb 3d 20 22 ac 3d e1 0f 28 3e
       -0.2688781 0.09172901 0.08404946 0.16412307
0000e0 0a c3 82 3c 64 ab a0 bc cd 16 cf 3e b0 36 80 3e
       0.015962142 -0.019612975 0.40447083 0.25041723
0000f0 78 ad 13 bd c2 d6 56 bd 56 41 f3 3e 9c 11 0e bc
       -0.036054105 -0.052450903 0.47510785 -0.008671191
000100 49 67 67 3d 43 d1 fe 3e 69 42 80 bc 9c 82 02 3d
       0.056494985 0.4976903 -0.015656667 0.03186284
000110 e7 d2 ab 3e d6 fb 48 3d ae 0e e3 3e 50 a2 9b bc
       0.33559343 0.049068294 0.44347137 -0.018998295
000120 8b b8 32 3d f5 0f 9a 3e 2b df 7d bd 60 19 b9 3d
       0.043633025 0.300903 -0.061980408 0.09038043
000130 fd 62 21 bc 50 ad 12 be 54 07 a0 bc dc 88 ff 3d
       -0.009850261 -0.14323926 -0.019534744 0.12477276
000140 c2 48 e0 be 33 2d 7e 3c 2c 93 b1 3e 19 10 11 3f
       -0.4380551 0.015513706 0.34682596 0.5666519
000150 36 b9 1a 3e a5 25 35 bd 2c fa 0d bb 30 2d 1c be
       0.15109715 -0.044225354 -0.0021664007 -0.15251613
000160 59 ea 72 3e d4 0d 1e 3d e0 18 12 3d c2 1b 9a 3e
       0.23722209 0.038587406 0.035668254 0.30099303
000170 00 3a 2f bd 6f 12 08 bd 89 fd 91 3e 82 88 1e bb
       -0.042779922 -0.033220705 0.28513744 -0.0024190252
000180 31 eb 95 3e ea 4d 1e be df 29 08 bd cd fe 67 3e
       0.29281 -0.1545941 -0.033243056 0.22655793
000190 95 30 90 3e 1d b6 19 3d e9 7a 81 3b 20 60 50 3e
       0.28162065 0.037527192 0.0039514196 0.20349169
0001a0 d4 5d 63 bc a1 9e c4 3c ea 1a bc be ee 64 1a 3d
       -0.013877351 0.024001421 -0.36739284 0.03769391
0001b0 91 5d 47 3e e9 24 00 be 62 3a 00 3e d5 e1 0c 3e
       0.19469287 -0.1251408 0.12522271 0.13758023
0001c0 85 5a 34 be 9b 01 1f ba fe cf 1b 3d 6d 69 ab 3e
       -0.17612655 -0.0006065608 0.038040154 0.3347887
0001d0 41 9c 80 3c f8 bf b0 3e 83 5b bb bc 28 52 b8 bc
       0.015699508 0.3452146 -0.022870785 -0.022500113
0001e0 43 81 61 bd 66 bf 6b bd 29 a4 e6 3d b7 40 37 bd
       -0.055054914 -0.05755558 0.1126178 -0.04473945
0001f0 7f 4c 53 bd 02 e5 60 bb 32 44 f3 bc d3 d3 96 3d
       -0.051586624 -0.0034316187 -0.029695604 0.07364621
000200 7e 4c ec 3e fa a9 d3 3c 8a 36 3a bd 75 22 3e 3d
       0.4615211 0.025837887 -0.04546217 0.04641958
000210 44 b3 bc be df ef 37 3d d4 36 7f 3c 2a 79 b1 3d
       -0.3685552 0.044906493 0.015577037 0.08665688
000220 69 60 42 bd 3b f6 7f 3c ef 9b 2d bd 4d ee c7 bd
       -0.047455225 0.015622671 -0.042385038 -0.09762249
000230 8d 68 5c 3e dc 16 91 3e b4 0d 0e bd 80 8c 46 bd
       0.21524258 0.28337753 -0.034681037 -0.048473835
000240 74 ab 3c bc 0c 6c 87 3e 38 97 fa bb 2c 36 b8 bd
       -0.011515487 0.2644962 -0.007647421 -0.089947075
000250 b5 53 9a 3b b0 a2 8a 3c 51 5e c3 be af af b0 3e
       0.0047096857 0.016923279 -0.38157895 0.34509036
000260 53 41 cf bc e5 76 90 3d bb b5 9f 3d c5 46 d2 3e
       -0.025299704 0.07053927 0.07798334 0.41069618
000270 90 33 a5 bd 7c e0 c8 3e 18 81 54 b9 12 e9 54 be
       -0.080664754 0.39233768 -0.00020265987 -0.20792034
000280 fa 95 8b 3e 2b 3c 11 3e 2f ce ed 3d 8c f5 68 3c
       0.2726286 0.14183109 0.11611592 0.014218699
000290 48 6d d2 3e 43 7f 8c 3c 5a c6 31 bd ca 9a e0 bb
       0.41099 0.017150527 -0.043402053 -0.00685439
0002a0 ed 57 8e 3c a7 96 b7 3c f3 b5 0c 3d ac b7 b5 3d
       0.01737591 0.022410704 0.034353208 0.08872923
0002b0 75 f9 04 3d 43 8c d8 bc e7 f8 c0 3e 67 23 70 bb
       0.032464463 -0.02643407 0.37689897 -0.0036642195
0002c0 80 a5 92 bd a1 47 46 3f fd d4 2a 3d a6 63 db 3e
       -0.07160473 0.7745305 0.041707028 0.42849463
0002d0 16 e3 ec 3e f9 7c 72 3e 77 2c ae bc a6 d9 8c 3e
       0.46267003 0.23680486 -0.021261437 0.27509803
0002e0 79 28 88 3e 79 73 f8 3e a3 53 9f 3c 66 05 ea 3d
       0.26593378 0.485256 0.01944906 0.11426811
0002f0 6e ac f7 bd d1 14 4c be ce 71 cb be 84 17 e3 bd
       -0.12093435 -0.19929816 -0.39735264 -0.110884696
000300 4c 66 50 bd 6e 8e 89 3e 0e da 3e 3c 43 e0 1f 3c
       -0.050878808 0.26866478 0.011648668 0.009758058
000310 a6 cb ee 3b 3d 10 18 bd 22 60 c4 be 70 51 af 3b
       0.0072874604 -0.03712486 -0.38354594 0.0053502843

fc3.weight f4 [2, 200]
000000 bf a8 36 3e 7d 2b ee 39 76 42 e8 be 58 66 f0 3e
       0.17837809 0.000454273 -0.45363206 0.46953082
000010 12 bc c3 3c 72 ef 0d 3f 45 fe 38 bc 59 15 01 3d
       0.02389339 0.5544349 -0.011291091 0.0315145
000020 5e 95 99 bf 91 32 1e 3e 7f 83 31 bf 49 6b 81 bd
       -1.1998708 0.15448977 -0.6934127 -0.06319291
000030 14 95 02 be 0f 01 4d 3e e5 ff 0e 3e 6b b4 77 3d
       -0.12752181 0.20019935 0.13964804 0.060474794
000040 73 68 6b 3c 42 04 61 3d 2e df ee bb 10 5b 30 3d
       0.014368164 0.0549357 -0.0072897887 0.043055594
000050 a8 5b 5b bd 35 af f6 bc 33 58 0c be c9 f4 a6 3d
       -0.053554207 -0.030112842 -0.1370552 0.08152158
000060 c2 24 1f 3d 61 fd cb 3e 95 79 7d be 2c 55 a2 be
       0.038853414 0.3984175 -0.24753411 -0.31705606
000070 39 35 f9 bd 56 88 2c 3e 02 05 72 3e ed ae f8 be
       -0.121683545 0.16848883 0.23634723 -0.48570958
000080 9f 62 79 bd 2c fb ad 3e 6f 6a 79 bb 5b 0b d8 bd
       -0.060885068 0.3398069 -0.0038057824 -0.10549041
000090 3b bb 82 bd 6e f0 45 be 92 54 eb be 07 3e e7 be
       -0.06383368 -0.19329998 -0.4596296 -0.4516451
0000a0 45 7f 88 3d a4 9e 68 3e c7 83 24 3d 41 19 81 3d
       0.066649 0.22716767 0.040164735 0.06303645
0000b0 f4 94 8f bd 4b 81 3f 3e d0 68 13 be 92 9e a8 bd
       -0.070108324 0.18701665 -0.14395452 -0.0823337
0000c0 b2 cb c3 3b c4 30 51 3e 10 e4 2e 3d 0d 2e 7c 3e
       0.00597521 0.20428759 0.042697966 0.24626942
0000d0 d6 30 54 bf ee 40 19 be f4 61 f1 be d3 4d d8 3d
       -0.8288702 -0.14966175 -0.47145045 0.10561719
0000e0 6c a1 05 bd 4a 6b 01 3d 7c bc 84 3e 1e 2d 9b bf
       -0.032624647 0.03159646 0.25925052 -1.2123144
0000f0 31 5d 41 3c 77 32 2d bd 83 7d 31 3e cb 94 e1 3c
       0.011802004 -0.042284455 0.17333035 0.02753677
000100 29 60 d9 bd fa 63 28 bf d3 72 83 3c a0 8f 24 be
       -0.10614044 -0.6577755 0.016045963 -0.16070414
000110 90 1c 92 3d 56 9f 86 3a 96 e7 45 3e c6 28 90 bd
       0.07134354 0.0010270874 0.19326624 -0.07039027
000120 e2 7a 73 3d 2f 43 a5 be 2f 17 15 be 7e 34 90 bd
       0.059443362 -0.3227782 -0.14559625 -0.07041262
000130 9e e5 78 3d db 1c f5 bd 52 bd 81 3d 90 cc 92 bd
       0.060765855 -0.11968394 0.06334938 -0.071679235
000140 26 81 f0 bd 82 7f fc bd 62 2c ee 3d c1 7f 88 3e
       -0.11743383 -0.12329008 0.11629559 0.26659968
000150 5a 37 12 3e 2d 05 05 3d a9 34 1d 3d 3b 51 f8 bd
       0.14278927 0.03247564 0.0383803 -0.121248685
000160 20 b5 92 bf 03 d7 8d bd bb 33 b2 ba 80 9d 6d be
       -1.1461525 -0.06925776 -0.0013595739 -0.23204613
000170 d5 84 c7 3b de 6f 35 3d ac d0 07 3e 2d d8 a1 3c
       0.006088833 0.044296138 0.13263196 0.019756401
000180 54 49 f4 3e e5 d2 2b be 59 33 c3 b9 d8 7e f7 3d
       0.47712195 -0.16779669 -0.00037231555 0.120847404
000190 d2 78 02 bf 82 93 15 3c e6 61 70 3d 1c 05 91 3e
       -0.5096561 0.009129407 0.058687113 0.2832421
0001a0 41 a9 4c 3d 70 ce 2f bd 03 e3 0b bd e2 7f 87 bc
       0.0499661 -0.042921484 -0.034152042 -0.016540471
0001b0 dc ee 19 bf 22 9d e0 3d 7d c6 65 be 2f 76 86 be
       -0.60130095 0.10967471 -0.22438999 -0.26262042
0001c0 34 cb e3 bd 78 e3 dd bc 77 96 62 3d 7d 4b 05 bf
       -0.11122742 -0.027086005 0.055319276 -0.5206831
0001d0 aa 4a 8b bb 9c 1d 9c 3d 3a a5 14 bd 06 59 06 bc
       -0.004250844 0.07622835 -0.036290385 -0.008199936
0001e0 01 c2 26 3d d6 f2 37 3e 4e 90 6e bc 82 34 57 3d
       0.04071236 0.17963728 -0.014560772 0.05254031
0001f0 bb bd 7e 3d 48 eb 5d 3c b5 6e 21 bd 3f 3d 42 be
       0.06219266 0.013544865 -0.03941222 -0.18968676
000200 08 34 60 be 77 fe 50 bc 8a 1a 4d 3d 7e c2 06 bd
       -0.21894848 -0.012755982 0.050074138 -0.032900326
000210 4e bb e5 be bd ef 81 bd 43 8a 03 3d ff 2b 04 be
       -0.44869465 -0.063445546 0.03211428 -0.12907408
000220 5a 0f 82 3d d6 00 41 bd f4 e9 3c 3d c9 2c 01 be
       0.06350584 -0.047119938 0.046121553 -0.1261474
000230 ce 3c b7 be 5b 02 c7 bd 7f 73 37 bd 97 e1 55 bd
       -0.35788578 -0.09717246 -0.04478788 -0.052217092
000240 d3 e4 0c 3c ee 66 87 be 89 0d 01 3d 42 49 45 3d
       0.008599478 -0.26445717 0.03150705 0.048165567
000250 c4 da 91 be 24 86 21 3e d4 b1 2a be d4 f1 45 be
       -0.28487217 0.15773827 -0.16669399 -0.19330531
000260 bf db 07 3c 8b fb 83 be fc a4 35 3d 93 bf 8d be
       0.008292138 -0.2577785 0.044346794 -0.27685222
000270 7d ce 04 bb 61 fe 1f bf 29 6a 7b bd 6c 05 c8 be
       -0.0020264678 -0.62497526 -0.06138054 -0.39066637
000280 34 03 15 be f1 e1 9c be 17 f9 fb 3d 3b f1 b2 be
       -0.14552003 -0.3064113 0.123033695 -0.3494967
000290 49 fc 95 be 7c 1b ff 36 a4 eb 85 3d ce e3 f7 bc
       -0.2929404 7.602792e-06 0.065390855 -0.030259993
0002a0 98 bf 54 3d 14 67 f5 38 df fe 79 3d ad 04 92 3e
       0.05194053 0.0001170171 0.06103408 0.28519192
0002b0 50 93 7a bd 16 98 c9 3c 3e 0d 26 be bf db 87 3c
       -0.061175644 0.024608653 -0.16215989 0.016584275
0002c0 07 ee 49 bc 9b 75 e3 3e b6 0c 07 3d 31 48 9d be
       -0.012324817 0.44425663 0.032971106 -0.3071914
0002d0 ac e0 a1 be 0e e5 35 be c6 8b 78 3d c3 ea c6 bc
       -0.31616724 -0.17763159 0.060680173 -0.024281865
0002e0 0f 1f 0b bf d9 6b af be 44 f8 e2 bc aa 1f 52 3e
       -0.54344267 -0.3426197 -0.027706273 0.20519891
0002f0 92 a4 2c be 15 3d b5 bd 45 19 80 be f7 2b 87 bd
       -0.16859654 -0.08849541 -0.2501928 -0.066001825
000300 28 18 89 ba e2 ed cd bd be 39 78 bd b7 b2 c0 3c
       -0.001045947 -0.10055138 -0.060601942 0.023522718
000310 61 40 1d 3d 43 ed 6b 3c eb 97 3c be 18 a8 38 3d
       0.038391475 0.014399829 -0.18417327 0.04508218
000320 41 00 1c 3e a3 5e 96 3c 6f ed 0a be c3 b4 a7 be
       0.15234472 0.018355673 -0.13567136 -0.32755098
000330 7d 3c 64 3b 1d d8 9b be b5 3f af bd 81 3e 00 3d
       0.0034826093 -0.3043832 -0.08557073 0.03130961
000340 50 30 12 3d e0 a6 88 bd bb 77 04 3e 4e bb e5 bc
       0.035690606 -0.06672454 0.12936299 -0.028043415
000350 a8 8a 4e bd 10 e1 92 3c 0a f2 3a be 3e 10 20 be
       -0.0504252 0.017929584 -0.18256393 -0.15631196
000360 2a 5e fd 3c f8 03 1c bd 02 73 57 3d 50 ad 12 3d
       0.03092869 -0.038089722 0.052599914 0.035809815
000370 b8 30 09 3d 74 55 a0 bb df 42 2f be 47 56 1a bd
       0.033493727 -0.0048929993 -0.17115353 -0.037679937
000380 ce 53 2c 3d 0e 0e ef bd 3f d5 4f 3d 42 76 6a 3c
       0.04207211 -0.116726026 0.050740477 0.014310421
000390 e0 0d b1 3d 4d 0d f2 bd 0c c8 34 bd 5b 8c 82 bc
       0.086452246 -0.11818943 -0.044136092 -0.015936067
0003a0 9c 22 04 3d eb e6 0b bd 84 89 ec bd 61 e1 de bc
       0.03225957 -0.034155767 -0.115496665 -0.027207078
0003b0 f5 d2 c7 3b 42 6b f3 bd ab 92 b3 bb 43 8a 03 be
       0.006098146 -0.11885692 -0.0054801307 -0.12845711
0003c0 a1 fc 00 be c3 34 0e be 70 fd 67 3c ef 52 5d 3d
       -0.1259637 -0.13887314 0.014159545 0.05403417
0003d0 2a ae 3f bd ef 4f 72 3d c2 2c 73 bd 5a 9f cd bd
       -0.046796955 0.059158262 -0.059368856 -0.100401595
0003e0 7f 4c d3 3c 43 65 1e be c0 54 de ba e0 71 b4 bd
       0.025793312 -0.15468316 -0.0016962513 -0.088107824
0003f0 6b 76 7e bd 2b 72 16 bd a8 8b 21 be 25 21 64 be
       -0.06212465 -0.036729973 -0.15775931 -0.22278269

fc3.bias f4 [2]
000000 a8 d6 26 3e 14 27 32 bd
       0.16292822 -0.0434943
